neuralnet/Hyperparameter sweeps/hyperparam sweep round 3/bike_volume_model_net_2layers_lr_0.00002000_batch_96_feat_0.pth (torch, 21622 bytes, 13 tensors)

model.0.weight f4 [32, 89]
000000 e1 dd 0b be 40 f5 ec bc 49 4e 83 3d 0a 37 df bc
       -0.13658859 -0.028925538 0.06411416 -0.027247924
000010 40 bc 16 bd e1 c3 19 bd 44 33 de bd 0d 22 aa bd
       -0.036800623 -0.03754032 -0.10849622 -0.08307276
000020 ae 07 de 3d 5a ec ac bd a1 7e 48 bd fb c5 b0 bd
       0.108413085 -0.08443518 -0.048948888 -0.08631512
000030 4f ee 3d bc 2b d3 b1 3d 2c 2c b1 3c bf 45 b4 3c
       -0.011592462 0.08682855 0.021627508 0.022005914
000040 cb 49 9b bd 38 a5 72 b9 4b 95 ba 3d 92 34 cd bd
       -0.07582434 -0.00023140467 0.091105066 -0.100197926
000050 07 0a 21 bc 4d 63 24 3c b5 33 ec ba 81 dc 82 bb
       -0.009829051 0.010033441 -0.0018020781 -0.0039935713
000060 06 cc 86 3d 0f 79 7b 3c 81 05 0d bd d0 60 1b 3e
       0.06581883 0.015348687 -0.034429077 0.1517365
000070 30 9a b0 bc 2c 9f 01 bd cd da 48 3d 07 23 a7 3c
       -0.021557897 -0.03164594 0.04903679 0.020402445
000080 51 e6 11 bd f7 86 2e bc 5c 25 86 bc 70 7d 5c 3d
       -0.035620037 -0.010652295 -0.016375236 0.053830564
000090 f1 41 31 3d 06 70 4a bd 0c 33 b6 3d d7 e1 c5 bd
       0.043275777 -0.04942324 0.08896455 -0.09662216
0000a0 23 e6 36 bd 55 4b 11 bc 2a 89 1e bd 8e c2 94 bd
       -0.04465307 -0.008868058 -0.03870503 -0.07263671
0000b0 32 aa c5 bd 7b 70 4b bd 12 44 95 3d d7 1c bd bc
       -0.09651603 -0.049667817 0.07288374 -0.023085041
0000c0 53 d0 42 bd 3f 4a 9e 3d ad d5 ee bc 4e e6 b8 bc
       -0.047561955 0.07729005 -0.029154623 -0.022570755
0000d0 31 eb 03 bc 83 af a5 3c 85 78 91 bc e4 53 a0 3d
       -0.0080516795 0.020225292 -0.017757664 0.07828501
0000e0 78 80 94 3d 55 2b aa 3c 4d 95 a5 bd bf eb bf bc
       0.07251066 0.020772615 -0.080851175 -0.023427842
0000f0 f3 bb af bc 20 1d 10 3c 0b de 67 bb fa 99 d6 bd
       -0.021451926 0.008796006 -0.003538015 -0.104785874
000100 ed 31 00 3e 94 f1 34 3d 6d d9 ba 3d cc e5 43 3d
       0.12519045 0.0441757 0.09123502 0.047826573
000110 f8 31 60 bd 6c 99 82 bb 7b 85 7e 3c f1 0f 5e bd
       -0.054735154 -0.0039855745 0.015534754 -0.05421442
000120 d3 34 c5 3c bf 83 10 3e 7a 4e 01 bd f6 fe 03 3d
       0.02407304 0.14112757 -0.03156898 0.03222557
000130 15 c7 74 3d 3c 8a bd 3d 68 c1 9e bd 43 ec cd bd
       0.059760172 0.09254882 -0.07751733 -0.10054829
000140 9e 9a 5c 3d 77 7e 80 bd e6 5f b8 3d f2 65 32 bd
       0.053858392 -0.06274121 0.09002666 -0.043554254
000150 86 56 27 bd 91 b9 c9 3d 10 a7 42 3d e9 35 89 bd
       -0.040854 0.09849847 0.047522604 -0.06699736
000160 85 f3 96 3c 04 2a 4b 3d 1d c8 14 3c aa 61 56 3d
       0.018426666 0.049600616 0.009080914 0.052339233
000170 2e d1 7a bc 6f 1a 25 bd 90 25 bb 3d 9a 27 b9 bc
       -0.015308661 -0.040308412 0.09138024 -0.022601891
000180 77 dd 7a bb f5 4b 2b 3a 8d 17 fb 3c b3 51 2a 3d
       -0.0038278976 0.0006534451 0.030650878 0.04158182
000190 ae bd 45 3d 16 8e 84 3c 1b f9 ba 3c 6a f6 66 bd
       0.048276596 0.016181033 0.02282386 -0.056387343
0001a0 d0 50 72 bc 80 0b 87 bd de 31 86 3d 91 10 de 3c
       -0.014789775 -0.0659399 0.0655248 0.027107509
0001b0 90 33 a0 bd d4 bf fe 3c a4 bf e8 3c a3 e7 d8 3d
       -0.07822335 0.03109733 0.028411694 0.10591056
0001c0 ba ab 5a 3d 83 1b 44 3c 52 a8 93 bd f1 2e 8e bc
       0.053386427 0.01196945 -0.07209839 -0.017356368
0001d0 ff 83 1d 3a 69 91 7e 3c 7e 24 71 3d 22 80 9e bd
       0.00060087437 0.015537598 0.058872692 -0.07739283
0001e0 25 fc 07 bd 63 18 a5 3d ae c7 4d 3d be e3 2a 3d
       -0.03319945 0.08061292 0.050239258 0.041721098
0001f0 d8 e1 08 3d 3c 20 f2 bc 0c fb ad bd fb dc 33 bb
       0.033418506 -0.029556386 -0.08495149 -0.0027444947
000200 db fe a4 3d 6a ec 4a 3d c6 12 54 bd 93 d7 91 3d
       0.08056422 0.04954187 -0.051775716 0.07121196
000210 1e 96 83 3c 94 6c c8 3c 0c 83 cc bc e5 35 c4 3d
       0.016062792 0.024465837 -0.024964832 0.09580592
000220 f0 e3 8d bb 95 59 62 3d c1 ab cb bd 76 5b e4 bc
       -0.004330151 0.055261213 -0.09944869 -0.027875643
000230 18 b6 80 bd 9f 0d 0e 3d 96 eb 45 bd 09 b6 76 3d
       -0.062847316 0.03468096 -0.048320375 0.060232196
000240 dd 71 32 3d 4a 92 91 bd 0e a3 4c 3c f1 fb 0c 3c
       0.04356562 -0.071079805 0.012490047 0.008604989
000250 d0 07 0f be b7 70 66 3d 59 6e af bd aa 26 25 bd
       -0.13967824 0.056259837 -0.08565969 -0.040320076
000260 b2 f5 83 3d 85 8e ac bd 92 51 b9 bd c7 f4 86 3c
       0.06443347 -0.08425621 -0.090487614 0.01647414
000270 e5 89 5f bd 14 67 17 3e 9c 66 83 bd eb 3a 60 bc
       -0.054574866 0.14785415 -0.064160556 -0.013685922
000280 cd 15 a2 3d 77 35 c5 bc 11 51 1e bd 7d cf dd 3c
       0.079143144 -0.024073346 -0.03865153 0.027076477
000290 17 51 9e bc 3c 9f 90 bc 2d 65 de bd 27 df 96 3d
       -0.019325776 -0.017654054 -0.108591415 0.07366782
0002a0 64 63 cf bc 3d 16 b3 3a 7d 0c 86 bd 38 af c0 bd
       -0.025315948 0.0013663244 -0.06545351 -0.0940842
0002b0 31 a6 5b bd e2 71 3e bd 8a fb 7a bd f1 ef 09 3e
       -0.05362529 -0.046495326 -0.061275043 0.13470437
0002c0 ea 1f 4c be d8 2e f5 bd 9e ee 6d 39 3c 0c 25 bd
       -0.19934049 -0.11971825 0.00022690973 -0.04029487
0002d0 16 df 9e 3d 32 ab d2 3d e6 b3 03 bd c9 88 c9 3d
       0.07757394 0.10286559 -0.032153986 0.09840543
0002e0 c7 b5 27 bd 1a 79 d7 3c d1 c7 3e bc d1 bf 1a bd
       -0.04094484 0.026302863 -0.01164432 -0.037780587
0002f0 d7 d5 d5 bc 3c 34 cb bd 80 cf 3d bc 11 e1 c1 3d
       -0.026102943 -0.09922072 -0.011585116 0.09466756
000300 0c 09 7e bd 81 48 fd bc 69 ea 66 3d f6 a1 45 3d
       -0.062020347 -0.030918362 0.056375895 0.04825016
000310 59 a0 57 3d ca e5 9a bd e4 ea 8f 3c d0 84 ee 3c
       0.052643154 -0.0756336 0.01756806 0.029116064
000320 3e b6 ac 3d d8 b9 3d 3d a1 d5 d8 bc ff 38 90 3c
       0.084331974 0.046319813 -0.026469054 0.017605303
000330 8f d7 f1 bc be 8a c0 3c b9 21 74 3c 86 a7 84 bd
       -0.029521732 0.023503657 0.014900618 -0.06477265
000340 75 ec ed 3c d5 12 46 bc e7 84 56 3d db 15 a1 bd
       0.029043416 -0.012089451 0.05237284 -0.07865497
000350 80 92 93 3d 77 25 89 bc ef 4c 56 3d f9 5a c1 bd
       0.07205677 -0.016741497 0.052319463 -0.0944118
000360 6e 59 1b 3d c6 ac 2f 3d 3a f1 cb 3d c6 e9 9b 3b
       0.037927084 0.04288938 0.0995812 0.0047580926
000370 21 09 92 3d 07 1a 47 3d d2 21 ec bd 4b e6 19 3c
       0.071306475 0.048608806 -0.11529888 0.009393285
000380 bd 05 a3 3d 38 a1 fc 3d 45 f9 82 ba 24 16 c5 3c
       0.07960079 0.123354375 -0.0009992501 0.024058409
000390 b9 1b 46 3d d1 79 9d bd fb b2 d6 3d 61 44 17 3d
       0.048366282 -0.0768925 0.104833566 0.036930446
0003a0 8f 8b 49 3d 1e 42 d4 3b 6f 8f 32 3d 84 c8 05 bd
       0.04920536 0.0064776083 0.04359382 -0.03266193
0003b0 ff 93 15 bd 3b 58 18 bd d0 dd 2f 3b 57 f2 9f bd
       -0.036518093 -0.037193518 0.0026835091 -0.078098945
0003c0 fb 1c 98 3d 44 bc 98 bd b6 f9 16 3d 4c f4 8d bd
       0.074274026 -0.07457784 0.036859237 -0.069313616
0003d0 c8 ba e7 3c 19 da da bc e4 0c 10 3d ab fb 46 bd
       0.028287306 -0.026715325 0.035168543 -0.048579853
0003e0 27 d6 3c bd 4a 6b b9 3d eb 06 84 bd ef 5a 3d bd
       -0.04610267 0.09053667 -0.06446632 -0.0462293
0003f0 ae 3e 43 bd ad a4 fc bc 11 5a c8 bb 02 a4 f2 bd
       -0.047667198 -0.030840242 -0.0061142524 -0.11847688

model.0.bias f4 [32]
000000 2e 5b a5 b7 3c db 3b 37 d0 4d 5c 38 7f ca 27 b7
       -1.9711992e-05 1.1197113e-05 5.2524556e-05 -1.0001123e-05
000010 9f e2 28 b8 0a f9 43 36 80 cd 6f b7 a0 8f e5 b6
       -4.026538e-05 2.9202224e-06 -1.4293357e-05 -6.841452e-06
000020 12 d6 a0 37 f4 86 d1 b6 12 37 86 36 b6 7a 55 b7
       1.917317e-05 -6.244396e-06 3.9999222e-06 -1.272436e-05
000030 a0 29 e5 b4 52 45 bd b7 ba cb d3 36 dc 42 55 37
       -4.268486e-07 -2.2562836e-05 6.312007e-06 1.2711356e-05
000040 48 8a 5c b7 25 e3 04 b8 7c f5 9b b7 12 ec 6b b7
       -1.3145218e-05 -3.1682797e-05 -1.8591752e-05 -1.4062056e-05
000050 5e d3 0d b5 86 8f 20 37 12 25 74 37 ca cd 0d 35
       -5.2834173e-07 9.57016e-06 1.4552164e-05 5.2826056e-07
000060 ab 09 9e 37 ec b4 18 37 0d 22 a0 36 4c 79 95 37
       1.883957e-05 9.10203e-06 4.7723356e-06 1.7818667e-05
000070 fe 46 ad 36 64 22 44 b7 ad 44 78 b7 6f 09 05 37
       5.1640664e-06 -1.1690518e-05 -1.4797942e-05 7.929614e-06

model.1.weight f4 [32]
000000 37 e5 8a 3f b5 48 7d 3f 05 4a 85 3f bc 7f 63 3f
       1.0851201 0.9893907 1.0413214 0.8886678
000010 b1 04 71 3f eb b7 87 3f ad dd 73 3f 65 78 5e 3f
       0.94147784 1.0603002 0.95260125 0.8690246
000020 9d 71 85 3f 6e 58 81 3f 90 fe 59 3f 1e b9 70 3f
       1.0425297 1.0105112 0.85154057 0.94032466
000030 9d 85 5c 3f 97 b2 7b 3f 4f 14 59 3f 50 d5 6d 3f
       0.8614138 0.9831938 0.84796613 0.92903614
000040 f7 f9 7a 3f af 5c 69 3f 39 40 82 3f b5 be 64 3f
       0.98037666 0.9115705 1.0175849 0.89353496
000050 d8 11 7b 3f 7d 8c 81 3f 5b 95 68 3f d3 d8 70 3f
       0.980741 1.0120999 0.908529 0.9408085
000060 49 6b 78 3f 08 a4 86 3f 9e ef 60 3f 23 c6 70 3f
       0.97038704 1.0518808 0.87865627 0.9405233
000070 8f fc a4 3f 4c b9 82 3f c2 d0 89 3f e8 67 66 3f
       1.2889575 1.0212798 1.0766833 0.900023

model.1.bias f4 [32]
000000 6d 0b e9 bd 60 09 99 be cf 8e 96 be 54 ad dd bd
       -0.113791324 -0.29889965 -0.2940583 -0.10824075
000010 8f e2 70 be d8 71 14 bd 38 50 82 bc 64 db 01 be
       -0.23523925 -0.036241382 -0.015907392 -0.12681347
000020 0c ec d2 bc 26 73 95 bd 93 b0 5a bd 5d a1 83 bd
       -0.025747322 -0.072973534 -0.05339105 -0.06427262
000030 29 be b9 bd 89 45 b3 bd b5 67 ce bd 62 ff b9 bd
       -0.09069473 -0.08753497 -0.10078374 -0.090819135
000040 b1 65 9a be 0f 6e be bd 3b f1 7a bd 9d c4 5d bd
       -0.3015571 -0.09298336 -0.06126521 -0.054142583
000050 9d df 66 bd 7c 00 63 3c 47 3c 00 be 1c 84 9f bd
       -0.056365598 0.013855096 -0.12522994 -0.0778887
000060 20 6a 40 be 68 78 69 be ad 76 9a bd 73 dd 9b bd
       -0.18790483 -0.22799838 -0.07542167 -0.076105975
000070 3d 43 72 3c 34 cc 24 be bd 93 d5 bd 5b 7a 5b bd
       0.014786539 -0.16093522 -0.104285695 -0.053583484

model.1.running_mean f4 [32]
000000 cc a6 07 bf 0e 34 93 be ae 44 9a be af f7 fe 3e
       -0.52988887 -0.28750652 -0.30130523 0.49798343
000010 3b 70 a7 be c0 6b e0 be 78 91 59 bd a7 45 8d be
       -0.32702813 -0.43832207 -0.053117245 -0.27592203
000020 3b f0 fe bd b4 77 a9 be 0d 7d 8a 3e 32 30 ab be
       -0.12448164 -0.3309914 0.2704853 -0.33435208
000030 1b 1e 6a be 8c cb f4 be 2d aa 85 3c 7a 36 4a be
       -0.22863047 -0.47811544 0.016316498 -0.19747344
000040 dd 85 4e be 13 d8 3d 3e 5d 29 fb be 1e 26 39 bc
       -0.20168252 0.18539457 -0.49054995 -0.011300592
000050 78 e1 92 be ab 03 cb 3c dd e2 cd 3d d2 9e 07 3e
       -0.28687644 0.024782022 0.10053036 0.13244179
000060 40 cb 48 be 62 cb e6 be bd 71 5a 3e 42 d7 e5 3d
       -0.19608784 -0.45077044 0.2133245 0.11222698
000070 d1 eb fe be 2a 0b 97 be 45 8c 21 bf c1 ae 48 3e
       -0.4978929 -0.29500705 -0.6310466 0.19597913

model.1.running_var f4 [32]
000000 84 81 1c 3f 4b 1f 42 3e f0 99 82 3e 0b 4a d1 3e
       0.61135125 0.1895725 0.2550807 0.40876803
000010 5f 9f 0b 3e 2f 6b a5 3e d2 51 2c 3e df 99 15 3f
       0.13635014 0.32308337 0.16828087 0.58437914
000020 50 e5 1d 3e 31 5d 80 3e ce 95 0c 3f d8 f0 33 3f
       0.15419507 0.250711 0.54916084 0.70289373
000030 71 ed 45 3e 19 b9 85 3e 72 c2 65 3d 26 49 0c 3e
       0.19328858 0.2611778 0.05609364 0.13699779
000040 79 be 5e 3e 4f d4 f0 3e 81 ef ab 3e 73 88 3c 3e
       0.21752347 0.4703698 0.33581164 0.18411426
000050 0f 35 a0 3e 3c 7d bf 3d e8 75 ac 3d 2b 8c 86 3d
       0.3129048 0.093500584 0.08420926 0.06569704
000060 ba f0 b8 3d 9b 01 d7 3e 0f 44 83 3e 00 10 af 3e
       0.0903029 0.41993412 0.25637862 0.34191895
000070 19 24 a5 3e 53 7c 84 3e 9d f3 b6 3e 95 9c e7 3e
       0.32254103 0.25876102 0.35732737 0.4523665

model.4.weight f4 [16, 32]
000000 17 00 15 3e 16 9b 8a bd cd 37 07 be d1 7d 17 3e
       0.14550816 -0.067678615 -0.1320488 0.14794089
000010 2c b5 b9 bd 1a d3 b5 3b a4 d8 3e bd ca de 2c bd
       -0.09067759 0.005548847 -0.046593323 -0.042204656
000020 f7 86 a7 be 6c 5c 1c be 58 b4 d7 bd a2 bb ef 3a
       -0.32720158 -0.15269631 -0.10532445 0.0018290172
000030 b5 79 cb 3c 02 82 44 3c 40 97 73 3d 98 2b 26 bc
       0.024838308 0.011993887 0.059470415 -0.0101422295
000040 6b 91 44 bd 56 d6 53 3c 73 03 8b 3d 94 56 50 bd
       -0.047990244 0.01292952 0.06787767 -0.050863817
000050 c1 31 e4 3c 6e 75 d7 3c 88 e4 29 bb bc 7f 1c be
       0.027855756 0.026301112 -0.0025923569 -0.15283102
000060 8f 4c 15 bd e7 d3 7e be 63 be 70 3c ec 41 71 ba
       -0.036449965 -0.24885522 0.014693829 -0.00092032435
000070 93 5c 11 3d a5 6c 1f be 8b 88 3c be 27 a7 09 3d
       0.035488676 -0.15568788 -0.18411462 0.033606675
000080 2f 9c 07 3e 2d 8d 91 bd 80 08 32 be 42 db af bd
       0.13243173 -0.07107005 -0.17386055 -0.08586742
000090 6b 3b 78 3c e3 26 5e 3d ec f1 04 3e 3a 3b 51 3d
       0.015150885 0.054236304 0.12982911 0.051081873
0000a0 bb 11 44 bd 0f 79 09 3e 7a 1d 12 bd 24 e4 9b bd
       -0.04786847 0.13425086 -0.035672642 -0.07611874
0000b0 ff 82 c6 3c 71 33 36 be 40 8d d0 3c 83 8e 13 3d
       0.024232386 -0.17793061 0.025457978 0.03602458
0000c0 bf 47 00 bd 79 b7 85 3d 5e 8d a7 3c 13 7d 12 3d
       -0.031318422 0.06529135 0.020453151 0.03576381
0000d0 39 21 be bd 40 0b a0 3d 83 ae bf 3c f0 67 54 3d
       -0.092836805 0.07814646 0.023398643 0.051856935
0000e0 39 0d 7e bd 90 62 4b be d6 17 00 bd eb c0 1d be
       -0.06202433 -0.19861817 -0.03127273 -0.15405624
0000f0 de a3 c5 be ce 7e c1 bd 8c bd a8 3d b5 0d 04 3d
       -0.38601583 -0.09448014 0.08239278 0.032239635
000100 4b 88 0f 3e 4f e3 ba bd a8 1a db bd 37 f2 19 3d
       0.14016835 -0.09125387 -0.10698444 0.03758451
000110 45 3e dd b9 00 ff 15 bd 0e 6d 4c be eb 3e d6 bd
       -0.000421988 -0.03662014 -0.19963476 -0.104612194
000120 a3 95 b8 3d 05 41 43 be b7 8c da bc 67 fe 19 bc
       0.09012916 -0.19067772 -0.026678426 -0.009399033
000130 e0 f8 05 bd 5b f3 7d bd 03 d7 c1 3d f0 aa b4 3c
       -0.03270805 -0.06199966 0.09464838 0.022054166
000140 ed f0 25 be 1a 91 86 be 79 ce 86 3c b8 1b d4 bc
       -0.16205187 -0.2628258 0.016455876 -0.025892124
000150 6f 5c ca 3c 3f d9 9d be 5c 80 aa 3d df d4 f4 bc
       0.024702279 -0.30829808 0.08325264 -0.029886661
000160 4c 56 59 3c e7 9e 17 be 13 ef db 3c 5b 7f 94 3d
       0.013265204 -0.1480671 0.026847398 0.07250854
000170 28 96 39 bb 69 4a 99 3d 29 8d 5a 3c e1 e3 d0 bc
       -0.002831826 0.07484896 0.013339319 -0.025499286
000180 f6 1b e7 3d ce 85 22 be 4a 9f ae 3d 7a 81 52 bb
       0.1128463 -0.15871355 0.08526476 -0.003212063
000190 fb 50 05 be e3 3b ee bd 27 dc 00 3d e4 d3 bc bc
       -0.13019173 -0.11632516 0.031459954 -0.023050256
0001a0 ac 8f 20 3d ab 70 49 3d cf 07 1b 3d e5 12 4f bb
       0.039199516 0.049179714 0.037849244 -0.0031596955
0001b0 9b b7 e5 bd 04 13 cc 3c ea 88 02 3d 78 5e 17 bd
       -0.112166606 0.024911411 0.031868853 -0.036955327
0001c0 68 97 bc bd 52 4f c0 bc cd ac 29 be a7 cf 82 be
       -0.09208566 -0.023475323 -0.16569825 -0.2554905
0001d0 fa c7 12 3d c7 c9 1d 3c 12 f5 f3 3d 31 63 83 bd
       0.035835244 0.009630627 0.11911978 -0.06415404
0001e0 50 12 0e 3d 91 8f 1c bc 75 10 44 3d 56 13 00 bd
       0.034685433 -0.009555713 0.047867257 -0.03126844
0001f0 ae 5a f0 be a2 16 75 3c 9b 88 c7 3d 04 7c c7 3d
       -0.46944183 0.014959009 0.09742852 0.09740451
000200 d7 f5 c6 3d 7b ba 29 bd fa 41 6a bd 0e 93 02 be
       0.09714859 -0.041437607 -0.057191826 -0.1275141
000210 bf d7 91 bd d6 bd 97 be 90 00 4e 3d 4b 5f 32 be
       -0.071212284 -0.2963702 0.050293505 -0.17419164
000220 27 b7 d5 3d 5a fd 9d bb f4 20 c0 3c 21 d9 23 3c
       0.10435324 -0.0048214616 0.023453213 0.010000498
000230 ec 5e 7f bd 94 c3 99 3c 34 cf 1b bd 26 3c d0 bd
       -0.062346384 0.018770017 -0.0380394 -0.101677224
000240 33 89 10 bc fa c9 bf 3d 8e 57 08 3c 53 d3 0c be
       -0.008821773 0.09364696 0.008321656 -0.13752489
000250 6e 4d b8 3d 5c 74 98 be fa ef 0f be 7b 36 fe 3c
       0.089991435 -0.29776275 -0.14056388 0.031031838
000260 06 e5 6f bd 5c 2c 66 3d 01 0f 63 3d f3 b8 94 bc
       -0.058568023 0.05619465 0.05543423 -0.018154597
000270 22 2a b5 3b 6e ca 2f bc d5 e1 1d be 3d 73 3b 3d
       0.0055287043 -0.010729415 -0.1541818 0.045764197
000280 d6 a1 b9 3d 8b b0 ba bd de 80 84 bc 54 f9 d6 3d
       0.09064071 -0.09115704 -0.01617473 0.10496774
000290 66 96 49 bd e5 c4 e9 3d 9f f7 21 3d e5 71 14 3e
       -0.049215697 0.11414508 0.03954279 0.14496572
0002a0 39 11 1c bc a8 ac 0f 3d 1c 7a 16 3e f5 08 1a be
       -0.009525591 0.035076767 0.14695019 -0.1504248
0002b0 8a 02 34 3d fe 8a 40 be 36 d5 43 bd ad 5b ee 3d
       0.043947734 -0.18803021 -0.047810756 0.116385795
0002c0 e2 09 2e 3d 45 d0 aa bd 55 fc 18 be a2 5a de 3d
       0.042489894 -0.083405055 -0.14940007 0.108571306
0002d0 60 c6 16 bd 7a e9 68 bd e8 64 ce bd b3 b6 79 ba
       -0.03681028 -0.056863286 -0.1007784 -0.00095258205
0002e0 61 15 0f be d8 19 82 3d 63 42 8c 3d 68 3a c3 3d
       -0.13972999 0.063525856 0.068486 0.095326245
0002f0 04 c1 42 be e5 ee db 3d 8b f8 f9 3d 84 76 33 3d
       -0.19018942 0.10738925 0.12205609 0.043814197
000300 cd 9c 20 be fc bb 85 bd 3b 9a 74 bd 96 74 91 bd
       -0.15684815 -0.06529996 -0.059717398 -0.07102315
000310 af 82 25 be 32 0d 3c 3e bd 21 46 3d 7d 54 22 be
       -0.16163133 0.18364409 0.04837202 -0.15852542
000320 c8 a0 1a 3d dc 39 e2 3d a2 3d 54 bd 4f 86 21 3d
       0.03775099 0.11046192 -0.05181659 0.039434727
000330 d6 4f 89 3d 96 51 d9 bc ec a3 a8 3b a9 5a b6 bd
       0.067046806 -0.026528161 0.005146494 -0.08904011
000340 d5 15 c7 bc e3 46 67 be 38 26 9d be 82 ba 86 3d
       -0.024302403 -0.22585635 -0.3069322 0.06578542
000350 4b 1f 02 bd 63 0f 1e 3d 9d ee 4d 3d e3 c1 b6 3d
       -0.031768125 0.038588893 0.050276387 0.089237
000360 37 e0 ef 3c 04 99 b8 bd 25 28 2b bd d1 7a a2 3d
       0.029281719 -0.090135604 -0.04178633 0.079335816
000370 56 8d d8 3c df 41 c5 3d 36 55 06 be ad 1e 25 be
       0.026434582 0.096317045 -0.13118443 -0.16124983
000380 d1 31 a6 3d 13 48 5d 3d b6 4d 9f 3d fa 68 1e 3e
       0.081149705 0.054023813 0.07778494 0.15469733
000390 0d 3d c2 bd 68 27 84 3d 02 7d 7f 3d 96 ad 08 3e
       -0.09484301 0.06452829 0.062375076 0.13347468
0003a0 09 86 a7 bc e1 77 5a 3d 8c 60 83 3d 91 eb aa be
       -0.020449655 0.05333698 0.06414899 -0.33382848
0003b0 60 d9 20 be 8e f5 71 3c f0 b6 bd bc ad c5 6f be
       -0.15707922 0.014768017 -0.02315852 -0.23415251
0003c0 6a 4c 93 3d 58 3f 40 3d 98 6a 6b 3d 8c 4d 19 3e
       0.07192309 0.04693541 0.057474703 0.14970988
0003d0 43 82 65 bc ba 28 d8 3c 64 83 b4 3d 65 ce 61 be
       -0.014008108 0.026386607 0.08814123 -0.2205139
0003e0 35 4d 64 be ac c3 e1 3c e7 f4 ed 3d bc ff bb 3d
       -0.22295077 0.027559124 0.11618977 0.09179637
0003f0 3a 29 e0 bd 38 5a 40 bd 8e e7 0c 3e 7b be 7b bd
       -0.10945363 -0.04696104 0.13760206 -0.061460953

model.4.bias f4 [16]
000000 ad 7d 69 b7 7c 37 24 b7 04 5c 61 b8 da 4e 75 36
       -1.3917143e-05 -9.78808e-06 -5.3729877e-05 3.6553743e-06
000010 f8 02 e3 37 7c 46 0a b8 30 50 5a 37 a5 f1 bd b6
       2.7061891e-05 -3.2967408e-05 1.3012483e-05 -5.66077e-06
000020 bc 13 06 38 9a e8 8f b7 d1 12 f0 37 e9 d2 88 b7
       3.196647e-05 -1.7155242e-05 2.8618992e-05 -1.6310676e-05
000030 3f 8f 85 38 00 d9 32 33 67 80 8c b7 e4 81 f9 b7
       6.368616e-05 4.1641215e-08 -1.6749093e-05 -2.9743598e-05

model.5.weight f4 [16]
000000 c0 29 a8 3f ff ec a4 3f 9d 33 a3 3f 8c 1d a9 3f
       1.3137741 1.2884825 1.2750126 1.3212142
000010 ad 8a a3 3f 84 bf 9a 3f 0b 66 b0 3f 1a c4 9c 3f
       1.2776695 1.2089696 1.3781141 1.2247345
000020 54 d2 b2 3f fa 5b aa 3f ff 61 af 3f b9 f9 ab 3f
       1.3970437 1.3309319 1.3701781 1.3435584
000030 54 86 a8 3f e7 60 a8 3f 4b 19 a8 3f 33 a2 ad 3f
       1.3165994 1.3154572 1.3132719 1.3565124

model.5.bias f4 [16]
000000 2a 77 1b 3f 5b a7 1d 3f 2e 09 17 3f 1d 78 1e 3f
       0.60728705 0.6158349 0.5899838 0.6190203
000010 11 c0 07 3f 71 f2 f5 3e de 78 34 3f dd d2 ff 3e
       0.53027445 0.4803653 0.7049693 0.49965563
000020 48 20 34 3f 2c 0a 1a 3f d5 59 28 3f be 91 3c 3f
       0.7036176 0.6017177 0.6576207 0.73659885
000030 2e 75 10 3f 71 19 26 3f 16 c0 10 3f a4 8e 24 3f
       0.564288 0.6488257 0.565431 0.6428015

model.5.running_mean f4 [16]
000000 95 16 08 bf 0b 95 49 be 14 a6 ce be 7e 2e a6 be
       -0.5315946 -0.19685762 -0.40361083 -0.32457346
000010 95 b7 c8 be 4b 69 5a 3d 3e 61 f4 bd 16 1a 43 bd
       -0.39202562 0.05332307 -0.1193261 -0.0476323
000020 37 f7 d2 be 1c 68 7d be 2e d9 17 be 7a 86 20 3c
       -0.41204235 -0.24746746 -0.14828941 0.009797687
000030 58 84 1b 3d ba 75 b8 be 91 04 37 be 84 c1 ad be
       0.03796801 -0.36027318 -0.17872836 -0.33936703

model.5.running_var f4 [16]
000000 3e 7a ce 3e 5e 02 b3 3e 4c b4 ed 3e fc e0 d5 3e
       0.40327638 0.34962744 0.46426618 0.41773212
000010 5a b4 81 3e f5 25 54 3e b1 07 ac 3e ff 10 da 3e
       0.2533291 0.20717604 0.33599618 0.42591092
000020 29 d8 d8 3e e6 1d ac 3e 87 6d 13 3e fd 52 88 3e
       0.42352417 0.3361656 0.1439725 0.26625815
000030 19 5e 42 3e 9e ed 47 3e ef 01 a2 3e a5 d2 87 3e
       0.18981208 0.19524238 0.316421 0.26527897

model.8.weight f4 [1, 16]
000000 ba 6f 18 3f 60 fd 0e 3f ff b1 f2 3e 3c 26 13 3f
       0.5954548 0.5585537 0.47401425 0.57480216
000010 0e fa f5 3e 6a 06 d8 3e fd 93 f6 3e 49 68 e3 3e
       0.4804234 0.42192394 0.4815978 0.444155
000020 e0 55 00 3f dd 29 18 3f 16 22 f8 3e 4c 20 fb 3e
       0.50131035 0.5943888 0.48463506 0.49048078
000030 fc f1 1a 3f 1f 17 09 3f ec c5 14 3f f8 e8 0b 3f
       0.6052549 0.53550905 0.58114505 0.5465236
