neuralnet/Hyperparameter sweeps/hyperparam sweep round 3/bike_volume_model_net_2layers_lr_0.00002000_batch_96_feat_35.pth (torch, 14730 bytes, 13 tensors)

model.0.weight f4 [32, 35]
000000 ee b1 9f 3d 7a 5c 0b 3e 34 1f 18 3e 09 b1 d2 bd
       0.07797609 0.13609496 0.14855653 -0.10287673
000010 df 14 8e 3d f2 f9 d3 bd c4 f0 22 bd d2 3e a6 3d
       0.069375746 -0.10350408 -0.039780393 0.08117451
000020 17 91 bf 3d 1b 80 72 3d d3 ff 2e 3d 2a cf 20 bd
       0.093538456 0.059204202 0.04272444 -0.039260067
000030 fc 68 23 3b a2 01 95 bd a0 da ae 3d ca e5 cd bc
       0.0024934402 -0.07275702 0.08537793 -0.025133986
000040 bb b8 55 3d 58 b9 3a 3a 21 38 dc 3c 13 9e 1f 3d
       0.052178126 0.0007122955 0.026882233 0.03896911
000050 b4 ae 82 bd cd aa d1 bd c6 a7 39 3d fa 48 52 be
       -0.06380978 -0.10237656 0.045326017 -0.20535651
000060 c3 44 91 bd 22 52 f4 3c 49 e8 08 be b2 b3 0d be
       -0.070931934 0.02982432 -0.1336986 -0.1383808
000070 bd 16 98 3c 24 e9 37 be 69 cf 79 bd e5 4f 5f bd
       0.01856553 -0.1796003 -0.060988817 -0.054519553
000080 79 0d 09 3d 25 d1 d5 bd a0 57 94 bd 3e 0e 3b bd
       0.033460114 -0.10440282 -0.07243276 -0.04566788
000090 dd 94 c8 bd 90 9e 02 bd d9 8a 54 bd 48 ca ae 3d
       -0.097940184 -0.0318895 -0.051890228 0.08534676
0000a0 79 2e e3 3d 20 b1 40 bd 2b 1c 86 bd 2d 2f 08 be
       0.11092848 -0.04704392 -0.06548341 -0.13299246
0000b0 68 80 06 be 46 4b 69 bd 91 36 58 3c 87 d0 1c 3e
       -0.1313492 -0.056956552 0.013196603 0.15313922
0000c0 a3 cb a1 bd 94 2f 4a bc 09 93 d2 3d 2e 4d ca 3d
       -0.07900169 -0.012340445 0.10281951 0.09878002
0000d0 71 b3 a9 39 b6 5e 1e 3c 20 f9 0e 3e 39 7c 26 be
       0.00032367886 0.009666136 0.13962221 -0.16258325
0000e0 17 40 ca 3c 86 d2 87 3c b9 e2 14 be 4f e1 b0 bd
       0.024688764 0.016579878 -0.14539613 -0.08636724
0000f0 32 34 92 3d 85 32 89 bc 8a 5f 2b 3e 99 5e 3e 3d
       0.07138862 -0.016747722 0.16735664 0.046476934
000100 75 c9 53 3d 23 a7 b9 3d bb 23 b3 bd a6 b2 69 3b
       0.051705796 0.09065082 -0.087470494 0.0035659461
000110 c5 77 0e 3e 65 7f 36 bd c4 0c aa bd 65 da d6 bc
       0.13912876 -0.044555087 -0.08303216 -0.026227186
000120 90 4f 63 3d 2d 6c 1f be 1c 9e c6 bc 3f 1a 42 3d
       0.0554958 -0.1556861 -0.024245314 0.04738831
000130 1c da 65 bd 14 7a cd 3d ed c5 02 3e bc 88 d0 3d
       -0.05611621 0.1003305 0.12770815 0.1018233
000140 51 9e c7 bc eb 7a 91 3c 21 02 d6 3d d4 52 33 bd
       -0.024367483 0.017758807 0.10449625 -0.043780163
000150 35 7a 10 bc 55 16 c0 bd 68 ce 0b bd a3 37 97 bd
       -0.008818199 -0.093792595 -0.03413239 -0.07383659
000160 ad 7c 87 bd 64 37 e4 bd 09 da d7 bd b5 02 ee bd
       -0.06615577 -0.111433774 -0.10539634 -0.1162161
000170 af b0 cf bd 90 77 b5 3d 42 f8 e4 3d a3 7f 41 bd
       -0.101411216 0.08860695 0.11180164 -0.047240864
000180 96 68 fb 3d 61 48 ac 3d 20 ef 52 be ae e1 6f bd
       0.122758076 0.08412243 -0.20599031 -0.058564834
000190 18 c2 28 bd d0 5c 21 3e 9c 2c dc ba 54 ff 27 3e
       -0.041200727 0.15758061 -0.0016797963 0.16405994
0001a0 fd e1 a8 3d 4b d7 b5 bd ef 29 dd bc 9e 46 22 3d
       0.08246229 -0.088789545 -0.026997535 0.039618127
0001b0 3a 7e c7 3d bf b8 b3 bd dd c6 8c bd 7f b7 f7 bc
       0.09740873 -0.08775472 -0.06873868 -0.030238865
0001c0 78 01 e5 bd 40 b6 4a bd 82 4c e8 3d ea 65 4f 3e
       -0.11181921 -0.049490213 0.11342718 0.20253721
0001d0 3c f4 29 3c f3 c4 d5 3d 92 74 58 3d 15 53 f0 bd
       0.010373171 0.10437956 0.052845545 -0.11734597
0001e0 da 00 a1 3d 07 d4 ce 3c 59 ae b0 3d 46 17 c4 bc
       0.078614905 0.025247587 0.08627004 -0.023936879
0001f0 14 d7 45 3e 9b fd bc bd 85 bc 2e be 10 86 8d bb
       0.19320327 -0.09228059 -0.17064102 -0.00431896
000200 ae 44 38 bd cf f6 7c 3d f7 af 2a be 1b b7 ef bc
       -0.044987373 0.061758813 -0.16668688 -0.029262116
000210 96 e2 f2 3c 3f ea 01 3e 7e a5 8f 3d cf df 45 3d
       0.02964906 0.12687014 0.07013987 0.048309144
000220 03 b6 91 bd f6 86 ab 3d d6 ea a7 bd cb a7 36 3e
       -0.07114794 0.08375351 -0.08199088 0.17837445
000230 46 38 07 bd 7b 37 de 3c d5 ea 28 be 36 64 ab 3d
       -0.03301265 0.027126065 -0.16495831 0.08368723
000240 c1 01 19 3d cd b2 8d bc 28 6d 67 bd 9f e7 a2 bd
       0.03735519 -0.017297173 -0.056500584 -0.079543345
000250 c7 8b 29 bd dc 4a e2 3d 70 f7 47 bd 0e 13 07 3d
       -0.041393068 0.110494345 -0.04881996 0.032977156
000260 db eb 28 bd 59 29 b1 3d 19 b5 27 bc 08 6f e6 3c
       -0.041240554 0.086504646 -0.010236048 0.028129116
000270 87 04 d1 3c 2a 60 09 3c b9 43 de bd d5 74 03 3e
       0.025514854 0.008384744 -0.10852761 0.12837537
000280 50 a1 c5 3d aa 98 e1 3d c7 8b 69 3d a4 1b 55 3d
       0.096499085 0.110154465 0.057018068 0.052028313
000290 a2 b1 ff bd 1b 08 d2 3d 83 e7 15 be a6 9e 13 bd
       -0.12485053 0.10255452 -0.14639096 -0.03603997
0002a0 fe 46 68 3d 01 07 b6 bd 06 94 e6 bb 76 3c d7 3d
       0.05670833 -0.08888055 -0.0070366887 0.10509579
0002b0 4a 1b 0f 3e 71 3c 92 bb 9c 59 d5 3a 89 29 f6 3a
       0.13975254 -0.0044627716 0.0016277316 0.0018780689
0002c0 f9 6d e0 bc 85 3c 2b be d0 cd ee 3d 66 7a a2 bc
       -0.027396189 -0.16722305 0.11660349 -0.019833755
0002d0 e5 08 9b bc 8b 12 68 bd 74 5e a0 3d 5d a3 85 bd
       -0.01892514 -0.05665831 0.078305155 -0.065253
0002e0 52 f0 e6 3d 3f 8b f9 3c 82 85 91 3d cc 01 80 3d
       0.11276306 0.030461906 0.07105543 0.06250343
0002f0 5d a8 4e 3d b0 77 9a 3d f4 c8 cf 3d 58 38 51 be
       0.050453532 0.0754236 0.10145751 -0.2043165
000300 68 7c 2c be 5c 6a 54 3d 98 a4 9a bc 57 63 ae 3d
       -0.16844332 0.051859245 -0.018877313 0.08515041
000310 96 81 c9 3d 38 33 a3 bd a6 85 67 3d 56 2f 0a be
       0.0983917 -0.079687536 0.05652394 -0.1349462
000320 04 99 21 3e 22 f1 25 be 6e 63 0c be 47 55 8d bd
       0.15781027 -0.16205266 -0.13709804 -0.06901031
000330 bc c9 dd 3c af 76 ab bc ff 60 5c 3e 90 1d 9c bc
       0.027073734 -0.020930616 0.21521376 -0.019057065
000340 45 51 49 3b 18 77 3d 3d 84 fa 14 bd 8b 46 80 bc
       0.0030718606 0.046256155 -0.036371723 -0.015658638
000350 4f b8 95 3d 8f bc 88 bd e9 61 ae 3c c8 5c 68 3d
       0.07310545 -0.0667659 0.021286922 0.056729108
000360 f1 b9 d1 3c 37 ae dc bc bc e6 2f bd ce e7 1c 3e
       0.02560136 -0.02693854 -0.042944655 0.15322801
000370 ec cd a1 3c 8a 16 32 bd 89 b4 64 bd b3 ac 01 be
       0.019751512 -0.043478526 -0.055836234 -0.12663536
000380 b4 72 9a bb f2 d6 96 bd 94 4a fc 3c 7c a4 d1 3d
       -0.0047133807 -0.07365216 0.03079728 0.10236451
000390 1d b6 2f bd 9d e0 9e 3c d2 0c 65 3d 58 a0 45 b9
       -0.042898286 0.019394213 0.05592043 -0.00018847117
0003a0 ce b1 1d bd 18 5f be 3d aa 6a a7 bd 94 0e 86 bd
       -0.038499646 0.092954814 -0.081746414 -0.06545749
0003b0 02 da e0 3d 98 71 c2 3d 33 68 47 be e5 d0 37 be
       0.10979082 0.094943225 -0.19473343 -0.1795078
0003c0 69 4f 93 3d 87 81 04 3e 8a b7 3a 3e 5d 60 79 be
       0.07192881 0.12940036 0.18234077 -0.24353166
0003d0 80 5f a4 bd f9 c1 42 3e 1b 2f 6b bd 3e f2 2c 3a
       -0.08026028 0.19019307 -0.05741797 0.0006597376
0003e0 af 11 33 be 9f 2a 25 3d 15 19 e0 bc 4d 31 b6 bd
       -0.17487215 0.04032385 -0.02735571 -0.08896122
0003f0 59 eb ae 3d ef 5c 81 bd dc 7c e8 bd 6a 8c 24 be
       0.08540983 -0.06316554 -0.1135194 -0.16069189

model.0.bias f4 [32]
000000 5e 19 5b b7 fc c9 10 37 56 24 00 b7 5b 0a 48 b7
       -1.30593235e-05 8.630097e-06 -7.637855e-06 -1.192334e-05
000010 b4 21 b4 37 9f fb b6 37 3d 05 23 b8 36 b6 91 b7
       2.1473366e-05 2.181326e-05 -3.8867107e-05 -1.7370196e-05
000020 55 6a 5a b7 f0 26 8a 34 c4 7d 44 b6 5a 69 1b b7
       -1.301857e-05 2.5732834e-07 -2.9279481e-06 -9.263249e-06
000030 09 b7 d9 36 42 49 15 b7 4a 71 e9 b6 81 a1 6e b6
       6.488412e-06 -8.898149e-06 -6.9571297e-06 -3.5558771e-06
000040 33 e5 c1 36 4a 8d ab 35 ce 8d 48 b7 d0 ad 59 37
       5.7785305e-06 1.2781613e-06 -1.1953945e-05 1.2974677e-05
000050 ae 99 d7 36 92 ad 86 37 66 2e bb 37 a7 87 2b b7
       6.42539e-06 1.605487e-05 2.2313743e-05 -1.0223978e-05
000060 a0 f0 99 b7 08 88 bb b5 0c 09 37 37 30 5e c6 b6
       -1.8351071e-05 -1.3972176e-06 1.0909756e-05 -5.9118247e-06
000070 45 9c e8 b7 7d a7 bf 36 3e f1 0b b6 c5 a4 01 b7
       -2.7729324e-05 5.711742e-06 -2.0853035e-06 -7.727363e-06

model.1.weight f4 [32]
000000 f9 1f 5f 3f 6d 93 74 3f d9 a7 79 3f e0 67 6f 3f
       0.8715816 0.95537454 0.9752174 0.93517876
000010 c7 5e 7e 3f aa 76 8d 3f 69 55 77 3f 16 12 72 3f
       0.9936337 1.1051838 0.966147 0.94558847
000020 7b ad 73 3f a6 93 6f 3f ca a6 89 3f 43 ac 5e 3f
       0.95186585 0.9358467 1.0754025 0.869816
000030 6a c7 7d 3f d6 7a 6b 3f ee 49 69 3f ca 85 80 3f
       0.99132407 0.9198431 0.9112843 1.0040829
000040 92 fe 89 3f 06 68 6b 3f ea 9a 77 3f 0b 64 6a 3f
       1.0780814 0.919556 0.96720755 0.91558903
000050 27 67 86 3f ba bb 80 3f 85 b1 76 3f a4 f8 7e 3f
       1.050023 1.005729 0.96364623 0.99598145
000060 d1 b4 69 3f 61 8c 62 3f 79 17 73 3f 11 72 87 3f
       0.9129153 0.8849545 0.9495769 1.0581685
000070 c1 82 90 3f bf d0 71 3f 20 24 81 3f cc 72 80 3f
       1.1289903 0.94459146 1.008915 1.0035033

model.1.bias f4 [32]
000000 94 f3 9a be e0 68 55 3d b2 24 15 bd ef 40 3e bc
       -0.3026396 0.05210197 -0.03641195 -0.011612161
000010 52 d8 5c be 13 c2 0b be 40 cd 96 be e2 dc bb bd
       -0.21566895 -0.13648252 -0.29453468 -0.091729894
000020 81 79 b0 bd 37 7e 5d bd 57 1f 8e bd 11 24 d1 bc
       -0.08616925 -0.054075446 -0.06939571 -0.025529893
000030 b3 f2 23 bd a9 35 af bd 93 06 ab bd 9a b2 23 bd
       -0.040026378 -0.08555157 -0.08350863 -0.03996525
000040 15 e9 21 be 64 af 8b be b2 f6 48 be 44 17 9b be
       -0.1581157 -0.2728225 -0.19625357 -0.30291188
000050 24 8c fa bc 8e 8c 17 be ac 78 4a bd 0c ed 22 be
       -0.030584402 -0.14799711 -0.049431488 -0.15910739
000060 51 65 8e 3c ee 3b a3 be e3 ac 44 be 9f 0a e4 3d
       0.017382296 -0.3188166 -0.19206576 0.11134838
000070 f2 34 98 3d 39 fb 70 be a2 47 58 be 82 42 8e bd
       0.074319735 -0.23533334 -0.21121076 -0.06946279

model.1.running_mean f4 [32]
000000 0e e6 8d be 19 33 bc 3e 2a d2 20 bf e7 c6 11 3f
       -0.2771458 0.36757734 -0.62820685 0.56944126
000010 f3 31 24 be 49 f4 ad be 2c 9d 1a bf 55 dd d8 be
       -0.16034679 -0.33975437 -0.60396075 -0.42356363
000020 45 32 2b bc 9f 8e 2e be 0d e8 21 bf 49 8a 8a 3e
       -0.010448997 -0.17046593 -0.63244706 0.27058628
000030 f9 14 c3 be a9 9b 0e be 5e 53 4c be c3 fb dc be
       -0.38101938 -0.13926567 -0.19953677 -0.4316083
000040 d8 b3 cb be 89 a7 3a bf 1e ef b7 be 62 f2 1a bf
       -0.39785647 -0.7291189 -0.3592462 -0.60526097
000050 c2 f2 b3 be b0 c3 5e be ee a7 df 3d d6 e7 f7 be
       -0.35146147 -0.21754336 0.10920702 -0.48419064
000060 ce 9b e0 3e 73 00 1f bf 34 be 36 bf 28 74 0b 3e
       0.4386887 -0.6211006 -0.71383977 0.13618529
000070 80 e1 9f bd 5b 82 2e bf fe 59 27 bf 43 cc a5 bd
       -0.078066826 -0.68167657 -0.6537169 -0.080956005

model.1.running_var f4 [32]
000000 c1 29 81 3e dd 7c 5e 3f fd d9 9f 3d 92 2a 8b 3f
       0.25227168 0.86909276 0.0780525 1.0872366
000010 6e e5 a3 3e e4 04 f1 3e fb c0 bf 3e ee 80 7a 3e
       0.32010978 0.47074044 0.3745192 0.24463245
000020 ed ce 23 3e 23 5a 98 3e 4f 3c da 3e 07 9a b1 3f
       0.15996905 0.2975627 0.42624137 1.387513
000030 48 ee c8 3e 71 71 e4 3e e2 69 8d 3e ad 73 c4 3e
       0.39244294 0.446178 0.27619845 0.38369504
000040 b0 06 0b 3f b3 27 6b 3f e4 33 e0 3e e4 df 83 3e
       0.5430708 0.9185745 0.4378959 0.25756752
000050 a9 ea 99 3e b9 f5 0e 3f 3e 14 a8 3e e2 b7 b9 3e
       0.30061844 0.55843693 0.32827944 0.36273104
000060 f1 e0 0e 3f 39 fa ae 3f b7 6e 32 3f 07 13 b2 3f
       0.55811983 1.3670112 0.6970019 1.3912057
000070 d8 08 1c 3f 42 2a f1 3e 30 83 b6 3e 18 62 a3 3e
       0.60950994 0.47102553 0.35646963 0.31910777

model.4.weight f4 [16, 32]
000000 fa 7a f7 3d cd d9 49 3d 8f 89 a7 3c ec 23 33 bc
       0.12084003 0.049279977 0.020451335 -0.010933857
000010 dd f2 7f be 48 53 79 be f4 43 42 be 58 52 8b 3c
       -0.24994989 -0.24348176 -0.18971235 0.017007038
000020 f0 ab 5f 3d f0 50 07 3e 3e f1 b9 3d 8a 90 60 3a
       0.05460733 0.13214469 0.090792164 0.000856646
000030 5f 9e ab 3d 8d 9b 43 be 51 97 89 bd 17 c0 ad bc
       0.08379816 -0.19102307 -0.067183144 -0.02120976
000040 4e c4 b0 bd 0b 2f 91 bd ed b3 29 bd 13 06 31 3d
       -0.08631192 -0.07089051 -0.041431356 0.043218683
000050 19 95 d2 bd 4e 89 57 be 26 0d 67 bd e3 50 24 be
       -0.10282344 -0.21048471 -0.056409024 -0.16046481
000060 b8 68 a0 3d 1f 6e 01 bd 96 94 1b 3e 0c c8 50 3c
       0.078324735 -0.03159916 0.151934 0.012743007
000070 99 13 a1 bd f8 69 17 3d e0 73 82 bd 5b 0d 15 be
       -0.07865066 0.036966294 -0.06369758 -0.14555876
000080 0d 8e 7d bd 34 87 bd 3c 3a be 47 3d fe 59 00 3d
       -0.06190305 0.023135759 0.0487654 0.031335823
000090 e0 62 e4 bd 00 b6 76 be 78 be 8d 3d 15 26 58 3d
       -0.111516714 -0.24092865 0.06921095 0.052770693
0000a0 db d3 ce bd 4d 87 fd bd ba 4c ed 3c 25 d5 1a bc
       -0.10099002 -0.12379322 0.02896725 -0.009450232
0000b0 47 80 61 be 61 5d 87 3d 1f 1a 0e be 72 27 bc 3d
       -0.2202159 0.066096075 -0.13877152 0.09187211
0000c0 a2 d2 38 bb d0 72 45 3b 62 bd 83 bc 5f 6f 09 be
       -0.0028201719 0.0030128248 -0.016081516 -0.13421391
0000d0 0f ad c2 3d a5 88 eb bd 32 44 42 3e fc 0d e7 3c
       0.095056646 -0.11500672 0.18971327 0.02820491
0000e0 21 77 85 3d 41 51 bb bc 9f 90 fb bd 5e 0a 28 3d
       0.06516863 -0.022865893 -0.12283444 0.041025512
0000f0 82 4e bb be 51 72 d1 bc dd 29 2c bd 14 9b 20 3e
       -0.36583334 -0.025567206 -0.04203211 0.15684158
000100 fe 49 dc 3d bb c4 c8 3d 00 b0 cb bd 31 d5 9d 3d
       0.107563004 0.09803148 -0.09945679 0.07706679
000110 99 81 d2 3b 72 57 17 be e2 95 f5 3c 85 c9 a5 3b
       0.0064241407 -0.14779451 0.029978696 0.0050594234
000120 96 5f ea bb 73 f3 dc 3c e2 96 91 3d 6b b7 84 3c
       -0.007152508 0.026971554 0.07108857 0.016200742
000130 96 86 10 3e b8 6e 5a be fd b6 76 bc 21 13 64 3d
       0.1411384 -0.21331298 -0.015058276 0.055682305
000140 c9 a6 aa bd ee 6f 1b bc 91 f6 c4 bd 4c 15 c4 bc
       -0.08332593 -0.009487135 -0.09617341 -0.023935936
000150 49 b6 7d 3d 9e 35 30 be d1 0a 2b be 46 01 a6 3d
       0.06194142 -0.17207953 -0.16703345 0.08105712
000160 c4 43 d2 3d 59 89 02 be bd 0c bf 3b df aa 8e 3d
       0.102668315 -0.12747706 0.005830376 0.06966185
000170 b3 52 18 be 84 9c db 3d 07 07 41 3d 0f a1 2c 3d
       -0.14875297 0.10723212 0.047125842 0.042145785
000180 db 84 33 be c9 d9 d4 bc f5 f5 77 be a5 5a b1 3c
       -0.17531149 -0.025982754 -0.24214919 0.021649668
000190 2f ab c3 3d f0 7f c6 3d c9 c5 79 bd f2 cb f2 bd
       0.09554135 0.09692371 -0.06097964 -0.11855306
0001a0 b0 c8 6a bd 72 9b 91 bd a5 e3 53 be a6 cd b2 bd
       -0.057320297 -0.07109727 -0.20692308 -0.087306306
0001b0 e6 2e 20 be c4 fb 0f bd 46 71 73 bd fb 23 b0 bd
       -0.1564289 -0.03515221 -0.059434198 -0.08600613
0001c0 26 35 13 3d 0c dd d0 bc fb 36 d2 3d e3 c4 4c be
       0.03593936 -0.025496028 0.10264393 -0.19996981
0001d0 d0 77 7d be 44 fd 7a bd 71 38 b0 3d b1 02 df 3c
       -0.24752736 -0.06127669 0.08604515 0.027222963
0001e0 05 e2 b8 3d 65 ee af bc b2 dc 96 bd 13 30 c5 3c
       0.09027485 -0.02147598 -0.07366313 0.024070775
0001f0 f5 6e 42 3d 4a 4c f4 bd a6 d3 7a be ea 43 47 bb
       0.047469098 -0.119286135 -0.244948 -0.003040547
000200 93 c6 e2 bd 55 05 35 bd 15 14 64 bd 08 a0 a2 3c
       -0.11073031 -0.04419454 -0.055683214 0.0198517
000210 01 24 2e bd de 37 06 3e c4 5b 2a be cb 27 4c be
       -0.042514805 0.13107249 -0.16636568 -0.19937055
000220 71 8a 14 bc c3 0e dc 3c 22 b1 05 3e 01 76 d3 3c
       -0.00906621 0.026862508 0.13055852 0.025813105
000230 0f ce 42 3b 93 30 1e 3c 0a 19 12 be 83 e4 a6 be
       0.0029724871 0.009655136 -0.14267364 -0.32596216
000240 8d fa 54 3d 4f 93 70 bd 20 44 8c bd 5f 6d 4f be
       0.051996756 -0.058734234 -0.06848931 -0.20256566
000250 b4 b9 c7 3d eb c7 f0 bc e0 eb 12 3d ff 94 1a bd
       0.09752217 -0.029392203 0.03586948 -0.03773975
000260 a6 5b 96 3d e3 53 da 3d 6b 5a 20 be ba 1c 1d bd
       0.07341699 0.10660531 -0.15659492 -0.038357474
000270 0b 70 8b 3d 88 f5 74 be 27 74 86 be bc f8 0d be
       0.0680848 -0.23921788 -0.26260492 -0.13864416
000280 e8 75 72 3d db 7c b1 3d 7d 82 f5 3d b9 d0 46 3d
       0.059194475 0.086663924 0.11987779 0.048538897
000290 d0 c5 58 be 8f c7 2f 3b ea 5a 7b 3d 0b 16 c4 3d
       -0.2116921 0.0026821827 0.061366 0.09574517
0002a0 0d 3d 88 bc af 24 67 bd 80 c0 59 be b9 bb fb 3c
       -0.016630674 -0.05643147 -0.21264839 0.030729162
0002b0 7f bd ab 3d 65 59 7e bd 13 3b 66 3d 83 d3 71 3d
       0.08385753 -0.062096972 0.05620868 0.059039604
0002c0 2c a6 07 be 8d 01 c9 bd d8 e6 35 be 0d bb 02 3d
       -0.13246983 -0.09814749 -0.17763841 0.031916667
0002d0 27 aa 1f 3e 1e 4d 3f be 5f 10 b8 bd e9 21 b3 bd
       0.15592252 -0.18681762 -0.089874975 -0.08746702
0002e0 52 b7 16 3d b2 1a 37 be 89 4d 75 be d9 16 b4 3c
       0.03679592 -0.17881277 -0.23955359 0.02198355
0002f0 c9 bd 4b 3e bb 41 f9 bd cc fb d9 bd 51 20 00 bc
       0.19896616 -0.1217074 -0.106437296 -0.007820205
000300 de 14 b6 bc c2 45 58 be f6 9a ff 3d c9 6f ba be
       -0.022226747 -0.2112036 0.12480728 -0.3641341
000310 6a c6 f3 3c 0a 01 bf bd e8 b1 a4 bc 19 91 8a bd
       0.029757697 -0.0932637 -0.020104364 -0.067659564
000320 69 29 cc 3d cd c9 83 bd 52 8a 6f be 54 d6 fa bb
       0.09968836 -0.06434975 -0.23392609 -0.0076549444
000330 0a 32 26 3d 8b 38 f7 bd e3 52 60 3d 69 f7 b3 3d
       0.040575065 -0.120713316 0.054766547 0.08787424
000340 e5 2d 68 bd e1 55 a6 3c 66 e3 eb 3c 4b 32 d0 3c
       -0.056684393 0.020304622 0.028794955 0.025414607
000350 70 38 85 bc 95 c4 66 3d 1f 6a 2d 3e 86 9f 7a 3b
       -0.016262263 0.05633982 0.16935013 0.0038242056
000360 6c 5c 09 be 01 78 f5 3b c8 e2 97 3d e5 94 37 be
       -0.13414162 0.007491112 0.07416302 -0.17927893
000370 5d 75 c6 3d e3 f0 a3 bd 99 68 2e bc 52 88 17 bd
       0.09690354 -0.0800493 -0.010645055 -0.03699524
000380 fe ed 97 bd 27 d5 4b 3d bd 44 13 3d ba b8 32 bd
       -0.0741844 0.049763825 0.035954226 -0.0436332
000390 06 6a 63 be 38 c7 38 3b df d9 b1 bd e0 8d 80 3d
       -0.22208413 0.0028194916 -0.08684134 0.062770605
0003a0 28 ba d7 3b 9c f3 b3 3d 1d 85 23 3d 20 6d dc 3d
       0.006583471 0.08786699 0.03992187 0.107630014
0003b0 f2 99 b8 3c 53 50 29 be 62 ac 96 3d 2e eb a7 3d
       0.022534344 -0.16534548 0.07357098 0.08199154
0003c0 20 51 5a be 26 e8 d2 bd 16 2f a3 3d eb 54 9f bc
       -0.21320009 -0.10298185 0.07967965 -0.019449672
0003d0 5e 98 be 3c 69 03 35 bd c8 e0 01 be 79 c7 b9 3d
       0.023266014 -0.044192705 -0.12683403 0.090712495
0003e0 db 27 55 3d cd 58 43 be e7 56 6f 3d 02 2f 7f 3d
       0.052039962 -0.19076844 0.058432486 0.06230069
0003f0 34 71 96 be ca 5e 94 3d ef 9c 1e 3e be b3 7e 3d
       -0.29383242 0.07244642 0.15489553 0.062183134

model.4.bias f4 [16]
000000 d0 10 88 b7 94 d3 36 b7 70 7e 88 b7 bc a3 3c 37
       -1.6220292e-05 -1.0897307e-05 -1.627134e-05 1.1243796e-05
000010 50 b2 15 34 27 35 02 37 f2 7a 6d b6 f0 79 80 b6
       1.3941576e-07 7.760979e-06 -3.5387316e-06 -3.8288927e-06
000020 6a 5b cc 37 54 90 2c 37 55 f2 0b b7 c5 f0 b6 36
       2.4361263e-05 1.0285603e-05 -8.341468e-06 5.452052e-06
000030 c8 78 6e b5 99 6e 86 b7 da 98 59 35 e4 c5 0b 38
       -8.883767e-07 -1.6025546e-05 8.106123e-07 3.3324483e-05

model.5.weight f4 [16]
000000 3f 77 a7 3f d9 c4 a6 3f 8a a6 ae 3f 93 16 b0 3f
       1.3083266 1.3028823 1.3644574 1.3756889
000010 01 56 b9 3f d8 d6 a2 3f 47 10 a4 3f 1f bd b7 3f
       1.4479371 1.2721815 1.2817467 1.435459
000020 7d 32 a6 3f c2 57 a4 3f 77 b0 aa 3f d9 63 a9 3f
       1.2984158 1.2839282 1.3335103 1.3233596
000030 07 66 9f 3f 9d 38 b2 3f c6 08 ad 3f 25 4c ab 3f
       1.2453011 1.3923527 1.3518302 1.3382612

model.5.bias f4 [16]
000000 36 f3 0d 3f 34 98 17 3f bc 3b 0b 3f 03 7f 17 3f
       0.55449235 0.5921662 0.5438802 0.5917818
000010 53 f9 37 3f 75 80 14 3f 69 4f fa 3e a4 ca 33 3f
       0.71864814 0.5800851 0.4888871 0.7023108
000020 70 43 19 3f a0 73 0f 3f 34 eb 1c 3f 0a 50 1b 3f
       0.59868526 0.56035805 0.6129639 0.60669005
000030 b0 3d f0 3e 58 75 3c 3f 90 1c 11 3f 83 c9 1a 3f
       0.46922064 0.7361655 0.5668421 0.6046373

model.5.running_mean f4 [16]
000000 49 16 da be 79 f0 5b be 13 bd 0d bc f2 9c 14 bf
       -0.42595127 -0.21478452 -0.008651036 -0.5805198
000010 51 09 04 bf 00 f0 7e be ba 3d fb be e7 fb 20 be
       -0.51576716 -0.2489624 -0.4907053 -0.15721093
000020 58 8d ea be f0 4b ba be d1 a0 e2 be 3e 3a 0e bf
       -0.45810962 -0.3638606 -0.44263318 -0.5555762
000030 6d 3d fe be f1 01 19 bf 8b f5 57 bf 36 98 24 be
       -0.4965624 -0.5976859 -0.84359044 -0.16073689

model.5.running_var f4 [16]
000000 91 9a 37 3f 0f 54 f1 3e e8 76 de 3e 4d 5a 6a 3f
       0.71720225 0.47134444 0.43450093 0.9154404
000010 7e 9d 67 3f 06 40 d6 3e 0c 2d 1d 3f 95 f7 6e 3f
       0.9047469 0.4184572 0.6139686 0.9334653
000020 07 20 83 3f 71 84 ff 3e 6f d7 03 3f 9c 89 c6 3e
       1.0244149 0.49905732 0.515006 0.38776863
000030 3b 7a 49 3f 0c 35 da 3e c3 6a 0b 3f a9 11 2c 3f
       0.78702134 0.42618597 0.5445978 0.6721445

model.8.weight f4 [1, 16]
000000 85 20 21 3f e0 81 17 3f fb fb 00 3f 15 06 1f 3f
       0.62940246 0.5918255 0.5038449 0.62118655
000010 cc e4 05 3f 23 d3 1f 3f a9 91 e5 3e 39 38 04 3f
       0.5230224 0.62431544 0.44837692 0.5164829
000020 ca 23 e5 3e d7 d4 f0 3e 28 a3 13 3f 16 ad f7 3e
       0.44753867 0.47037384 0.5767083 0.48374242
000030 2b bf df 3e d2 5e fc 3e 6d 3b ef 3e 6e f2 19 3f
       0.43700537 0.49291092 0.46725026 0.60135543
