neuralnet/Hyperparameter sweeps/hyperparam sweep round 3/bike_volume_model_net_2layers_lr_0.00002000_batch_32_feat_0.pth (torch, 21622 bytes, 13 tensors)

model.0.weight f4 [32, 89]
0	0xbb8535e7	-0.0040652636
1	0x3d09506f	0.033523973
2	0xbbb93895	-0.005652497
3	0x3be8c763	0.007103847
4	0x3d9ead12	0.07747854
5	0xbde9d242	-0.114170566
6	0x3d328538	0.04358408
7	0xbdcc7724	-0.09983662
8	0xbd089d19	-0.033352945
9	0x3d013a3d	0.03154968
10	0x3dd532dd	0.10410092
11	0xbddf2bbd	-0.10897014
12	0x3d6c2b88	0.057658702
13	0xbda8b14f	-0.08236944
14	0xbb2c29d2	-0.0026270044
15	0xbd846d71	-0.06466187
16	0xbd2e2d2f	-0.04252356
17	0xbce466ed	-0.02788111
18	0x3d8fd5de	0.07023214
19	0xbdd3ecb9	-0.10347886
20	0xbd2c0d1e	-0.042004697
21	0xbd8343a3	-0.06409385
22	0x3d4fbf1c	0.050719365
23	0xbdcae9b6	-0.09907858
24	0x3c63b1e4	0.013897393
25	0x3d87fd2b	0.06640085
26	0x3cdc8526	0.026918959
27	0xbd0c0e61	-0.0341934
28	0x3d3bc1d7	0.045839157
29	0x3dddafd7	0.108245544
30	0x3c9466f0	0.01811549
31	0xbd8a598d	-0.06755362
32	0x3d0b3c74	0.0339932
33	0x3d2a779d	0.04161798
34	0xbc6f53ac	-0.014607351
35	0xbd054532	-0.032536693
36	0xbcf2284b	-0.029560229
37	0xbd62fbda	-0.055415966
38	0xbc30f8a5	-0.010801469
39	0x3d90a19f	0.07062077
40	0xbc484023	-0.012222323
41	0xbd11c40e	-0.035587363
42	0xbd5f7c7e	-0.054562084
43	0xbd3dacd8	-0.046307415
44	0xbbadb898	-0.0053015463
45	0xbdb35b87	-0.08757692
46	0xbda38c50	-0.07985747
47	0x3dd84571	0.1056012
48	0xbd57b86c	-0.052666113
49	0xbde762e2	-0.11298157
50	0xbca7338c	-0.020410322
51	0x3be026df	0.0068405713
52	0xbd203297	-0.039110746
53	0xbbefff1f	-0.007324114
54	0x3cea4830	0.028598875
55	0x3c0b0930	0.008486077
56	0xbc128135	-0.008941938
57	0xbd56c358	-0.052432388
58	0x3d0d9f31	0.034575645
59	0xbb045533	-0.0020192384
60	0x3d0c280c	0.03421788
61	0xbccb033f	-0.024781821
62	0x3db54d70	0.08852661
63	0x3d884312	0.06653418
64	0x3c2b92de	0.010472028
65	0xbdc80c37	-0.09767955
66	0x3d855e66	0.06512146
67	0xbcdf25bd	-0.027239675
68	0xbd8784fe	-0.06617163
69	0x3dd69f72	0.104796305
70	0xbd22e571	-0.039769594
71	0x3d7dce90	0.06196457
72	0xbd1140d4	-0.035462216
73	0xbd12b3ed	-0.03581612
74	0xbd06aeb0	-0.03288144
75	0x3c9d47fa	0.01919936
76	0xbcedf206	-0.02904607
77	0xbc9fd4b0	-0.019510597
78	0xb8d8676d	-0.00010318947
79	0x3d47768f	0.04869705
80	0xbd93cf43	-0.072172664
81	0xbd9a9596	-0.075480625
82	0x3c5539bb	0.013014252
83	0xbdf59d2f	-0.11992871
84	0xbcf38712	-0.029727492
85	0x3d25edb6	0.040509902
86	0xbe34bd64	-0.17650372
87	0x3dfa2014	0.1221315
88	0x3d323f3e	0.043517344
89	0xbd4bbcdb	-0.049740653
90	0xbcb7964e	-0.022410538
91	0xbdf9585f	-0.121750586
92	0x3d000a4c	0.03125982
93	0xbd442c9e	-0.047894113
94	0xb89ed3e6	-7.573496e-05
95	0xbd1d3381	-0.038379196
96	0x3db0914b	0.086214624
97	0x3d9879bd	0.07445095
98	0x3df46041	0.119324215
99	0xbcf231d4	-0.029564776
100	0xbcb2a717	-0.02180819
101	0x3d993d19	0.074823566
102	0xbc8a7afc	-0.016904347
103	0x3ca2f112	0.019890342
104	0xbdaf012d	-0.08545146
105	0xbd035706	-0.032065414
106	0x3dfeeef4	0.124479204
107	0xbd395a19	-0.04525194
108	0xbd090c58	-0.033459038
109	0xbde04fbd	-0.10952709
110	0x3d1eec07	0.038799312
111	0x383485c9	4.303994e-05
112	0x3dad9c99	0.08477134
113	0xbc5170d3	-0.012783247
114	0x3d84cfd8	0.064849555
115	0xbcdeab64	-0.027181335
116	0xbdb37e44	-0.08764318
117	0x3cccbb75	0.02499173
118	0x3d0fb448	0.03508404
119	0x3da17ed2	0.07885517
120	0xbd8f0f3b	-0.06985327
121	0x3c94ca91	0.018162997
122	0x3d8b17e0	0.06791663
123	0x3d4b4e79	0.049635384
124	0x3dd4785d	0.1037452
125	0x3db603cf	0.08887445
126	0x3dc0bca5	0.09410981
127	0xbd29083c	-0.04126762
128	0xbcffd799	-0.031230735
129	0xbc1a2eb0	-0.009410545
130	0x3bf5e23e	0.007503777
131	0xbc80da9a	-0.015729237
132	0xbd89a2d0	-0.06720507
133	0xbda783b7	-0.081794195
134	0xbd47c5b7	-0.04877254
135	0xbe08d708	-0.13363278
136	0xbd10e673	-0.035376024
137	0x3d990c1f	0.07473015
138	0x3c8f737a	0.017511118
139	0x3c5e81e1	0.01358077
140	0xbb098679	-0.0020984693
141	0xbdb2a130	-0.0872215
142	0xbdbec3af	-0.093146674
143	0xbde8d158	-0.11368054
144	0xbdbcdca7	-0.092217736
145	0xbc16cff7	-0.009204856
146	0xbd165206	-0.036699317
147	0xbd72aa15	-0.059244234
148	0x3d8e1ac6	0.069387004
149	0x3c519871	0.0127926925
150	0xbd1c8ecf	-0.03822213
151	0x3dde7ea4	0.108639985
152	0x3cef5a0a	0.029217739
153	0x3cc79cb9	0.024366723
154	0x3d727d39	0.059201453
155	0xbd1e8a5d	-0.038706172
156	0x3dd8276f	0.10554396
157	0xbd39462f	-0.045232948
158	0xbd66f305	-0.056384105
159	0x3d3b7f2b	0.045775574
160	0xbd542a62	-0.051798232
161	0xbcef16b0	-0.029185623
162	0x3ddb6b60	0.107138395
163	0xbda71dcd	-0.08159981
164	0xbbdb81a7	-0.0066988054
165	0xbd2411ce	-0.040056042
166	0xbd2ddef4	-0.042448953
167	0xbcaa437b	-0.02078413
168	0xbbe98075	-0.007125909
169	0xbd3344f9	-0.04376695
170	0xbd79c8c9	-0.0609825
171	0x3d4965b1	0.049169246
172	0x3dfdc9d5	0.12392012
173	0x3befe21f	0.007320657
174	0x3df51d65	0.11968497
175	0x3d5634d0	0.05229646
176	0x3e0e56ef	0.1390035
177	0x3d630344	0.055423036
178	0xbdb2cf4b	-0.08730944
179	0x3dce8f84	0.10085967
180	0x3d0f153f	0.03493237
181	0xbd1900b9	-0.037354205
182	0xbce969c4	-0.028492816
183	0xbbc59b0b	-0.0060304455
184	0x3d8657f1	0.06559742
185	0xbe05a0e9	-0.13049664
186	0x3cc65281	0.024209263
187	0x3d3e0b7f	0.046397682
188	0x3d835040	0.06411791
189	0xbd0d0132	-0.034424968
190	0xbcbc4336	-0.022981267
191	0xbd5e7903	-0.054314625
192	0xbc20abe2	-0.009806605
193	0xbcb29913	-0.021801507
194	0xbd799730	-0.0609352
195	0x3d9b42cd	0.075811006
196	0x3cfe8eda	0.031073976
197	0x3d16fc1c	0.036861524
198	0xbd06e498	-0.032932848
199	0x3ddbf0ae	0.107392654
200	0xbd9af270	-0.075657725
201	0x3c6dd835	0.01451688
202	0x3cc87ed1	0.024474533
203	0xbdeea267	-0.116520695
204	0xbd4b9307	-0.049700763
205	0x3e081746	0.13290128
206	0xbdd9b8e4	-0.10630968
207	0x3d415896	0.047203623
208	0x3b25ea00	0.0025316477
209	0xbd828685	-0.06373314
210	0xbd749ee3	-0.05972184
211	0xbd70fa50	-0.058832467
212	0xbca1fd62	-0.019774143
213	0xbcf4024f	-0.029786257
214	0xbe090461	-0.13380577
215	0x3d90e031	0.07074011
216	0x3cfdfaaa	0.031003315
217	0x3db34eab	0.08755239
218	0xbcf8dc12	-0.030378375
219	0x3b8b5b03	0.004252793
220	0xbd098eb9	-0.033583377
221	0xbc9ecc14	-0.019384421
222	0xbb86e795	-0.004116962
223	0x3e01d439	0.12678613
224	0x3d9bbc30	0.07604253
225	0xbc99ca8f	-0.018773345
226	0x3d1cad9d	0.038251508
227	0x3ca3d142	0.019997243
228	0xbce80963	-0.028324788
229	0x3e135db1	0.14391209
230	0x3dbffd38	0.093744695
231	0x3d64f43f	0.055896994
232	0xbdae3d2a	-0.0850776
233	0xbd654cc3	-0.05598141
234	0xbc61011e	-0.0137331765
235	0xbde423c5	-0.11139635
236	0xbd08f6ec	-0.033438608
237	0xbc6af3b4	-0.01434033
238	0xbb649917	-0.0034881288
239	0xbdb0ce40	-0.08633089
240	0xbd095a8c	-0.033533618
241	0xbdf6d292	-0.12051882
242	0x3bcf397c	0.0063239913
243	0x3d521e21	0.051298264
244	0xbd936368	-0.071966946
245	0x3d37f47c	0.044910893
246	0x3cf41123	0.029793328
247	0xbce600a0	-0.02807647
248	0xbd005113	-0.03132732
249	0xbd04d7ee	-0.03243249
250	0x3d55ffda	0.052245952
251	0x3d2729ef	0.040811475
252	0xbb17cddf	-0.002316348
253	0x3d26da48	0.040735513
254	0xbaed6483	-0.001811162
255	0x3d8dbe2e	0.069210395

model.0.bias f4 [32]
0	0x36f543b5	7.309451e-06
1	0xb4ab5ff0	-3.1921036e-07
2	0x35662b94	8.574509e-07
3	0x36555508	3.1788968e-06
4	0x368778c1	4.037371e-06
5	0xb6a4b3ab	-4.908497e-06
6	0x375ab02c	1.3034831e-05
7	0xb7884130	-1.6242819e-05
8	0x36719dad	3.6003578e-06
9	0xb7f07832	-2.86662e-05
10	0x370bc52b	8.330952e-06
11	0xb7ecd071	-2.8230455e-05
12	0x3752829a	1.2547383e-05
13	0xb631f3f8	-2.6517064e-06
14	0xb823d550	-3.906089e-05
15	0x382d4a7c	4.1315783e-05
16	0xb5ba17a4	-1.386496e-06
17	0xb651fe9c	-3.129163e-06
18	0xb5ccd580	-1.5261321e-06
19	0xb6960e57	-4.4720177e-06
20	0xb6ddae17	-6.60658e-06
21	0x34b81f60	3.42955e-07
22	0x3837ffab	4.386871e-05
23	0x3701b1e4	7.730418e-06
24	0xb6718e76	-3.5994722e-06
25	0x381bd715	3.715519e-05
26	0x37705268	1.4324301e-05
27	0x36e7564a	6.894382e-06
28	0x3763eac9	1.35849195e-05
29	0x37ea9824	2.796582e-05
30	0xb70ff54c	-8.580577e-06
31	0x364b784d	3.0319381e-06

model.1.weight f4 [32]
0	0x3f474195	0.77834445
1	0x3f4c4015	0.7978528
2	0x3f70c23d	0.94046384
3	0x3f65cdeb	0.8976733
4	0x3f81ecc8	1.0150385
5	0x3f67b25a	0.9050652
6	0x3f840ea6	1.031697
7	0x3f7758fe	0.96620166
8	0x3f537e61	0.82614714
9	0x3f93a85f	1.1535758
10	0x3f75467c	0.95810676
11	0x3f5ea7c6	0.8697475
12	0x3f8258f0	1.0183392
13	0x3f49393e	0.7860297
14	0x3f78e733	0.9722778
15	0x3f710832	0.9415313
16	0x3f54b79d	0.8309267
17	0x3f654503	0.8955843
18	0x3f4087c8	0.75207186
19	0x3f853d7e	1.0409391
20	0x3f7527af	0.9576368
21	0x3f55b560	0.8347988
22	0x3f80ed18	1.0072355
23	0x3f4e512b	0.805926
24	0x3f39e238	0.7261081
25	0x3f4f8618	0.81063986
26	0x3f7756c5	0.96616775
27	0x3f7d841c	0.9902971
28	0x3f6af560	0.9178066
29	0x3f51de1d	0.8197954
30	0x3f6f9c66	0.9359802
31	0x3f6fcf79	0.93675953

model.1.bias f4 [32]
0	0xbe7d7b75	-0.24754126
1	0xbe681b65	-0.226667
2	0xbe496494	-0.19667274
3	0xbead25d6	-0.3381793
4	0xbe6d9ff6	-0.23205552
5	0xbdf5bcbc	-0.11998889
6	0xbe399443	-0.18122964
7	0xbe489b36	-0.19590458
8	0xbe58ec95	-0.21183999
9	0xbe0825f3	-0.13295726
10	0xbe674340	-0.22584248
11	0xbefc6bb8	-0.49300933
12	0xbe319d8e	-0.17345259
13	0xbe665970	-0.22495055
14	0xbe7ba4de	-0.2457461
15	0xbecbbc4a	-0.3979209
16	0xbe7bf050	-0.2460339
17	0xbecae1de	-0.39625448
18	0xbe9b998e	-0.3039059
19	0xbe139c1b	-0.14415018
20	0xbeba2b4f	-0.36361167
21	0xbe85307a	-0.26013547
22	0xbef49e5f	-0.47777078
23	0xbdcf90b2	-0.1013502
24	0xbe44b729	-0.19210495
25	0xbf1006b0	-0.56260204
26	0xbde8e7f3	-0.11372366
27	0xbf00df7f	-0.5034103
28	0xbd8a3064	-0.06747511
29	0xbecd256d	-0.40067616
30	0xbf001657	-0.5003409
31	0xbe3dc510	-0.18532205

model.1.running_mean f4 [32]
0	0x3da2f86e	0.079575405
1	0xbef64492	-0.4809919
2	0xbef14445	-0.47122398
3	0xbf294e54	-0.66135144
4	0x3d1c4f16	0.03816136
5	0x3e8435b5	0.25822225
6	0xbf396f37	-0.72435325
7	0xbe9abe28	-0.30223203
8	0x3ecab712	0.39592797
9	0x3e5c52f5	0.2151602
10	0xbeff6fed	-0.4989008
11	0xbf08265b	-0.53183526
12	0xbed1c847	-0.40973112
13	0x3dcfc792	0.10145487
14	0xbe96404b	-0.29345927
15	0xbf0a3997	-0.53994125
16	0xbeccb836	-0.39984292
17	0xbf46afeb	-0.7761218
18	0x3e471025	0.19439752
19	0xbecb60e0	-0.39722347
20	0xbecfd77d	-0.40594092
21	0x3c307f55	0.010772546
22	0xbeae33ce	-0.340239
23	0xbed0903c	-0.40735042
24	0xbc704f33	-0.01466732
25	0xbec001a5	-0.37501255
26	0xbe74f1da	-0.23920384
27	0xbed298e4	-0.4113227
28	0xbe9ba089	-0.30395916
29	0xbe5ab420	-0.21357775
30	0xbf1ae681	-0.6050797
31	0xbe0e6ce7	-0.1390873

model.1.running_var f4 [32]
0	0x3e16840b	0.14698808
1	0x3e64c16d	0.22339411
2	0x3e4fd472	0.20295885
3	0x3ebd2161	0.3693953
4	0x3ea470e8	0.3211739
5	0x3e861489	0.26187542
6	0x3e8ae7cb	0.2712997
7	0x3e527b34	0.20554811
8	0x3e4c5baa	0.19956842
9	0x3e3fa9f0	0.1871717
10	0x3ee0f72c	0.43938577
11	0x3e835968	0.2565415
12	0x3e03434f	0.12818645
13	0x3de72cf3	0.1128787
14	0x3e38caa2	0.18046048
15	0x3e8e5768	0.2780106
16	0x3f15e51f	0.58552736
17	0x3ee1835d	0.44045535
18	0x3e90c493	0.28274974
19	0x3e81ad61	0.2532759
20	0x3e1f9547	0.15584289
21	0x3e494f1f	0.19659089
22	0x3e33a2f5	0.17542632
23	0x3e9f5345	0.31118217
24	0x3e311e69	0.17296757
25	0x3e49c07f	0.19702338
26	0x3e90f596	0.28312367
27	0x3e432c01	0.19059755
28	0x3e9fa4c9	0.3118041
29	0x3d8a657d	0.067576386
30	0x3e6b694c	0.22989386
31	0x3e5acfd5	0.21368344

model.4.weight f4 [16, 32]
0	0x3d6d06a3	0.057867657
1	0x3da91506	0.08255963
2	0xbe19b099	-0.15008773
3	0x3c9782d5	0.018495003
4	0x3d0c64b6	0.034275733
5	0xbc7f315b	-0.015575732
6	0xbccfccd8	-0.025366232
7	0xbe5abd60	-0.21361303
8	0xbdefe1f4	-0.11713019
9	0x3cc6be18	0.024260566
10	0xbb0abb03	-0.0021168597
11	0xbe811d83	-0.25217828
12	0x3ce681cc	0.028138064
13	0x3ccff067	0.025383187
14	0x3baa1370	0.0051903054
15	0xbe52c4c9	-0.2058288
16	0x3d61e917	0.055153932
17	0xbc898f80	-0.016792059
18	0x3d683809	0.056694064
19	0x3d17ee4b	0.03709249
20	0x3cb7890e	0.02240422
21	0xbdad3af3	-0.08458509
22	0xbe891086	-0.2677042
23	0xbda750a4	-0.08169678
24	0x3d255937	0.040368285
25	0xbdaf49a7	-0.0855897
26	0xbcb86517	-0.02250914
27	0xbe7baea3	-0.24578337
28	0x3d64ccbb	0.05585931
29	0xbdbd91d8	-0.09256333
30	0xbe4d4bf4	-0.20048505
31	0xbe023bf2	-0.1271818
32	0xbc8680c8	-0.01641883
33	0x3db62845	0.088943996
34	0x3d39e511	0.04538447
35	0xbe14c1e4	-0.14527088
36	0x3c249ed3	0.010047632
37	0x3d04a5b4	0.03238459
38	0x3d49dfe4	0.049285784
39	0xbcb22407	-0.021745695
40	0x3d6c44ad	0.05768268
41	0x3d332e4a	0.043745317
42	0xbe6c2341	-0.23060323
43	0xbc3c55c4	-0.0114950575
44	0x3bb4e0ff	0.0055199857
45	0xbadb4d5f	-0.0016731432
46	0xbeafaaa5	-0.3430988
47	0x3d8b46f2	0.06800641
48	0x3dabdc9f	0.083916895
49	0xbc8a05e7	-0.016848518
50	0xbdc64cbf	-0.09682607
51	0xbec3d6f4	-0.38249934
52	0xbe817803	-0.25286874
53	0x3d2b373f	0.041800734
54	0x3d976183	0.07391646
55	0xbe334bcb	-0.17509381
56	0xbb178915	-0.0023122479
57	0xbd9a170b	-0.07523926
58	0xbdc70b3c	-0.0971894
59	0xbcf53b68	-0.029935554
60	0x3d380eaf	0.04493588
61	0xbd512631	-0.051061813
62	0x3d7e15ce	0.062032513
63	0x3d58631c	0.052828893
64	0x3d59a959	0.053140018
65	0x3d8179a5	0.0632203
66	0xbce0f9f0	-0.02746293
67	0xbd1c08c8	-0.038094312
68	0xbcf4b7f7	-0.029872878
69	0x3d3ce018	0.04611215
70	0xbe6de149	-0.2323047
71	0x3dc328ca	0.09529264
72	0x3bc96a28	0.006146688
73	0xbf15fb09	-0.58586174
74	0xbbdb4329	-0.0066913557
75	0xbe0d6e05	-0.138115
76	0x3dd12cd3	0.10213628
77	0x3cd642a2	0.02615482
78	0x3cb4b69c	0.022059731
79	0xbd84cf5d	-0.06484864
80	0x3d0176f9	0.0316076
81	0xbcd584e1	-0.026064338
82	0xbd06d37e	-0.03291654
83	0x393cb9aa	0.00017998242
84	0x3c227267	0.009914971
85	0xbd0629ad	-0.03275459
86	0x3d686b21	0.05674279
87	0x3cdb9cd6	0.026808184
88	0xbbad5844	-0.005290063
89	0xbdeae675	-0.114697374
90	0x3ce47a51	0.027890356
91	0xbd93edf3	-0.072231196
92	0x3cd373fe	0.025812145
93	0xbde8d722	-0.11369158
94	0xbde39bea	-0.111137226
95	0xbd19fdf7	-0.037595715
96	0x3d660c23	0.05616392
97	0xbdb28dcc	-0.08718452
98	0x3ce2abc4	0.027669795
99	0xbe97fd5a	-0.2968548
100	0x3d4e88bc	0.05042337
101	0x3d237f34	0.039916232
102	0x3d95d5b1	0.07316149
103	0x3d0183b7	0.031619754
104	0x3d2d8f59	0.042373035
105	0x3d07f004	0.03318788
106	0xbe5b77a8	-0.21432364
107	0xbdba4caf	-0.090966575
108	0x3cf3c929	0.029759007
109	0xbc522e8d	-0.012828481
110	0xbed21008	-0.41027856
111	0xbd00e48d	-0.031467963
112	0x3be5e0e0	0.0070153326
113	0xbdde4659	-0.108532615
114	0xbd830ab6	-0.06398527
115	0xbe021fb5	-0.12707408
116	0xbeb98a94	-0.3623854
117	0x3d8bf2b2	0.068334
118	0x3dad07e5	0.084487714
119	0x3d8fa7db	0.07014438
120	0xbd076ca8	-0.033062607
121	0xbd06e849	-0.03293637
122	0xbd9e4218	-0.0772745
123	0x3d9a49d3	0.07533612
124	0x3bdd0ad3	0.006745675
125	0xba7d1294	-0.00096539524
126	0x3dc9607d	0.09832857
127	0xbba2cce3	-0.004968272
128	0x3daa7e4a	0.08324869
129	0xbd6d8307	-0.057986286
130	0x3d2cab2c	0.04215543
131	0x3d17e165	0.037080187
132	0xbec31c72	-0.3810764
133	0xbe84fcc0	-0.25974083
134	0x3d4405f4	0.04785724
135	0x3da8d269	0.082432576
136	0x3c9c59db	0.019085815
137	0xbeb53254	-0.3538996
138	0xbc0b348a	-0.008496413
139	0xbc13d83e	-0.009023724
140	0x3dd5dabe	0.104421124
141	0x3de4b666	0.11167602
142	0x3bdc6bda	0.006726724
143	0x3a25aea3	0.00063202734
144	0xbea66cf3	-0.32504997
145	0x3d452053	0.04812653
146	0xbe13fc96	-0.14451823
147	0xbd2c3916	-0.04204663
148	0xbd894403	-0.06702425
149	0x3d82a78a	0.06379612
150	0xbd4740dd	-0.048645843
151	0x3daea6d0	0.08527911
152	0x3e119bca	0.14219585
153	0xbd64f12f	-0.055894073
154	0x3d6c0b4e	0.05762797
155	0xbd860b77	-0.065451555
156	0x3d4ea604	0.050451294
157	0xbdaf9261	-0.085728414
158	0xbd46660f	-0.048437174
159	0x3d95f3f3	0.0732192
160	0x3c89c92b	0.016819557
161	0x3d29315c	0.04130684
162	0x3d2a54b6	0.041584693
163	0xbe134e24	-0.14385277
164	0x3d89f47d	0.067360856
165	0x3a3f6816	0.0007301582
166	0x3d7cd1e2	0.061723597
167	0xbd890a80	-0.06691456
168	0xbd489e14	-0.04897888
169	0x3ccddb3a	0.02512895
170	0x3dd581a8	0.104251206
171	0xbe8f4109	-0.27979305
172	0xbbb866e2	-0.005627499
173	0x3cc88f81	0.02448249
174	0x3d40948f	0.047016677
175	0xbe76376c	-0.2404458
176	0xbd0c1527	-0.03419986
177	0xbe3fcbfd	-0.18730159
178	0xbbf5ea2a	-0.007504721
179	0x3caf4998	0.021397397
180	0xbc1d32ed	-0.009594661
181	0xbd714151	-0.05890018
182	0xbe4d3ddd	-0.2004313
183	0x3d62847b	0.055302124
184	0x3ca49866	0.0200922
185	0xbe7428f0	-0.23843741
186	0xbe0e02cb	-0.13868253
187	0xbe6d33f3	-0.23164348
188	0x3ccb6972	0.024830554
189	0xba5ff5c6	-0.0008543398
190	0xbe8f1f11	-0.2795339
191	0x3c913380	0.017724752
192	0x3dafa656	0.08576648
193	0xbdeec0fc	-0.116579026
194	0x3d9f8810	0.07789624
195	0xbe43b6c2	-0.19112685
196	0xbe805762	-0.25066668
197	0xbd204a71	-0.039133493
198	0x3d6ad084	0.057327762
199	0x3d7b3147	0.06132629
200	0x3d72c471	0.059269372
201	0x3dfabe6d	0.12243352
202	0xbe98fe4a	-0.29881507
203	0x3b7de294	0.0038739787
204	0xbd8e7261	-0.0695541
205	0xbdb6fe6c	-0.08935246
206	0xbd7563e4	-0.059909716
207	0xbc410612	-0.011781232
208	0xbca4b309	-0.020104902
209	0x3d2a5467	0.0415844
210	0xbd2217c5	-0.03957345
211	0xbed37251	-0.41298154
212	0xbe0d1708	-0.13778317
213	0xba88ce74	-0.0010437504
214	0x3cffa3c5	0.031206021
215	0xbd8ad3b7	-0.06778663
216	0xbd3444bb	-0.04401086
217	0xbd90d932	-0.07072677
218	0x3d5add8c	0.05343394
219	0x3d1580b7	0.036499705
220	0x3d2feef5	0.042952497
221	0xbded0b4c	-0.1157442
222	0x3d1caeba	0.03825257
223	0x3d8bbaef	0.06822764
224	0x3bdc2d64	0.006719278
225	0x3d496eec	0.04917805
226	0xbd8173d3	-0.0632092
227	0xbc03c0bf	-0.00804156
228	0xbee30426	-0.44339103
229	0xbec6d936	-0.38837594
230	0xbc5eb54f	-0.013593032
231	0x3d63275f	0.05545747
232	0x3d18ce50	0.03730613
233	0xbd741193	-0.059587073
234	0xbd006970	-0.031350553
235	0xbd4204d0	-0.04736787
236	0x3d414cb2	0.047192283
237	0xbc578dae	-0.013156338
238	0xbc2f9780	-0.010717273
239	0x3ca3228c	0.019913934
240	0xbe251f73	-0.16125278
241	0x3d0dacde	0.034588687
242	0xbe1e8b31	-0.15482785
243	0x3abdb900	0.001447469
244	0xbceecf64	-0.029151626
245	0x3df1b441	0.11801959
246	0xbcd21d21	-0.025648655
247	0x3dc29d0a	0.09502609
248	0x3dd8d4dd	0.105874754
249	0xbd6ba71a	-0.057532407
250	0x3ccf20ab	0.025284132
251	0x3d55ea32	0.0522253
252	0x3d673c6b	0.056454103
253	0x3ba4f3df	0.0050339545
254	0x3c74d9eb	0.014944534
255	0xbd83176a	-0.0640095

model.4.bias f4 [16]
0	0x361cb1de	2.3349344e-06
1	0xb724363f	-9.787792e-06
2	0xb78b2982	-1.658942e-05
3	0xb6efa8e8	-7.1424183e-06
4	0x37751071	1.4606966e-05
5	0xb7d95c23	-2.591132e-05
6	0xb4e41900	-4.24865e-07
7	0xb7c4a7a9	-2.3443094e-05
8	0xb6eb8acf	-7.019705e-06
9	0x33e7b4f0	1.0789688e-07
10	0x379942dc	1.8270155e-05
11	0xb6b644ee	-5.432047e-06
12	0xb704e9c5	-7.922242e-06
13	0x35cc4c05	1.5221309e-06
14	0xb7126783	-8.726379e-06
15	0xb74011a5	-1.14482e-05

model.5.weight f4 [16]
0	0x3f9b46cf	1.2130984
1	0x3fa2859b	1.2697023
2	0x3f9369fd	1.151672
3	0x3f94613b	1.1592172
4	0x3f8a84f5	1.0821825
5	0x3f86618c	1.0498519
6	0x3f8ac16b	1.0840276
7	0x3f8d21f5	1.1025988
8	0x3fa0af7a	1.2553551
9	0x3f90c4d6	1.131007
10	0x3f87f47f	1.0621489
11	0x3f9cbedd	1.2245747
12	0x3f95795a	1.1677659
13	0x3f94a8be	1.1613996
14	0x3f83b5f0	1.0289898
15	0x3f9787eb	1.1838354

model.5.bias f4 [16]
0	0x3f3e20e6	0.7426895
1	0x3f3a8a79	0.7286754
2	0x3f23ee03	0.6403505
3	0x3f2726e1	0.652937
4	0x3f4ee002	0.8081056
5	0x3f23aa36	0.63931596
6	0x3f32b011	0.69799906
7	0x3f1f86ec	0.6231525
8	0x3f369bfd	0.7133177
9	0x3f57e6b0	0.84336376
10	0x3f43bc20	0.7645893
11	0x3f3f27fa	0.74670374
12	0x3f479e23	0.7797567
13	0x3f1d6606	0.614838
14	0x3f276efb	0.6540372
15	0x3f29c3f5	0.6631463

model.5.running_mean f4 [16]
0	0xbed0ec25	-0.40805164
1	0xbed36277	-0.4128606
2	0xbdf0cc20	-0.11757684
3	0xbeda2d9e	-0.42612928
4	0xbd8faa67	-0.070149235
5	0xbebda9dc	-0.37043655
6	0xbeb4baef	-0.3529887
7	0xbe2189ec	-0.1577527
8	0xbee057c6	-0.43816966
9	0xbe9a6d6b	-0.30161604
10	0xbe6e0933	-0.23245697
11	0xbed17092	-0.40906197
12	0xbedee76d	-0.4353594
13	0xbe24f8d9	-0.16110553
14	0xbec67b7c	-0.38766086
15	0xbee150b7	-0.44006893

model.5.running_var f4 [16]
0	0x3f574901	0.8409577
1	0x3f913421	1.1344033
2	0x3dee567d	0.1163759
3	0x3fe21fca	1.7665951
4	0x3ea2959b	0.31754765
5	0x3f3b24f2	0.7310325
6	0x3f4ae4fc	0.7925565
7	0x3e8d54f1	0.27603868
8	0x3f4ddb5f	0.8041286
9	0x3f015885	0.50525695
10	0x3eba45f3	0.36381492
11	0x3f82c19d	1.0215336
12	0x3f79dc81	0.9760209
13	0x3e3fce00	0.18730927
14	0x3f48f9ad	0.78505975
15	0x3f57d777	0.8431315

model.8.weight f4 [1, 16]
0	0x3ee9ed7a	0.45688993
1	0x3ee76609	0.45195034
2	0x3eee28f3	0.46515617
3	0x3f0285d0	0.5098543
4	0x3ecf64ec	0.40506685
5	0x3f07eeec	0.5309894
6	0x3ee739c3	0.45161256
7	0x3eecab5d	0.4622449
8	0x3ee6e488	0.4509623
9	0x3edfd621	0.43718055
10	0x3ee72c4b	0.4515098
11	0x3ee23a2f	0.44185016
12	0x3edeb916	0.43500584
13	0x3eece541	0.46268657
14	0x3f06fba5	0.5272773
15	0x3ef6a139	0.48169878
