neuralnet/Hyperparameter sweeps/hyperparam sweep round 3/bike_volume_model_net_2layers_lr_0.00002000_batch_32_feat_35.pth (torch, 14730 bytes, 13 tensors)

model.0.weight f4 [32, 35]
00000000: 609e f2bc 3248 af3d ca40 98bd 9259 87bd
00000010: 1db9 84bd fff8 5e3d e3df 55bd d681 343e
00000020: cf28 3d3e f13e dabd b0d7 043d 1377 733d
00000030: 63b7 e43d 0d06 083d 4a0d f63d f0ca 003e
00000040: 4d8c d33d b582 073e 3d20 b13d 0f30 67bd
00000050: 918e a4bd 25cf 07bd af2c 86bd 5016 ccbc
00000060: e599 df3d 4f5f 1d3d 0dc3 b1bb b0f4 693c
00000070: 5703 39bc 6ce8 af3d 6674 9ebd ae83 1d3e
00000080: d240 2f3d 9172 f83d f598 913d 07a8 33bd
00000090: 563f 5abd 612e a0bd 4850 08bd acc0 c53d
000000a0: 5949 d43d a3d2 6a3c 0683 12bd f65b 4dbc
000000b0: da10 8e3c 83fd 8bbc 6585 783d 3388 0c3c
000000c0: 52cd 103e 2303 543d 5e26 683d a179 0ebd
000000d0: 52fe 263a 0af1 2cbe a3f2 8a3e 5c8a 923d
000000e0: 4a37 1b3e 104e 8f3c 2a5e f63d 6a18 403c
000000f0: bd4c b63d f6ea b2bd c14e 10be 4fed 11be
00000100: b1a8 fe3d f45d 6b3c 2357 073e 09a1 163e
00000110: 77a1 ecbc 6ed7 753d d10e ccbd 0412 92bd
00000120: 059c 2fbc e2fe 133c f086 cb3c a311 97bd
00000130: 0832 153e c6d1 16be 3efa 2c3d 2139 873d
00000140: 6086 fb3c bf40 b7bd eba5 a8bd 1c6f cebd
00000150: a0b7 aabd d0e5 cd3c 51f4 e93d 5a31 cc3c
00000160: ea26 4dbd 68ec bf3c 9c74 28bd 9789 b1bd
00000170: b772 623d b7a9 633d b9ad 3bbe f3ca 0fbd
00000180: 8840 08be ea08 573d e9ba 61be 93c1 1fbe
00000190: 83e2 d4bc 36d5 263e 0c85 853e 2947 59bd
000001a0: 4fe5 653d f4e2 233c 453f 1bbd 3ac1 5f3d
000001b0: bf9c 76be fbd4 5f3d 8c56 8c3c 747d 83bd
000001c0: 3c4e 123e 2cce b73b e52f 333d 5eef bebd
000001d0: 52b6 b7bd 7590 6abd 13db acbc 0b64 c5bc
000001e0: 4f7f e3bc 2fa3 463e 7333 e43c 4241 3b3c
000001f0: b7e0 c6bc dcfb c33d b30f 09be 2359 473d
00000200: 4f09 edbc 1e99 e2bd 1a40 e03c 17db c63d
00000210: 52c5 2ebe a016 5dbe 3ceb 443d f48e 1e3d
00000220: 472d 20be 4ba3 443d e27f f7bb 2fbe aabd
00000230: be21 ce3b 7e27 dc3d 6e22 19bd 8b67 63bd
00000240: f595 80bc f82c 01be 6e14 c53d b7f7 96bd
00000250: 3c20 96bd 80cf 173e 5e0a 9d3b 931f 04be
00000260: 06de 79bd d13a 2abe bcad 41bc 1190 153d
00000270: 5ee5 c23c 384d 393d 6d68 073d c6a8 febc
00000280: 6ffa 51be caa4 12be 2b72 063e 4a3b 183c
00000290: f8ec 82bd 4d42 a53d 6d3e aebd 04f5 b0bb
000002a0: 4a60 06be 34ba 0fbd 7468 ccbc e8a3 6bbd
000002b0: 7a2e ea3c 6c34 51be c471 563d 2d1b a8bd
000002c0: c0a6 c9bd a217 87bd 9fae 513c d9f9 343d
000002d0: 5007 0e3d 6514 dc3d e802 3abd e21e ddbd
000002e0: 3dd0 debd 0e85 c5bd 99ae e0bd 217a 7cbd
000002f0: 2dbc d43d e952 cdbc 3d5c e03c c0b1 e13d
00000300: cd7b 0f3e f032 3cbc 1f8f 803e 19e0 513c
00000310: 8104 4e3d 2c07 c7bd c4b4 cd3d 3146 31bd
00000320: 8f77 a9bd 0db1 45be 4106 14bb b190 a23d
00000330: 69e3 b9bd 4651 7f3d 1745 433e 9546 153e
00000340: 77a8 5fbd 29ed 4dbd 59c5 f93d f0d4 2d3d
00000350: 280e 31bc 10ac 24be 09e9 993d 91e5 9c3d
00000360: 0e0b b3bb 3fbc 5ebc fe5d d4bd da7f c83c
00000370: a08a 89bd 1005 873d bcf6 d0bd d927 dc3d
00000380: 2c99 423d cec4 94bd ff14 e63d 9df2 c4bd
00000390: 9169 34bd fee1 0b3e c3b4 da3c 5309 ba3d
000003a0: 9fc0 9c3d 2a5c 1e3e 5e44 8bbd 8294 2e3d
000003b0: b7bc 97bd 17e6 16bd 152f 7abe bf86 933d
000003c0: a8dc b73c d35d fe3d 2c1f 5e3e 3c76 75bd
000003d0: 0619 0abd 00bd 7c3c 1d5b fe39 3684 36be
000003e0: bf15 10bc 6f73 1d3e 49e1 8fbd 63e1 813c
000003f0: 93fc b0bd 554c 14be 0e16 23be 9065 e63d
-0.029616535 0.08558692 -0.074342325 -0.06608881 -0.0648062 0.05443668 -0.05221547 0.17627653
0.18472598 -0.10656536 0.032432258 0.05943973 0.11167791 0.033208895 0.120142534 0.12577415
0.103294946 0.13233455 0.08648727 -0.056442317 -0.08035005 -0.033156533 -0.065514915 -0.024912983
0.10918025 0.03842097 -0.005424863 0.014279529 -0.0112923 0.08589253 -0.07737045 0.15382263
0.042786427 0.12131227 0.07109252 -0.043861415 -0.053283058 -0.07821346 -0.033279687 0.0965589
0.103655525 0.014332446 -0.035769485 -0.012534132 0.01734202 -0.017088657 0.06067409 0.008577394
0.14140823 0.051760804 0.056677215 -0.034783963 0.0006370294 -0.16888824 0.27138242 0.07155296
0.1515781 0.017493278 0.12029679 0.011724571 0.089013554 -0.087362215 -0.14092542 -0.14250682
0.12434519 0.014365662 0.13216834 0.14709868 -0.028885586 0.060019903 -0.099637635 -0.071323425
-0.01071835 0.009032937 0.024844617 -0.07376411 0.14569867 -0.1472846 0.042230837 0.06602693
0.030703723 -0.08947896 -0.08234771 -0.10079786 -0.08335805 0.025133997 0.11423553 0.024925876
-0.05008594 0.023428157 -0.041126832 -0.08668821 0.05528518 0.055581775 -0.18327989 -0.035105657
-0.13305867 0.052498735 -0.22043957 -0.15601186 -0.025986915 0.16292271 0.2607807 -0.05304638
0.05612689 0.01000284 -0.037902135 0.054627635 -0.24083231 0.054646473 0.017131113 -0.06420413
0.14287657 0.0056092944 0.043746848 -0.093229994 -0.08970322 -0.05726667 -0.021100556 -0.024095556
-0.027770666 0.19398187 0.027856564 0.011429133 -0.024277074 0.09569523 -0.13384895 0.04866899
-0.028935103 -0.11064361 0.027374316 0.09709757 -0.17067459 -0.21590662 0.0480759 0.03871055
-0.15642272 0.04800729 -0.0075530866 -0.08337056 0.0062906435 0.1074972 -0.03738635 -0.05551867
-0.015696505 -0.1261481 0.09623037 -0.073714666 -0.07330367 0.14825249 0.0047924956 -0.1290267
-0.061002754 -0.16623999 -0.011821207 0.036514346 0.023791011 0.045239657 0.033058573 -0.031086337
-0.20505689 -0.14320675 0.13129489 0.009291479 -0.063928545 0.080692865 -0.085080005 -0.005400302
-0.13122669 -0.035089687 -0.02495215 -0.05752936 0.028586615 -0.20430154 0.05235459 -0.08208308
-0.09846258 -0.065963045 0.012797981 0.044183586 0.034674942 0.107460774 -0.045412928 -0.10796906
-0.10879562 -0.09644519 -0.10970802 -0.06163991 0.10387454 -0.025063949 0.027387733 0.11020231
0.1401207 -0.011486754 0.25109193 0.012809777 0.050297264 -0.09718165 0.10044244 -0.04327983
-0.08274757 -0.19305821 -0.0022586735 0.07937754 -0.09076578 0.062333368 0.19069324 0.14577706
-0.05460402 -0.050275 0.12195844 0.0424394 -0.010806598 -0.16081262 0.07515151 0.07660974
-0.0054639643 -0.013594686 -0.1036949 0.024475027 -0.06715894 0.065927625 -0.10203311 0.10749788
0.047509357 -0.072641 0.112344734 -0.09616587 -0.04404599 0.13660428 0.026697522 0.0908381
0.07653927 0.15464845 -0.068001494 0.042622097 -0.074090414 -0.036840525 -0.24432023 0.07203435
0.022444084 0.12420239 0.21691579 -0.05992721 -0.03371527 0.0154259205 0.0004851454 -0.17823872
-0.008794247 0.15376066 -0.070253916 0.015854543 -0.08641925 -0.14482243 -0.15926382 0.1124984

model.0.bias f4 [32]
00000000: a0c4 04b7 24d9 fe36 a54d 2837 de13 5836
00000010: f11e 50b6 6763 16b8 63c1 76b7 0e3a 9db6
00000020: 8c50 dbb6 ca1a ccb7 7a98 1237 2ab5 3737
00000030: cdc6 85b7 6381 eab7 361c 2136 3925 9136
00000040: eda9 80b6 5e85 c2b7 fc60 e0b6 189b ddb6
00000050: b079 a635 1040 7cb6 dc35 f937 929b 2e38
00000060: de79 e7b7 b23c c0b7 98bd 3536 9e3c 63b7
00000070: c8be 35b7 0b3a d137 2683 0c37 df2f 2737
-7.913593e-06 7.5950684e-06 1.0031658e-05 3.2198072e-06 -3.1012426e-06 -3.5855363e-05 -1.4707769e-05 -4.685723e-06
-6.5360855e-06 -2.433117e-05 8.737779e-06 1.09498305e-05 -1.594741e-05 -2.7955224e-05 2.400729e-06 4.32567e-06
-3.8344792e-06 -2.3188706e-05 -6.6870107e-06 -6.6043685e-06 1.240338e-06 -3.7588215e-06 2.9708193e-05 4.162972e-05
-2.7594095e-05 -2.2916447e-05 2.708146e-06 -1.3544368e-05 -1.083286e-05 2.494177e-05 8.375186e-06 9.9651215e-06

model.1.weight f4 [32]
00000000: cbd3 433f 2d8f 673f 1a7a 7c3f ae39 6c3f
00000010: 1ffe 823f f582 6b3f ff54 5e3f 2136 2c3f
00000020: 6c77 5e3f dec8 663f 2094 843f 8b17 533f
00000030: 36da 503f 32be 853f 18a4 563f 7a29 653f
00000040: 627b 6d3f 4b9d 7c3f 64cb 443f deac 683f
00000050: 75c5 453f 5428 923f 61bb 6d3f a300 523f
00000060: 940d 8b3f cf1f 803f 243e 393f 9cda 663f
00000070: 9802 793f 9861 443f 4487 5b3f 81ce 713f
0.76495045 0.90452844 0.9862381 0.9227551 1.0233802 0.919967 0.86848444 0.67270094
0.86900973 0.9015025 1.0357704 0.824578 0.81582963 1.0448668 0.8384414 0.89516413
0.9276639 0.9867751 0.7687285 0.90888774 0.7725442 1.1418557 0.9286404 0.8203222
1.0863519 1.0009707 0.72360444 0.9017732 0.9726958 0.76711416 0.85753274 0.94455725

model.1.bias f4 [32]
00000000: 0b56 3fbe f0a9 adbe 0137 9abe 54ec 97be
00000010: 5ca6 83be edec 99be 4300 0dbf 54e1 45be
00000020: 029a 4dbe c736 bfbe eb6f 3abd df77 0fbf
00000030: 6682 0cbf 9bb2 83be 3179 93be 68d8 efbc
00000040: f6d1 cbbe b798 24be 8038 11bf b489 a7be
00000050: aded 07bf 0cee 90bd 3676 60be 81b0 16bf
00000060: ed41 45be bb31 53be 437c 60be 2786 f5bd
00000070: 753b 0cbe 0288 59be 111c cfbe 3c3a 2abe
-0.18685167 -0.33918715 -0.3012009 -0.29672492 -0.2571286 -0.30063573 -0.55078524 -0.19324237
-0.2007828 -0.3734648 -0.04551689 -0.56042284 -0.5488647 -0.25722203 -0.288034 -0.029277995
-0.39808625 -0.16073881 -0.5672684 -0.32722247 -0.5309704 -0.07076654 -0.21920094 -0.58863074
-0.1926343 -0.2062444 -0.21922402 -0.11988478 -0.13694556 -0.21243289 -0.404511 -0.16623777

model.1.running_mean f4 [32]
00000000: 16d8 0ebf ac54 3ebf 9893 e5be 491f 4dbf
00000010: c3ee 953c 9c1c 77be 9b9e 8abf 9f6b 333f
00000020: feba 89be 6940 1cbf 6b07 efbe be98 fabe
00000030: 1026 4bbe aad3 3bbf 2a0c c9bd f261 843e
00000040: 1458 e3be bf4f d4be 707c 43bf 6377 b5bd
00000050: a44e 67bf 24bc 553e d581 35bf 2e4c 523d
00000060: 86b0 99be 9157 7abe 0dc0 223e 9db8 46bf
00000070: 162e 4f3e 6b0b 063f 2911 85bf 9bec 24bf
-0.5579847 -0.7434795 -0.44839168 -0.8012586 0.018302327 -0.24132007 -1.0829653 0.7008609
-0.26900476 -0.6103578 -0.46685347 -0.48944658 -0.19838738 -0.7336985 -0.09816773 0.25855976
-0.44403136 -0.4146709 -0.7636175 -0.08860662 -0.9035437 0.20872551 -0.7090123 0.05134218
-0.3001749 -0.24447466 0.15893574 -0.7762545 0.20232424 0.5236117 -1.0395862 -0.6442353

model.1.running_var f4 [32]
00000000: f3f5 173f c7ae ec3e ceaa 153e b646 943e
00000010: 430e 003e 7a5a 3a3e 67f2 f33e a961 553f
00000020: 1643 9c3e c334 d63e b620 ab3e 55db 393e
00000030: 1e8e 253d 8cfe dc3e 4192 593e 17d5 fb3d
00000040: f27a 883d 0a01 e63e 40f3 a63e 7e32 3a3e
00000050: bd7a d63e 838d cf3d 690e 723e e9df 303d
00000060: c65d 223e 529b ae3e bcc1 8b3e 2c13 ef3e
00000070: 478e 603d 0658 bd3d 14d8 973e dad1 523f
0.59359664 0.46227095 0.14615938 0.28960198 0.1250544 0.18198577 0.47645876 0.8335214
0.30519933 0.4183713 0.33423394 0.18150075 0.040418737 0.43162954 0.21247198 0.12296503
0.06664075 0.44922668 0.3260746 0.18183324 0.41890517 0.10134413 0.2363831 0.043182287
0.15856084 0.34102875 0.27296245 0.46694314 0.054823186 0.09245305 0.29657042 0.8235146

model.4.weight f4 [16, 32]
00000000: b168 5b3d 4137 89be 184c 25be 5019 2f3c
00000010: c7f9 2cbd 78f7 bdbd 05b4 ddbe c093 263c
00000020: fa5b 893d 22cf debd 5e6f c83c dcd2 c0be
00000030: 3ea3 9ebb 805f 843c 3f48 c9bc 3250 3e3b
00000040: 4f15 a33d 2e51 9b3c 0a63 a1be a2a9 85bc
00000050: 9118 76bd 1f7d ac3b 0d6e 42bc 58ad cebc
00000060: 8bde 803d 54ae 713c 19d5 753d ee69 f8bc
00000070: 7b38 a8bd 7865 ca3c 1ae0 ad39 7b92 7abd
00000080: 424d 303d b61b 06bc f0ee 50bd cb96 d1bd
00000090: 5f5b 58bc 4f74 a93c 3a0c 0fbd 4fd5 f9bc
000000a0: a167 773c 0f60 523c 5dd7 a33c e025 b6bb
000000b0: 56a1 3fbe a759 09bf e098 d6bc fe9f 863c
000000c0: 9bb3 273d b0bd 43bd 2129 0ebe fb56 dc3c
000000d0: ce44 0ebe 9d7a 7d3c ea37 4dbd 8a4b 80be
000000e0: c3d1 ec3c a4d7 1e3d bd0a 303c 2d3e 703d
000000f0: 0e25 cd3b 35aa 47bc 14d1 9cbd d6db 5f3d
00000100: 37bc 843c 88b1 013d a2bb b4bc f20f f9bd
00000110: 0ccf 35be 1556 0fbd 89af f4bd c178 f2bd
00000120: 3f9d efbb 1d44 2d3c 132e bb3c ac83 dcbd
00000130: e5c5 e6bd 443d 993d 943a 9c3d b660 0f3d
00000140: 6dee e7bc ff5f 523d 4fbe 3abe 7763 c63c
00000150: 603b 52bd 28e5 7f3d 3fc2 8dbe ab32 8abe
00000160: 5356 a8be d70e f83c 225a 04be f5a9 bc3d
00000170: a298 033d 3ef5 0bbd e9ab 0abe bb78 63bd
00000180: 0de3 b7bd c93e 26be 4eba c13d 5e0d a03d
00000190: c7a5 de3c 7cd9 95bd ac62 16be 6dd6 b7bb
000001a0: 56ff 88be eee3 35be 013f 993c fc1f 06be
000001b0: ad33 99bc b641 543c 3b3e cd3c cc08 9a3b
000001c0: f784 743d 6da9 57be 7854 82bc 755b 22be
000001d0: 7666 f4bd 793a 5bba 3cec 823d 0238 1d3d
000001e0: 0585 f53c 95f6 a7bd 1f36 953d 9861 8f3d
000001f0: e87c a0be b722 a43c 441d 323d 082c 0dbe
00000200: 6e2f d13c 005c a7bd e81f 9c3d 2a1e 99bd
00000210: 0f91 1b3c bbba cd3c 02ba 97bc 8f57 a53d
00000220: c78e c53d bf2e 1cbd b7ee 1ebf c65c d4bd
00000230: 4030 90bd 13f7 763d 2c92 283e 179e 4a3c
00000240: 4e48 16be 7cf7 64bd b984 8dbc e0af 0cbd
00000250: c385 ccbd 36ea bd3d 76d9 323d c0f6 20be
00000260: bf60 173d 96c0 843d aebc 1bbe 3fb0 063d
00000270: 7968 8bbc 85b5 4fbe 1444 69bd cf85 573d
00000280: dd6f 05bd a9d0 0dbe 7535 8fbc b4a0 5c3d
00000290: 0b59 c03d d895 93be 26ff f33c f487 893c
000002a0: fd00 cd3d d7bb 7abe d6e2 fa3c 9697 b4bd
000002b0: 42c2 f53c e7f7 993c 7896 f83c b740 893c
000002c0: 8f3b 733c 2ef8 dcbe 416d 2abd 6d46 1abe
000002d0: 4f6f 14bd bc3f ae3c fed7 863d 9fd5 403d
000002e0: be1f 653d 8b3a 04be 4db3 67bd 2f38 2ebe
000002f0: 1a5d 83bd 93bb 37bc e0a5 6e3d d6cc 76be
00000300: 77b7 0dbe df4b 343d d7b8 033d 62eb f33c
00000310: a9b0 853d e133 8e3c 64e4 1dbd cad4 46bd
00000320: 86aa ae3d 600b 293d bd9d 3dbe 82c1 e83c
00000330: bcb9 24be 37a5 c2bc c6ae 9e3d 1ac1 233e
00000340: 6867 4bbe 8d5f 5b3d c2db babd 8816 063b
00000350: dbce 24bd 4d5d fabe 31d6 ebbd aec3 71bc
00000360: 3014 343d 53bb 223d 7daa ca3d dffe 8d3a
00000370: 1967 b8bc 4254 14be b537 b5bd 9457 acbc
00000380: f772 26be 2636 213d f7a4 383d 9f54 adbe
00000390: cf1a 99bd 1715 0cbd 44d4 2bbd 74e4 89bc
000003a0: d9bc 24bd 15bd 903d d1e4 bc3d 690f 30bd
000003b0: 498a 91be 408f 35be 0426 d03d fdad e1bd
000003c0: 1f73 4dbd d848 93bc 9405 a5bd 95ad 1dbc
000003d0: 4fe2 b1bc 288a 8dbb 2f0d a2be c548 8ebe
000003e0: 6994 4dbe a5b8 aa3d 8f60 143e c049 a13c
000003f0: 6424 2d3d 4bc2 e0bd dbee 8cbe 7a83 143d
0.05356664 -0.26799968 -0.16142309 0.010687187 -0.042230394 -0.092757165 -0.43301407 0.010167062
0.06706996 -0.10879351 0.024467167 -0.37660873 -0.0048412373 0.01615882 -0.024570582 0.00290395
0.07963049 0.018959608 -0.31520873 -0.016316239 -0.060082022 0.005263939 -0.011867058 -0.025229141
0.06292447 0.014751036 0.06001768 -0.030323949 -0.08213898 0.024706587 0.000331641 -0.06117485
0.04304243 -0.008185318 -0.05100912 -0.102338396 -0.013205378 0.020685343 -0.03492377 -0.030497221
0.015100391 0.012840285 0.020000154 -0.0055587143 -0.18713889 -0.53652424 -0.026195943 0.016433712
0.04094277 -0.047788322 -0.13882877 0.026896944 -0.13893434 0.015471128 -0.050102152 -0.25057632
0.028908616 0.03877987 0.010744748 0.058653045 0.006260521 -0.012186577 -0.07657066 0.05465301
0.01620303 0.031663448 -0.022062127 -0.121612445 -0.17754763 -0.034994204 -0.11947543 -0.11839438
-0.0073124464 0.0105753215 0.022849118 -0.10767302 -0.11268214 0.074823886 0.076283604 0.03500434
-0.028311932 0.05136108 -0.1823666 0.02421735 -0.051326156 0.0624744 -0.2768726 -0.26991782
-0.3287836 0.030280514 -0.12925008 0.09212104 0.032127984 -0.034169428 -0.13542141 -0.05553506
-0.089788534 -0.16234888 0.09459363 0.078150496 0.027178658 -0.073168725 -0.14686078 -0.0056102783
-0.26757306 -0.1776273 0.0187068 -0.13098139 -0.018701399 0.01295512 0.025054088 0.0047007557
0.059697118 -0.21060725 -0.015909418 -0.158552 -0.119336054 -0.00083629 0.063927144 0.03838349
0.029970655 -0.08201329 0.072857134 0.070010364 -0.31345296 0.020036085 0.04348494 -0.13786328
0.025535312 -0.081718445 0.07623273 -0.074764565 0.009495034 0.025113454 -0.018521313 0.08073341
0.09646373 -0.038130518 -0.62083 -0.10369258 -0.07040453 0.060294222 0.1646201 0.012366793
-0.1467602 -0.055900082 -0.017275201 -0.034347415 -0.099864505 0.09273188 0.04366442 -0.15719128
0.0369575 0.06482045 -0.15208694 0.032882925 -0.01701759 -0.20284088 -0.05694969 0.052617844
-0.032577384 -0.13849129 -0.017481545 0.053864196 0.093919836 -0.2882526 0.02978475 0.01678846
0.10009954 -0.24485718 0.030625742 -0.08817975 0.029999856 0.018794967 0.030345187 0.016754491
0.014845743 -0.43158096 -0.0416081 -0.15065928 -0.036238965 0.021270625 0.06584166 0.047078725
0.055938475 -0.12912957 -0.05656748 -0.1701362 -0.06414242 -0.011214155 0.05826366 -0.24101576
-0.13839518 0.04401767 0.0321587 0.029775325 0.06527836 0.017358722 -0.03854789 -0.048542775
0.085286185 0.041270614 -0.18517204 0.028412584 -0.16086477 -0.023760421 0.07748179 0.15991631
-0.19863665 0.05355792 -0.09123947 0.0020460207 -0.040236335 -0.48899308 -0.11515463 -0.014756126
0.043964565 0.039729428 0.09895799 0.0010833404 -0.022510098 -0.14485267 -0.08848516 -0.021037854
-0.16254793 0.03935828 0.045079198 -0.33853623 -0.074758165 -0.0341998 -0.04195048 -0.016832568
-0.04021916 0.070673145 0.09223331 -0.042983446 -0.28425816 -0.17730427 0.10163501 -0.11019514
-0.050158616 -0.01797907 -0.080577046 -0.009623905 -0.021714358 -0.004319448 -0.31650683 -0.27789894
-0.20076145 0.083359994 0.14489959 0.019688487 0.042271033 -0.109745584 -0.27525982 0.0362582

model.4.bias f4 [16]
00000000: 7aa4 60b7 9e92 10b6 a8d0 a036 930b fd36
00000010: 1d41 8eb7 092b 8cb7 45c0 7c36 bd38 6837
00000020: f94b 3c37 8de7 e7b6 6c03 03b7 f2fa 30b7
00000030: acf1 8537 e0ee 8337 3ae7 feb7 5570 3db7
-1.3389736e-05 -2.1543015e-06 4.7926624e-06 7.541335e-06 -1.695804e-05 -1.670934e-05 3.7662842e-06 1.3841488e-05
1.1223362e-05 -6.9112925e-06 -7.809005e-06 -1.0548845e-05 1.5967373e-05 1.5727652e-05 -3.0386833e-05 -1.1291432e-05

model.5.weight f4 [16]
00000000: 83ef 8c3f db57 873f 5972 903f fea2 8f3f
00000010: f5f9 813f bcc7 a83f f4fb 8f3f 782b 883f
00000020: 6221 993f 214d 9c3f d9e6 9b3f dbb3 8c3f
00000030: b644 933f d9fd 9b3f 03c0 893f 2892 8f3f
1.1010593 1.0573686 1.1284896 1.1221616 1.0154406 1.3185954 1.1248765 1.0638266
1.1963313 1.2211038 1.2179824 1.0992388 1.1505344 1.2186843 1.0761722 1.1216478

model.5.bias f4 [16]
00000000: b971 383f 299c 1e3f 63ca 3a3f 3267 183f
00000010: 900d 3a3f 2953 313f aaf6 153f 2783 3c3f
00000020: f3b0 273f 44ad 3a3f 72b2 313f f16a 163f
00000030: fa13 2b3f 523b 303f eb1b 3d3f 9e32 3d3f
0.72048527 0.6195703 0.7296507 0.59532464 0.72676945 0.6926752 0.58579504 0.7363762
0.6550438 0.7292063 0.6941291 0.5875693 0.66827357 0.68840516 0.73870724 0.7390536

model.5.running_mean f4 [16]
00000000: 4bae d3be 43f5 8dbe 5e6b adbe 589a e7be
00000010: 37b2 d2bd 21b2 e8be cfc9 1dbe 3c5b afbe
00000020: 8191 b2be 9931 f3be 8743 fcbe 543b 66be
00000030: e24e 08bf f392 89be da75 aabd eadf 01be
-0.41343912 -0.27726182 -0.33870977 -0.45234942 -0.10287898 -0.45448402 -0.15409015 -0.34249294
-0.34876636 -0.47498778 -0.4927027 -0.2248357 -0.53245366 -0.26869926 -0.0832326 -0.12683073

model.5.running_var f4 [16]
00000000: 20b2 843f 4426 ee3e 0079 ad3e acab 2f3f
00000010: 3f04 603e dc11 ef3e 4f7b e53e 3d56 013e
00000020: 3d62 833e 111b 283f 13b3 2a3f fc9a 1c3f
00000030: b327 2c3f 6634 253f a812 353e e264 333e
1.036686 0.4651357 0.33881378 0.68621325 0.2187662 0.46693313 0.4482064 0.12630554
0.25660887 0.656663 0.66679496 0.6117399 0.67248076 0.6453308 0.17682898 0.17518952

model.8.weight f4 [1, 16]
00000000: 7622 fa3e 5ae1 0a3f 9f88 ed3e 2718 0a3f
00000010: b520 ec3e 683d e83e c36f f13e a30e e83e
00000020: 4d21 e13e a33e e73e 4f74 ec3e b0ca 073f
00000030: e50e f73e 892d ed3e 107c eb3e ed81 e83e
0.48854417 0.5425011 0.46393296 0.53943104 0.46118703 0.4535935 0.4715558 0.45323667
0.4397072 0.45164976 0.46182486 0.5304365 0.4825355 0.46323803 0.4599309 0.45411626
