neuralnet/Hyperparameter sweeps/hyperparam sweep round 3/bike_volume_model_net_2layers_lr_0.00005000_batch_96_feat_0.pth (torch, 21622 bytes, 13 tensors)

model.0.weight f4 [32, 89]
00000000: 3978 2f3d 7357 14bc c489 b1bd bb93 403d
00000010: e4c6 473d f740 f83b 66cd 693d 120f 92bc
00000020: aed0 463d 91c6 f9bd f7ff 0abd 5cd7 23bd
00000030: 3431 973c 42e0 073e 042b 993d 2090 9ebb
00000040: d650 5fbd 5636 e23c e5ce d9bd fc6a 433d
00000050: e676 eb3c cde6 fb3b 5926 943d 51a0 b33d
00000060: fd27 2bbc 5a0f 2e3d 442d 05bc c58a 263d
00000070: 908a 6f3d 67b7 56bc 1e6b a7bd 7fc0 9abd
00000080: 7bb8 643d 85e6 e23d 4d0d 833d 8b95 c5bc
00000090: 8808 e8bd d4b5 7e3b 200a f33c 5a6b 173d
000000a0: 85fc 78bd 3f75 253e 34cc 883d 1807 953d
000000b0: 3e4e d5bc 2afb b5bd 1d63 2a3d 8f47 133c
000000c0: 8e2d 623d 1899 6abd f606 093c 71a8 86bc
000000d0: 9721 afbd e249 10bd b1e2 233e 6122 923d
000000e0: d094 ad3d 8eda 913b 49af 253d 362b 893a
000000f0: 0446 87bd ead8 3bbd 85f7 9f3d 1094 303d
00000100: f44e 5dbd 68ea 0a3d 9871 f73b 7504 83bd
00000110: d352 cdbb e067 b13d b757 5abd ef39 5d3c
00000120: cdb6 7abd 6fab 72bc 1f47 b03d 943c a2bd
00000130: a65e 923d 3d59 80bd 63b4 dcbc 100f d83d
00000140: 2d37 a5bd 06d0 b7bd fcad 753d e982 203d
00000150: d08b a03d 78cc 383d 4b57 b73d be36 45bd
00000160: bb7a 823d 1cb5 493d 05e8 b7bd 9f1e 6a3c
00000170: 2e2e 173d a105 dabd de17 93bd 3543 103d
00000180: be70 543d b2f6 87bb cf89 b3bd 774e ff3c
00000190: 4043 ab3c 0c8a 59bb 9833 8ebc 860e 623d
000001a0: a579 1a3d f445 82bd ec9a 373d 7ff8 983d
000001b0: 61d1 f83c 0e90 fa3c 59b3 05bd cfae 7e3d
000001c0: 7c22 49bd 6964 6ebd 0038 2c3d 19f5 d23c
000001d0: d45e 143d 6293 71bd 56e3 6f3b 946b c9bd
000001e0: d970 bf3d 36af 363c 9a8b 82bc 1a73 40bd
000001f0: ec76 62bd 1855 e23c 6a34 46bd 8498 393d
00000200: 0f58 93bb 5036 72bd 9b22 0ebe b038 cbbd
00000210: 37c2 25bd e277 bdbd 7da9 b1bc e1b1 43bd
00000220: c1c5 85bc 2213 983d 9582 25bd 519a 11bd
00000230: 0587 ef3c 7ae1 023d 2b03 663c 82ae b23d
00000240: a40e f1bc 79d6 a8bc a0d3 07be c18f bd3c
00000250: 2651 943d 4fe6 9dbd 2e06 023e fa73 3ebc
00000260: 4ee5 ff3c a75a ea3d d7ae 41bd 0f19 fa3d
00000270: 3059 4a39 4d6e 4dbd 1f77 dcbc df8f 24bd
00000280: ca1f 59bd c5a0 66bd 25b1 b1bc 3f1d a2bb
00000290: 85a9 253d e1cc e93a 2a09 b4bc 4ccb ed3c
000002a0: fad0 b63d f393 1ebc 32ed 413d cc3e 6b3b
000002b0: 867f 45bd c30c f9bd c34c 063e 4477 2cbe
000002c0: 8023 a03d e1b4 033c 4d59 cfbd f842 c03c
000002d0: 02b5 7c3c 4636 883d f8a7 0bbe 59a9 753c
000002e0: dbb7 42bb 6c4c 933d a19a 9abd 6f6f 0ebd
000002f0: 6421 23bc 2c11 413d c689 8d3d 6871 473d
00000300: 810a 233d c627 03bd 4d0b 3bbb 52c0 80bd
00000310: 265e 65bd a29b 963d 0c33 c7bc 15e0 97bc
00000320: e1c8 6cbc b98d fcbc 3112 2a3b c649 84bd
00000330: c857 42bd b39c 553c 6f88 f93c 8e2d 66bd
00000340: ffb3 d63d 2e14 7e3d 8e4a 6b3d bd78 12bc
00000350: aaba f63c 7f5a 2dbd 73c9 6a3d 9e44 de3d
00000360: de2a 293d 6e23 85bd 8f03 cfba 0e5d 7fbd
00000370: 015b 53bd 695e 98bd a029 0a3b 9f63 413c
00000380: 5f27 7abc 6be7 6bbd 41b8 7cbd 50a2 9dbd
00000390: 33e0 583d b03b 3cbd 6281 d0bc bb8c ea3b
000003a0: 9211 6a3d d354 9d3d 7909 a3bd 7946 a3bc
000003b0: ecb6 d3bb 55a4 623d 11ad f3bd 11c9 853c
000003c0: 70c8 09be 0900 ccbd aea3 dabc 1af7 073e
000003d0: 43c1 abbd 84f2 853c 7663 32bc ab0e 9abd
000003e0: 732f 8abd b073 1b3c 16d2 b9bc b623 853d
000003f0: e97a dc3c 2850 5bbd 2062 8b3d 8d18 15bd
0.042839263 -0.009054053 -0.08668855 0.047015887 0.04877366 0.007576104 0.05708065 -0.017829452
0.048538856 -0.12196077 -0.033935513 -0.040000305 0.018456079 0.13269141 0.07478908 -0.0048389584
-0.05452045 0.0276138 -0.10635165 0.04770945 0.028743219 0.0076874257 0.07233877 0.08770812
-0.010446546 0.04249511 -0.008128468 0.040659685 0.058481753 -0.01310525 -0.08174728 -0.07556247
0.055839997 0.11079124 0.06399021 -0.02411916 -0.11329752 0.0038865702 0.029667914 0.036967613
-0.060787696 0.16158007 0.06679574 0.07276744 -0.026038285 -0.08885796 0.041598428 0.008989229
0.055219226 -0.057274908 0.008363476 -0.016437741 -0.08551329 -0.03522671 0.16004445 0.071354635
0.08475649 0.0044511026 0.040450368 0.0010465148 -0.06605151 -0.045861162 0.078108825 0.043109953
-0.054030374 0.033914953 0.007551383 -0.063973345 -0.006265977 0.08662391 -0.053306308 0.013502582
-0.06120949 -0.014811381 0.08607315 -0.079217106 0.07146959 -0.06267021 -0.026941484 0.10549748
-0.080671646 -0.08975224 0.059980378 0.039187346 0.07839167 0.04511687 0.08952197 -0.04814791
0.06371065 0.049244985 -0.08979801 0.014289527 0.036909275 -0.10645605 -0.07182287 0.035220344
0.05186533 -0.0041492814 -0.08766519 0.031165345 0.02090609 -0.0033193855 -0.017358586 0.055189632
0.037713666 -0.06360999 0.04482548 0.07469272 0.030373277 0.030586269 -0.032641742 0.06217843
-0.049105152 -0.058201227 0.042045593 0.025751637 0.036223248 -0.058978446 0.0036604009 -0.09834972
0.09347696 0.011150172 -0.015935708 -0.04698477 -0.055289194 0.027628466 -0.04838983 0.045311466
-0.0044965814 -0.059133828 -0.13880388 -0.09922922 -0.04046842 -0.092513815 -0.021687264 -0.04777706
-0.016329648 0.07425524 -0.040407736 -0.03554756 0.029239187 0.031953312 0.014038841 0.08724691
-0.029425927 -0.020610081 -0.13264322 0.023139836 0.0724204 -0.077099435 0.1269767 -0.011624331
0.03123727 0.11443072 -0.04728588 0.12211811 0.00019297446 -0.05015402 -0.02691227 -0.04017627
-0.053008832 -0.056305666 -0.021690914 -0.004947334 0.04044487 0.0017837548 -0.021977026 0.029027604
0.08926578 -0.0096788285 0.047345348 0.0035895584 -0.04821732 -0.12160637 0.1311522 -0.16842371
0.07819271 0.00803873 -0.10124455 0.023469433 0.015424015 0.06650977 -0.13638294 0.014993989
-0.0029711637 0.07192311 -0.075490244 -0.03477424 -0.009956691 0.047135517 0.06911044 0.048692137
0.03980494 -0.032020353 -0.0028540671 -0.06286682 -0.05599799 0.07353903 -0.024316333 -0.018539468
-0.01445219 -0.030829297 0.0025950784 -0.06459384 -0.047446996 0.013037848 0.030460564 -0.056195788
0.1048355 0.062030964 0.057444148 -0.008939919 0.030118305 -0.042322632 0.057321023 0.108529314
0.041300647 -0.06500898 -0.0015793907 -0.062344603 -0.05160046 -0.07439882 0.002108194 0.011803537
-0.015268176 -0.057593744 -0.061699156 -0.07696974 0.052948188 -0.04595536 -0.02545232 0.0071578897
0.057145663 0.076821946 -0.07960791 -0.019931065 -0.006461015 0.0553325 -0.11898244 0.016331227
-0.13455367 -0.09960944 -0.026689377 0.13277856 -0.08386471 0.016350992 -0.010887971 -0.07522329
-0.067473315 0.009488031 -0.022683185 0.06500952 0.026914077 -0.05354324 0.06805825 -0.036400367

model.0.bias f4 [32]
00000000: 7cb0 a437 5872 02b8 454d ddb6 c686 b337
00000010: 843b 79b7 1022 aa36 ca2e 2c37 ed18 04b7
00000020: c0f0 4e35 ce60 31b7 0bd1 0f37 fe28 8eb7
00000030: 1847 15b8 9018 7fb6 598e 0038 b47c f1b6
00000040: f7bc 9737 94be 83b6 7f87 f936 f39e e137
00000050: aadc 0bb8 5a02 9837 6069 0b38 92db c8b6
00000060: 6c8f 56b8 24c9 1838 ef29 aeb8 fe17 5a37
00000070: 904f 2b38 004a bb33 0bad ce36 8082 2cb7
1.9632505e-05 -3.1100906e-05 -6.5953086e-06 2.1401222e-05 -1.4855414e-05 5.07036e-06 1.0262893e-05 -7.873617e-06
7.709132e-07 -1.0572561e-05 8.572136e-06 -1.6946808e-05 -3.559058e-05 -3.8012258e-06 3.065015e-05 -7.196877e-06
1.8088596e-05 -3.9262904e-06 7.436552e-06 2.6896107e-05 -3.3345692e-05 1.8120907e-05 3.323832e-05 -5.986026e-06
-5.1155148e-05 3.642695e-05 -8.304777e-05 1.2999399e-05 4.0843675e-05 8.7213266e-08 6.1594233e-06 -1.0282383e-05

model.1.weight f4 [32]
00000000: 82fc 693f 8e32 683f 5726 683f c330 6c3f
00000010: 19d1 643f eb81 7d3f 5aff 883f 6db7 533f
00000020: c24d 6d3f 89e3 983f 5498 523f d3d9 873f
00000030: 8cb4 873f 0efa 923f 30fa 863f be43 5b3f
00000040: bc0e 653f f089 5e3f 048a 593f 4688 793f
00000050: 1587 573f 7234 613f 1ce6 693f 738b 743f
00000060: 3aee 7b3f 1ea2 6f3f 86c7 8e3f a9b5 813f
00000070: 870d 793f 24f9 8d3f 4cdf 4c3f f582 5a3f
0.9140092 0.9070214 0.906835 0.92261904 0.8938156 0.99026364 1.0702927 0.8270176
0.92696774 1.1944438 0.82263684 1.061335 1.0601974 1.1482561 1.0545101 0.8565024
0.8947561 0.86929226 0.8497622 0.9747356 0.84190494 0.8797065 0.91366744 0.9552528
0.9841038 0.93606746 1.115464 1.0133563 0.97286266 1.1091657 0.80028224 0.85356075

model.1.bias f4 [32]
00000000: 816d 4dbe 4837 21be 8972 cbbd 76be 0fbe
00000010: c099 e4be 9724 b2be 4be9 64bd bb3c 3cbe
00000020: b3da e9bd 30e3 adbc 352b 06be 7885 babe
00000030: abb3 9cbd fa6e a8bc abc9 c7bd f679 09be
00000040: 0a08 bbbe a507 d6be c7a9 4bbe b860 2dbd
00000050: 9d59 04be 47c2 d7bd 7f6e 67be fa43 3abe
00000060: 92dd 15be b1ac c3bd f9e3 62bd 6da2 a5be
00000070: c8df 0dbe 4690 04bd 49fc ebbd 5d52 07be
-0.20061304 -0.15743744 -0.09933955 -0.14037499 -0.44648552 -0.3479354 -0.055886548 -0.18382542
-0.11418667 -0.021226496 -0.1310242 -0.36429954 -0.076514564 -0.02056073 -0.09755262 -0.1342543
-0.3652957 -0.41802707 -0.19888984 -0.042328566 -0.1292481 -0.10535102 -0.22600745 -0.18189994
-0.14635304 -0.09554423 -0.055393193 -0.32350484 -0.13854897 -0.032364152 -0.11522729 -0.13215013

model.1.running_mean f4 [32]
00000000: d0f7 a0be d98a 4b3e 7429 a93e 1f4c ecbd
00000010: 8991 33bf bec5 1abf 972a 50bf 2844 083e
00000020: f3a7 6b3e ba97 543d 3a4e e33d e6cc 70be
00000030: 7565 c9bd 74e1 89be a828 01bf 06e4 45be
00000040: c460 2ebf 7c58 35bf 02cc 523b 860e 9e3e
00000050: 4a41 8b3e b1fd 033e 61f6 c1be e7fb 15bf
00000060: 45b1 50be deed 403d 6601 5bbd 43e1 17bf
00000070: 3d32 18bf da23 ca3c 3477 033f f4f1 a03e
-0.31439066 0.19877185 0.3303944 -0.115379564 -0.70143944 -0.6045798 -0.81314987 0.1330725
0.23013286 0.05190251 0.11098905 -0.23515663 -0.098338045 -0.2692982 -0.5045266 -0.19325265
-0.681164 -0.7083814 0.0032165055 0.30870456 0.2719825 0.12889744 -0.37883285 -0.585875
-0.20380123 0.047101848 -0.05346813 -0.593281 -0.5945166 0.024675298 0.51353765 0.31434596

model.1.running_var f4 [32]
00000000: 7ccd 883e 1311 463e 0f1e b93e e481 b33d
00000010: 39ef eb3e 161c bb3e 1892 0e3f 4562 b83d
00000020: 1098 293e 982f cc3f 24e7 673e 8d0a 7a3e
00000030: 5823 a03e 3ff0 293e c102 573e 68b1 983e
00000040: 2300 b43e edc8 c93e 9904 1b3e c26a f43e
00000050: 8248 283e 185a 683e 22de fa3e de58 9f3e
00000060: 073b 133f 2c32 f63d 508b a63e 4abb de3e
00000070: 32fd 633f 0d02 d83e e168 433f a8d3 023e
0.26719272 0.19342451 0.36155745 0.08765009 0.4608095 0.36544865 0.5569167 0.090031184
0.16561913 1.5952024 0.22646767 0.24418087 0.31276965 0.16595553 0.20997144 0.2982285
0.35156354 0.39411107 0.15138473 0.477377 0.1643391 0.22690618 0.489976 0.31122488
0.57511944 0.12021288 0.32528162 0.43502265 0.8905822 0.42189065 0.7633191 0.12776053

model.4.weight f4 [16, 32]
00000000: 8fb1 063d 77c2 55bd 7e40 6ebd b930 84bd
00000010: c185 9cbd a94c 0cbe 460f 0dbd abd0 24bd
00000020: 33bd 9c3d cc4b 343c 0c1c f43b a73c 223c
00000030: 17a0 3a3c 4566 c0bd 7a08 9dbe d530 113c
00000040: cb64 1cbe 3f16 16bd 6b37 fa3c f18d df3c
00000050: cd1b a03d c6c6 10be 39fb 22bd 7789 2fbe
00000060: 99d4 f53d 0572 52be e832 b1bd e564 21be
00000070: f922 75be 973b 1a3d 1309 dfbd 475e 5e3d
00000080: 6351 e1bc 0788 f9bb a59e 37be 79e5 dbbc
00000090: 16b0 1cbe 9fb6 2abd dec7 453d 3914 103d
000000a0: 5258 1fbc 03a1 833c 0f71 233c 170f 73be
000000b0: 6bc4 c2bc 6048 bf3d 5ea9 bd3d 441f 5c3d
000000c0: dc83 41be b3bb 01be 143c 2ebd b79f 51bc
000000d0: daad 16bd 81d2 5a3d b9dd ac3d 01c1 e4bd
000000e0: dce8 7ebe 716c 75be 5bff cbbd 3f6f 33be
000000f0: 45dc 99be 6dc7 d73c 8d9b a13b c81b 813d
00000100: 6aeb 17be 3d4f 123d 4c24 ce3d 4a2b 22be
00000110: 4a24 15bc 73da f2bb 9b74 a83c c2bb dc3d
00000120: cb70 fa3c e725 89be cf2a 04bd a567 53bc
00000130: 0f61 ff3c 8486 2c3d dc31 783d 0d0c 8cbc
00000140: e55a d5bd 7590 47bd 5d22 253d 2c3b bfbe
00000150: 7d46 8c3d 6ba8 943d d09f 3cbe 8bce b73d
00000160: d6a7 903c 1589 58bd 3fb6 4fbc c90c c9bc
00000170: 2765 eabc e71d 3ebe dba1 8f3c c3d6 d73d
00000180: 409d 99be 517e 563e b40b db3c f20d 353d
00000190: 10af 6e3d d903 f73b 7466 31be 0894 43be
000001a0: 0848 293d db1b 9bbe 4e7a 8a3d d62d 843d
000001b0: 399a 67be 50fa 5abd 5c2b 9f3d 3478 c2bc
000001c0: cb24 d23d 722c 39bd 4550 f43c 03bd 463e
000001d0: e5a1 bd3c 080a 8b3d 7dd3 b6bd 3254 0dbe
000001e0: 8390 b03d fef3 f33c 3778 ac3c 6b33 cf3d
000001f0: d3ea 44bd 76c4 0b3e 4f6c 1a3e 57e0 a1bd
00000200: f72e 88bc e54f bd3d b297 073d 0c7a ed3d
00000210: f551 26bd f9c3 a53a 1157 c53c a043 293e
00000220: 657d 813d da95 8bbe 70cd ce3c bb48 1fba
00000230: 173b 3dbe ed25 aa3d a89e ff3c a329 8a3c
00000240: eb8a e2bc 4f46 8c3d 89de 833c 0480 1abe
00000250: 72b8 5a3e 83f8 dd3c 914f 11be 0168 ea3d
00000260: 3089 4e3d 9184 003e a155 ed3d 9b72 34bc
00000270: 808b 66bd 37c7 69bd f0ab c0bb f8a0 3d3d
00000280: 8c8a 04be d7bf 91bd 42aa 10bc b087 febd
00000290: 46ff 19be 2207 d2bd ac12 d9be a11b c73d
000002a0: fac7 b53c eb63 023d aeb5 48bd 0f9b 6a3d
000002b0: 954e 463c 2195 10bb cd22 3c3d 8ad7 17bc
000002c0: eaba 1bbe e0a3 09be f73a 663b 7ebd fd3c
000002d0: 9d49 f73b 9637 46bd 3731 883d 87cd 6ebd
000002e0: 9009 e4bc 736f b33c b604 fe3c 7085 15be
000002f0: 77a8 913d a7a4 8e3d 641c be3b 0abb 8d3c
00000300: 20b4 30bd ffd0 04be dc8d 6cbb 1527 4d3d
00000310: 9c90 01be b3b0 09bd bc13 57be cb15 c2bc
00000320: 3fa4 71be 4b49 393d bf60 fd3c 734d 0fbe
00000330: 2b6c 7abc 8e2a 923d c868 f0bb 181e 9b3d
00000340: 0fa7 0dbe a496 2fbe f9d1 45bd 5593 febb
00000350: ff37 763d 4e2b a63c 3a41 613d 7d3a c4be
00000360: 4be8 b33c 7431 daba 6c64 0c3d 809b e6bc
00000370: 9e6f cabc a331 083d bb1b 44bd 0917 1ebd
00000380: 6043 c3bc 4688 043e 1bdf 9a3d 9d0f 223e
00000390: 6a47 10bc 1550 873c 6461 0cbe b24b b6bd
000003a0: ef47 3e3e 14da febe c420 57be 9d2d 29bc
000003b0: 0922 eebb d697 d73c 91a1 073d 14e7 94bd
000003c0: d58f e3bd 74f0 c03c a16d 213e 2625 2fbd
000003d0: 6a45 ee3d 048e 9d3d 4309 ad3b e0ef d73d
000003e0: ec7f 37bd 9789 ae3d 5e5a 843d 0ff2 c33c
000003f0: c678 373d 2ac6 08be 7a06 a5bd 1f33 a73d
0.032884177 -0.05218741 -0.058166973 -0.064546056 -0.07642699 -0.13701119 -0.034438394 -0.040238064
0.076532744 0.0110043995 0.0074496325 0.009902156 0.011390707 -0.09394506 -0.3067053 0.00886174
-0.15272824 -0.03664231 0.030544003 0.027289363 0.078178026 -0.14138326 -0.039790366 -0.17142282
0.120034404 -0.20551307 -0.08652288 -0.15761144 -0.23939122 0.037654486 -0.10890403 0.05428913
-0.027504629 -0.0076150927 -0.17931612 -0.02684282 -0.15301546 -0.041678067 0.04828631 0.035175536
-0.009725647 0.016067987 0.009975686 -0.23736225 -0.0237753 0.09339976 0.0926082 0.053740755
-0.18897957 -0.12669258 -0.042537764 -0.012794427 -0.03678689 0.05342341 0.08440728 -0.11169625
-0.24893516 -0.23967148 -0.099608146 -0.17522906 -0.30050865 0.02634021 0.004931873 0.06304127
-0.14835897 0.0357201 0.10065517 -0.15836826 -0.00910289 -0.007411295 0.020563414 0.107779995
0.030571362 -0.2678673 -0.032267388 -0.012903129 0.03117421 0.04212047 0.060594425 -0.01709559
-0.104177274 -0.04872175 0.040315975 -0.37349832 0.06849382 0.07258686 -0.18420339 0.08974942
0.017658155 -0.052865107 -0.012677728 -0.02454223 -0.028612686 -0.18566094 0.017533233 0.105390094
-0.30002785 0.20946623 0.026738979 0.044202752 0.05827242 0.0075383005 -0.17324239 -0.19099438
0.04132846 -0.3029469 0.06761609 0.06454055 -0.22617425 -0.053461373 0.07771942 -0.023738958
0.10260924 -0.045208402 0.029823432 0.1940804 0.023148486 0.06789023 -0.08927057 -0.13801649
0.086213134 0.02977943 0.021053417 0.10117229 -0.04807551 0.13649163 0.15080379 -0.079041176
-0.016623957 0.09243754 0.033103652 0.11595544 -0.040605504 0.0012646905 0.024089368 0.16529703
0.06322745 -0.27262765 0.025244445 -0.00060762063 -0.18479572 0.08308015 0.031203583 0.016865557
-0.027654132 0.06849348 0.016097324 -0.15087897 0.21359423 0.027096039 -0.14190508 0.114456184
0.0504238 0.1255057 0.11588598 -0.011013652 -0.05628538 -0.05707475 -0.0058798715 0.04629609
-0.12943476 -0.07116669 -0.008829655 -0.12428224 -0.15038785 -0.10255267 -0.42397058 0.09722067
0.022190083 0.03183357 -0.04900139 0.05727678 0.012103696 -0.0022061544 0.045931626 -0.009267697
-0.15208021 -0.1344142 0.003513036 0.030974146 0.007546617 -0.048392855 0.06650012 -0.058301475
-0.027836591 0.021903729 0.031008106 -0.14601684 0.0711221 0.06964999 0.0058017243 0.017301101
-0.04314053 -0.1297035 -0.0036095297 0.0500861 -0.1265282 -0.03361578 -0.21003622 -0.023692032
-0.23597811 0.045235913 0.030929921 -0.13994388 -0.015284578 0.07137023 -0.0073367096 0.07574099
-0.13833259 -0.17147309 -0.04829595 -0.007769028 0.060111996 0.020284321 0.054993846 -0.38325873
0.021961352 -0.0016646818 0.034275457 -0.02815032 -0.024711426 0.033250462 -0.04787801 -0.038596187
-0.023835838 0.12942609 0.07562085 0.15826268 -0.008806089 0.016517678 -0.13709027 -0.089011565
0.18582128 -0.49775755 -0.21008593 -0.010325816 -0.007267241 0.026317518 0.033113066 -0.07270637
-0.11111418 0.023552157 0.15764476 -0.042760037 0.116343334 0.07693103 0.005280645 0.105437994
-0.04479973 0.08522337 0.06462549 0.023919133 0.044792913 -0.13356844 -0.08057876 0.081640474

model.4.bias f4 [16]
00000000: 77e5 1f37 19e1 90b7 2086 5838 8c48 2db6
00000010: d6f4 f237 c892 1b37 62a6 8637 c6e4 c8b7
00000020: d040 8cb5 1ebf 5938 dcf4 4437 46cb 16b7
00000030: 4821 2c38 6360 e337 94e0 a038 835f 68b7
9.530565e-06 -1.7270957e-05 5.1623327e-05 -2.5821237e-06 2.8962659e-05 9.272895e-06 1.6051523e-05 -2.3948389e-05
-1.0449676e-06 5.1914823e-05 1.1739521e-05 -8.988025e-06 4.103899e-05 2.7105392e-05 7.6712255e-05 -1.3850516e-05

model.5.weight f4 [16]
00000000: 0185 a23f ad41 a53f 564d a63f ba6b 9a3f
00000010: a954 a03f 5bd8 ad3f 99ba b23f 1fe1 9f3f
00000020: 622b ac3f a3e9 ae3f 3f5a b63f db52 a63f
00000030: 6d15 b83f 5562 b53f a2f1 ad3f ad5f a23f
1.269684 1.2910668 1.2992351 1.2064126 1.2525836 1.3581651 1.3963195 1.2490577
1.3450739 1.366505 1.4246291 1.2994035 1.4381539 1.4170634 1.3589365 1.2685448

model.5.bias f4 [16]
00000000: 1a43 153f 189d 143f 9d0e 353f cc59 0b3f
00000010: 9308 193f 3eea 3e3f df8e 373f 2418 193f
00000020: 90ec 2c3f 3b4a 2b3f 19b1 393f dc2e 3a3f
00000030: 2c6b 383f 3782 3a3f eb35 263f 01aa 2f3f
0.58305514 0.58052206 0.70725423 0.54433894 0.5977871 0.74576175 0.7170238 0.5980246
0.67548466 0.6691014 0.72535855 0.7272775 0.7203853 0.7285494 0.6492602 0.6861878

model.5.running_mean f4 [16]
00000000: 8e1a f8be 216f 02bf 91da a3be 5778 89bd
00000010: 050f a73d 9ee6 3abe 6613 52be ec35 38bd
00000020: 0680 8dbe e917 cebe 79f3 06bf a7d2 12be
00000030: 40d1 80be fe82 fabe 7ab8 f7be f751 c3be
-0.4845776 -0.5095082 -0.3200269 -0.06712406 0.081571616 -0.18252036 -0.20515212 -0.0449733
-0.27636737 -0.40252617 -0.5271526 -0.1433817 -0.25159645 -0.48928064 -0.48382932 -0.38148472

model.5.running_var f4 [16]
00000000: 8cab c13e 8f73 2c3f bca9 1d3f 3618 013f
00000010: 1765 8f3e fd2f 2e3e 83af 133e 0206 133f
00000020: 010b 153f 0bd7 253f 09d8 df3f d8f5 143f
00000030: 2ac8 be3e ca78 bb3f 0606 863f ce91 3f3f
0.37826192 0.6736383 0.6158712 0.5042757 0.28006813 0.17010494 0.14422421 0.5743104
0.58219916 0.64781255 1.7487804 0.5818763 0.37262088 1.4646237 1.0470588 0.74831855

model.8.weight f4 [1, 16]
00000000: fbd9 fc3e 623c 1b3f c328 da3e 4ecd eb3e
00000010: 91bd d83e e287 fb3e 13c9 f83e e924 e33e
00000020: e075 0e3f 90ea 0d3f b300 f93e b4bd df3e
00000030: c1e4 003f 2ed4 f93e e4a9 0d3f 23e7 e83e
0.49385056 0.6063901 0.42609224 0.46055073 0.42332128 0.49127108 0.48590907 0.44364098
0.5564861 0.5543604 0.48633346 0.4369942 0.5034905 0.48794693 0.5533736 0.45488843
