neuralnet/Hyperparameter sweeps/hyperparam sweep round 3/bike_volume_model_net_2layers_lr_0.00005000_batch_32_feat_0.pth (torch, 21622 bytes, 13 tensors)

model.0.weight f4 [32, 89]
0.031908907 -0.09775239 0.062281698 -0.042558327 -0.10599553 -0.054087825 -0.05545215 0.05419441
0.0037239725 -0.0076138643 0.067310974 0.03967384 -0.11658305 0.021797732 0.026718682 -0.044624753
-0.022412784 0.10318113 0.0789334 0.038900435 -0.048910204 -0.02029868 0.12421306 0.026171891
0.01810085 -0.027395563 0.06393621 -0.007017787 -0.052175906 0.019279392 0.09457925 0.0055229715
0.025185214 0.017575303 0.08383119 -0.045594744 0.07513572 -0.090324394 0.024324737 0.020974984
-0.014980107 -0.07675723 -0.023827657 -0.06529644 -0.052977357 -0.07771585 -0.01607345 0.01324851
-0.020523509 0.06353362 0.030318744 -0.0432585 0.012356245 -0.09404133 0.026837638 -0.08673868
-0.05442261 -0.07789334 0.113881625 0.0645438 0.010760264 -0.035069812 -0.00027534176 -0.008298871
0.08366944 -0.041245814 -0.026877621 0.05703339 -0.07095384 0.020748788 0.01726663 0.05127536
0.06614871 0.009300672 0.03352013 0.041530285 0.00056393264 0.074608825 -0.06099628 0.030597847
-0.043884605 -0.04449005 0.06079731 0.04434435 0.06144437 -0.029300677 -0.01971956 0.0882305
0.108221196 -0.0058456175 0.011107355 -0.052188776 0.04756144 0.042059682 0.0734856 0.001007919
-0.019183757 -0.0016629471 -0.02372186 0.028174538 0.034833826 -0.05141899 0.004974151 -0.0056512826
-0.034393664 -0.041831955 0.037327163 -0.12323686 -0.032493792 -0.046266604 -0.0060168235 0.0032794205
0.044595573 0.1033193 -0.09312143 -0.062500134 -0.117619924 0.020046664 0.0010783954 -0.06266697
-0.0038982553 -0.061071184 0.029015042 0.001551778 -0.07481819 -0.03809403 -0.094900616 -0.07049305
0.094746046 0.10545943 0.025907198 -0.03435622 -0.025067225 0.027491998 0.066505894 0.10720126
-0.01908077 -0.059506632 -0.029599443 -0.051202826 0.008730982 0.03930514 0.029549148 0.03475836
-0.03341417 -0.09762215 0.09125777 -0.0072756307 -0.015322898 -0.032453593 -0.08187616 -0.06780022
0.08746097 -0.060576774 -0.13217759 -0.100648396 0.094307184 0.15676653 0.08077689 0.041926574
0.058746766 -0.01958423 -0.016824491 0.011114249 -0.034402803 0.04845571 -0.0032690857 0.061729938
-0.0012858161 0.050335914 -0.042759966 -0.0008572363 0.014167613 0.103365615 -0.0053061494 0.031258468
-0.09224381 -0.02604208 0.053147513 -0.0031343177 0.13504802 0.09388635 0.025506008 0.049321976
-0.05265094 -0.014117379 0.026650421 0.006930981 -0.09507778 0.025681928 0.11751524 0.07555289
-0.08210323 0.06462006 -0.012257489 0.102543786 0.060504284 -0.0040117856 0.069557026 -0.021068228
0.031065967 -0.0901377 -0.04285265 -0.024318365 -0.0025472438 0.0871869 -0.010385857 0.059481457
0.031610787 0.017498896 -0.053303752 0.0834986 -0.050138924 0.015150997 0.037589975 0.009623355
-0.044001866 -0.042215064 -0.056751266 0.06440164 -0.002370045 0.03040263 -0.039379872 0.09877371
0.114121065 -0.04834463 -0.08278488 -0.12327927 0.12541908 0.014937673 0.13594635 0.06410686
0.090397164 -0.107205614 -0.03521659 -0.056943998 -0.047533702 -0.0135011505 0.06714263 -0.016956598
0.038365107 0.04754155 -0.05541098 -0.016700901 0.06982312 0.022734225 0.038140245 -0.0032822152
0.01811277 -0.008890598 0.007032306 -0.037213188 -0.034656625 0.017599346 0.07602138 0.042346977
00000000: eab2 023d 6832 c8bd 181b 7f3d a451 2ebd
00000010: 2f14 d9bd 328b 5dbd cb21 63bd f5fa 5d3d
00000020: e40d 743b b97d f9bb 56da 893d 0981 223d
00000030: 18c3 eebd 2891 b23c 23e1 da3c 72c8 36bd
00000040: 049b b7bc a150 d33d d6a7 a13d 1056 1f3d
00000050: 1156 48bd 6b49 a6bc 6b63 fe3d 6f66 d63c
00000060: 3c48 943c a96c e0bc fdf0 823d 77f5 e5bb
00000070: 67b6 55bd d1ef 9d3c c4b2 c13d 0bfa b43b
00000080: 3951 ce3c 15fa 8f3c b0af ab3d 8ec1 3abd
00000090: c2e0 993d fffb b8bd ac44 c73c bbd3 ab3c
000000a0: 1f6f 75bc e532 9dbd 3832 c3bc 24ba 85bd
000000b0: c9fe 58bd 7d29 9fbd 78ac 83bc 4710 593c
000000c0: eb20 a8bc ea1d 823d 045f f83c d32f 31bd
000000d0: d971 4a3c be98 c0bd 9bda db3c 0da4 b1bd
000000e0: 3eea 5ebd 8b86 9fbd c53a e93d 8a2f 843d
000000f0: d14b 303c 5da5 0fbd bf5b 90b9 fdf7 07bc
00000100: e25a ab3d 5ff1 28bd 752e dcbc d89b 693d
00000110: 3f50 91bd 5df9 a93c bf72 8d3c 1d06 523d
00000120: fa78 873d d961 183c 674c 093d a91b 2a3d
00000130: e1d4 133a 83cc 983d 3cd7 79bd 56a8 fa3c
00000140: 58c0 33bd 333b 36bd 9a06 793d 6ca2 353d
00000150: 17ad 7b3d f907 f0bc ea8a a1bc 31b2 b43d
00000160: 13a3 dd3d 988c bfbb a0fb 353c e6c3 55bd
00000170: c9cf 423d c646 2c3d 9e7f 963d 261c 843a
00000180: 4127 9dbc 3ff7 d9ba 5954 c2bc 4ace e63c
00000190: eaad 0e3d b89c 52bd 34fe a23b 652e b9bb
000001a0: 5fe0 0cbd fc57 2bbd 5ee4 183d 9b63 fcbd
000001b0: 3618 05bd 0d82 3dbd c628 c5bb 8ceb 563b
000001c0: d9a9 363d 1299 d33d 73b6 bebd 1200 80bd
000001d0: b7e2 f0bd e738 a43c f258 8d3a 8a57 80bd
000001e0: df79 7fbb c725 7abd f4b0 ed3c 0865 cb3a
000001f0: 473a 99bd 7c08 1cbd 415b c2bd a95e 90bd
00000200: 370a c23d 1dfb d73d 553b d43c 1cb9 0cbd
00000210: c859 cdbc e636 e13c 3e34 883d 568c db3d
00000220: 464f 9cbc 3abd 73bd 887a f2bc 0eba 51bd
00000230: 650c 0f3c 6dfe 203d 0e11 f23c c85e 0e3d
00000240: 4cdd 08bd 1fee c7bd 5be5 ba3d 6a68 eebb
00000250: e40c 7bbc 0fee 04bd b0ae a7bd d7da 8abd
00000260: bd1e b33d 5a1f 78bd 9059 07be bf20 cebd
00000270: 2024 c13d 6887 203e 5b6e a53d 33bb 2b3d
00000280: 73a0 703d 1b6f a0bc 84d3 89bc 8a18 363c
00000290: f4e9 0cbd 7f79 463d 283e 56bb 88d8 7c3d
000002a0: d488 a8ba 082d 4e3d 1325 2fbd 27b8 60ba
000002b0: 471f 683c 5ab1 d33d 35df adbb e108 003d
000002c0: 53ea bcbd 3356 d5bc 35b1 593d 2069 4dbb
000002d0: 074a 0a3e 7d47 c03d faf1 d03c d705 4a3d
000002e0: 83a8 57bd 944c 67bc fc51 da3c 481d e33b
000002f0: 24b8 c2bd e862 d23c d5ab f03d 79bb 9a3d
00000300: bd25 a8bd 8657 843d a3d3 48bc 7a02 d23d
00000310: 57d3 773d 4c75 83bb ea73 8e3d 4797 acbc
00000320: 0e7e fe3c 1d9a b8bd 4386 2fbd 4f37 c7bc
00000330: a9ef 26bb 0c8f b23d 7129 2abc d4a2 733d
00000340: 507a 013d d859 8f3c 0955 5abd 5001 ab3d
00000350: 795e 4dbd e33b 783c f2f7 193d 47ab 1d3c
00000360: 4d3b 34bd b4e9 2cbd 0474 68bd 02e5 833d
00000370: c252 1bbb f00e f93c ca4c 21bd df49 ca3d
00000380: 4eb8 e93d 0505 46bd 1f8b a9bd d879 fcbd
00000390: dc6d 003e 24bd 743c 8535 0b3e 754a 833d
000003a0: 2622 b93d 9e8e dbbd 453f 10bd 1c3e 69bd
000003b0: b3b2 42bd ee33 5dbc 1382 893d 90e8 8abc
000003c0: bb24 1d3d eeba 423d a0f6 62bd 54d0 88bc
000003d0: 6dff 8e3d 203d ba3c f238 1c3d 6f1a 57bb
000003e0: 3b61 943c dfa9 11bc 426f e63b db6c 18bd
000003f0: 1bf4 0dbd 812c 903c 19b1 9b3d 0674 2d3d

model.0.bias f4 [32]
1.0211655e-05 7.3168994e-06 1.2879551e-05 2.4068271e-05 4.1595435e-05 1.0194862e-05 -1.0573098e-05 1.0016598e-05
1.2624687e-06 -1.5060732e-07 8.289383e-06 -1.400321e-05 -1.148495e-05 -2.4910329e-05 2.0420208e-05 1.1838341e-05
-4.2924406e-05 9.4850075e-06 -4.6953528e-07 -1.6882852e-05 -1.5767564e-05 -4.404789e-05 2.2297852e-05 1.0814412e-05
-1.4715586e-05 -1.2342293e-06 2.8575778e-06 7.827528e-06 3.7373356e-06 3.4365727e-05 -1.7900331e-05 -7.394977e-06
00000000: b952 2b37 b083 f536 4015 5837 38e6 c937
00000010: c276 2e38 990a 2b37 1c63 31b7 f60c 2837
00000020: 1872 a935 a0b6 21b4 a112 0b37 54ef 6ab7
00000030: 7caf 40b7 86f6 d0b7 104c ab37 4a9d 4637
00000040: bb09 34b8 cc21 1f37 7014 fcb4 a69f 8db7
00000050: 9644 84b7 10c0 38b8 460c bb37 8c6f 3537
00000060: f6e2 76b7 cca7 a5b5 d0c4 3f36 fa52 0337
00000070: f0ce 7a36 eb23 1038 ab28 96b7 5e22 f8b6

model.1.weight f4 [32]
0.8345788 1.2223325 0.96651214 0.9733115 0.7986137 0.76303154 0.87029195 0.83269066
0.7601219 0.98935175 0.8426633 0.8718659 0.90502495 0.9280368 0.8932195 0.77355146
0.76140606 0.83903587 0.9686758 0.8837934 0.9092834 0.7884583 0.70746684 0.9541736
0.8563527 0.85369545 0.94974065 0.79681385 0.9755613 0.799525 1.0019085 0.91543144
00000000: f5a6 553f 6475 9c3f 576d 773f f12a 793f
00000010: f371 4c3f 0956 433f 74cb 5e3f 372b 553f
00000020: 5997 423f 2846 7d3f c8b8 573f 9b32 5f3f
00000030: b7af 673f d293 6d3f 08aa 643f 7807 463f
00000040: 82eb 423f 0ecb 563f 23fb 773f 4940 623f
00000050: ccc6 683f 67d8 493f 8c1c 353f b944 743f
00000060: ee39 5b3f c98b 5a3f 3422 733f fefb 4b3f
00000070: 63be 793f acad 4c3f 8a3e 803f b759 6a3f

model.1.bias f4 [32]
-0.34309202 -0.108511835 -0.4256689 -0.17036529 -0.46941704 -0.31319427 -0.632317 -0.56886667
-0.22923854 -0.29569983 -0.21422191 -0.17175564 -0.55067104 -0.124894425 -0.4543427 -0.31696817
-0.3316957 -0.420626 -0.20836574 -0.27302098 -0.2019208 -0.63331187 -0.27812314 -0.38196042
-0.55104566 -0.20572338 -0.33047274 -0.22779629 -0.24776809 -0.21872637 -0.39566967 -0.11875031
00000000: c2a9 afbe 743b debd 46f1 d9be 3d74 2ebe
00000010: 6e57 f0be 005b a0be 87df 21bf 3fa1 11bf
00000020: 82bd 6abe f865 97be fd5c 5bbe b6e0 2fbe
00000030: c7f8 0cbf a6c8 ffbd 9b9f e8be a749 a2be
00000040: 05d4 a9be 4b5c d7be d45d 55be 68c9 8bbe
00000050: 54c4 4ebe ba20 22bf 2866 8ebe 5190 c3be
00000060: 5411 0dbf 26a9 52be b933 a9be 6e43 69be
00000070: ebb6 7dbe cef9 5fbe 3795 cabe 5d33 f3bd

model.1.running_mean f4 [32]
-0.10466136 -0.14058167 -0.57616335 0.19945088 -0.5486971 0.048335787 -0.5064207 -0.27196106
-0.23160858 -0.46657944 -0.9378193 -0.3913798 -0.8868332 -0.36636245 -0.513148 -0.32068133
0.03133333 -0.4718246 -0.34933895 -0.3086825 -0.48560646 -0.46066687 0.13015002 -0.52882326
-0.5825332 -0.115240976 -0.71176004 -0.85676223 -0.7772188 0.13690007 -0.7374753 -0.348385
00000000: b258 d6bd a4f4 0fbe 717f 13bf da3c 4c3e
00000010: 6a77 0cbf bffb 453d c9a4 01bf 7b3e 8bbe
00000020: cd2a 6dbe 80e3 eebe ed14 70bf ef62 c8be
00000030: 8007 63bf dc93 bbbe ab5d 03bf 5830 a4be
00000040: 6157 003d fe92 f1be 8edc b2be a20b 9ebe
00000050: 69a1 f8be 87dc ebbe 0c46 053e f660 07bf
00000060: e520 15bf 7603 ecbd e835 36bf c554 5bbf
00000070: d0f7 46bf 882f 0c3e 2ecb 3cbf 855f b2be

model.1.running_var f4 [32]
0.10590234 0.12178944 0.13424574 0.31324086 0.06273823 0.47035816 0.12247523 0.11959563
0.06562657 0.27235958 0.26923668 0.12309559 0.13116565 0.22926363 0.1320457 0.17724769
0.09403573 0.16455963 0.0977936 0.12084013 0.14230086 0.101386204 0.23684081 0.07343752
0.076478 0.1897515 0.0714301 1.2623658 0.1402115 0.10307842 0.17130755 0.13782525
00000000: 53e3 d83d be6c f93d b777 093e 1b61 a03e
00000010: e77c 803d c9d2 f03e 4bd4 fa3d 8eee f43d
00000020: 3967 863d b772 8b3e 64d9 893e 8a19 fc3d
00000030: 4a50 063e 16c4 6a3e fd36 073e 6b80 353e
00000040: ce95 c03d 5282 283e 0348 c83d 087b f73d
00000050: 51b7 113e 92a3 cf3d 6686 723e 6966 963d
00000060: 7fa0 9c3d 384e 423e f249 923d 3495 a13f
00000070: 9a93 0f3e c71a d33d 3f6b 2f3e 1022 0d3e

model.4.weight f4 [16, 32]
-0.19119985 0.033097323 -0.22210166 0.025377207 -0.2560584 0.028883012 -0.27867514 -0.05499869
-0.0005402608 0.06333637 -0.028644547 0.07912358 -0.11026452 -0.035613418 -0.11328232 0.10630027
-0.057777874 0.026749345 -0.24287258 -0.1466983 0.028295761 -0.20215176 -0.09211716 -0.17159387
-0.26291353 0.0152457 -0.09837489 0.053024836 0.067778766 0.011897202 0.064361036 0.03091159
0.08259685 0.012268103 0.008271199 -0.4826914 -0.124442965 0.029838542 -0.10591308 -0.09514595
-0.028965183 -0.019523006 -0.016289804 0.009334027 -0.00096730154 0.028207108 -0.030795706 0.021191822
0.066425525 -0.017445225 -0.0024647114 -0.038855202 0.04447157 -0.16111147 -0.06405954 0.0014157987
-0.053618073 0.04267623 0.012790555 -0.056455035 0.0018000699 0.022050215 0.0045694946 -0.009066975
0.0067383535 0.029442227 0.04990476 0.05266882 -0.046404213 0.02106572 -0.019661758 -0.21265993
0.012900613 0.011963863 -0.069174215 0.05379456 0.038416278 -0.0638252 -0.08951541 0.12962075
0.040855955 -0.31497023 -0.00010280395 -0.004796224 -0.17467387 -0.2476048 0.03126712 -0.0318183
-0.029901667 0.01250051 0.03664084 -0.29492715 -0.30594677 0.0008963821 0.02047455 -0.050375838
0.054914713 0.018518748 -0.2255025 0.03275352 -0.26846722 0.0079191765 -0.18288007 -0.122206725
0.0039341794 -0.010732714 -0.018542778 -0.09261741 -0.28485876 0.009861924 -0.08829069 -0.08553521
-0.02681782 0.10610615 0.115849875 0.055091783 -0.038852807 -0.15109931 -0.03604956 0.15062094
-0.26820788 -0.123988874 -0.31303352 0.04393424 0.02636424 0.06456061 -0.19379915 0.062361505
0.18909736 -0.5052803 -0.0042048423 0.0055255177 -0.00085462915 -0.0017769507 -0.013926526 -0.046680618
-0.20398144 0.027831946 -0.07517042 0.055821292 -0.062037457 0.059158396 -0.030699126 0.07951595
0.08994126 -0.0053833984 0.052803725 0.056074724 0.03733893 -0.19322105 -0.11225385 -0.016534925
0.0393247 0.08109995 -0.047457583 0.05306318 -0.008826713 0.08343235 0.022045674 -0.06333363
-0.017885175 0.005831059 0.09694462 0.02023382 0.007387681 -0.0035539526 -0.039526634 -0.13256705
0.0032651022 0.09178318 -0.3347837 -0.28747416 -0.06724506 0.044622023 0.052545168 -0.06508274
0.11774939 -0.090950675 -0.33060172 0.1207721 -7.5968364e-06 -0.13943526 -0.010965184 -0.018446064
0.00866935 -0.017424703 -0.041980196 -0.04894705 0.06823782 0.04458401 -0.074029915 -0.36887383
0.06178427 -0.25995547 0.016541556 0.03716355 0.003635931 0.034542006 -0.07010746 -0.24823914
-0.12268302 0.014693772 -0.03615128 0.021014417 0.017449038 -0.3385622 -0.045839924 0.039913587
0.053981632 -0.1228031 0.052956093 -0.013048609 0.07949255 -0.2570077 -0.040489588 0.014383362
0.008974902 0.037893772 0.033725567 0.06992847 -0.27518535 -0.02122381 0.027999636 -0.0122986
-0.022751179 0.03203267 0.043661572 -0.020705665 -0.08219418 0.028764492 -0.096994326 -0.19782843
-0.016350335 -0.0020608383 0.011652122 -0.0042627235 -0.0180067 -0.3529272 -0.08347266 -0.042238746
0.044944968 -0.40279734 0.046729915 -0.07409898 0.1292272 -0.22310862 -0.007930594 -0.0867831
-0.051792443 0.048106495 0.0382578 -0.13881923 -0.041149028 -0.015148891 0.027533809 -0.029176641
00000000: e5c9 43be 0f91 073d 9e6e 63be dce3 cf3c
00000010: 161a 83be 119c ec3c 82ae 8ebe 4e46 61bd
00000020: 4aa0 0dba 80b6 813d f8a7 eabc 8b0b a23d
00000030: 5dd2 e1bd 60df 11bd 9000 e8bd f5b3 d93d
00000040: 7ea8 6cbd 7121 db3c 97b3 78be 1438 16be
00000050: 83cc e73c df00 4fbe eca7 bcbd 4eb6 2fbe
00000060: 9a9c 86be 1ac9 793c c678 c9bd 9230 593d
00000070: 98cf 8a3d 7bec 423c b8cf 833d 4e3a fd3c
00000080: 8a28 a93d 2700 493c ec83 073c 5423 f7be
00000090: f4db febd f56f f43c f5e8 d8bd e1db c2bd
000000a0: 6448 edbc b6ee 9fbc 3272 85bc bfed 183c
000000b0: 8292 7dba 9812 e73c 4747 fcbc 799a ad3c
000000c0: 1b0a 883d 4ae9 8ebc ff86 21bb a226 1fbd
000000d0: d227 363d 68fa 24be a631 83bd 5292 b93a
000000e0: a09e 5bbd 45cd 2e3d 7a8f 513c 653d 67bd
000000f0: 53f0 eb3a a7a2 b43c b3bb 953b a68d 14bc
00000100: 68cd dc3b d330 f13c ef68 4c3d 43bb 573d
00000110: 5812 3ebd 0492 ac3c b211 a1bc 86c3 59be
00000120: 185d 533c 1404 443c 36ab 8dbd af57 5c3d
00000130: 635a 1d3d c9b6 82bd db53 b7bd 4dbb 043e
00000140: 9358 273d c743 a1be 7398 d7b8 a529 9dbb
00000150: b5dd 32be 1d8c 7dbe f411 003d e853 02bd
00000160: 57f4 f4bc f0ce 4c3c b514 163d b100 97be
00000170: 0ea5 9cbe 2ffb 6a3a 3eba a73c e556 4ebd
00000180: 40ee 603d a1b4 973c 21ea 66be 8e28 063d
00000190: 8974 89be 6fbf 013c ea44 3bbe 8547 fabd
000001a0: 4aea 803b 44d8 2fbc 06e7 97bc 32ae bdbd
000001b0: 02d9 91be e893 213c c0d1 b4bd 162d afbd
000001c0: 0bb1 dbbc 2e4e d93d b342 ed3d eca7 613d
000001d0: 1f24 1fbd c7b9 1abe b4a8 13bd 603c 1a3e
000001e0: 8b52 89be e1ed fdbd ee45 a0be 64f4 333d
000001f0: d2f9 d73c 5a38 843d 4973 46be c76e 7f3d
00000200: bda2 413e 0d5a 01bf c6c8 89bb 670f b53b
00000210: 3109 60ba 92e8 e8ba 152c 64bc 2d34 3fbd
00000220: 83e0 50be d2ff e33c f3f2 99bd dea4 643d
00000230: fd1a 7ebd 1350 723d bc7c fbbc 42d9 a23d
00000240: 2033 b83d 3867 b0bb b848 583d 9cae 653d
00000250: b5f0 183d bddb 45be 59e5 e5bd 4074 87bc
00000260: f012 213d bb17 a63d e262 42bd c758 593d
00000270: eb9d 10bc 94de aa3d 2199 b43c 10b5 81bd
00000280: ee83 92bc 7812 bf3b e78a c63d 65c1 a53c
00000290: 5c14 f23b 6ee9 68bb aee6 21bd a8bf 07be
000002a0: 53fb 553b d2f8 bb3d c568 abbe d02f 93be
000002b0: c7b7 89bd 95c5 363d 9a39 573d 194a 85bd
000002c0: 9826 f13d 5944 babd a144 a9be 5d57 f73d
000002d0: 54e8 feb6 1ec8 0ebe 51a7 33bc 331c 97bc
000002e0: e409 0e3c 40be 8ebc 6df3 2bbd b47c 48bd
000002f0: 45c0 8b3d b99d 363d ff9c 97bd 08dd bcbe
00000300: 8111 7d3d e218 85be 2882 873c ce38 183d
00000310: cd48 6e3b eb7b 0d3d 8094 8fbd 6732 7ebe
00000320: 3c41 fbbd 26be 703c 5d13 14bd 6d26 ac3c
00000330: 49f1 8e3c 0658 adbe a5c2 3bbd 6e7c 233d
00000340: d81b 5d3d 3180 fbbd 7de8 583d d5c9 55bc
00000350: fdcc a23d 8396 83be 69d8 25bd 31a8 6b3c
00000360: 780b 133c 8036 1b3d d223 0a3d a836 8f3d
00000370: 18e5 8cbe 8edd adbc 7e5f e53c 1180 49bc
00000380: ae60 babc b034 033d 7ad6 323d ed9e a9bc
00000390: 6c55 a8bd 83a3 eb3c f6a4 c6bd 8993 4abe
000003a0: 23f1 85bc 210f 07bb 8be8 3e3c 51ae 8bbb
000003b0: c982 93bc e0b2 b4be b7f3 aabd 8902 2dbd
000003c0: 3718 383d 743b cebe de67 3f3d 35c1 97bd
000003d0: 2354 043e 9676 64be 52ef 01bc 57bb b1bd
000003e0: 5024 54bd 510b 453d 36b4 1c3d a126 0ebe
000003f0: e28b 28bd 0e33 78bc 958e e13c da03 efbc

model.4.bias f4 [16]
1.1636666e-05 -4.101925e-05 -3.335786e-05 -7.5895423e-07 -1.4996302e-05 3.34905e-05 4.8094353e-05 -1.2464326e-05
-1.564961e-05 -1.922232e-05 5.352586e-05 2.2931323e-05 2.2078018e-05 -1.3040278e-05 -5.9830713e-06 3.404963e-06
00000000: 1a3b 4337 160c 2cb8 bbe9 0bb8 f0ba 4bb5
00000010: a098 7bb7 2778 0c38 ebb8 4938 df1d 51b7
00000020: 4847 83b7 9e3f a1b7 f480 6038 a45c c037
00000030: 2f34 b937 91c7 5ab7 31c2 c8b6 d280 6436

model.5.weight f4 [16]
1.1078094 1.1730418 1.0812925 1.1084393 0.97865725 1.1420606 1.1000859 1.0829579
1.0985376 1.1490788 1.069686 1.0690101 1.0261991 1.040122 1.1425456 1.1867741
00000000: b3cc 8d3f 3c26 963f cb67 8a3f 57e1 8d3f
00000010: 4889 7a3f 0b2f 923f 9dcf 8c3f 5d9e 8a3f
00000020: e19c 8c3f 0415 933f 79eb 883f 53d5 883f
00000030: 7e5a 833f b822 853f ef3e 923f 37e8 973f

model.5.bias f4 [16]
0.7890454 0.74367535 0.71078 0.786727 0.7126432 0.6560263 0.7722223 0.76884496
0.7342693 0.8238465 0.6410132 0.7158753 0.6521253 0.6214787 0.7238583 0.82113767
00000000: e1fe 493f 8261 3e3f aef5 353f f166 493f
00000010: c96f 363f 57f1 273f 5cb0 453f 06d3 443f
00000020: 13f9 3b3f 9be7 523f 7119 243f 9b43 373f
00000030: aff1 263f 3a19 1f3f c74e 393f 1436 523f

model.5.running_mean f4 [16]
-0.26280475 -0.23322554 -0.27552858 -0.20951407 -0.07952799 -0.28283423 -0.27867973 -0.2404818
-0.29029942 -0.27960995 -0.22883376 -0.20841093 -0.13358952 -0.15235649 -0.27940384 -0.25407344
00000000: 588e 86be add2 6ebe 1512 8dbe db8a 56be
00000010: 92df a2bd a6cf 90be 1caf 8ebe dc40 76be
00000020: 20a2 94be 0929 8fbe 6653 6abe ad69 55be
00000030: b1cb 08be 5703 1cbe 050e 8fbe ea15 82be

model.5.running_var f4 [16]
0.13522598 0.3255923 0.16602206 0.17917925 0.4318791 0.23159172 0.41436934 0.131033
0.25361443 0.34291732 0.1728862 0.78788686 0.31175599 0.18013659 0.2716086 0.23640369
00000000: ae78 0a3e 09b4 a63e b001 2a3e c47a 373e
00000010: 421f dd3e 6126 6d3e 3828 d43e 842d 063e
00000020: c0d9 813e dc92 af3e 1409 313e f4b2 493f
00000030: 7b9e 9f3e ba75 383e 4810 8b3e cf13 723e

model.8.weight f4 [1, 16]
0.4209894 0.43134192 0.44944024 0.42864013 0.44596717 0.45488012 0.3988114 0.43114865
0.43458426 0.40941948 0.5012304 0.43736923 0.49030942 0.50858015 0.45276517 0.4152257
00000000: ec8b d73e d9d8 dc3e 081d e63e b876 db3e
00000010: cf55 e43e 0ce6 e83e 0231 cc3e 84bf dc3e
00000020: d481 de3e 6e9f d13e a350 003f dcee df3e
00000030: d609 fb3e 4f32 023f d6d0 e73e 7798 d43e
