neuralnet/Hyperparameter sweeps/hyperparam sweep round 3/bike_volume_model_net_3layers_lr_0.00002000_batch_64_feat_0.pth (torch, 44749 bytes, 19 tensors)

model.0.weight f4 [64, 89]
0.02385417 0.10514651 0.011922608 0.094003305 -0.058641277 -0.071593165 0.065691665 -0.045342065
-0.017468471 -0.11602053 0.037132278 -0.02330649 -0.0014474976 0.0046429853 -0.0075428253 0.010080803
0.03680508 -0.10386298 -0.034192946 0.054313503 0.092306055 0.047423784 -0.04817579 -0.042556595
0.10143942 -0.046825368 -0.022108624 0.028135758 0.057055857 0.069683954 -0.0707475 0.03489519
0.04489182 -0.024808854 0.06719205 -0.043672826 0.06670225 -0.043024022 0.028232027 -0.020384585
0.061172307 0.009992908 0.091458604 0.024175704 0.0581864 0.021808308 -0.0771705 -0.047533616
0.04797504 0.061055627 -0.014217237 0.04643918 -0.09455006 -0.04159969 0.023935823 0.06923367
-0.059502315 -0.08147012 0.033439025 -0.001487337 0.10682961 0.14692189 0.016862003 0.10152491
-0.08309131 -0.053387787 -0.03045113 0.039009117 -0.13715631 0.09611305 -0.01763082 -0.0078335
-0.004026216 -0.016492125 0.08545561 -0.053372115 -0.12585458 -0.030453473 0.048182808 0.039528426
-0.12998053 -0.047308285 -0.020584773 -0.033511885 -0.047297265 -0.059645124 -0.046299234 0.052426394
0.07843819 0.019637175 -0.055527985 0.09735936 0.07565245 -0.050150752 0.021208053 -0.07321393
0.0570238 -0.011615546 -0.010229529 -0.11811794 -0.017805092 -0.04553484 -0.0391724 0.055097863
0.0018174655 0.026034232 0.0462758 0.0640965 -0.06468368 0.10125543 0.07365372 -0.08544951
-0.018799838 -0.015514915 0.004998136 0.0041515403 -0.04930428 -0.0006036159 -0.063446686 0.008792238
-0.009382271 0.026519695 -0.11002552 -0.020141205 -0.0018277806 0.01172084 -0.0479766 -0.04293263
-0.006807874 -0.044674408 -0.049567588 -0.0064559355 0.08128455 -0.07076643 0.003251258 -0.02300429
-0.07490676 0.036863256 -0.06583923 0.03237601 0.10882438 0.10627325 0.07218808 0.0008612421
-0.0034379284 0.03332991 -0.063804254 0.0369514 -0.051360507 0.08558533 -0.054988656 -0.022054907
0.017021593 0.08812017 0.056826245 0.07114094 0.10283125 0.08981533 -0.01943852 0.051004592
0.064322166 -0.0019368164 0.043584343 0.05282971 -0.022828316 0.044249993 -0.04850623 -0.025969049
0.088549085 -0.01337153 -0.072741315 -0.039564602 -0.042358194 0.042745568 0.060963754 -0.017004676
-0.11586849 0.04242218 0.045582283 -0.07640672 -0.11447554 -0.083326094 -0.040299032 -0.02129612
0.0229976 -0.070245855 0.03717795 -0.09179022 0.086843416 -0.038224448 0.0006155805 -0.032094136
0.12227991 0.06262081 -0.059173327 0.044827424 -0.06569852 0.023333618 -0.06194288 0.07497525
0.022606015 -0.0013375332 9.156848e-05 0.042765465 0.10750184 0.03324453 -0.07456371 0.067188054
-0.06125984 -0.015410474 0.0011992286 -0.016693631 -0.053198718 0.04118666 0.05673309 0.011211496
-0.020417595 -0.035844624 -0.030311864 -0.07441357 0.046169523 -0.07132122 0.04863889 -0.05838058
-0.096370146 -0.06346217 0.061950803 0.05955569 -0.15330422 -0.062272362 -0.0888427 -0.04660251
-0.03487418 0.052262373 -0.040462915 0.06362838 -0.010357304 0.13034154 0.028993499 0.025215087
-0.09537013 -0.026932772 0.06733008 -0.024879748 0.041418746 0.065190375 -0.0028566397 -0.014695387
-0.023436967 -0.06541468 -0.006791902 0.036537066 0.04921098 0.047109164 -0.10717804 0.03368296
00000000: d269 c33c 0e57 d73d 0b57 433c ce84 c03d
00000010: d631 70bd 709f 92bd 5a89 863d 9ab8 39bd
00000020: 0a1a 8fbc 2c9c edbd 0418 183d 41ed bebc
00000030: f6b9 bdba 2f24 983b ce29 f7bb f429 253c
00000040: ecc0 163d 1db6 d4bd e70d 0cbd d677 5e3d
00000050: f50a bd3d 713f 423d fa53 45bd d34f 2ebd
00000060: 78bf cf3d f5cb 3fbd 251d b5bc f67c e63c
00000070: 67b3 693d 76b6 8e3d 11e4 90bd 42ee 0e3d
00000080: 7ce0 373d f03b cbbc fc9b 893d 47e2 32bd
00000090: 309b 883d f539 30bd da46 e73c 93fd a6bc
000000a0: d08f 7a3d 4bb9 233c a64e bb3d 200c c63c
000000b0: dd54 6e3d 56a7 b23c 910b 9ebd 9cb2 42bd
000000c0: 7a81 443d 7715 7a3d 6aef 68bc 0237 3e3d
000000d0: 76a3 c1bd 7064 2abd 0f15 c43c 62ca 8d3d
000000e0: b3b8 73bd ced9 a6bd 5cf7 083d c0f2 c2ba
000000f0: 7cc9 da3d b172 163e 2f22 8a3c 4bec cf3d
00000100: c72b aabd 27ad 5abd a674 f9bc 06c8 1f3d
00000110: b472 0cbe ebd6 c43d 826e 90bc 1558 00bc
00000120: 59ee 83bb 7e1a 87bc 5a03 af3d b89c 5abd
00000130: 06e0 00be 9079 f9bc 565b 453d 8fe8 213d
00000140: 9e19 05be 55c6 41bd 66a1 a8bc c243 09bd
00000150: c7ba 41bd 724e 74bd 44a4 3dbd 0fbd 563d
00000160: 34a4 a03d 24de a03c 5071 63bd 5864 c73d
00000170: acef 9a3d e06a 4dbd 83bc ad3c 2ff1 95bd
00000180: ca91 693d 224f 3ebc c199 27bc d2e7 f1bd
00000190: fcdb 91bc be82 3abd 3d73 20bd 4cae 613d
000001a0: 0638 ee3a be45 d53c b18b 3d3d 0745 833d
000001b0: e178 84bd 025f cf3d c3d7 963d 2700 afbd
000001c0: 1e02 9abc 4532 7ebc 67c7 a33b a509 883b
000001d0: 49f3 49bd fa3b 1eba 56f0 81bd 520d 103c
000001e0: 19b8 19bc d53f d93c 0f55 e1bd 2bff a4bc
000001f0: 2492 efba c408 403c 1c83 44bd 20da 2fbd
00000200: 9614 dfbb 83fc 36bd 6207 4bbd 508c d3bb
00000210: 8478 a63d fded 90bd 0f13 553b 7e73 bcbc
00000220: b768 99bd edfd 163d b8d6 86bd b59c 043d
00000230: 51df de3d caa5 d93d 58d7 933d fbc4 613a
00000240: de4e 61bb f284 083d ceab 82bd 5a5a 173d
00000250: 655f 52bd 5d47 af3d c93b 61bd 7eac b4bc
00000260: de70 8b3c 5978 b43d a3c2 683d 57b2 913d
00000270: 3199 d23d 1af1 b73d 883d 9fbc 31ea 503d
00000280: 57bb 833d c6dc fdba 7f85 323d f763 583d
00000290: 7302 bbbc 7b3f 353d 78ae 46bd 0bbd d4bc
000002a0: 3959 b53d 4314 5bbc 66f9 94bd 7e0e 22bd
000002b0: c97f 2dbd fa15 2f3d 21b5 793d 644d 8bbc
000002c0: 754c edbd e1c2 2d3d 7db4 3a3d 207b 9cbd
000002d0: 2772 eabd dfa6 aabd 9910 25bd 3375 aebc
000002e0: 7665 bc3c 0fdd 8fbd e847 183d 83fc bbbd
000002f0: f6da b13d 3d91 1cbd e85e 213a 2475 03bd
00000300: e46d fa3d 573f 803d bb5f 72bd f69c 373d
00000310: f28c 86bd 2526 bf3c d1b7 7dbd a08c 993d
00000320: 4030 b93c 2b50 afba 7408 c038 d72a 2f3d
00000330: ed29 dc3d 6b2b 083d dcb4 98bd e499 893d
00000340: 99eb 7abd 367c 7cbc 6f2f 9d3a 15c1 88bc
00000350: e6e6 59bd 58b3 283d f560 683d 6cb0 373c
00000360: cd42 a7bc d0d1 12bd 9650 f8bc 2466 98bd
00000370: 411c 3d3d dc10 92bd 9339 473d 7a20 6fbd
00000380: b65d c5bd 74f8 81bd 20c0 7d3d abf0 733d
00000390: c8fb 1cbe 4e11 7fbd 29f3 b5bd 46e2 3ebd
000003a0: 3ad8 0ebd 1211 563d 71bc 25bd 994f 823d
000003b0: aeb1 29bc 4178 053e c683 ed3c df8f ce3c
000003c0: 6a51 c3bd 1ea2 dcbc 5ae4 893d 9dd0 cbbc
000003d0: b4a6 293d 8882 853d 7636 3bbb ecc4 70bc
000003e0: e2fe bfbc 22f8 85bd 9a8e debb e4a7 153d
000003f0: 7491 493d 8af5 403d 2980 dbbd 25f7 093d

model.0.bias f4 [64]
-1.7828495e-06 -5.5758596e-06 -7.275159e-06 -2.7883063e-06 -1.7942428e-05 8.5559896e-07 -8.922906e-06 4.957839e-06
6.2420204e-06 -4.8442394e-06 5.4426696e-06 -1.2272353e-05 -4.4340413e-06 1.3756357e-06 4.2237484e-06 -9.0917365e-06
2.0355233e-06 3.2050514e-06 3.6091778e-06 -2.6376772e-06 8.855392e-06 1.0657759e-05 -2.9427051e-06 -3.8795597e-06
-5.8819287e-06 -8.582965e-07 1.5354579e-05 -2.469201e-05 -1.12666075e-05 7.475134e-06 4.7327148e-07 6.114028e-06
2.9835696e-06 8.881005e-06 6.9336957e-06 2.5153195e-06 7.763269e-06 3.824287e-06 -3.8479293e-06 -4.848708e-06
1.3020772e-05 5.0867584e-06 -7.1869727e-07 5.1205484e-07 -7.1329096e-06 3.9436554e-06 1.0060675e-05 -8.183631e-06
2.8088368e-06 2.3386333e-06 -2.858975e-07 2.8498725e-06 2.545344e-05 2.154551e-07 1.3698911e-05 7.652474e-06
-1.9769617e-05 7.992697e-06 -2.879859e-06 2.3991606e-06 -1.8089577e-06 -4.1967987e-06 -3.370335e-06 1.5419791e-05
00000000: 3e4a efb5 4518 bbb6 241d f4b6 bd1e 3bb6
00000010: 1283 96b7 50ac 6535 97b3 15b7 835b a636
00000020: 8c72 d136 b38b a2b6 2da0 b636 5be5 4db7
00000030: 20c8 94b6 7ca2 b835 b9b9 8d36 b688 18b7
00000040: 069a 0836 5d16 5736 3435 7236 f302 31b6
00000050: 9e91 1437 bace 3237 4a7b 45b6 2a2d 82b6
00000060: 625d c5b6 b065 66b5 b5cd 8037 b021 cfb7
00000070: b605 3db7 ead2 fa36 f015 fe34 1a27 cd36
00000080: 5639 4836 a0ff 1437 fea7 e836 dccc 2836
00000090: fd3e 0237 6052 8036 761d 81b6 16b2 a2b6
000000a0: ca73 5a37 ecae aa36 80ec 40b5 2474 0935
000000b0: 3a57 efb6 be53 8436 45ca 2837 6d4c 09b7
000000c0: 737f 3c36 6af1 1c36 747d 99b4 7040 3f36
000000d0: d984 d537 d957 6734 60d4 6537 2063 0037
000000e0: eed6 a5b7 5f18 0637 9a43 41b6 4401 2136
000000f0: 50cb f2b5 3ad2 8cb6 ea2d 62b6 c059 8137

model.1.weight f4 [64]
0.9767955 1.0061979 0.91515344 1.0200987 0.9305711 0.9439003 1.0151606 0.9358303
0.9375641 1.0315145 0.8925648 1.0018038 0.90907013 0.93471295 0.95956844 0.9582286
0.90693694 0.90529555 0.8708749 0.9046314 0.94989175 0.9685777 0.8699286 0.9237163
0.96357095 0.9520395 0.9197377 1.040502 0.98915 0.94516146 0.90226156 0.87876666
0.94837165 0.95764756 0.9238088 0.956023 0.8675565 0.8899487 0.93201447 0.99613535
0.9527342 0.88424474 0.9423163 0.9666561 0.91177315 0.9980491 1.0242996 0.93923205
0.9196316 1.034151 0.8324925 0.90219665 1.0036094 0.8962553 0.9726174 0.9534275
0.9334695 0.93030673 0.88239175 0.93345356 0.9297208 0.89977735 0.92895377 0.95072395
00000000: 450f 7a3f 18cb 803f 7f47 6a3f 9892 823f
00000010: e839 6e3f 73a3 713f c8f0 813f 9392 6f3f
00000020: 3304 703f ab08 843f 207f 643f 1b3b 803f
00000030: d2b8 683f 5949 6f3f 47a6 753f 784e 753f
00000040: 052d 683f 73c1 673f a8f1 5e3f ec95 673f
00000050: 1b2c 733f b5f4 773f a4b3 5e3f ac78 6c3f
00000060: 96ac 763f dcb8 733f ee73 6b3f 2b2f 853f
00000070: ef38 7d3f 1af6 713f 9dfa 663f daf6 603f
00000080: 7cc8 723f 6428 753f bc7e 6c3f ecbd 743f
00000090: 2f18 5e3f aed3 633f 8098 6e3f ba02 7f3f
000000a0: 63e6 733f dd5d 623f a43b 713f c676 773f
000000b0: f769 693f 2580 7f3f 401c 833f 8371 703f
000000c0: fa6c 6b3f 0f5f 843f 3a1e 553f 5cf6 663f
000000d0: 4676 803f fd70 653f 74fd 783f d313 743f
000000e0: dbf7 6e3f 9528 6e3f 6de4 613f d0f6 6e3f
000000f0: 2f02 6e3f cf57 663f eacf 6d3f a562 733f

model.1.bias f4 [64]
0.015684055 -0.14783925 -0.12633005 -0.031593274 -0.122392505 -0.10587703 -0.038117208 -0.06911025
-0.33279634 -0.14631283 -0.11775996 -0.3964239 -0.27249083 -0.07236713 -0.08436812 -0.12118242
-0.0018260683 -0.06027524 -0.11710572 -0.032957796 -0.1713264 -0.2780367 -0.12703772 -0.1359648
-0.0700597 -0.03537896 -0.39158627 -0.31955373 0.015917433 -0.08982903 -0.016315881 -0.117936045
-0.2898427 -0.06367444 -0.024207057 -0.20451015 -0.06595459 -0.23621312 -0.07515715 -0.033307727
-0.41115254 -0.14664972 -0.04849098 -0.114113905 -0.112085424 -0.1296622 -0.21772218 -0.14547294
-0.30271593 -0.25428224 -0.097438194 -0.06184617 -0.1496348 -0.10300811 -0.23501466 -0.051586796
-0.36373457 -0.30758485 -0.09001432 -0.40808928 -0.2312881 -0.15519938 -0.30210507 -0.04321229
00000000: d97b 803c 2c63 17be aa5c 01be f367 01bd
00000010: eca8 fabd 0ed6 d8bd ca20 1cbd ad89 8dbd
00000020: 4864 aabe 08d3 15be 222c f1bd 13f8 cabe
00000030: eb83 8bbe 3835 94bd 31c9 acbd 7d2e f8bd
00000040: af58 efba 2ce3 76bd 20d5 efbd c1fe 06bd
00000050: 3070 2fbe d45a 8ebe 2d16 02be 5b3a 0bbe
00000060: 767b 8fbd 87e9 10bd ff7d c8be 8c9c a3be
00000070: 4765 823c 48f8 b7bd e2a8 85bc 7488 f1bd
00000080: 4366 94be bf67 82bd e14d c6bc 1c6b 51be
00000090: 3313 87bd dae1 71be feeb 99bd af6d 08bd
000000a0: 9682 d2be 582b 16be 7a9e 46bd 8db4 e9bd
000000b0: 0b8d e5bd 2bc6 04be 90f2 5ebe dcf6 14be
000000c0: 95fd 9abe 4831 82be ad8d c7bd 6952 7dbd
000000d0: dd39 19be eaf5 d2bd afa7 70be ad4c 53bd
000000e0: 6b3b babe c37b 9dbe 6e59 b8bd 14f1 d0be
000000f0: cad6 6cbe 96ec 1ebe 84ad 9abe 5fff 30bd

model.1.running_mean f4 [64]
-0.1571597 -0.22330487 0.14109662 0.15177597 0.034115903 -0.42855218 0.5615519 -0.17132941
-0.39718205 -0.03625463 -0.27691004 -0.16738272 -0.30212462 0.38798082 -0.013179557 -0.026829213
0.015276887 0.051247295 -0.23194444 -0.11718395 -0.75030774 -0.34610623 -0.175909 -0.27476352
0.06472394 -0.70397794 -0.3835246 -0.12861091 -0.072413996 0.2190783 0.43811685 -0.029059738
-0.324181 0.26657644 -0.05328248 -0.6734032 -0.034992203 -0.5430876 -0.18503918 0.40901592
-0.3578294 0.015973808 0.06521466 -0.8606689 -0.3183142 -0.65310216 -0.18938121 0.0093179215
-0.69838643 -0.22151344 0.4710242 0.40736204 0.005483151 -0.29333606 -0.5065955 0.034988813
-0.44780904 -0.4295497 0.9670954 -0.07886302 -0.56284964 -0.42652786 -0.37995273 0.44739386
00000000: 79ee 20be 08aa 64be a27b 103e 296b 1b3e
00000010: 1ebd 0b3d 316b dbbe dec1 0f3f fa70 2fbe
00000020: 725b cbbe bc7f 14bd 27c7 8dbe 6066 2bbe
00000030: 14b0 9abe 6ca5 c63e 12ef 57bc f0c8 dbbc
00000040: e94b 7a3c afe8 513d d882 6dbe 24fe efbd
00000050: 2b14 40bf d634 b1be 7d21 34be cead 8cbe
00000060: fc8d 843d e637 34bf 565d c4be 94b2 03be
00000070: ca4d 94bd 1056 603e da50 e03e b00e eebc
00000080: 0dfb a5be b57c 883e bb3e 5abd 2764 2cbf
00000090: fc53 0fbd ca07 0bbf e97a 3dbe 896a d13e
000000a0: 6a35 b7be 81db 823c 438f 853d cc54 5cbf
000000b0: 14fa a2be b431 27bf 26ed 41be 32aa 183c
000000c0: 74c9 32bf 6bd4 62be 152a f13e c291 d03e
000000d0: 01ac b33b 2530 96be 3eb0 01bf 6e50 0f3d
000000e0: 3a47 e5be f0ed dbbe 9093 773f ef82 a1bd
000000f0: ea16 10bf dc61 dabe 2a89 c2be cf10 e53e

model.1.running_var f4 [64]
0.47733986 0.07136173 0.11397121 0.092211634 0.089151956 0.21635902 0.19311607 0.21161662
0.12535402 0.30337396 0.3704814 0.09555184 0.18590313 0.27516168 0.14317936 0.08246681
0.3926016 0.11002544 0.44826546 0.6318912 0.39486355 0.24459898 0.33127275 0.20399891
0.22616406 0.39235508 0.12282838 0.09951624 0.10560778 0.16289742 0.16859218 0.16815141
0.27337208 0.1454332 0.36283946 0.32083216 0.16602118 0.3108235 0.27516195 0.16524522
0.09561818 0.1564221 0.31686616 0.50879097 0.30921215 0.3403817 0.2502058 0.12034342
0.23759301 0.3343432 0.29831016 0.54157835 0.14028965 0.6403462 0.2223316 0.09849173
0.11624467 0.18981193 0.8937065 0.13555306 0.5340449 0.3306507 0.19747616 0.13811785
00000000: e465 f43e 1926 923d bd69 e93d 74d9 bc3d
00000010: 4d95 b63d 388d 5d3e 38c0 453e 07b2 583e
00000020: ce5c 003e d553 9b3e bdaf bd3e afb0 c33d
00000030: 645d 3e3e fee1 8c3e 9c9d 123e 5ce4 a83d
00000040: 1403 c93e 0555 e13d 0d83 e53e 9fc3 213f
00000050: 8e2b ca3e 2878 7a3e 959c a93e 17e5 503e
00000060: 8d97 673e c4e2 c83e 728d fb3d 2ccf cb3d
00000070: e448 d83d 95ce 263e 6ea3 2c3e e22f 2c3e
00000080: 6df7 8b3e 71ec 143e 18c6 b93e 1d44 a43e
00000090: 7501 2a3e 4224 9f3e 07e2 8c3e 0b36 293e
000000a0: 77d3 c33d 1d2d 203e 483c a23e 2040 023f
000000b0: 0e51 9e3e 8346 ae3e fa1a 803e 9c76 f63d
000000c0: 954b 733e 082f ab3e 1cbc 983e e1a4 0a3f
000000d0: 17a8 0f3e bbed 233f e5aa 633e 08b6 c93d
000000e0: af11 ee3d 0f5e 423e f3c9 643f 6cce 0a3e
000000f0: 2bb7 083f 0c4b a93e 3137 4a3e c46e 0d3e

model.4.weight f4 [32, 64]
-0.13645348 0.0715571 0.02655573 -0.013985744 -0.06847464 0.10697943 -0.06668328 0.009658349
-0.02386701 -0.03065044 -0.026260706 0.037834164 -0.05876004 -0.059974685 -0.01645635 0.042574223
0.050239574 0.03195008 -0.14956602 0.027417066 0.07857887 -0.1327801 -0.065553054 0.04370764
0.059879318 0.055170204 0.057191875 -0.034245156 -0.02444131 0.010255418 -0.05047602 -0.09871173
-0.15565053 -0.026413554 -0.013184873 0.12516391 -0.16766095 -0.07449543 -0.027015021 -0.0033832048
0.06500268 0.056562558 0.018634444 0.04001471 -0.07170948 0.028538788 -0.0968945 0.067876324
-0.026631752 -0.059011593 0.008730372 -0.112972006 0.031901773 -0.039493237 0.08032649 0.009226339
0.16487303 0.17603558 -0.06819573 0.070179336 -0.0059293867 -0.08435501 0.031303912 -0.023983391
-0.016258106 0.0759609 -0.12393957 -0.11290736 -0.12327256 0.03186941 0.06096259 -0.10879758
0.10605695 0.009062223 -0.043805 0.14872845 0.095286034 0.06478027 -0.04886152 -0.061472088
-0.06598368 -0.06556487 0.04638501 -0.048932195 0.07915015 0.07008221 -0.00044751697 -0.05138369
-0.106655225 0.0033783985 0.13487735 0.115239315 -0.023604317 -0.07469815 0.013728068 -0.07775991
0.047293227 -0.046239797 -0.07100522 0.025556466 -0.061269693 0.061513368 -0.04843527 -0.05831047
0.0546229 -0.037850752 -0.08420217 0.036148302 -0.033080388 -0.02659993 0.028599098 -0.114376105
0.06425294 0.019004703 -0.008113685 0.019709686 -0.12784663 0.06611503 0.043026336 -0.11102145
0.094004154 0.06974042 0.03971267 0.12719503 0.042803183 0.040555697 0.01853057 -0.040321723
0.05026848 -0.11495367 -0.03778503 -0.07777294 0.025805084 -0.091947965 0.029796476 -0.0148870265
-0.10404501 -0.033900738 -0.05533862 -0.05172372 0.084233 0.0589673 -0.0024546955 -0.13814354
-0.09979671 0.05469213 -0.03734335 0.0082027465 -0.084752485 -0.04636712 -0.04383514 0.043749373
-0.13120633 -0.08210311 0.026413035 -0.11424925 0.06233864 -0.078342885 -0.12827258 -0.036886156
0.07470632 0.055087246 -0.04344439 -0.19968043 0.10476357 -0.07088812 -0.13942243 -0.038344685
-0.18033074 -0.055600658 -0.078199364 -0.11408702 -0.017677115 -0.2054031 -0.067324355 0.08659923
-0.072624676 0.18133506 -0.037227605 0.063989885 -0.0063802046 0.032958854 -0.055517323 0.04743495
0.028726636 0.023616634 -0.07955986 0.028352737 -0.041284554 0.009903922 0.042758986 -0.0037488216
0.015196847 0.083337925 -0.10027792 -0.11640162 -0.121294476 0.031712886 0.07449606 -0.036785904
0.081585884 0.012091803 -0.016142722 0.12491302 0.091298126 0.05430242 -0.10513708 -0.12601049
-0.050668772 -0.106941685 0.04667671 -0.06404747 -0.030412719 0.086244635 -0.036961995 -0.06335397
-0.045200165 0.053239796 0.043910958 0.098394506 0.006555276 -0.07421657 0.014689002 -0.04078057
0.11245824 -0.065842174 -0.1005015 0.0021689965 0.0058433074 0.095269345 -0.068732895 -0.07536472
0.05264396 -0.059580985 -0.10876022 0.023544056 0.026355306 0.005894224 0.04149855 -0.06110511
0.016566157 0.06527158 0.027187673 -0.0060342117 -0.13354145 0.05391564 0.026407216 -0.040128667
0.073921174 0.047046162 0.036436614 0.13627766 0.063193 0.045879822 0.09429768 -0.009848093
00000000: 76ba 0bbe 878c 923d 678b d93c 7624 65bc
00000010: 6f3c 8cbd 0818 db3d 3e91 88bd 0d3e 1e3c
00000020: bf84 c3bc a216 fbbc b120 d7bc fff7 1a3d
00000030: 5eae 70bd 04a8 75bd 78cf 86bc 4f62 2e3d
00000040: 03c8 4d3d 16de 023d d627 19be c199 e03c
00000050: f5ed a03d 82f7 07be ae40 86bd c806 333d
00000060: 0444 753d 27fa 613d 0742 6a3d a644 0cbd
00000070: 2439 c8bc 5706 283c f1bf 4ebd 6029 cabd
00000080: da62 1fbe 3d61 d8bc 5e05 58bc f82a 003e
00000090: 50af 2bbe 0f91 98bd 9b4e ddbc c2b8 5dbb
000000a0: 2020 853d 24ae 673d 43a7 983c 77e6 233d
000000b0: 6bdc 92bd 2dca e93c a070 c6bd be02 8b3d
000000c0: d52a dabc 24b6 71bd d609 0f3c de5d e7bd
000000d0: 6fab 023d a9c3 21bd 3782 a43d 122a 173c
000000e0: 7ad4 283e ac42 343e 34aa 8bbd 2fba 8f3d
000000f0: 4d4b c2bb 52c2 acbd 8838 003d d178 c4bc
00000100: b82f 85bc 6391 9b3d 07d4 fdbd f93b e7bd
00000110: 5376 fcbd 8089 023d e9b3 793d 44d1 debd
00000120: 6334 d93d b879 143c df6c 33bd 454c 183e
00000130: 5325 c33d 85ab 843d 0423 48bd 28ca 7bbd
00000140: 7422 87bd e046 86bd 35fe 3d3d 206d 48bd
00000150: 7919 a23d 4387 8f3d b6a0 eab9 b477 52bd
00000160: 0e6e dabd 1f68 5d3b 4a1d 0a3e 9702 ec3d
00000170: d75d c1bc 58fb 98bd b1eb 603c 9640 9fbd
00000180: 8bb6 413d f165 3dbd 2f6b 91bd cb5b d13c
00000190: eef5 7abd 71f5 7b3d 1064 46bd f6d6 6ebd
000001a0: 43bc 5f3d 6409 1bbd 3072 acbd 3e10 143d
000001b0: 4d7f 07bd 19e8 d9bc a848 ea3c 053e eabd
000001c0: 0c97 833d c0af 9b3c 43ef 04bc 3576 a13c
000001d0: 3aea 02be 5167 873d 623c 303d 375f e3bd
000001e0: 4085 c03d 11d4 8e3d c1a9 223d 6a3f 023e
000001f0: 6452 2f3d bb1d 263d 6ccd 973c 6428 25bd
00000200: 52e6 4d3d d46c ebbd 7ac4 1abd 6b47 9fbd
00000210: 2f65 d33c 374f bcbd bd17 f43c b7e8 73bc
00000220: 8d15 d5bd 80db 0abd c0aa 62bd 40dc 53bd
00000230: 5a82 ac3d b287 713d f5de 20bb 8075 0dbe
00000240: 3862 ccbd db04 603d 57f5 18bd d064 063c
00000250: b692 adbd 73eb 3dbd 7a8c 33bd 8b32 333d
00000260: f45a 06be ad25 a8bd 2660 d83c 83fb e9bd
00000270: cd56 7f3d 3c72 a0bd e359 03be f015 17bd
00000280: a1ff 983d 2aa3 613d bff2 31bd 0779 4cbe
00000290: 488e d63d ca2d 91bd c1c4 0ebe 510f 1dbd
000002a0: 9fa8 38be 84bd 63bd fd26 a0bd 75a6 e9bd
000002b0: 99cf 90bc 3155 52be 5ae1 89bd f05a b13d
000002c0: 3fbc 94bd e6af 393e f97b 18bd 210d 833d
000002d0: 0911 d1bb ddff 063d 2266 63bd 264b 423d
000002e0: 1f54 eb3c ac77 c13c 48f0 a2bd 0044 e83c
000002f0: fe19 29bd 0f44 223c 0c24 2f3d caae 75bb
00000300: 32fc 783c 13ad aa3d 835e cdbd f963 eebd
00000310: 3d69 f8bd 5fe5 013d 6491 983d d1ac 16bd
00000320: 8016 a73d b31c 463c be3d 84bc 66d2 ff3d
00000330: 83fa ba3d 376c 5e3d 1c52 d7bd e508 01be
00000340: 0f8a 4fbd 3e04 dbbd 1430 3f3d 522b 83bd
00000350: 1824 f9bc 07a1 b03d 7665 17bd babf 81bd
00000360: cf23 39bd f911 5a3d fadb 333d 0f83 c93d
00000370: a4cd d63b dbfe 97bd 24aa 703c 8709 27bd
00000380: 8150 e63d 43d8 86bd bbd3 cdbd b925 0e3b
00000390: 3779 bf3b 931c c33d d5c3 8cbd d158 9abd
000003a0: 31a1 573d 310b 74bd aebd debd 77df c03c
000003b0: 15e7 d73c 5624 c13b 62fa 293d 5a49 7abd
000003c0: c0b5 873c 1bad 853d afb8 de3c a3ba c5bb
000003d0: 17bf 08be a5d6 5c3d f253 d83c f55d 24bd
000003e0: fc63 973d 7ab3 403d 8f3e 153d 5f8c 0b3e
000003f0: 556b 813d 7bec 3b3d 241f c13d e559 21bc

model.4.bias f4 [32]
4.3309274e-06 3.2312987e-06 -5.60992e-07 3.608849e-06 5.6172994e-06 1.4256423e-06 4.5254915e-06 -6.3597176e-06
-6.946436e-06 8.156918e-06 9.48422e-06 -8.933781e-06 -4.9492965e-06 9.839328e-07 -3.9489883e-06 -2.8502163e-06
-2.2145596e-05 2.6174248e-06 2.2941792e-06 -2.6327261e-06 3.8793014e-06 -3.518644e-06 -3.3144083e-06 1.091583e-06
-8.092229e-06 9.182285e-06 4.772187e-07 6.0593775e-06 -1.2618773e-06 -4.3002474e-06 1.4299258e-06 -7.420063e-06
00000000: 6252 9136 4ad9 5836 1497 16b5 8e2f 7236
00000010: 3c7c bc36 b258 bf35 add9 9736 8f65 d5b6
00000020: 6e15 e9b6 b2d9 0837 6a1e 1f37 4ce2 15b7
00000030: 2212 a6b6 ac0f 8435 8d81 84b6 5846 3fb6
00000040: 4ec5 b9b7 04a7 2f36 b3f5 1936 e4ad 30b6
00000050: f22a 8236 d821 6cb6 1a6d 5eb6 8282 9235
00000060: dcc3 07b7 9d0d 1a37 381a 0035 a851 cb36
00000070: c65d a9b5 d84a 90b6 e0eb bf35 dbf9 f8b6

model.5.weight f4 [32]
0.8793512 0.91947156 0.86437875 0.8674676 0.9853922 0.99925816 0.8348197 0.79872715
1.1136494 0.849333 0.90866214 0.9519478 1.0210428 0.9437975 0.9684251 0.86592925
0.93981457 1.0511525 0.854082 0.7381076 0.9732381 0.86674494 1.0130355 0.95573616
1.0856936 0.90215224 0.9315579 0.95253605 1.1945164 0.9113005 0.9663314 0.97060966
00000000: 291d 613f 7d62 6b3f ed47 5d3f 5b12 5e3f
00000010: aa42 7c3f 62cf 7f3f beb6 553f 6279 4c3f
00000020: 108c 8e3f e36d 593f 159e 683f dab2 733f
00000030: 88b1 823f b79c 713f b5ea 773f 8aad 5d3f
00000040: b097 703f 2a8c 863f 1ea5 5a3f 9ff4 3c3f
00000050: 2226 793f ffe2 5d3f 26ab 813f 20ab 743f
00000060: 02f8 8a3f 73f3 663f 947a 6e3f 67d9 733f
00000070: eae5 983f fd4a 693f 7f61 773f e079 783f

model.5.bias f4 [32]
-0.14664266 -0.34546188 -0.074166425 -0.3728349 -0.03127549 -0.15008041 -0.17210837 -0.13064703
-0.0042930227 -0.066362806 -0.20140783 -0.22468103 -0.08650203 -0.09748946 -0.26380888 -0.11559112
-0.03588458 0.008800491 -0.04536391 -0.1760888 -0.28621686 -0.061095435 -0.24821155 -0.24048713
0.16250084 -0.056289278 -0.10595531 -0.07537619 -0.012137703 -0.22295293 -0.29744744 -0.34512585
00000000: 7e29 16be 61e0 b0be 91e4 97bd 37e4 bebe
00000010: ba1a 00bd aeae 19be 2d3d 30be 56c8 05be
00000020: 7cac 8cbb 39e9 87bd db3d 4ebe c912 66be
00000030: fa27 b1bd 8ea8 c7bd f511 87be 0abb ecbd
00000040: b6fb 12bd ef2f 103c 82cf 39bd 9f50 34be
00000050: 048b 92be 353f 7abd 2b2b 7ebe 4242 76be
00000060: 9f66 263e 968f 66bd 19ff d8bd d55e 9abd
00000070: 37dd 46bc c64d 64be 084b 98be 56b4 b0be

model.5.running_mean f4 [32]
-0.116862334 -0.11412897 -0.62568027 -0.07158162 0.2850755 0.38977414 0.21134889 -0.5388458
0.09244441 -0.056104086 -0.17887609 -0.15519129 0.013266296 0.0097955 0.04448121 -0.20960927
-0.04786693 0.3343127 0.13646829 -0.28271616 0.027682068 -0.06109418 -0.0481781 -0.056059986
-0.6370206 -0.1584043 -0.38348064 -0.33566785 0.2506884 -0.13808334 -0.011444737 -0.06955319
00000000: 8555 efbd 73bc e9bd 952c 20bf 6299 92bd
00000010: 6af5 913e 7a90 c73e d86b 583e ccf1 09bf
00000020: 7f53 bd3d 66cd 65bd 4b2b 37be 77ea 1ebe
00000030: e15a 593c 4e7d 203c ee31 363d d0a3 56be
00000040: 1d10 44bd 092b ab3e 58be 0b3e 2cc0 90be
00000050: 81c5 e23c e43d 7abd 6656 45bd 289f 65bd
00000060: c813 23bf bd34 22be 9357 c4be a8dc abbe
00000070: 3b5a 803e b865 0dbe b582 3bbc e771 8ebd

model.5.running_var f4 [32]
0.31236556 0.91267747 0.7224417 0.7412442 0.40452427 0.79332155 0.58728385 0.7978578
0.6926323 0.48066851 0.93031925 0.94994134 0.812693 0.88440174 0.6620561 0.29546
0.44115716 0.5588676 0.36275044 0.1471694 0.7990533 0.43445566 1.0669549 1.0830265
0.43518868 0.584427 0.446715 0.7495832 0.97278374 0.7517789 0.8214931 0.8828041
00000000: 61ee 9f3e 3ba5 693f f0f1 383f 2ec2 3d3f
00000010: ce1d cf3e 1f17 4b3f 3c58 163f 6940 4c3f
00000020: 5a50 313f 2f1a f63e 6729 6e3f 5b2f 733f
00000030: a60c 503f 2768 623f 827c 293f 8846 973e
00000040: 5adf e13e f211 0f3f 6dba b93e 93b3 163e
00000050: c28e 4c3f f970 de3e fa91 883f 9da0 8a3f
00000060: 0dd1 de3e 029d 153f d4b7 e43e afe4 3f3f
00000070: 5b08 793f 9574 403f 5f4d 523f 73ff 613f

model.8.weight f4 [16, 32]
0.13742517 0.017242013 -0.10169768 -0.06757857 -0.043452866 -0.21627672 -0.11818681 0.09205898
-0.051189333 -0.1942525 0.07955738 -0.058575537 0.057865404 0.0193281 -0.1307147 0.022603836
0.02235239 0.04252973 -0.17971715 0.08745344 0.014052788 0.09892664 -0.041121807 0.012236973
0.10179223 0.053130396 -0.05484936 0.065138295 -0.46081895 -0.012607326 -0.024238408 0.05835753
0.074148215 -0.13694957 0.05878516 -0.03754107 0.040710136 0.0512427 -0.08313837 0.03708091
-0.25752178 0.034941096 -0.18054438 0.0212759 -0.027608545 -0.1530353 0.025689293 0.11216569
-0.08017737 -0.18664557 0.006460237 -0.07235414 0.028182043 -0.124307424 0.01522789 -0.26079437
0.053659316 0.05417183 -0.009069151 0.10152131 0.00824987 -0.1988457 -0.19512528 -0.1579264
0.017306505 0.03378543 0.15376125 -0.031530824 0.040717114 -0.11364613 -0.113121405 -0.08065796
0.027686762 -0.10074009 -0.05337798 0.027821753 0.02435876 0.02811282 -0.119679786 0.07271441
-0.019106047 0.0048805624 -0.15525194 -0.0066444427 0.027635835 -0.01193686 -0.010517197 0.020496188
-0.7183871 0.06501369 0.026418975 0.037842043 -0.13373132 0.026179152 -0.015103549 0.03967725
-0.018088525 -0.082739405 0.030961184 -0.11783943 0.032018375 0.011823345 0.05819664 0.029782943
-0.52576923 0.00668834 -0.115566365 -0.05019257 0.09324399 0.018893335 0.0140893785 -0.07926629
0.044866983 -0.023660315 -0.026547749 0.008010872 -0.07286745 0.042754225 -0.10972662 0.004803225
0.009324357 -0.06397607 0.077723876 -0.013161616 0.003780243 -0.115854986 -0.047257166 -0.10226299
0.06320012 -0.32194105 0.0336017 -0.08346279 0.05977724 0.017925503 -0.03603149 -0.0041912347
-0.052941162 0.06206791 -0.20861109 -0.14972869 -0.15828326 0.06798492 -0.09691179 -0.07951739
0.104485504 0.0747614 0.044250667 0.040970266 -0.22716491 -0.12843102 -0.19340618 0.021104535
0.038608838 -0.037894893 0.08837484 -0.16698286 0.035126906 -0.19989504 -0.26250893 -0.26241907
0.08881669 -0.17921053 0.037743807 -0.18723632 -0.20577446 -0.24976115 -0.15815492 0.011729402
-0.17125848 -0.03298589 -0.0844889 0.0797489 -0.16773087 -0.08445851 -0.15100999 0.04814676
-0.23426649 0.012808335 -0.032613724 0.08357756 -0.1699014 -0.05086334 0.084645756 0.10698023
0.058420982 0.06767302 -0.048330594 0.15109602 0.06997214 -0.0014056492 0.030312572 -0.011856605
-0.012144226 -0.038757917 0.01120178 -0.046810556 -0.17714411 0.061177537 0.057815246 0.037053052
0.13108937 0.0059213685 -0.09916775 -0.0920709 -0.041442476 -0.11140166 -0.07808383 0.065510035
0.085139245 -0.28969428 -0.0075907954 -0.062192254 -0.06613619 0.07896338 -0.21065769 -0.23563264
0.040048085 -0.058969893 -0.094692126 -0.052585367 0.016574338 0.10032743 -0.22092555 -0.25995815
-0.26541573 -0.19488546 0.0067082704 0.006633202 0.0365946 -0.008345161 0.036256984 -0.015618031
-0.044377405 0.020593775 -0.13865408 -0.22402452 -0.07146927 -0.10485985 0.025819788 0.030160837
-0.009706826 0.070977315 0.007842691 0.039744556 -0.06727442 0.038608484 -0.15220869 -0.15392838
0.035846666 -0.037236888 -0.23673211 -0.07499313 0.016333332 -0.20602319 -0.031548817 -0.15569563
00000000: 2fb9 0c3e 1f3f 8d3c e046 d0bd a266 8abd
00000010: a2fb 31bd a577 5dbe ed0b f2bd 6b89 bc3d
00000020: e8ab 51bd 21ea 46be fbee a23d e7ec 6fbd
00000030: 4604 6d3d f755 9e3c 13da 05be ae2b b93c
00000040: 5c1c b73c a733 2e3d c607 38be ca1a b33d
00000050: aa3d 663c 0d9a ca3d 576f 28bd 967d 483c
00000060: 7278 d03d 429f 593d b9a9 60bd 3a67 853d
00000070: 76f0 ebbe f58e 4ebc a08f c6bc 4e08 6f3d
00000080: 05db 973d 823c 0cbe b5c8 703d aac4 19bd
00000090: acbf 263d dee3 513d 7344 aabd 27e2 173d
000000a0: e5d9 83be 651e 0f3d a0e0 38be cc4a ae3c
000000b0: 512b e2bc 49b5 1cbe 5a72 d23c 20b7 e53d
000000c0: 0834 a4bd 0420 3fbe 65b0 d33b 682e 94bd
000000d0: 07de e63c e494 febd 667e 793c d786 85be
000000e0: dfc9 5b3d 48e3 5d3d c796 14bc 68ea cf3d
000000f0: 762a 073c 359e 4bbe ecce 47be 75b7 21be
00000100: 5fc6 8d3c 9762 0a3d 9773 1d3e 7726 01bd
00000110: fdc6 263d 4dbf e8bd 32ac e7bd 0030 a5bd
00000120: 59cf e23c d250 cebd dea2 5abd 72ea e33c
00000130: 068c c73c db4c e63c ad1a f5bd 4beb 943d
00000140: 4984 9cbc 20ed 9f3b 5dfa 1ebe a0b9 d9bb
00000150: 8c64 e23c d292 43bc 5250 2cbc 9fe7 a73c
00000160: 38e8 37bf e625 853d 9b6c d83c 4200 1b3d
00000170: ddf0 08be a975 d63c e074 77bc 9d84 223d
00000180: 632e 94bc 4773 a9bd 4fa2 fd3c cd55 f1bd
00000190: b325 033d b4b6 413c 9a5f 6e3d 5cfb f33c
000001a0: d098 06bf dd29 db3b 0fae ecbd b996 4dbd
000001b0: b4f6 be3d 32c6 9a3c 23d7 663c 5d56 a2bd
000001c0: 71c6 373d 47d3 c1bc aa7a d9bc 0840 033c
000001d0: 883b 95bd 0e1f 2f3d 5ab8 e0bd 5f64 9d3b
000001e0: 30c5 183c e305 83bd b22d 9f3d d2a3 57bc
000001f0: f4bd 773b 6145 edbd bb90 41bd 426f d1bd
00000200: 116f 813d 75d5 a4be f0a1 093d 8aee aabd
00000210: fbd8 743d 81d8 923c c195 13bd a056 89bb
00000220: d5d8 58bd ec3a 7e3d 259e 55be 7a52 19be
00000230: 0215 22be ae3b 8b3d b079 c6bd 03da a2bd
00000240: 7ffc d53d 811c 993d 3040 353d 70d0 273d
00000250: eb9d 68be 6c83 03be 450c 46be 6be3 ac3c
00000260: 4d24 1e3d ad37 1bbd defd b43d 8efd 2abe
00000270: 3be1 0f3d 49b1 4cbe 9267 86be cb5b 86be
00000280: 86e5 b53d f782 37be 4099 1a3d e1ba 3fbe
00000290: 8ab6 52be 63c1 7fbe 5df3 21be ad2c 403c
000002a0: 625e 2fbe 361c 07bd 8408 adbd 6453 a33d
000002b0: a4c1 2bbe 95f8 acbd 5da2 1abe 8935 453d
000002c0: 8ee3 6fbe 0dda 513c f895 05bd b62a ab3d
000002d0: a2fa 2dbe 1456 50bd c15a ad3d 7318 db3d
000002e0: d74a 6f3d 2798 8a3d 4df6 45bd eab8 1a3e
000002f0: 8e4d 8f3d c33d b8ba 1252 f83c 3542 42bc
00000300: 93f8 46bc 9fc0 1ebd ac87 373c 6dbc 3fbd
00000310: 4465 35be 4c95 7a3d aecf 6c3d f1c4 173d
00000320: 4b3c 063e 0a08 c23b 7618 cbbd ab8f bcbd
00000330: 96bf 29bd 8e26 e4bd 6aea 9fbd 202a 863d
00000340: 7c5d ae3d cf52 94be 35bc f8bb 4ebd 7ebd
00000350: 6972 87bd 8db7 a13d a6b6 57be af49 71be
00000360: 7609 243d 6a8a 71bd f2ed c1bd c163 57bd
00000370: e8c6 873c 7878 cd3d 4f3a 62be 3c19 85be
00000380: 92e4 87be 0e90 47be 0dd1 db3b 555b d93b
00000390: 38e4 153d 24ba 08bc 3482 143d c5e2 7fbc
000003a0: 15c5 35bd 47b4 a83c 56fb 0dbe af66 65be
000003b0: 7b5e 92bd c3c0 d6bd 0584 d33c dc13 f73c
000003c0: 6109 1fbc 8e5c 913d a17e 003c 30cb 223d
000003d0: 2cc7 89bd ee23 1e3d 98dc 1bbe 679f 1dbe
000003e0: f4d3 123d b585 18bd e769 72be 0096 99bd
000003f0: 7bcd 853c bef7 52be 5539 01bd ad6e 1fbe

model.8.bias f4 [16]
-2.1475682e-06 -4.095514e-07 2.2957227e-05 -2.572198e-05 -4.2352535e-06 -3.057554e-05 1.045048e-05 1.1239206e-05
5.9162153e-06 -2.8393235e-05 2.2897488e-05 3.4468742e-06 1.1793718e-05 -1.4966317e-05 5.3908393e-06 1.4553698e-05
00000000: f11e 10b6 51e0 dbb4 4594 c037 88c5 d7b7
00000010: 8d1c 8eb6 3c3e 00b8 7854 2f37 0690 3c37
00000020: e783 c636 022e eeb7 fb13 c037 d950 6736
00000030: a2dd 4537 d817 7bb7 f5e2 b436 a82b 7437

model.9.weight f4 [16]
1.2085975 1.3409282 1.2348216 1.3682191 1.3199513 1.2792225 1.3140317 1.4163594
1.3143985 1.2120482 1.1255487 1.3727889 1.3361955 1.3803028 1.3929896 1.3671367
00000000: 53b3 9a3f 89a3 ab3f a20e 9e3f ce21 af3f
00000010: 2af4 a83f 90bd a33f 3132 a83f 444b b53f
00000020: 363e a83f 6524 9b3f fb11 903f 8cb7 af3f
00000030: 7408 ab3f c3ad b03f 7c4d b23f 56fe ae3f

model.9.bias f4 [16]
0.6455357 0.61798275 0.5612796 0.6333396 0.6034298 0.5997955 0.63303447 0.6370109
0.66197515 0.742882 0.5262286 0.61223346 0.68014574 0.595175 0.59343684 0.66607195
00000000: d441 253f 1e34 1e3f 05b0 0f3f 8b22 223f
00000010: 607a 1a3f 338c 193f 8c0e 223f 2513 233f
00000020: 3477 293f 842d 3e3f ebb6 063f 55bb 1c3f
00000030: 081e 2e3f 645d 183f 7aeb 173f b183 2a3f

model.9.running_mean f4 [16]
-0.24290685 -0.32360837 -0.50698745 -0.29368705 -0.52414435 -0.3456559 -0.3769532 -0.4624503
-0.3550262 -0.27154893 -0.40555042 -0.42155915 -0.3970761 -0.43193582 -0.54626405 -0.3907612
00000000: 93bc 78be ffaf a5be eec9 01bf 265e 96be
00000010: 532e 06bf cff9 b0be 0300 c1be 49c6 ecbe
00000020: fec5 b5be 7608 8bbe 4ea4 cfbe 9ad6 d7be
00000030: 8f4d cbbe b126 ddbe f6d7 0bbf da11 c8be

model.9.running_var f4 [16]
1.0943164 0.8786727 0.82614714 0.8952149 2.1123912 0.8251232 0.9712354 1.3715266
1.1082362 1.3320103 0.76962316 1.1966519 1.4366225 0.62694144 1.2592275 1.2200679
00000000: 8f12 8c3f b2f0 603f 617e 533f ce2c 653f
00000010: 6b31 0740 463b 533f e2a2 783f 2f8e af3f
00000020: afda 8d3f 507f aa3f 0606 453f e42b 993f
00000030: 3fe3 b73f 3c7f 203f 5e2e a13f 2f2b 9c3f

model.12.weight f4 [1, 16]
0.5044636 0.526841 0.4530408 0.54631704 0.57816255 0.51821285 0.55357724 0.51715523
0.5237845 0.47236282 0.4176237 0.5529387 0.5281608 0.5227189 0.522459 0.53951204
00000000: 8724 013f 0ddf 063f f7f4 e73e 6fdb 0b3f
00000010: 7602 143f 99a9 043f 3db7 0d3f 4964 043f
00000020: be16 063f 8ad9 f13e c6d2 d53e 648d 0d3f
00000030: 8c35 073f e8d0 053f dfbf 053f 761d 0a3f
