neuralnet/Hyperparameter sweeps/Hyperparam sweep round 2 (rolling avgs)/bike_volume_model_net_3layers_lr_0.00002000_batch_32_feat_25.pth (torch, 28392 bytes, 19 tensors)

model.0.weight f4 [64, 25]
0.16310935 0.11993887 0.1823254 0.076775335 0.04090368 -0.21528208 -0.19529657 -0.0980346
-0.016061425 0.04732147 0.14346406 -0.010104625 -0.08688273 0.1471196 -0.12027253 -0.17942962
-0.059330232 -0.014790335 0.015521009 0.17651592 -0.011840956 0.016774978 -0.18012552 0.15964335
0.04630049 0.18998078 0.08546698 0.0703022 0.14765231 -0.11942369 0.026455488 0.11921953
0.05405638 0.038008396 -0.14361154 -0.26973143 -0.008339483 -0.11753977 0.063372344 0.07161638
-0.14680535 0.089938045 0.1031788 0.0825747 0.20068066 0.13846637 0.15993288 -0.06642647
0.15280966 -0.16394535 -0.119602814 0.015265733 0.09277345 0.117186904 -0.15634018 0.19467169
0.05351823 -0.17569448 0.17639744 0.0804871 -0.08027646 -0.2800146 -0.03804804 -0.19089127
-0.02718862 0.046815526 -0.0171435 0.13046601 -0.010782413 0.0147899445 0.17836232 0.020181391
-0.04495933 0.08001419 0.01582371 -0.24629115 -0.060555626 0.18302977 0.19770566 -0.27625713
0.0043530306 0.10510013 -0.069652036 -0.00035187014 -0.04199628 0.12543982 -0.10806051 0.049152102
0.011024885 0.0434729 -0.015345241 -0.202684 0.12570167 -0.099678054 0.20769738 -0.14393598
0.075383686 0.10300129 -0.048130617 0.0027984309 0.107526235 -0.025646582 0.073401704 -0.010644351
0.113911286 0.006753413 -0.09796893 0.10006325 0.08341274 0.0036845466 0.17169997 0.07336654
0.08999385 0.021821924 0.08979964 0.13412142 -0.15651125 -0.20938689 -0.21472727 0.009697977
-0.16999474 -0.07783609 0.00760386 -0.19609073 -0.06443818 -0.041906524 -0.112349115 -0.21172933
0.17152813 -0.12096278 -0.14694642 0.03622165 0.08734629 0.13066807 -0.037486292 0.13682882
0.065930866 0.052471023 0.13019753 -0.16531146 -0.08794289 0.13671651 -0.19611578 -0.16937542
0.026537675 -0.012442076 -0.095346466 0.16856001 -0.11511636 0.07494999 -0.023921203 0.11052168
-0.028032292 -0.1156691 -0.06312633 0.16153629 -0.14865144 -0.2100243 -0.0011830656 -0.115496516
0.19792902 -0.014393754 0.18959545 -0.047958598 -0.032791577 0.018972458 0.046308246 0.1663566
0.19404848 -0.0806555 0.054084837 0.08397489 -0.045607325 -0.14186764 0.030381704 -0.020824643
0.07786896 -0.029778935 -0.10987306 0.00074792013 0.24480027 0.13911314 -0.017683873 0.07993897
0.08403661 -0.065898016 -0.049114488 -0.20219055 -0.108393244 -0.20712008 0.07674399 -0.032031175
-0.051562894 -0.16637327 0.022763561 0.19580793 -0.16337071 0.054279786 0.11665484 0.11658132
-0.08120668 -0.014422708 0.106673874 -0.06196412 -0.020234548 0.026865404 0.046708465 0.18106788
-0.18385315 -0.020869963 -0.0991527 0.055955514 -0.0850999 -0.0823948 0.0937634 -0.07291728
-0.025003763 0.12553166 -0.13653043 0.0024229905 0.042354744 0.050451055 -0.22158086 0.0036325473
-0.13288127 -0.10434153 0.14461371 -0.16829796 -0.15600097 0.007211086 -0.07544776 0.09512213
-0.056391668 0.042836394 0.13054208 -0.3097392 0.09138581 0.032591414 0.062019132 -0.08103922
0.1311407 0.19892962 0.09558105 0.06926074 -0.10819598 0.00937389 -0.13815673 -0.092758454
0.16543616 0.08729576 0.18601741 0.20674208 -0.033515222 -0.109411806 0.0429169 0.017399626
00000000: 2306 273e 83a2 f53d 82b3 3a3e 633c 9d3d
00000010: 9e8a 273d e872 5cbe d3fb 47be 5dc6 c8bd
00000020: 4093 83bc 28d4 413d 3ee8 123e de8d 25bc
00000030: 93ef b1bd 85a6 163e 7251 f6bd 66bc 37be
00000040: 4204 73bd 2953 72bc d54b 7e3c 97c0 343e
00000050: 9200 42bc ae6b 893c d372 38be 8c79 233e
00000060: 95a5 3d3d 528a 423e 5009 af3d 9afa 8f3d
00000070: 2b32 173e 6894 f4bd 2eb9 d83c 5e29 f43d
00000080: 396a 5d3d b1ae 1b3d e70e 13be 3d1a 8abe
00000090: 54a2 08bc b1b8 f0bd 5cc9 813d 9cab 923d
000000a0: 2454 16be 7031 b83d 684f d33d ed1c a93d
000000b0: 3b7f 4d3e 21ca 0d3e 72c5 233e 9a0a 88bd
000000c0: 237a 1c3e 4ae1 27be 52f2 f4bd 201d 7a3c
000000d0: 0200 be3d b0ff ef3d a417 20be 0458 473e
000000e0: ee35 5b3d 41e9 33be 88a1 343e 6cd6 a43d
000000f0: fc67 a4bd 135e 8fbe 43d8 1bbd 0079 43be
00000100: abba debc a3c1 3f3d 8670 8cbc e298 053e
00000110: b8a8 30bc 8651 723c 9da4 363e 7253 a53c
00000120: 4627 38bd 7bde a33d baa0 813c bf33 7cbe
00000130: 2d09 78bd 286c 3b3e 5a73 4a3e 9371 8dbe
00000140: dea3 8e3b bd3e d73d baa5 8ebd 367b b8b9
00000150: 4b04 2cbd 4c73 003e d44e ddbd b753 493d
00000160: b8a1 343c a410 323d 9b6a 7bbc 658c 4fbe
00000170: f0b7 003e 0224 ccbd 9fae 543e f463 13be
00000180: c362 9a3d 57f2 d23d 9c24 45bd e165 373b
00000190: b736 dc3d c818 d2bc a253 963d a565 2ebc
000001a0: 524a e93d bc4b dd3b efa3 c8bd f6ed cc3d
000001b0: 4cd4 aa3d 6f78 713b 1ed2 2f3e 3241 963d
000001c0: b24e b83d e4c3 b23c e0e8 b73d 2057 093e
000001d0: 7c44 20be 8469 56be 77e1 5bbe 44e4 1e3c
000001e0: 1a13 2ebe 8768 9fbd cd29 f93b 02cc 48be
000001f0: 2af8 83bd 2da6 2bbd 4b17 e6bd 93cf 58be
00000200: 12a5 2f3e 56bb f7bd 1f79 16be 275d 143d
00000210: 9de2 b23d dacd 053e 3a8b 19bd db1c 0c3e
00000220: c306 873d dbeb 563d 8052 053e 6847 29be
00000230: 671b b4bd 6aff 0b3e 93d2 48be c070 2dbe
00000240: 8a65 d93c d9d9 4bbc 0245 c3bd ff9a 2c3e
00000250: 20c2 ebbd 617f 993d 66f6 c3bc 3159 e23d
00000260: faa3 e5bc ece3 ecbd 6148 81bd c569 253e
00000270: 1538 18be 9c10 57be 1811 9bba 7089 ecbd
00000280: e8ad 4a3e c8d3 6bbc 4f25 423e 3c70 44bd
00000290: 7650 06bd 216c 9b3c b7ad 3d3d 6259 2a3e
000002a0: a5b4 463e b62e a5bd 1088 5d3d 07fb ab3d
000002b0: bfce 3abd c045 11be 0de3 f83c 7198 aabc
000002c0: c379 9f3d f4f2 f3bc 2005 e1bd 1210 443a
000002d0: ecac 7a3e ad73 0e3e c5dd 90bc 0bb7 a33d
000002e0: 631b ac3d 8af5 86bd 462c 49bd 0a0b 4fbe
000002f0: 47fd ddbd 4917 54be f42b 9d3d 1f33 03bd
00000300: 9d33 53bd c15d 2abe a67a ba3c e081 483e
00000310: a74a 27be 7b54 5e3d bce8 ee3d 30c2 ee3d
00000320: b04f a6bd 394d 6cbc d577 da3d 17ce 7dbd
00000330: ecc2 a5bc d614 dc3c 6051 3f3d dc69 393e
00000340: 0044 3cbe 7cf7 aabc 9210 cbbd 9c31 653d
00000350: db48 aebd 9bbe a8bd 0707 c03d a855 95bd
00000360: b1d4 ccbc 5f8b 003e a2ce 0bbe 09cb 1e3b
00000370: 2b7c 2d3d c4a5 4e3d 18e6 62be 0810 6e3b
00000380: 0712 08be 03b1 d5bd 9e15 143e 4d56 2cbe
00000390: b8be 1fbe f94a ec3b 5b84 9abd 64cf c23d
000003a0: f3fa 66bd 3775 2f3d d3ac 053e 2396 9ebe
000003b0: 7c28 bb3d 937e 053d c607 7e3d e4f7 a5bd
000003c0: bf49 063e 35b4 4b3e ffbf c33d 93d8 8d3d
000003d0: db95 ddbd f294 193c f578 0dbe 25f8 bdbd
000003e0: 1968 293e 1fc8 b23d 597b 3e3e 32b4 533e
000003f0: 4247 09bd 4c13 e0bd a2c9 2f3d a989 8e3c

model.0.bias f4 [64]
-1.0487967e-06 4.922904e-07 1.5407964e-05 9.001267e-06 -2.4120465e-05 8.643021e-06 6.6189755e-06 -1.9995696e-07
-3.371447e-06 4.9298073e-05 2.4401916e-06 4.307243e-06 -5.2904243e-06 4.223183e-06 2.919293e-06 8.073107e-06
-6.323184e-06 4.944066e-06 -7.781632e-06 1.9866124e-05 1.9486329e-06 -1.753424e-07 2.0178459e-06 -9.252975e-06
1.1171412e-05 6.413601e-06 6.0403545e-07 2.4665334e-05 -5.9613712e-06 1.3526034e-05 -9.616258e-06 3.6085307e-06
6.3967803e-07 -3.620388e-07 -1.8388233e-05 -2.0186764e-05 1.5111417e-05 8.37566e-06 -9.290616e-06 1.4731364e-06
-4.2983256e-06 1.6808392e-05 -2.1064413e-06 1.6906513e-05 -8.649804e-07 4.4479452e-06 -1.3714006e-05 -1.448655e-05
2.4916297e-05 -9.03971e-06 -6.6900384e-06 -1.3420871e-05 2.0014175e-05 1.3627671e-05 1.6757706e-06 1.0070271e-05
1.5959964e-05 2.2890865e-06 -2.1505007e-06 -3.88002e-05 1.6794842e-05 1.2788946e-05 5.1987217e-06 -1.0750454e-05
00000000: 61c4 8cb5 f025 0435 5a40 8137 2604 1737
00000010: 4e56 cab7 7e01 1137 9118 de36 c0b3 56b4
00000020: 0541 62b6 67c5 4e38 2cc2 2336 f086 9036
00000030: 6684 b1b6 deb4 8d36 12e9 4336 bb71 0737
00000040: bd2b d4b6 34e5 a536 db8d 02b7 2da6 a637
00000050: 42c5 0236 c045 3cb4 546a 0736 3a3d 1bb7
00000060: d96c 3b37 6a34 d736 0025 2235 67e8 ce37
00000070: ca07 c8b6 e0ed 6237 8355 21b7 162a 7236
00000080: 57b6 2b35 3c5e c2b4 6e40 9ab7 bf56 a9b7
00000090: 0b87 7d37 3085 0c37 e4de 1bb7 95b8 c535
000000a0: 563a 90b6 bfff 8c37 635c 0db6 76d2 8d37
000000b0: 0031 68b5 8f3f 9536 3515 66b7 420b 73b7
000000c0: 5703 d137 42a9 17b7 fe7a e0b6 342a 61b7
000000d0: 1de4 a737 67a2 6437 0aeb e035 7cf3 2837
000000e0: c3e1 8537 359e 1936 5251 10b6 66bd 22b8
000000f0: a6e2 8c37 1b90 5637 ae70 ae36 d95c 34b7

model.1.weight f4 [64]
0.90524703 0.8935085 0.95651656 0.97701406 0.9905728 0.917803 0.9338035 0.9131035
0.9695894 0.9825384 0.93860906 0.9501101 0.8693236 0.99191695 0.97300035 0.9591315
0.9542872 0.90140873 0.9761456 1.0164832 0.91899467 0.9199492 1.0295534 1.0128201
1.0251508 0.9291899 0.92571855 0.9671324 0.9454577 0.93413866 0.99171615 0.93165755
0.97169036 0.9649209 0.9985943 0.92863643 1.0482517 0.886301 1.0473725 0.9562682
0.92198294 0.9760764 1.086191 0.9498723 0.9164788 0.88616586 0.9332518 0.96188146
0.9384593 0.9824928 1.0311753 0.9717831 0.99683607 0.97673726 1.0057942 0.97035766
0.8943316 0.9028211 1.0241497 1.1257203 0.9570859 0.9813255 0.89391726 0.94452804
00000000: 45be 673f f9bc 643f 45de 743f 981d 7a3f
00000010: 2e96 7d3f 23f5 6a3f bf0d 6f3f 27c1 693f
00000020: 0337 783f a387 7b3f af48 703f 6a3a 733f
00000030: fe8b 5e3f 45ee 7d3f 8d16 793f a489 753f
00000040: 2a4c 743f b9c2 663f aee4 793f 1f1c 823f
00000050: 3c43 6b3f ca81 6b3f 68c8 833f 17a4 813f
00000060: 2438 833f 64df 6d3f e4fb 6c3f fd95 773f
00000070: 8409 723f b623 6f3f 1ce1 7d3f 1c81 6e3f
00000080: b3c0 783f 0e05 773f e0a3 7f3f 1ebb 6d3f
00000090: 1d2d 863f 9fe4 623f 4d10 863f fecd 743f
000000a0: 1307 6c3f 25e0 793f 4f08 8b3f d52a 733f
000000b0: 5b9e 6a3f c4db 623f 97e9 6e3f dd3d 763f
000000c0: de3e 703f a684 7b3f 8dfd 833f c7c6 783f
000000d0: a630 7f3f 740b 7a3f ddbd 803f 5c69 783f
000000e0: eaf2 643f 491f 673f 5617 833f 9a17 903f
000000f0: 9503 753f 2638 7b3f c3d7 643f 97cc 713f

model.1.bias f4 [64]
0.084586345 -0.08407316 -0.041994058 -0.17813678 -0.21476498 -0.15922776 -0.06170976 -0.11522743
-0.05047989 0.028062358 -0.037225686 -0.06872555 0.009006721 -0.14008814 -0.13761544 -0.027646612
-0.18264693 -0.026911207 -0.044065934 -0.21427165 -0.15997466 -0.22783646 -0.15421587 -0.2762755
-0.24599652 -0.14519495 -0.10339408 -0.27104858 -0.27277234 -0.0015933248 -0.07461658 -0.09640198
-0.0010824058 -0.1555339 -0.13888915 -0.30671963 -0.1667485 0.093518466 -0.2066104 0.0064173266
0.023456814 -0.20172976 -0.11726018 -0.11328544 -0.3151115 0.037955552 -0.043160398 -0.31200448
-0.08593239 -0.026721133 -0.117018156 -0.02186602 0.041361842 -0.22359349 -0.24538763 -0.26511022
-0.002876063 -0.2247905 0.000526246 -0.043064192 -0.24595115 -0.045659292 -0.08691337 -0.05814854
00000000: 9b3b ad3d 8d2e acbd f601 2cbd 7d69 36be
00000010: 5aeb 5bbe 9a0c 23be 60c3 7cbd 5cfc ebbd
00000020: 00c4 4ebd 08e3 e53c f679 18bd fbbf 8cbd
00000030: ed90 133c 4473 0fbe 10eb 0cbe 267b e2bc
00000040: cc07 3bbe e474 dcbc 7b7e 34bd 076a 5bbe
00000050: 66d0 23be f64d 69be c4ea 1dbe fb73 8dbe
00000060: 83e6 7bbe fcad 14be 47c0 d3bd e1c6 8abe
00000070: d1a8 8bbe 1cd7 d0ba 94d0 98bd 676e c5bd
00000080: 83df 8dba 4744 1fbe f538 0ebe 5b0a 9dbe
00000090: 1ec0 2abe 9c86 bf3d ad91 53be 7048 d23b
000000a0: 8128 c03c 3f92 4ebe 1b26 f0bd 3202 e8bd
000000b0: 4b56 a1be 4877 1b3d f5c8 30bd 0dbf 9fbe
000000c0: 52fd afbd 47e6 dabc 37a7 efbd 5e20 b3bc
000000d0: 096b 293d b1f5 64be e546 7bbe 87bc 87be
000000e0: 557c 3cbb 7b2f 66be c5f3 093a 1464 30bd
000000f0: 9eda 7bbe 3d05 3bbd a3ff b1bd 2a2d 6ebd

model.1.running_mean f4 [64]
1.2579552 0.42972764 0.2511445 0.17622173 -0.7996567 -0.43450287 0.58250767 0.1569593
-0.02958106 0.379495 -0.12159903 -0.0095985215 0.87482315 -0.42392796 0.043994404 0.00055243867
0.14206974 0.2377015 0.013495401 -0.794932 -0.12107181 -0.86512285 -0.14972669 -0.009288335
-0.5260499 0.109779105 -0.6334987 -0.13918681 -0.67719805 0.24908024 0.19162473 -0.49998876
0.5991042 0.07562235 -0.8472953 -0.8157664 0.28413436 0.7068578 -0.65402055 0.33662686
0.6262682 -0.42083728 0.18171541 0.09104407 -0.82592297 0.42428383 0.3718795 -0.29297274
0.31200475 0.63014334 -0.11574223 -0.16829933 0.4663057 -0.046470508 -0.35324195 -0.47854626
1.0909269 -0.22604369 -0.009375933 0.30707243 -0.33430853 0.18333137 0.2968649 -0.11445989
00000000: ad04 a13f 4305 dc3e 0396 803e 7873 343e
00000010: 4db6 4cbf 2977 debe 391f 153f f0b9 203e
00000020: fb53 f2bc 2b4d c23e ea08 f9bd 1e43 1dbc
00000030: 69f4 5f3f 160d d9be 7a33 343d 88d1 103a
00000040: bb7a 113e 0668 733e d01b 5d3c aa80 4bbf
00000050: 7ff4 f7bd b178 5dbf f451 19be 1a2e 18bc
00000060: 35ab 06bf ded3 e03d f92c 22bf fd86 0ebe
00000070: da5c 2dbf e40e 7f3e 4639 443e 87fe ffbe
00000080: e55e 193f e4df 9a3d 58e8 58bf 11d6 50bf
00000090: 0f7a 913e a2f4 343f e46d 27bf 5b5a ac3e
000000a0: 1d53 203f fc77 d7be 9b13 3a3e 5075 ba3d
000000b0: b06f 53bf bb3b d93e fd66 be3e 8600 96be
000000c0: 16bf 9f3e 1351 213f 430a edbd a956 2cbe
000000d0: 9fbf ee3e dc57 3ebd 21dc b4be 0404 f5be
000000e0: 7ea3 8b3f ff77 67be 839d 19bc 9938 9d3e
000000f0: 7d2a abbe 38bb 3b3e adfe 973e f269 eabd

model.1.running_var f4 [64]
2.8746026 0.38519332 0.6906897 0.29154786 1.2978352 0.7074139 1.0782766 0.2568936
0.046052873 0.1651638 0.16594629 0.14936115 1.1478649 0.56237566 0.20723756 0.27735266
0.3123128 0.17735322 0.6742847 1.7492347 0.17719135 1.6158121 0.2106714 0.29029268
0.34122825 0.20340966 0.45674273 0.79116684 0.76565874 0.3273873 0.25756454 0.8884692
1.2104881 0.11627139 0.90401405 1.0301143 0.45432928 1.0485435 0.9560754 0.6332599
0.4720006 0.23280178 0.17941728 0.2177152 0.5950667 1.0665847 0.24215338 0.27455664
0.32628796 1.2445549 0.2877029 0.4005136 0.2869206 0.14715357 0.27754506 0.31953385
1.0433583 1.0665505 0.45055294 0.114595875 0.15030262 0.32492143 0.10365084 0.310971
00000000: 7df9 3740 0f38 c53e 0ad1 303f c345 953e
00000010: 771f a63f 1419 353f f804 8a3f 8f87 833e
00000020: f0a1 3c3d b320 293e d3ed 293e 21f2 183e
00000030: 3ded 923f daf7 0f3f 1536 543e 2b01 8e3e
00000040: 77e7 9f3e 159c 353e ec9d 2c3f ece6 df3f
00000050: a671 353e eed2 ce3f 3eba 573e 3ea1 943e
00000060: 78b5 ae3e 9f4a 503e 2fda e93e e989 4a3f
00000070: 3602 443f 4f9f a73e 80df 833e b872 633f
00000080: 46f1 9a3f b21f ee3d 776d 673f c9da 833f
00000090: d99d e83e ac36 863f 5bc1 743f 521d 223f
000000a0: 10aa f13e 9763 6e3e 2ab9 373e bcf0 5e3e
000000b0: 4b56 183f d985 883f 0ef7 773e b092 8c3e
000000c0: 370f a73e 934d 9f3f cb4d 933e 1e10 cd3e
000000d0: 42e7 923e 6daf 163e 631a 8e3e f199 a33e
000000e0: c48c 853f ba84 883f e0ae e63e 3eb1 ea3d
000000f0: eee8 193e 1a5c a63e e446 d43d 9737 9f3e

model.4.weight f4 [32, 64]
0.06988994 0.083729096 0.075378 -0.09294416 0.018128777 -0.010768582 0.08237823 0.061760277
-0.025124822 -0.00069057144 -0.10820188 0.06929642 0.047877315 0.040939193 0.10931722 0.13222474
-0.1470882 -0.036121316 0.021428479 0.0036348386 -0.09215417 -0.009661777 -0.0125495335 0.009884352
0.059600845 0.020134801 -0.008906459 0.021252833 0.049225517 -0.060146235 0.016809847 0.009852869
-0.0072304285 -0.11681046 0.0037653593 0.021036712 0.12645975 0.021593057 0.0028325897 0.03404107
0.028044505 -0.006635679 -0.19122262 -0.022467246 0.04597666 0.016754363 -0.04841631 0.08025017
-0.058107637 -0.065521434 0.1523635 0.06616195 0.036422882 -0.060551025 0.03278109 0.04388452
-0.028477918 0.036426038 0.056370422 -0.19234009 0.12188501 0.027673762 -0.08352054 -0.104345016
0.10320432 0.016799899 0.11690507 -0.0923526 0.0320337 0.029938191 -0.014578885 -0.12252966
-0.038458433 -0.0966235 0.010978993 0.020311337 0.019663211 0.015848571 0.10662701 0.0630817
-0.11051383 -0.011192186 0.061784614 0.007020668 -0.13634266 0.010932772 -0.017399881 -0.0932516
0.01608137 -0.027513213 -0.033850648 -0.008081684 -0.003000935 -0.046478316 0.096028626 0.0039349147
0.015672576 -0.120109245 0.0164656 0.04713096 0.15758811 0.10133154 0.0153563935 0.040534314
0.08964242 -0.02269747 -0.14800422 0.060817823 0.062464423 0.030097255 0.028833726 0.04940165
0.06167499 0.09673674 0.11622233 -0.07763788 0.091168195 -0.08486925 0.010747994 0.014420518
0.037002247 0.022897264 -0.020994755 -0.15221404 0.049165804 0.023006564 -0.033861164 -0.042782918
-0.08388433 -0.14160447 -0.16452838 0.018136635 -0.06739146 -0.005819368 -0.13588926 -0.012417398
0.02586837 0.022758191 -0.06562449 -0.092178084 -0.09955744 0.029146861 -0.09699751 -0.13946268
0.0047977325 -0.10567107 0.013431201 -0.051148202 0.047875494 0.031993695 -0.13380434 0.06556943
-0.02654357 -0.04388197 0.030974234 -0.04065277 -0.015895506 -0.02030202 -0.064495 0.03323755
-0.12303913 -0.060113095 -0.08153037 -0.058918957 -0.12227852 -0.098375276 0.060292486 -0.092146486
-0.089229226 -0.0144927595 0.10678397 0.019667894 0.008781577 -0.016955867 -0.11348113 -0.019541401
-0.10349386 -0.014729873 -0.17538133 0.010727799 -0.05616314 -0.07476506 -0.050731547 -0.026711067
-0.12706207 -0.018784361 0.023676895 0.13173608 -0.110329 -0.0010315732 0.029606743 -0.030231215
-0.03313863 -0.0682465 -0.05765937 0.17586167 0.056790207 0.029594995 -0.0026968336 -0.054969553
0.049778692 -0.0066994713 0.016754184 0.014459858 -0.02021494 0.024917433 0.016311742 -0.04214341
0.057352953 -0.061046254 -0.13124722 0.05063338 0.06588059 0.015767552 0.098423705 0.10914325
0.027470462 0.060295705 0.06620619 -0.04593168 -0.07215198 -0.119580925 -0.21035826 -0.06967892
-0.025724705 0.04737139 -0.05541836 0.047490325 -0.2194722 0.03310996 -0.023478143 -0.13465424
-0.022687092 0.04374098 0.14707173 -0.11530889 -0.03422609 -0.069172114 -0.012675296 -0.034094274
-0.039512627 0.008650564 -0.16580817 -0.019091384 -0.21845154 0.018343408 0.008974098 -0.06806738
-0.006513236 0.024640257 -0.11958747 0.039238147 -0.0705565 -0.12799376 0.015385806 0.0658207
00000000: 7522 8f3d 297a ab3d c85f 9a3d 8259 bebd
00000010: cd82 943c b56e 30bc ebb5 a83d 58f8 7c3d
00000020: 92d2 cdbc 7707 35ba f298 ddbd 48eb 8d3d
00000030: 011b 443d dbaf 273d b5e1 df3d ec65 073e
00000040: 4a9e 16be f2f3 13bd c78a af3c 7936 6e3b
00000050: 53bb bcbd 6e4c 1ebc 8f9c 4dbc faf1 213c
00000060: 0420 743d bdf1 a43c 66ec 11bc 6c1a ae3c
00000070: b2a0 493d e65b 76bd ceb4 893c ee6d 213c
00000080: 3bed ecbb 533a efbd 3fc4 763b 2f55 ac3c
00000090: aa7e 013e ece3 b03c f8a2 393b a66e 0b3d
000000a0: 97bd e53c 1c70 d9bb ddcf 43be 3b0d b8bc
000000b0: 0652 3c3d 7240 893c 2e50 46bd 335a a43d
000000c0: 4602 6ebd 1a30 86bd 2d05 1c3e eb7f 873d
000000d0: 2930 153d 5a04 78bd 7745 063d 41c0 333d
000000e0: 864a e9bc 7833 153d ace4 663d cdf4 44be
000000f0: d99e f93d 16b4 e23c d10c abbd d7b2 d5bd
00000100: c95c d33d f19f 893c ed6b ef3d 5c23 bdbd
00000110: c535 033d f040 f53c 47dc 6ebc d5f0 fabd
00000120: 9786 1dbd 8be2 c5bd 3ce1 333c f663 a63c
00000130: be14 a13c ddd4 813c 435f da3d fa30 813d
00000140: 1355 e2bd 6e5f 37bc dd11 7d3d a20d e63b
00000150: 699d 0bbe 5f1f 333c 328a 8ebc b2fa bebd
00000160: 14bd 833c 6463 e1bc faa6 0abd 0a69 04bc
00000170: 56ab 44bb 0c60 3ebd a8aa c43d 75f0 803b
00000180: c663 803c d6fb f5bd dee2 863c 650c 413d
00000190: c75e 213e e986 cf3d 6299 7b3c 4f07 263d
000001a0: 7296 b73d 0bf0 b9bc 6b8e 17be 1c1c 793d
000001b0: b2da 7f3d 858e f63c b534 ec3c 6259 4a3d
000001c0: ea9e 7c3d e91d c63d f905 ee3d 9c00 9fbd
000001d0: 64b6 ba3d eecf adbd 5b18 303c 0944 6c3c
000001e0: ab8f 173d 0b93 bb3c 31fd abbc ffdd 1bbe
000001f0: 1562 493d 4378 bc3c 01b2 0abd 243d 2fbd
00000200: 8ccb abbd c300 11be 217a 28be 4893 943c
00000210: 8904 8abd 66b0 bebb 8e26 0bbe 5872 4bbc
00000220: e7e9 d33c 636f ba3c 2266 86bd ddc7 bcbd
00000230: c5e4 cbbd 66c5 ee3c a1a6 c6bd 4ecf 0ebe
00000240: 4c36 9d3b 136a d8bd 8a0e 5c3c c780 51bd
00000250: 1819 443d d20b 033d 0104 09be 4449 863d
00000260: e771 d9bc 95bd 33bd adbd fd3c 8583 26bd
00000270: 4b37 82bc 6c50 a6bc f415 84bd 1924 083d
00000280: f0fb fbbd 2639 76bd 65f9 a6bd 0155 71bd
00000290: 296d fabd fa78 c9bd 41f5 763d 4cb7 bcbd
000002a0: d0bd b6bd 0a73 6dbc 8eb1 da3d 901e a13c
000002b0: 9be0 0f3c 08e7 8abc cb68 e8bd 4a15 a0bc
000002c0: 97f4 d3bd 9155 71bc 2a97 33be a6c3 2f3c
000002d0: 520b 66bd 6c1e 99bd e2cb 4fbd 2bd1 dabc
000002e0: 8f1c 02be a9e1 99bc 0cf6 c13c d3e5 063e
000002f0: 2cf4 e1bd da35 87ba d789 f23c 74a7 f7bc
00000300: 5fbc 07bd d2c4 8bbd 3b2c 6cbd 1515 343e
00000310: d99c 683d 3471 f23c 5cbd 30bb c127 61bd
00000320: bee4 4b3d 3d87 dbbb 1240 893c 0ae9 6c3c
00000330: cd99 a5bc a51f cc3c 34a0 853c 919e 2cbd
00000340: eeea 6a3d a30b 7abd ac65 06be f264 4f3d
00000350: 67ec 863d f42a 813c 5e92 c93d 7f86 df3d
00000360: bc09 e13c a1f8 763d 1c97 873d db22 3cbd
00000370: 6bc4 93bd d8e6 f4bd 2868 57be d2b3 8ebd
00000380: 9ebc d2bc 8108 423d 5dfe 62bd 3785 423d
00000390: 52bd 60be 4f9e 073d 3c55 c0bc cde2 09be
000003a0: 48da b9bc be29 333d f999 163e 1127 ecbd
000003b0: a830 0cbd 1caa 8dbd 0bac 4fbc 70a6 0bbd
000003c0: fed7 21bd 18bb 0d3c 9ec9 29be 8965 9cbc
000003d0: c3b1 5fbe ea44 963c 1808 133c e966 8bbd
000003e0: fc6c d5bb 5dda c93c 47ea f4bd 2eb8 203d
000003f0: ed7f 90bd cc10 03be bf14 7c3c 01cd 863d

model.4.bias f4 [32]
-7.5771422e-06 1.5382637e-05 8.888445e-06 3.1469767e-06 -7.46191e-06 2.3245275e-07 -8.661193e-06 6.230569e-06
5.375524e-06 -4.5670113e-06 5.9601034e-06 3.549443e-06 2.8210765e-05 2.5576577e-05 -1.00350035e-05 -1.835842e-05
1.3679003e-05 1.9099281e-05 -1.6625598e-05 1.0331149e-05 -6.284513e-06 7.342986e-06 -2.6382536e-06 -6.624051e-06
4.3266664e-06 1.5411766e-05 1.3736028e-05 -9.709813e-06 1.3961871e-05 5.8617093e-06 -2.3781938e-06 2.3400155e-05
00000000: 283f feb6 f609 8137 951f 1537 a630 5336
00000010: 5261 fab6 2098 7934 8a4f 11b7 2e10 d136
00000020: 665f b436 543e 99b6 e6fc c736 f732 6e36
00000030: 28a6 ec37 488d d637 035c 28b7 6800 9ab7
00000040: df7e 6537 6537 a037 3377 8bb7 f253 2d37
00000050: 8edf d2b6 c563 f636 da0c 31b6 2a44 deb6
00000060: c82d 9136 8448 8137 cb73 6637 54e7 22b7
00000070: c83d 6a37 b3af c436 0f99 1fb6 734b c437

model.5.weight f4 [32]
0.9549091 1.1350193 0.99725217 0.9942445 0.80553263 0.84088045 0.9154376 1.0089504
1.0157245 1.0542074 0.92541116 0.9889989 1.0764346 0.99101645 1.0652266 0.9229314
0.96572345 0.9812903 0.96432346 0.93548703 0.97542185 1.0494729 0.85171777 0.8609639
0.89241076 0.8863818 0.9265401 0.9230796 0.96752113 0.92727864 0.8277882 1.1128994
00000000: ec74 743f 5048 913f eb4b 7f3f cf86 7e3f
00000010: 6337 4e3f f143 573f 1e5a 6a3f 4925 813f
00000020: 4303 823f 45f0 863f bfe7 6c3f 082f 7d3f
00000030: 9cc8 893f 41b3 7d3f 5859 883f 3b45 6c3f
00000040: a739 773f d735 7b3f e7dd 763f 147c 6f3f
00000050: 3fb5 793f 2155 863f 2d0a 5a3f 2168 5c3f
00000060: 0875 643f ebe9 623f bb31 6d3f f24e 6c3f
00000070: 77af 773f 2262 6d3f ede9 533f 7d73 8e3f

model.5.bias f4 [32]
-0.19245885 -0.005837423 -0.04064331 -0.02980391 -0.084917754 -0.07821468 -0.0037799296 -0.10992365
0.013107828 -0.07362681 -0.022593355 -0.1696204 0.021848952 -0.23361506 -0.23821077 0.047252465
0.07644441 -0.061587326 -0.021426858 -0.11088072 -0.19286853 -0.10871254 -0.100131676 -0.0071212025
-0.009004221 -0.033635814 0.0035695776 -0.058311045 0.03158172 -0.19517997 -0.019781157 -0.14280812
00000000: ef13 45be da47 bfbb 9979 26bd 5427 f4bc
00000010: 5ce9 adbd 052f a0bd b2b8 77bb a71f e1bd
00000020: 37c2 563c a7c9 96bd b315 b9bc f8b0 2dbe
00000030: 93fc b23c c938 6fbe 86ed 73be cd8b 413d
00000040: e38e 9c3d fe42 7cbd 6187 afbc 6e15 e3bd
00000050: 547f 45be aea4 debd d611 cdbd fa58 e9bb
00000060: 7186 13bc b5c5 09bd 93ef 693b 90d7 6ebd
00000070: d55b 013d 42dd 47be 180c a2bc 4b3c 12be

model.5.running_mean f4 [32]
0.110549904 0.08040562 -0.8479902 -0.45157704 -0.76739097 -0.38230217 -0.8724628 0.00027534633
-1.298605 0.2560422 -0.81884694 0.28072587 -0.27159527 0.10879975 0.094194025 -0.8515982
-0.5359169 -0.6876321 -0.41362375 -0.05525308 0.3251073 -0.17793715 -0.4814754 -0.383066
-0.33534998 -0.3526345 -0.89586204 0.24649778 -0.65135264 0.51086545 -0.8097101 0.052906856
00000000: fd67 e23d b4ab a43d e315 59bf 1b35 e7be
00000010: bc73 44bf 1cbd c3be b959 5fbf 5c5c 9039
00000020: b038 a6bf f717 833e f49f 51bf 4dbb 8f3e
00000030: 890e 8bbe 67d2 de3d cce8 c03d 5702 5abf
00000040: da31 09bf a808 30bf 7ec6 d3be 0e51 62bd
00000050: 7774 a63e 2835 36be f283 f6be 3a21 c4be
00000060: feb2 abbe 828c b4be 3757 65bf ea69 7c3e
00000070: 0cbf 26bf 14c8 023f 2949 4fbf dcb4 583d

model.5.running_var f4 [32]
0.29350278 0.2465949 0.5405902 0.49250942 0.48029554 0.13810265 0.8147466 0.85824585
0.57466185 0.38276902 0.37409824 0.45396683 0.33629218 0.41175228 0.66427284 0.6558185
0.69625425 0.25561827 0.9556666 0.31996205 0.7506459 0.27682889 0.3926938 0.49745166
0.08313538 0.6932613 0.6432217 0.48875815 0.68269485 0.5594448 0.5918961 0.9375795
00000000: ff45 963e 6083 7c3e 1f64 0a3f 322a fc3e
00000010: 4ce9 f53e c86a 0d3e 3c93 503f 00b6 5b3f
00000020: 0a1d 133f 4dfa c33e ce89 bf3e 576e e83e
00000030: 7d2e ac3e 32d1 d23e c90d 2a3f b9e3 273f
00000040: b83d 323f 66e0 823e 91a6 743f 11d2 a33e
00000050: 542a 403f 84bc 8d3e 290f c93e fcb1 fe3e
00000060: e242 aa3d 9379 313f 2daa 243f 823e fa3e
00000070: 17c5 2e3f c637 0f3f 8186 173f 3605 703f

model.8.weight f4 [16, 32]
-0.06979592 -0.20210941 0.12022848 0.08594859 -0.05283944 0.13778174 -0.12744507 -0.043789268
0.02732164 -0.116432115 0.00637735 0.07053496 0.05563747 -0.03402756 0.055980846 -0.11254237
0.13053639 0.09140003 -0.0066299923 -0.22101586 0.023579314 0.033444732 -0.05936342 -0.058850996
-0.07110026 -0.098135434 -0.12839243 -0.16891691 0.1887184 -0.029277164 -0.15479295 -0.0247893
-0.002672443 0.07429182 -0.15868455 -0.09575732 -0.0639423 0.03979269 0.15443988 -0.19671007
-0.14782105 0.059455063 0.14346695 -0.068420775 -0.16941376 0.033973884 -0.32924744 0.020610873
-0.1194644 0.0965568 -0.14583379 0.056010235 -0.14283636 -0.05437298 -0.03465982 -0.04501641
0.043702938 0.075252876 0.1263836 0.063351445 -0.0064917593 -0.15661836 0.049905825 -0.19403867
0.11197634 0.07005405 -0.10599944 -0.060543 0.14403237 0.003765076 0.09523586 -0.112965345
-0.050586514 -0.01833259 0.011095386 -0.18378364 0.16009744 -0.05056023 -0.25313428 0.09934971
-0.15366377 0.027691465 -0.17518385 -0.038688935 -0.2479999 -0.11509299 0.08303509 0.08412745
-0.015112767 0.101506 -0.061127402 -0.0576744 -0.11692561 -0.2709827 0.083408855 -0.29354972
-0.19888219 -0.3372026 0.15616035 0.090255775 0.05476004 0.03156798 -0.12599838 -0.054656968
0.10357773 -0.15581626 -0.019382114 0.11186686 -0.0054672975 -0.09909464 -0.012993969 -0.18353976
0.046229172 0.092571594 0.15501982 -0.23902917 0.033309598 0.07865081 0.032374036 0.044787347
0.0038817602 -0.19882178 0.06421533 -0.2422327 0.154734 -0.0651538 0.09805862 -0.014773471
0.028807389 -0.0007652763 -0.14726661 -0.048580687 -0.14868408 -0.10739065 0.028065495 -0.061439797
-0.22939266 0.028249657 -0.050265823 0.0064092544 -0.019735798 0.016732376 -0.1406853 -0.030941846
-0.0940434 -0.29740468 -0.19647953 -0.010133365 -0.053204507 0.083948426 0.012219132 0.008615884
-0.038940087 -0.05260972 -0.05214649 -0.07327056 0.020117147 -0.10625393 0.078195065 -0.09182285
-0.14907421 -0.30488515 0.029644903 -0.019382648 -0.06457977 0.04646989 -0.05273319 0.04873333
0.03297943 -0.099708326 0.04391978 -0.011641535 0.08025801 -0.16088825 0.030287288 0.055175047
0.123260595 -0.0038999198 0.019858679 0.023272932 -0.008416458 0.06483229 -0.050690327 -0.021237394
-0.12937146 -0.12999345 0.036172543 -0.15792516 0.002610035 0.042731453 -0.080345 -0.023692647
-0.07947027 -0.16241464 0.16484474 0.14233373 -0.0017833991 -0.0059872735 0.055285715 -0.007357074
0.034838453 -0.047527388 -0.13784312 0.045413982 0.08062787 -0.06012648 -0.027025651 -0.12966633
0.0253917 0.17153092 0.038537465 -0.1501297 0.039778505 0.07558516 -0.09501364 -0.19011582
-0.087664075 -0.19223003 0.009889997 -0.23576578 0.16413629 0.04765314 0.048815414 0.058772553
-0.14881685 -0.14055315 -0.040155154 0.05440833 0.0077439933 -0.015822278 -0.08640697 0.0034229234
2.6795562e-05 -0.33092377 0.03701174 -0.10156977 -0.07695648 -0.17757472 0.0020532736 0.044060435
0.018321289 0.030369883 0.01815785 -0.12549011 -0.050179835 -0.022930773 0.10621462 -0.17840907
0.15343662 0.027049681 -0.10654559 -0.14256924 -0.039443098 0.06248775 -0.068623535 0.019581383
00000000: 2af1 8ebd c5f5 4ebe 593a f63d d005 b03d
00000010: 2b6e 58bd a816 0d3e f680 02be 605c 33bd
00000020: a2d1 df3c f673 eebd 17f9 d03b a274 903d
00000030: 1ee4 633d 7c60 0bbd 2c4c 653d 9d7c e6bd
00000040: 55ab 053e f02f bb3d 6840 d9bb fb51 62be
00000050: 6829 c13c 58fd 083d 0f27 73bd be0d 71bd
00000060: 039d 91bd 3bfb c8bd 4e79 03be 8ef8 2cbe
00000070: 653f 413e aad6 efbc 0b82 1ebe ee12 cbbc
00000080: 2724 2fbb 4f26 983d 347e 22be 6a1c c4bd
00000090: 2ef4 82bd a9fd 223d 7d25 1e3e 5d6e 49be
000000a0: 675e 17be 2787 733d 00e9 123e 3120 8cbd
000000b0: cd7a 2dbe 3328 0b3d 1f93 a8be 22d8 a83c
000000c0: c0a9 f4bd 92bf c53d 7455 15be fd6a 653d
000000d0: b243 12be 34b6 5ebd 75f7 0dbd 2163 38bd
000000e0: da01 333d 2e1e 9a3d b46a 013e 67be 813d
000000f0: d3b8 d4bb 9060 20be 0d6a 4c3d 13b2 46be
00000100: da53 e53d 7f78 8f3d 3c16 d9bd f0fb 77bd
00000110: 397d 133e 7ebf 763b 050b c33d 605a e7bd
00000120: ce33 4fbd 3a2e 96bc 6cc9 353c c731 3cbe
00000130: 95f0 233e 3e18 4fbd d19a 81be dc77 cb3d
00000140: 095a 1dbe 36d9 e23c 6563 33be 4a78 1ebd
00000150: b0f3 7dbe e0b5 ebbd 4d0e aa3d 034b ac3d
00000160: 8a9b 77bc 61e2 cf3d ba60 7abd fe3b 6cbd
00000170: b276 efbd 3fbe 8abe 43d2 aa3d 264c 96be
00000180: c6a7 4bbe d2a5 acbe 80e8 1f3e 05d8 b83d
00000190: 104c 603d 6d4d 013d b805 01be fcdf 5fbd
000001a0: 9020 d43d 4c8e 1fbe 3dc7 9ebc 741a e53d
000001b0: 0427 b3bb 21f2 cabd a8e4 54bc d9f1 3bbe
000001c0: cd5a 3d3d 2d96 bd3d 84bd 1e3e 10c4 74be
000001d0: a56f 083d ad13 a13d a39a 043d f072 373d
000001e0: 2165 7e3b f097 4bbe 5483 833d d90b 78be
000001f0: 9772 1e3e 5b6f 85bd f5d2 c83d 6e0c 72bc
00000200: 79fd eb3c d39c 48ba 0fcd 16be 8bfc 46bd
00000210: a440 18be a1ef dbbd 9ce9 e53c 4ca8 7bbd
00000220: e9e5 6abe d36b e73c 89e3 4dbd b904 d23b
00000230: f8ac a1bc 5612 893c cf0f 10be c179 fdbc
00000240: d399 c0bd 6d45 98be ee31 49be 6a06 26bc
00000250: f8ec 59bd 27ed ab3d c132 483c a329 0d3c
00000260: a47f 1fbd 4a7d 57bd 8f97 55bd e00e 96bd
00000270: b7cc a43c a99b d9bd bc24 a03d 9e0d bcbd
00000280: e9a6 18be e819 9cbe ded9 f23c 5cc8 9ebc
00000290: 6642 84bd 3657 3e3d c2fe 57bd 9a9c 473d
000002a0: 7015 073d e133 ccbd 3ae5 333d 23bc 3ebc
000002b0: 505e a43d e4bf 24be 0c1d f83c 3bff 613d
000002c0: 0d70 fc3d cc95 7fbb abae a23c e0a6 be3c
000002d0: 2fe5 09bc cbc6 843d a9a0 4fbd 0bfa adbc
000002e0: f479 04be 011d 05be a929 143d 22b7 21be
000002f0: 1f0d 2b3b 2d07 2f3d eb8b a4bd 1517 c2bc
00000300: 4fc1 a2bd 0650 26be 0fcd 283e efbf 113e
00000310: f2c0 e9ba e430 c4bb 4673 623d 9c13 f1bb
00000320: c4b2 0e3d 14ac 42bd bf26 0dbe 0304 3a3d
00000330: 3a20 a53d 2f47 76bd e664 ddbc 40c7 04be
00000340: 4102 d03c cda5 2f3e 76d9 1d3d 9abb 19be
00000350: c9ee 223d 64cc 9a3d 8396 c2bd b9ad 42be
00000360: 3989 b3bd f3d7 44be a709 223c 966c 71be
00000370: 5813 283e f02f 433d acf2 473d 7dbb 703d
00000380: 7263 18be 2aed 0fbe bb79 24bd 45db 5e3d
00000390: 53c1 fd3b b99d 81bc 23f6 b0bd 2053 603b
000003a0: 08c7 e037 d76e a9be 9f99 173d d003 d0bd
000003b0: 5c9b 9dbd 26d6 35be 3790 063b b778 343d
000003c0: 8716 963c 43ca f83c c5bf 943c 7b80 00be
000003d0: 5f89 4dbd 51d9 bbbc 0d87 d93d deb0 36be
000003e0: 7d1e 1d3e 4b97 dd3c 9334 dabd acfd 11be
000003f0: 168f 21bd 28f3 7f3d 7f8a 8cbd 2369 a03c

model.8.bias f4 [16]
3.2510645e-05 2.9123035e-05 -3.6645672e-06 -2.268877e-06 -3.236993e-06 -3.5105182e-05 2.4944176e-05 4.284045e-06
-1.9810686e-05 3.610221e-05 -2.5403804e-05 5.864701e-06 5.0470557e-05 4.3904856e-05 -2.7546208e-05 -4.3403885e-05
00000000: 0a5c 0838 3e4d f437 c9ec 75b6 0343 18b6
00000010: 1e3b 59b6 e73d 13b8 363f d137 abbf 8f36
00000020: 202f a6b7 746c 1738 411a d5b7 66c9 c436
00000030: 59b0 5338 7b26 3838 0813 e7b7 910c 36b8

model.9.weight f4 [16]
1.2916552 1.4954361 1.4909729 1.3068743 1.4111929 1.3137788 1.2874175 1.326585
1.2434247 1.5390807 1.5425521 1.3696495 1.4532815 1.2922324 1.4217601 1.4539062
00000000: f554 a53f 736a bf3f 33d8 be3f a847 a73f
00000010: f8a1 b43f e729 a83f 19ca a43f 8acd a93f
00000020: 8a28 9f3f 9900 c53f 5972 c53f ad50 af3f
00000030: 2105 ba3f df67 a53f 3cfc b53f 9919 ba3f

model.9.bias f4 [16]
0.40448824 0.61134124 0.66330564 0.4858785 0.5680563 0.48289102 0.38238153 0.5659962
0.33208218 0.68534136 0.7163725 0.65090966 0.6559736 0.40015027 0.7472652 0.5712656
00000000: 1519 cf3e dc80 1c3f 66ce 293f 11c5 f83e
00000010: 236c 113f 7e3d f73e 83c7 c33e 21e5 103f
00000020: ad06 aa3e 8872 2f3f 3064 373f 04a2 263f
00000030: e3ed 273f 7fe0 cc3e c64c 3f3f 763e 123f

model.9.running_mean f4 [16]
-0.2517993 -0.43143275 -0.5895058 -0.25999165 -0.62806386 -0.3652865 -0.071183525 -0.5090437
-0.04163989 -0.3149088 -0.47391647 -0.7091246 -0.64847857 -0.16703151 -0.8127998 -0.41801956
00000000: d6eb 80be c1e4 dcbe dae9 16bf a01d 85be
00000010: cbc8 20bf d506 bbbe abc8 91bd b050 02bf
00000020: 978e 2abd ba3b a1be 2ea5 f2be 3189 35bf
00000030: b102 26bf 4f0a 2bbe a613 50bf a906 d6be

model.9.running_var f4 [16]
0.6701872 1.2996681 1.4984277 1.1355242 0.28897145 0.41619423 0.80726755 0.42150918
0.70976263 1.3907356 1.132734 0.23078275 1.3139962 0.78812784 0.3517355 1.3609511
00000000: 6391 2b3f 865b a63f 7bcc bf3f db58 913f
00000010: 11f4 933e 6917 d53e 16a9 4e3f 0dd0 d73e
00000020: 01b3 353f a003 b23f 6dfd 903f 5052 6c3e
00000030: 0731 a83f bfc2 493f ad16 b43e a533 ae3f

model.12.weight f4 [1, 16]
0.45664874 0.56514215 0.61247104 0.4740815 0.5494312 0.47865778 0.45703405 0.51618177
0.43961862 0.5715143 0.5621856 0.56734544 0.6496384 0.4561037 0.5768083 0.6595734
00000000: ddcd e93e 28ad 103f e7ca 1c3f cfba f23e
00000010: 86a7 0c3f a212 f53e 5e00 ea3e 7d24 043f
00000020: b115 e13e c34e 123f 65eb 0f3f 8d3d 113f
00000030: b44e 263f 6d86 e93e b5a9 133f cdd9 283f
