neuralnet/NN model for final/models/apr10_model_trnsfrmlog_cutoff100000lossmse_layers3_lr0.00005000_64batch_pca28.pth (torch, 31347 bytes, 19 tensors)

model.0.weight f4 [64, 28]
000000 9b af 82 bd 2e 8a 0c 3d a6 3d 48 bd 3c f0 bb 3d
       -0.0638115 0.034311466 -0.048886918 0.091766804
000010 1b 5b aa bd 8f 0c 06 3d 97 11 5b 3e c1 46 f1 bd
       -0.08318158 0.03272682 0.21393429 -0.11781073
000020 33 7d c8 bd 2f 10 19 bd 7b 4a 43 ba e8 e9 3f be
       -0.09789505 -0.03736895 -0.0007449758 -0.18741572
000030 7a 57 bd 3d 60 84 85 3e 02 36 40 bd 59 47 f9 3d
       0.092452005 0.26077557 -0.046926506 0.121718116
000040 f9 a1 1a 3e c5 ef 4e be b1 a2 38 be cf 89 02 bd
       0.1510085 -0.20208652 -0.18030812 -0.031869706
000050 1f 1b df bd 4e 73 6e bd 3b 0c 8e bd de cc 25 3d
       -0.10893845 -0.058215432 -0.069359265 0.04047858
000060 f2 9a e3 3c 9a 78 84 3d 0f 68 85 bd 7b 48 42 3d
       0.027783845 0.064683154 -0.06513988 0.047432404
000070 5f f7 8f bd e0 52 8b bd 83 1d 84 bd b0 b7 31 bd
       -0.07029604 -0.068029165 -0.064509414 -0.04338807
000080 2d 04 37 3d 29 a9 ed 3d 98 9b 10 3e 60 c8 c8 bd
       0.044681717 0.1160453 0.14121854 -0.098038435
000090 08 2a 13 3e 1f e9 5f 3d 9b b3 fa 3d 10 c5 e8 bd
       0.14371502 0.05466568 0.12241288 -0.11365712
0000a0 b9 6d 89 3d 7e 30 c2 3d ec 6a 0e 3e da c3 9a 3d
       0.06710381 0.094819054 0.13907975 0.07556887
0000b0 2a 03 18 3e 4c 69 d1 3c 74 0c 48 bd f0 e2 ee 3c
       0.14844957 0.025562905 -0.04884 0.029160947
0000c0 b0 72 b7 bd de 9a 81 bd ec c1 82 3d 74 03 1d bd
       -0.08957422 -0.06328367 0.06384644 -0.03833337
0000d0 d6 55 f2 bc f3 c2 04 be 40 4c c3 bd b9 bd 43 bc
       -0.029581945 -0.12964992 -0.09536028 -0.011947089
0000e0 b7 f4 37 3a ad 68 b1 3d d5 64 95 bd 77 42 c7 3d
       0.00070173613 0.086625434 -0.07294623 0.09729474
0000f0 93 8b ef 3d a6 1a 1c be 97 50 94 3c 06 fb 23 be
       0.116965435 -0.1524454 0.018104834 -0.16013727
000100 af 45 df 3c 87 eb 4f bd f2 cd 61 be a3 cd f3 bd
       0.027254907 -0.050761726 -0.22051218 -0.119044565
000110 f6 bc 24 3e 77 99 91 3e f3 ab e7 3c 20 56 cf 3d
       0.16087708 0.28437397 0.028280234 0.10123849
000120 e7 1f b3 3d 52 52 7f bd ef a8 3e bd 6b e4 ec 3d
       0.08746319 -0.062334366 -0.046547826 0.11567005
000130 1d 8f 30 be 47 e5 32 3e bf 98 23 3c 27 52 5a bd
       -0.17242093 0.17470275 0.009985148 -0.053301003
000140 5a 4b 04 bd 51 3d 1b 3e f5 d0 07 3e fc 60 91 3d
       -0.032298423 0.15160109 0.13263305 0.070985764
000150 d9 c5 80 3d a8 ff 48 3d da 0b 04 3e 5b aa 98 3d
       0.062877364 0.049071938 0.12895146 0.07454368
000160 14 a7 a1 3d 18 74 8f 3c 52 94 18 be 75 56 1b be
       0.07893196 0.017511413 -0.1490033 -0.151697
000170 65 95 0a 3e f0 0f 1c bd d0 ec b9 bc 27 2e 0b 3e
       0.13533552 -0.038101137 -0.022695929 0.13591824
000180 5a cc 56 3c 39 1c be bd aa 67 2c 3e 68 4a 91 3d
       0.013110245 -0.09282727 0.1683642 0.0709427
000190 01 0c d8 3c ed fe 55 3e 12 1d 06 be 34 07 70 bd
       0.026372911 0.20898028 -0.13097027 -0.05860062
0001a0 e7 71 32 be 87 6d 9b bd f1 1d 0c 3e 83 0c b9 3d
       -0.17426263 -0.0758925 0.13683297 0.090355895
0001b0 72 a5 0d 3e f8 3f cd bc ac 9f 63 bc 93 19 6f bb
       0.13832644 -0.025054917 -0.013893049 -0.003648375
0001c0 6c b7 6b 3d 20 72 0c 3d 1b c0 29 3c df fa 2e bd
       0.05754797 0.034288526 0.010360743 -0.042719718
0001d0 e6 c8 4e be a8 06 b2 3d 49 46 86 bd ea 29 8b 3d
       -0.20193824 0.08692676 -0.065563746 0.06795104
0001e0 b6 36 0c bc bd 0a 01 bd 5f 6c 8b 3d 02 80 4a 3e
       -0.008557966 -0.03150438 0.068077795 0.19775394
0001f0 5c 25 b9 bd 48 8f 1a 3d 3d ec c2 3d f4 b2 4e be
       -0.09040329 0.0377343 0.09517715 -0.20185453
000200 d2 b0 ee 3c 80 eb 06 3e ac b4 d3 3c b0 1f fc 3d
       0.029137049 0.13175774 0.025842987 0.123107314
000210 1f 96 1a bd 35 85 0a be 91 db 23 be bf 1f 4d be
       -0.037740823 -0.13527377 -0.16001727 -0.20031641
000220 8d fd f8 bc 19 d5 f7 bd d9 49 2a be 1f 7b 88 3d
       -0.03039434 -0.12101192 -0.16629733 0.066641085
000230 f6 19 6b 3d e5 85 c1 3c ab 66 f6 bd 6a db 8f bc
       0.057397805 0.023623416 -0.12031301 -0.01756068
000240 82 0f 5b 3d bc bc 91 3d 24 b5 2f be 5d 5c 84 3d
       0.053481586 0.07116076 -0.17158943 0.064629294
000250 a0 b5 4d bc 89 77 12 3d 57 91 4d 3d 04 16 c4 3c
       -0.01255551 0.03575853 0.050187435 0.02393628
000260 3e 4f 39 3c 39 f4 80 3d c6 5c 15 be 07 d6 31 3d
       0.011310397 0.06296582 -0.14586172 0.043417003
000270 63 31 55 3c 14 b4 4a 3e a1 04 6e 3e 16 84 55 bd
       0.013012263 0.19795257 0.23243953 -0.05212792
000280 d3 e7 a5 be 54 c2 2f 3d 1a f9 fb bd f1 64 84 3d
       -0.3240343 0.042909935 -0.12303372 0.064645655
000290 1b af 59 bd 60 af 0b 3e e7 5b 45 bd 44 98 14 be
       -0.05314551 0.13641119 -0.048183348 -0.1451121
0002a0 51 f0 c8 bb f6 01 b9 3d 0c e1 5c bd d8 4f 02 be
       -0.0061321636 0.09033577 -0.05392556 -0.1272577
0002b0 4f 00 8d bd b0 7d e8 bc 78 fe 50 bd e6 ea b7 bd
       -0.068848245 -0.028380245 -0.05102393 -0.0898035
0002c0 ba bf 96 bd 48 8f e1 3d 0f 6a 88 bd db 6e 0f be
       -0.07360788 0.11013657 -0.06660854 -0.14007132
0002d0 23 d4 eb bd f9 ae 2e 3e a5 d2 9b ba 65 34 b2 3d
       -0.11515071 0.17058934 -0.0011888338 0.087014
0002e0 fb 6f b1 bc 19 33 20 3e 6a b4 04 3e d5 7f e6 bd
       -0.021659842 0.15644492 0.12959448 -0.11254851
0002f0 31 84 05 3d b9 10 be bd 32 47 02 3d 91 fd 30 bb
       0.03259677 -0.09280533 0.03180618 -0.0027006606
000300 a3 0e b6 bd 08 d4 25 bd 35 89 57 3d 4a 3e 9c be
       -0.088895105 -0.040485412 0.052621085 -0.30516273
000310 44 fb 15 3d ea 23 5b bd 69 6e ce bd 96 d0 9e bc
       0.03661658 -0.053501047 -0.10079653 -0.01938657
000320 b6 c9 18 3a 9f 5a 0f be 2d 1d 28 3e f1 d1 dd bc
       0.0005828397 -0.13999413 0.1641738 -0.027077647
000330 82 bc 83 3d 00 25 ae bc bc 08 12 bc 2c e8 53 bd
       0.064324394 -0.021257877 -0.008913215 -0.05173509
000340 67 57 a3 bd 5b 86 a9 bd ce f8 75 bc e2 04 db bc
       -0.07975655 -0.082775794 -0.015012933 -0.026735727
000350 bd 18 12 3e 69 48 f3 bc 27 f3 b6 3b 91 84 f1 bc
       0.1426725 -0.029697614 0.0055831852 -0.029482158
000360 32 db 74 bd 21 48 15 3d 3b 31 53 3e 4a 3d eb 3d
       -0.059779353 0.03644574 0.20624249 0.11486299
000370 c2 3b 51 3d 96 a1 78 3d 26 33 ca bd c8 0c e9 3d
       0.05108238 0.060700975 -0.09873037 0.11379391
000380 73 a9 49 bd 69 f5 67 ba 99 08 38 bb fa 10 67 3e
       -0.049233865 -0.00088485196 -0.0028081296 0.2256507
000390 58 2a 7e be 22 4d 5d 3d a8 96 14 3d 9f ad 80 3d
       -0.2482084 0.054028638 0.03627649 0.062831156
0003a0 05 67 98 bd 3d 99 15 be e1 2c 4a 3e 62 5a 2f 3d
       -0.074415244 -0.14609237 0.19743682 0.042810805
0003b0 24 e6 70 bc f5 6e 84 3c 96 86 78 bb 4e 03 d1 bd
       -0.014703307 0.01616619 -0.0037922016 -0.102057084
0003c0 af 90 88 bd 4b 45 4b bd b3 2d d5 3d 4c 9c e2 bd
       -0.06668221 -0.04962663 0.10409107 -0.110649675
0003d0 d7 8b 08 3e 9c fc 6b bd d2 0f 67 bd a7 a0 e4 bd
       0.13334595 -0.057613954 -0.05641157 -0.111634545
0003e0 16 4a 2a bd 78 f3 80 3e da ec 2e bd 5b a9 aa bd
       -0.04157456 0.25185752 -0.042706348 -0.08333083
0003f0 34 b4 66 3c b3 0e 7e bc 2b 29 1e be 96 36 9e bd
       0.01408105 -0.015506434 -0.15445392 -0.07725255

model.0.bias f4 [64]
000000 85 67 57 b6 5c 03 2e 36 ea 6a 0d 36 71 a0 37 36
       -3.2097753e-06 2.5929976e-06 2.107287e-06 2.7362514e-06
000010 08 4d a6 34 6d 96 9d 36 c3 a9 39 36 c0 ad 02 b4
       3.0975957e-07 4.6964765e-06 2.7665963e-06 -1.2170403e-07
000020 20 09 34 b4 ce 8a ea 34 78 fa 42 b5 08 e9 a0 35
       -1.6767126e-07 4.368689e-07 -7.263511e-07 1.198875e-06
000030 d4 a2 f0 35 f2 61 a9 b6 25 ad 57 36 09 3d 89 36
       1.7928783e-06 -5.047995e-06 3.213828e-06 4.0900236e-06
000040 f3 81 1f 35 18 c0 24 b4 18 6e 8c 36 19 1f 20 37
       5.9421217e-07 -1.5343574e-07 4.1851417e-06 9.543984e-06
000050 5a da 6d 37 0f a1 08 b6 a6 8a a3 36 e1 c4 8a 36
       1.417714e-05 -2.0359328e-06 4.8739194e-06 4.13564e-06
000060 ac 0f 7a 37 95 99 d0 b5 a8 b8 06 37 e8 08 3e b6
       1.490481e-05 -1.5541906e-06 8.030016e-06 -2.831739e-06
000070 02 91 97 36 32 51 bb b5 f4 f5 2e 36 5c 60 87 35
       4.517032e-06 -1.3956217e-06 2.6071184e-06 1.0086328e-06
000080 3b 29 4d 36 16 89 bb 36 33 cd 8e b6 50 c6 0e b5
       3.057138e-06 5.588993e-06 -4.255818e-06 -5.3187705e-07
000090 80 63 f4 b4 08 23 6d 36 26 9a 97 36 c0 17 82 b5
       -4.5520937e-07 3.5336143e-06 4.518096e-06 -9.692667e-07
0000a0 3d 47 a8 b6 2f 70 3a 35 70 a2 3f b6 4e 01 3f b6
       -5.0150834e-06 6.945365e-07 -2.855577e-06 -2.8461977e-06
0000b0 da 99 87 34 92 a0 eb b6 0c 81 e9 b5 00 d0 33 33
       2.525765e-07 -7.0222386e-06 -1.739741e-06 4.186586e-08
0000c0 d8 f1 3d 35 0e 13 4d b7 7c d9 8c 36 44 6c f7 35
       7.0759916e-07 -1.2223389e-05 4.1976436e-06 1.8434444e-06
0000d0 40 47 27 35 84 6e 0c 36 dc f1 32 36 be eb 4a b6
       6.231603e-07 2.0925954e-06 2.6664848e-06 -3.0237566e-06
0000e0 d8 91 16 36 f2 67 b5 36 b0 fc 44 36 87 5d 1b 35
       2.2436634e-06 5.406321e-06 2.935336e-06 5.78781e-07
0000f0 37 5b 0e 37 b4 77 fc b5 64 6c 2a 36 95 03 0b b7
       8.485097e-06 -1.8810301e-06 2.5395066e-06 -8.28588e-06

model.1.weight f4 [64]
000000 02 63 5a 3f 90 56 33 3f 61 aa 4d 3f be 8f 3a 3f
       0.85307324 0.7005396 0.803381 0.72875583
000010 ac a9 4c 3f 3f 20 52 3f c6 c1 3b 3f bd 7a 52 3f
       0.799464 0.82080454 0.7334255 0.82218534
000020 0f a5 5f 3f 7c 6c 57 3f 9d 48 47 3f 98 61 52 3f
       0.87361234 0.8414991 0.77845174 0.82180166
000030 20 da 4a 3f dc 6e 54 3f 45 a4 4a 3f 17 ae 4f 3f
       0.7923908 0.8298166 0.79156905 0.81125015
000040 e2 ac 4d 3f 76 db 5e 3f f3 0c 59 3f 2b 2c 5d 3f
       0.80341923 0.8705362 0.84785384 0.8639552
000050 23 7c 65 3f 61 00 58 3f 8c f0 53 3f 39 76 60 3f
       0.8964254 0.8437558 0.8278892 0.87680393
000060 05 5b 59 3f 2d c5 3e 3f c4 c2 45 3f 3a 06 57 3f
       0.8490451 0.74519616 0.77250314 0.83993876
000070 22 7c 49 3f d1 32 63 3f 8a 40 5c 3f 2f 19 40 3f
       0.78705037 0.88749415 0.8603598 0.7503843
000080 a6 27 36 3f 4f df 52 3f 2a e7 59 3f e0 9e 58 3f
       0.7115425 0.8237199 0.85118353 0.84617424
000090 6f cc 3e 3f 60 6c 51 3f 94 c6 76 3f 9c 01 43 3f
       0.7453069 0.8180599 0.96396756 0.7617433
0000a0 46 12 5b 3f 6e ee 36 3f 21 57 55 3f 66 d3 20 3f
       0.8557476 0.71457565 0.83336073 0.6282257
0000b0 d2 3d 37 3f 85 7a 44 3f 50 8a 57 3f 16 a3 41 3f
       0.71578705 0.7674945 0.84195423 0.75639474
0000c0 cc cc 4f 3f 44 e5 51 3f 71 e3 44 3f 3e 49 51 3f
       0.8117187 0.81990457 0.7690955 0.81752384
0000d0 5c de 39 3f 25 d1 43 3f 12 52 4f 3f e9 bd 5a 3f
       0.7260492 0.76491004 0.80984604 0.8544603
0000e0 e4 a5 2e 3f f3 b2 4a 3f 63 c9 4f 3f 3e b8 63 3f
       0.6822188 0.79179305 0.81166667 0.88953006
0000f0 5b c2 54 3f 57 45 42 3f f5 6b 5d 3f 03 85 4d 3f
       0.8310906 0.75887054 0.86492854 0.80281085

model.1.bias f4 [64]
000000 11 86 5d be 25 20 a9 be b8 b8 2f be d0 d2 25 bd
       -0.21633174 -0.33032337 -0.17160308 -0.04048425
000010 75 53 5b bd a6 d9 f2 bd f3 e9 d4 bd 21 38 cf be
       -0.053546388 -0.118579194 -0.10396185 -0.4047251
000020 5c bf 37 be 39 01 2a be 6d 7f cb be 30 f3 ed be
       -0.17944092 -0.16602029 -0.39745656 -0.464746
000030 66 d0 e9 bd 7b 02 8b bd 1a 40 b1 bd 65 60 05 bf
       -0.11416702 -0.067875825 -0.086548045 -0.5210021
000040 81 72 f0 bd d1 32 32 be 6b b8 b4 bd e2 6b 35 be
       -0.1174059 -0.17402197 -0.088242374 -0.17716935
000050 0d e8 c7 be c1 79 86 be 1d a9 c2 be bc 3a 20 be
       -0.39044228 -0.26264766 -0.38019648 -0.15647405
000060 7e 58 bd bd ea 78 a3 be d7 da 2c bf ba 09 83 bd
       -0.09245394 -0.31928188 -0.67521423 -0.063983396
000070 9b b7 4f bd af 0c 33 be 91 a5 25 be 5f 08 b5 be
       -0.05071221 -0.17485307 -0.1617644 -0.3535795
000080 ca fd e0 bd 87 eb de be fc 67 3a be e1 6a 05 bf
       -0.109859064 -0.43539068 -0.1820373 -0.5211621
000090 13 4a 68 bd 19 96 34 be 37 2e 0e be de 29 cc 3a
       -0.056711268 -0.17635383 -0.13884817 0.0015576442
0000a0 70 af 1b be 04 5b 84 be fa 80 0a bf 96 c0 62 be
       -0.15203643 -0.2585069 -0.5410305 -0.22143778
0000b0 7b 93 36 bc f5 a1 8d bd 2c 76 86 be 2e b4 e7 bd
       -0.0111435605 -0.069156565 -0.26262033 -0.113136634
0000c0 e2 20 2a be 99 09 f5 be 8e 28 6b be 12 26 f2 be
       -0.16614106 -0.47858885 -0.22964689 -0.4729467
0000d0 43 f6 8a be 24 f6 32 be 12 08 89 bd 8a c2 1a be
       -0.27141008 -0.17476708 -0.066909924 -0.15113273
0000e0 e0 02 80 be 43 ce ae be 0d 8b c2 be bd 57 0c be
       -0.25002193 -0.3414174 -0.37996712 -0.13705344
0000f0 d5 82 4c 3d 5e 53 04 bf a9 61 9c be d6 60 2c bf
       0.04992946 -0.5168971 -0.3054326 -0.6733526

model.1.running_mean f4 [64]
000000 17 69 1c 3d 43 6b ed 3c 09 5d ec 3c d0 a4 92 bd
       0.03818616 0.02898181 0.028852956 -0.07160342
000010 58 d7 4e bd a6 bb 05 3d 0a 55 a6 bd ee a6 ec 3c
       -0.050498337 0.03264966 -0.08121689 0.028888192
000020 56 ef 8c 3d a8 8a e7 3c 98 37 c5 3d ae af f1 3d
       0.06881587 0.028264359 0.09629744 0.11801086
000030 73 de ab 3c 91 0e de bd 85 e7 da bc ac bb 4c 3e
       0.020980095 -0.10842622 -0.026721725 0.19993466
000040 01 45 24 bd 74 b5 ee bd 37 21 d3 3c 19 d3 8c bd
       -0.04010487 -0.11655703 0.025772674 -0.06876201
000050 e6 a0 5e 3d e4 38 16 3e 08 36 5b 3d e4 67 5a 3d
       0.054352663 0.1467014 0.053518325 0.053321734
000060 4e 0f fc bb 01 b5 ad 3c 51 cc 8a 3d 1c 54 85 bd
       -0.007692254 0.021204473 0.067772515 -0.06510183
000070 c8 3b 11 be f9 ce a3 bc 4e d4 96 bc 44 eb 0f 3e
       -0.14182961 -0.019996153 -0.018411782 0.1405459
000080 10 3a 7d bd 1b 07 d6 3d 0c e1 f2 bc 8f 3e c9 3d
       -0.06182295 0.10450574 -0.029648326 0.09826385
000090 5f 95 29 3d 74 29 06 3d 68 ca c7 3d ba 2f aa bc
       0.041402217 0.032754377 0.09755403 -0.02077471
0000a0 44 43 5e bc 63 4c 5a bd 6a 77 31 3e 40 95 0b 3d
       -0.013565842 -0.053295504 0.17330709 0.034077883
0000b0 df 1d 03 be b0 36 cb bc 06 23 01 bd 89 91 c9 bd
       -0.12804364 -0.02480635 -0.03152754 -0.09842212
0000c0 c3 9c 07 3d e3 0c 03 3e d3 04 d3 3d b8 a9 de 3d
       0.033108484 0.12797885 0.103036545 0.10872215
0000d0 b9 c4 b5 3d 1d 17 49 bd c1 69 e6 3b e2 07 d8 3b
       0.088754125 -0.04909431 0.00703165 0.0065927366
0000e0 c5 54 f3 bd d0 4d 0e 3e 6f 23 f7 3d 24 ae 22 3c
       -0.11881403 0.1389687 0.12067305 0.009929214
0000f0 45 36 85 bd 23 1f 0e 3e 38 03 e6 3d 00 05 a4 bc
       -0.06504492 0.13879065 0.11231083 -0.020021915

model.1.running_var f4 [64]
000000 af 9d 0f 3f 8f 96 ea 3e 66 47 09 3f d9 eb 53 3f
       0.5609998 0.45817992 0.5362457 0.8278175
000010 84 c7 0a 3f f6 88 28 3f 67 01 05 3f 79 2f b0 3e
       0.54210687 0.65833986 0.51955265 0.3441122
000020 b8 d3 20 3f f4 77 10 3f f0 db 32 3f af c8 df 3e
       0.6282306 0.56433034 0.6986685 0.43707797
000030 4a ca b9 3e 8c c9 1a 3f 25 e0 7b 3f f1 18 84 3f
       0.36287147 0.60463786 0.9838889 1.0320112
000040 ba e3 51 3f a1 55 03 3f a2 b6 fb 3e 2c d1 aa 3e
       0.8198811 0.51302534 0.49162775 0.3336271
000050 b3 9e 10 3f 4f 06 61 3e 76 00 27 3f 19 88 eb 3e
       0.56492156 0.21975063 0.6523508 0.46002272
000060 c8 f0 e5 3e b9 f1 12 3f 3d 92 45 3f 1e 88 26 3f
       0.44910264 0.5740009 0.77176267 0.6505145
000070 ec 77 3d 3f 94 fa 0c 3f 9f 50 61 3f ca 6c 86 3f
       0.7401111 0.5506985 0.88013643 1.050195
000080 e1 da 32 3f c2 2c 80 3f 9e 2c e1 3e ae 39 2f 3f
       0.6986523 1.0013659 0.43979353 0.6844739
000090 aa c2 be 3e 7e ea 09 3f cb 8d de 3e 53 4a 1c 3f
       0.37257892 0.5387343 0.43467554 0.6105091
0000a0 24 96 24 3f 9b ee c6 3e e1 19 5d 3f 4b 9b 35 3f
       0.64291596 0.38853917 0.86367613 0.70940083
0000b0 9e 1d 47 3f 53 fa 0c 3f 9f 29 b3 3e 57 90 49 3f
       0.7777957 0.55069464 0.34992692 0.7873587
0000c0 1d a8 5a 3e 17 17 96 3f a7 26 1d 3f 17 b8 2b 3f
       0.21353193 1.1725796 0.61387104 0.67077774
0000d0 34 95 7c 3f 8f 54 4f 3f a6 15 0d 3f b9 1b 0d 3f
       0.98665166 0.809884 0.5511116 0.55120426
0000e0 df da 28 3f c5 54 1f 3f bf 11 72 3f f9 02 0b 3f
       0.6595897 0.62238723 0.9455833 0.5430141
0000f0 46 4a b2 3e 4d ca 48 3f b8 2a ea 3e 24 45 9c 3e
       0.3482229 0.78433686 0.45735717 0.305215

model.4.weight f4 [32, 64]
000000 40 b7 2b 3d aa cd 40 bd d5 35 fe bc 2c 61 85 bd
       0.041922808 -0.047071137 -0.031031528 -0.06512675
000010 8f 37 11 be ca 0f a0 bd 60 b7 f3 bd af 75 02 bd
       -0.1418135 -0.078155115 -0.119002104 -0.031850513
000020 ed 30 8d 3c aa b7 9b 3c 0d 6d 34 3d 3a ed 2f 3c
       0.017235244 0.019008476 0.04404931 0.010737712
000030 5b 85 f0 3d 76 8e 68 3c ac 3e 05 ba 5d a0 45 3c
       0.117441855 0.014194122 -0.0005082886 0.012062159
000040 c5 f9 a1 bd aa cd 50 bd dc 3d 40 3d 46 9f ad bd
       -0.07908968 -0.050977387 0.046933994 -0.084776446
000050 7d 4c 16 bd 80 c9 ad bd 8c 1e 83 bd b7 d2 87 3b
       -0.03669404 -0.08485699 -0.06402311 0.004144992
000060 fb 99 ff 3c 9c f0 17 bb 8e d5 53 3d 25 5a cb bd
       0.031201353 -0.0023184186 0.051717333 -0.09929303
000070 1e af cf bd 8b 7d 89 bc 3b 6b f3 bb 10 65 40 3d
       -0.10140823 -0.016783496 -0.0074285544 0.04697138
000080 01 43 6e 3b 56 a0 84 bc 07 17 7f bd 83 86 48 3d
       0.0036355855 -0.016189735 -0.06227782 0.048956405
000090 c3 a6 6c bc d9 2a d7 bd 28 b0 2a 3d 08 83 88 bd
       -0.014444056 -0.105062194 0.041671902 -0.06665617
0000a0 bf 2d d4 bd 6f 41 33 bd cc 45 82 3d 40 18 7e 3d
       -0.10360288 -0.043763574 0.06360969 0.062034845
0000b0 80 15 68 bd 52 e4 5d bd 9c 3b ce 3b 02 d7 88 bd
       -0.05666113 -0.05417282 0.006293727 -0.066816345
0000c0 79 15 ee 3d 3a 03 d7 ba 16 c7 44 bb da d3 1c 3b
       0.11625189 -0.001640416 -0.003002589 0.0023929984
0000d0 af d0 59 bd 5d e4 19 be eb 5b f2 bd 57 ce 23 bd
       -0.05317753 -0.1502852 -0.11833938 -0.039991703
0000e0 4e a5 04 3c 47 e0 c6 3d c7 70 85 bc a9 9c 47 bd
       0.008096052 0.09710746 -0.016289128 -0.048733387
0000f0 3c ac a5 bc ab 10 4f 3d 7a b0 aa 3d e4 19 2a bd
       -0.02022373 0.050553005 0.083344415 -0.041528597
000100 95 b8 8e bc 34 00 02 3d df 34 1e 3d b5 c9 ca bc
       -0.017422 0.031738475 0.03862464 -0.024754385
000110 86 93 d5 bd 85 14 07 bd 93 c9 5b bd 54 87 09 be
       -0.104285285 -0.032978553 -0.053659033 -0.1343053
000120 0b 76 df bc 9f ff c2 bd 2b e4 97 3d 3b 01 22 3d
       -0.027277967 -0.09521412 0.074165665 0.039551955
000130 b5 8c 78 bd 0e 44 22 bd 49 1d 21 bd cb 81 ea 3c
       -0.060681064 -0.039615683 -0.03933457 0.028626343
000140 13 cb 85 bd 9d 18 a7 bd e9 31 ce bd 44 a8 f0 bd
       -0.06532874 -0.081589915 -0.10068113 -0.11750844
000150 02 d7 a6 3c 44 3d 84 3d 1e 03 41 3d 31 a4 d7 bc
       0.020366196 0.06456998 0.047122113 -0.02632341
000160 10 c4 9f bd e4 49 42 bd f0 34 3c 3e 9f 23 d3 3b
       -0.07801068 -0.04743375 0.18379569 0.0064434553
000170 d6 0e 9f bc b3 e5 58 bd 81 87 1b bc 06 6c 0f 3c
       -0.019416254 -0.052953433 -0.009492756 0.008753782
000180 82 31 43 3d 15 1e 87 3d 77 f9 d9 bd 39 36 f9 3d
       0.047654636 0.065975346 -0.10643285 0.12168545
000190 98 af b8 3b ab 2c 73 bd e1 16 b8 3b 87 25 be 3c
       0.005636167 -0.05936877 0.0056179618 0.023211254
0001a0 2f bb 1f bd 01 fb 45 3d 6d 73 c5 3c d3 be b9 3d
       -0.03899687 0.04833508 0.02410289 0.090696
0001b0 b6 de 4b bc 76 db 11 bd 7f 91 5c bc 7c 83 8e 3c
       -0.012443235 -0.035609685 -0.013462423 0.017396681
0001c0 93 42 0b bc 09 a4 92 3d e4 ea da 3d 9a b8 80 3d
       -0.008499759 0.071601935 0.10689333 0.0628521
0001d0 92 37 3e 3c ac 9d d0 3a e8 98 05 bd 65 74 31 be
       0.011609929 0.001591613 -0.032616526 -0.17329557
0001e0 58 c4 8f 3c 87 a4 24 3d ed 8b ce bb 21 c4 03 bd
       0.017549679 0.040195968 -0.0063033015 -0.032169465
0001f0 0c c0 8a bd a5 7c 81 3d 65 bd 64 3d 1b 73 19 3d
       -0.06774911 0.06322602 0.055844683 0.03746329
000200 18 76 02 bd 9b 3a 20 3d e1 c9 ba bd 72 c1 2b bd
       -0.031850904 0.03911839 -0.091205366 -0.04193253
000210 f9 e0 e8 3c 99 b8 31 be ac 76 dd 3c 85 3c 50 3c
       0.028427588 -0.17355575 0.027034126 0.0127097415
000220 64 42 bd bd 0c 6a 5b 3c d3 8d 99 3d f5 13 49 3d
       -0.09241179 0.013391983 0.07497754 0.049091298
000230 21 91 0f bb 72 78 42 bd 4b 9a b5 bd df cd d8 3d
       -0.0021906572 -0.047478147 -0.0886732 0.10586142
000240 fa 7e 99 3c dd 39 0a bd 70 85 0d bd 9e d1 16 bd
       0.018737305 -0.03374659 -0.034551084 -0.036821
000250 de 1b 8c bb c4 e2 da bd 23 d4 fc 3c 94 9f a6 bd
       -0.004275783 -0.10687783 0.030862873 -0.08135906
000260 dd d8 50 bd b4 cd ff 3c c3 d1 7e 3d bb 90 c7 bd
       -0.050988067 0.031226017 0.062211763 -0.09744402
000270 11 c3 82 3c 03 1d 1b bd 14 72 7d bd 43 f8 05 3d
       0.015962156 -0.037869465 -0.06187637 0.032707464
000280 40 99 cc bc 45 97 d2 3d fb 44 10 bd fd db a2 3d
       -0.024975419 0.102827586 -0.035222035 0.07952116
000290 46 87 75 bc 55 ec ab 3c 97 55 9e bb 19 d4 82 bd
       -0.014985865 0.020986715 -0.0048319804 -0.06388111
0002a0 ee 20 01 be c0 8e c5 3c 83 54 4f 3d 8f 09 06 bc
       -0.12610218 0.02411592 0.050617706 -0.00818099
0002b0 76 b6 28 bc 39 22 92 bc 9c 1b a0 3d ec 9c 9f bd
       -0.010297408 -0.017838584 0.07817766 -0.07793602
0002c0 ac bf b3 3c 0b db 11 3d 28 37 a1 bc 03 ac 61 3d
       0.021941982 0.035609286 -0.01967962 0.055095684
0002d0 5a 83 65 bd 63 bf a0 3d 0d b0 05 bd 9e 5d 3a 3d
       -0.05603347 0.07849004 -0.0326386 0.045499437
0002e0 4b f2 20 bd 8c c1 c8 3b ef 3b 02 3e 67 54 a3 bd
       -0.03929357 0.006126588 0.12718175 -0.07975083
0002f0 9d 8d ab bd 4e b4 ad ba 87 94 fa bd bb 6b 15 3e
       -0.0837662 -0.0013252588 -0.122353606 0.14591877
000300 c3 9f 03 be 0b 72 c3 3b 48 94 81 bd 2f 1c 95 bc
       -0.12853913 0.0059645227 -0.063271105 -0.018201916
000310 b2 2c b4 bd a7 95 12 bc 34 11 54 3c 9b eb d6 bc
       -0.087975875 -0.008946813 0.012943555 -0.026235392
000320 52 39 83 bd 1a a4 04 be 7b f3 8b 3c 1a 5c d6 3c
       -0.06407417 -0.12953225 0.017083874 0.026166964
000330 02 de d2 bd 80 55 81 bd 84 e5 a3 bd 6d ff 16 3d
       -0.10296251 -0.06315136 -0.08002761 0.036864687
000340 89 83 ce bd 45 2c c6 bd a9 34 d7 bd 8a 99 fe bd
       -0.10083682 -0.096764125 -0.10508091 -0.12431629
000350 88 2f 8c 3d f0 0c 20 bd 1e 1e 32 3d b5 f7 82 bd
       0.06845003 -0.03907484 0.043485753 -0.063949026
000360 28 31 f4 bd d2 78 e3 3c 55 cb c1 3d 40 f0 99 bd
       -0.11923438 0.027767573 0.09462611 -0.07516527
000370 20 b2 c7 3c 14 1c a3 bd c9 c9 01 be 20 3e 25 3d
       0.024376929 -0.0796434 -0.12674631 0.04034245
000380 75 c3 57 3d fd cf 08 3d b5 2e a0 bd 87 81 75 3d
       0.052676637 0.033401478 -0.07821409 0.05993798
000390 d8 1c a1 3c 09 4b 13 bd 43 d5 37 3d 8a e0 ef 3c
       0.019667074 -0.03596023 0.044881117 0.029281873
0003a0 c3 05 49 bd ac 82 87 3d 2e 9c c0 3d 59 8a 2d bc
       -0.04907776 0.066167206 0.09404789 -0.010592067
0003b0 00 97 99 3b 9a 2f 65 bd 8c 8f 20 3d 94 de 8d bd
       0.00468719 -0.0559536 0.039199397 -0.06927219
0003c0 33 9a bd bd d1 e6 bb 3d 69 75 3c 3d fa de 96 3d
       -0.09257927 0.09174884 0.04601041 0.07366748
0003d0 37 d2 82 3d 94 5b 93 3c 80 00 d7 bc 7b 25 15 be
       0.063877515 0.017988004 -0.026245356 -0.14565079
0003e0 0d c6 21 3d 91 53 41 3d 3b d7 33 3d 31 ad 6e bd
       0.039495517 0.047198836 0.04390643 -0.058270637
0003f0 db 19 bd bc 1d cc 4b 3d 2a 19 8c bd 4c 7d 00 3e
       -0.023083618 0.049755204 -0.06840737 0.12547797

model.4.bias f4 [32]
000000 38 52 d7 b6 5d f2 89 b7 0d f4 51 b7 53 b0 6c 37
       -6.417071e-06 -1.6444532e-05 -1.2514193e-05 1.410775e-05
000010 a0 19 a8 b3 90 f2 44 36 21 53 b5 b7 13 c1 48 b7
       -7.827771e-08 2.9347466e-06 -2.1615591e-05 -1.1965883e-05
000020 6a a9 6b 36 c0 6d b0 34 cd 4d 12 b7 2a e2 14 b7
       3.511634e-06 3.2862408e-07 -8.7203925e-06 -8.874145e-06
000030 89 83 9b b6 ef c8 7d 35 35 1e 89 37 59 4d 1f b7
       -4.6346727e-06 9.454224e-07 1.6345739e-05 -9.495147e-06
000040 5a 23 29 37 fc 98 dc 36 00 2f 6d 36 60 3d d4 b4
       1.0081416e-05 6.5743207e-06 3.534311e-06 -3.9532733e-07
000050 1a 28 58 b6 a8 f0 f2 36 13 85 35 b7 96 da f0 b6
       -3.220985e-06 7.240178e-06 -1.08194245e-05 -7.178004e-06
000060 33 17 99 b6 bc e6 f5 36 36 a0 37 b7 dc e3 60 36
       -4.562456e-06 7.32843e-06 -1.0944952e-05 3.3511233e-06
000070 28 ed 58 b5 4c e8 8c b6 f6 3d 2b 36 77 4e 44 b6
       -8.081138e-07 -4.199368e-06 2.5517052e-06 -2.9251948e-06

model.5.weight f4 [32]
000000 69 f6 1d 3f 60 45 43 3f f8 8f 51 3f ea 38 55 3f
       0.6170412 0.7627773 0.81860304 0.8328997
000010 ba 82 1c 3f 29 c7 2e 3f fd 1f 32 3f a0 db 55 3f
       0.6113697 0.68272644 0.6958006 0.83538246
000020 4c 01 60 3f f2 bf 1a 3f b1 7e 54 3f 22 5e 4f 3f
       0.8750198 0.60449135 0.83005816 0.8100301
000030 9e 9f 5f 3f 17 ec 1a 3f 86 e9 44 3f 7a c1 55 3f
       0.8735293 0.60516495 0.7691883 0.83498347
000040 67 9a 51 3f e7 94 59 3f 33 fc 54 3f 56 66 28 3f
       0.81876224 0.8499283 0.83197325 0.6578115
000050 0b bf 51 3f de 30 4d 3f 7b 27 6a 3f cb 9d 3a 3f
       0.81932133 0.8015269 0.9146649 0.7289702
000060 8f 6e 2c 3f e6 1e 56 3f 8d 52 1e 3f 79 6f 15 3f
       0.673562 0.836409 0.6184471 0.5837322
000070 3f b5 2a 3f a5 65 6a 3f c2 85 23 3f 79 f4 11 3f
       0.6668281 0.9156135 0.63875973 0.5701366

model.5.bias f4 [32]
000000 97 a7 34 be 4d 1d 65 be d6 cc ac be de 22 23 bf
       -0.17642055 -0.22374459 -0.33750027 -0.6372508
000010 df e1 30 be 37 c6 3e be 56 9c 11 be 9f 62 12 bf
       -0.17273663 -0.186303 -0.14219794 -0.57181734
000020 ee 65 01 bf 31 98 1a be 95 7f e2 be c0 6c ec be
       -0.5054616 -0.15097119 -0.44237962 -0.4617672
000030 77 b4 b7 be fc 81 ea bd e5 57 c6 be ea 9b 97 be
       -0.3587987 -0.11450574 -0.38738933 -0.2961114
000040 a6 ce e7 be df e4 28 bf 6e 01 d3 be 7d 49 87 bd
       -0.45274848 -0.6597423 -0.41212028 -0.06605814
000050 5f ac 21 bf 5b 00 89 be 4c 20 11 be bc 59 6f be
       -0.6315364 -0.26758084 -0.14172477 -0.23374075
000060 5a b6 00 be 3d 88 89 be 2e a9 02 be 73 07 58 be
       -0.12569562 -0.26861754 -0.1275985 -0.21096592
000070 2b ea 5e be fc aa 49 be bd 8d ee bd fc 0c 58 be
       -0.21769015 -0.19694132 -0.11648128 -0.21098703

model.5.running_mean f4 [32]
000000 1e 8a 99 be b4 9f 65 be 73 ce 7f be 97 86 bc be
       -0.29988188 -0.22424203 -0.24981098 -0.36821434
000010 d0 f0 65 be 42 a1 a9 be 1b 8a 75 be ce 39 b0 be
       -0.22455144 -0.33130842 -0.23978464 -0.344191
000020 a0 f5 a3 be e0 72 95 be e0 d4 a6 be f2 f7 39 be
       -0.32023335 -0.29189205 -0.32584286 -0.1816099
000030 3c ec bc bd ae 3d c1 be 1f 85 a8 be 0f f0 89 be
       -0.09224746 -0.3774237 -0.32914063 -0.26940963
000040 ae 54 8d be be 15 98 be 80 91 90 be f0 1a ba be
       -0.27603668 -0.29704088 -0.28236008 -0.36348677
000050 c6 8f bc be b1 3e 9e be 93 53 83 3d e1 5c 86 be
       -0.3682844 -0.30907205 0.06412425 -0.26242736
000060 3a 85 8d be f5 67 96 be 46 27 71 be c2 5f 73 be
       -0.27640706 -0.29376188 -0.23550138 -0.23766997
000070 12 11 68 bd bf 7f 27 bd d6 2a 1c be 80 2d 9a be
       -0.056656905 -0.040893313 -0.15250716 -0.3011284

model.5.running_var f4 [32]
000000 2d 8e 56 3e 7f e9 46 3e b3 82 60 3e 63 11 8e 3e
       0.20952673 0.19425009 0.21924858 0.2774764
000010 66 fd 4d 3e f9 22 81 3e 49 8a 48 3e 37 b0 96 3e
       0.20116195 0.25221995 0.19584002 0.29431316
000020 c7 53 99 3e 7f 7a 66 3e 3e a5 a4 3e 66 62 2a 3e
       0.2994673 0.22507666 0.3215732 0.16639099
000030 c0 c1 fc 3d ed bb 9c 3e 05 e3 9d 3e 70 8f 8e 3e
       0.123416424 0.30612126 0.30837265 0.2784381
000040 31 35 70 3e ff 70 50 3e 58 4c 75 3e 02 35 89 3e
       0.23457791 0.20355605 0.23954904 0.26798254
000050 f8 ff 84 3e 3e 60 99 3e 2c 5a 02 3e 27 a7 59 3e
       0.2597654 0.2995624 0.1272971 0.2125517
000060 34 6d 7d 3e 4d 80 81 3e f4 6b 26 3e 04 b2 41 3e
       0.24748689 0.25293198 0.16252118 0.18915564
000070 ff 19 15 3e db dc cc 3d 42 66 59 3e b0 42 5b 3e
       0.14560698 0.10003062 0.21230415 0.21412158

model.8.weight f4 [16, 32]
000000 0a 01 21 3d 55 59 27 bd 95 5e d7 ba 09 24 8f be
       0.03930763 -0.040856678 -0.0016431386 -0.2795718
000010 7c f9 e4 3d d8 1d b9 3d a4 c7 25 3d 31 87 26 be
       0.11180398 0.09038895 0.040473595 -0.16262509
000020 02 2d 68 bd 96 e8 e2 bd 3a a0 ac b9 cb 99 e8 be
       -0.056683548 -0.110795185 -0.00032925775 -0.45429835
000030 cc aa 58 be 45 71 6c 3d 73 09 6b bd ec 20 66 3d
       -0.21158904 0.05772521 -0.05738206 0.05618374
000040 7b 3c 90 3c 9e d0 a5 be 60 89 5d 3d 3b 35 7e bc
       0.017606964 -0.32385725 0.05408609 -0.015515621
000050 63 cb 3b be 86 31 2a bd 63 62 16 3e 9c 7d 90 3b
       -0.18339305 -0.041551135 0.14685969 0.004409505
000060 a4 d7 8f bc 31 6e c3 3c 4c 67 c1 3c 21 cd 19 3d
       -0.01755888 0.023856254 0.023608826 0.03754914
000070 d9 f7 31 3d e3 7b 9d be 9b 52 8b 3d 2d b4 d7 3d
       0.043449257 -0.3075858 0.06802865 0.10532413
000080 16 05 98 bb ed 2a 6f 3d ab f2 87 3d a1 21 30 be
       -0.004639278 0.058390547 0.06638082 -0.17200328
000090 11 d6 d2 3a aa ed c3 3c 3f 2b 4f bd dc 57 62 be
       0.0016085525 0.023917038 -0.050578352 -0.22103828
0000a0 db 67 4b be 87 af 3b bd d2 f0 24 be 4a 58 a2 3b
       -0.19863836 -0.045821693 -0.1610749 0.0049543725
0000b0 51 41 82 3c 1d a8 4e bc 83 04 b2 bd fe f5 8e bd
       0.015900286 -0.0126133235 -0.08692267 -0.06980513
0000c0 ae 92 13 be 40 b7 1b be 12 ea 41 be b3 e3 f0 bc
       -0.14411423 -0.15206623 -0.18936947 -0.02940545
0000d0 65 61 6d be 41 92 93 bc 8d ff 89 3c 83 06 c8 bd
       -0.23181684 -0.018014075 0.016845489 -0.09766867
0000e0 0e 71 a2 bd ab 4e 78 be 9b 6c 0e bd 8b 3f 05 3d
       -0.0793172 -0.2424876 -0.034771543 0.032531302
0000f0 c3 5a b3 bc 75 5b cd 3c 36 26 0f bc 08 ab 20 3d
       -0.021893864 0.025068024 -0.008737138 0.039225608
000100 70 ad fc bb 88 6e 65 bd c0 49 f5 ba 22 89 28 be
       -0.007711105 -0.056013614 -0.0018713996 -0.16458562
000110 ae 59 08 3e 73 9d 16 bb 06 2f ec 3b 92 8a af bd
       0.1331546 -0.002298203 0.007207754 -0.08571352
000120 ad e9 c6 bc 38 be 8d 3b c4 2d 96 bc 5b 4a 2e be
       -0.024281347 0.0043256544 -0.01833237 -0.17020552
000130 2f e0 81 bd 2a d1 9f 3c 10 ba 24 bd 30 01 18 bd
       -0.06341588 0.019508917 -0.040216506 -0.037110507
000140 ca fa 94 bc a3 9f 50 be b6 90 a7 bc 24 be 9c 3d
       -0.018185992 -0.20373397 -0.020454746 0.07653454
000150 77 f3 15 be 8a 84 5e 3c be 59 18 bf d6 d4 2f 3d
       -0.14643656 0.013581404 -0.59511936 0.042927586
000160 49 4e 73 bc 95 ff 9b 3d 8f 79 93 39 f4 42 e2 bd
       -0.014850208 0.07617108 0.00028128593 -0.110479265
000170 85 47 8e 3d 6e f9 1d bd 6b 18 27 3e e6 e8 85 3c
       0.06947235 -0.038567953 0.16317908 0.016346406
000180 29 46 07 bc 0f 3d 9f 3c d7 ab 2c be f6 71 2d be
       -0.008256474 0.019438295 -0.16862427 -0.16938004
000190 eb 5f 0e bc 49 59 e1 bd a6 38 e0 ba 29 31 10 be
       -0.008689861 -0.11003358 -0.0017106726 -0.14081253
0001a0 4f a7 01 be 88 58 4b bd 67 3c 62 be 15 02 20 3d
       -0.1266148 -0.049644977 -0.22093354 0.039064486
0001b0 ac 58 a8 3c 0d a6 ea 3b 59 aa 82 be 49 dd be 3d
       0.020550095 0.007160908 -0.2552059 0.093195505
0001c0 f8 88 6e be 5e ee 2e be e0 83 68 be 44 83 a4 bc
       -0.23294437 -0.17083117 -0.22706556 -0.020082124
0001d0 d6 1d 6f be 31 e0 06 bc a9 07 95 3c b1 1c a5 bd
       -0.23351225 -0.008232162 0.01819213 -0.08062113
0001e0 92 2c a2 3c f9 ef 26 be 97 77 5e bd 0a 68 4e 3c
       0.019796643 -0.1630248 -0.05431327 0.012598047
0001f0 73 65 aa bd 3d 02 28 3d ce fd b0 3c bc 6e 33 3d
       -0.08320131 0.04101776 0.021605399 0.043806776
000200 80 ea 7d bd 26 93 55 3d 43 8c 36 3d 57 75 71 be
       -0.061991215 0.052142285 0.044567358 -0.23579918
000210 e6 f3 4d 3b 63 32 96 bd 59 0b 08 bc 06 af 87 be
       0.0031425892 -0.07333829 -0.008303487 -0.2650072
000220 5b b2 46 be 57 8c cb bd 78 be 83 be bf 9a 04 3d
       -0.19403975 -0.09938877 -0.25731254 0.03237414
000230 0d 6b 2a 3d 43 2e a9 bc 29 cf 55 be 8e a2 cf bd
       0.041605998 -0.020651942 -0.20879807 -0.10138427
000240 0f ca 4f be 00 08 26 be ef 11 2e be c8 ba 8f bd
       -0.20291923 -0.1621399 -0.16999029 -0.070180476
000250 d0 85 7e be 0f 67 fc bd cd f9 ae 3c ae 29 45 bd
       -0.24855733 -0.12324344 0.021359349 -0.048135452
000260 4d 6a 01 bd a7 54 95 3d 94 40 9d bc 66 5a c3 3c
       -0.031595517 0.07291537 -0.019195832 0.023846816
000270 fc f9 b6 3c b9 9c fa 3c fc ac 52 3c e2 2f 3f 3d
       0.022335999 0.03059231 0.0128586255 0.046676524
000280 0d 34 0b be e2 9b 86 be cb df c6 3c fa 12 53 be
       -0.13594075 -0.26290804 0.024276635 -0.20612708
000290 2b 53 25 3d 59 47 e0 bc 6c bb 48 be c4 04 35 be
       0.04036252 -0.027377771 -0.19602746 -0.17677599
0002a0 4c 29 35 be 3e d6 a7 bc 67 c5 b0 bd 6d d5 79 bd
       -0.17691535 -0.0204879 -0.086314015 -0.060994554
0002b0 42 54 e0 3c 4f df 30 ba ea 54 03 3d 1e 5d 27 bc
       0.027383927 -0.0006747143 0.032063402 -0.010215072
0002c0 d6 2b 81 bd 22 5a 44 be 3d b4 e5 bc 05 62 05 bd
       -0.06307189 -0.19175008 -0.028040046 -0.03256418
0002d0 a6 83 6b be 9f 43 6b 3c 9c 98 80 bb dd 23 fe 3d
       -0.22999439 0.014359384 -0.0039244425 0.12409184
0002e0 ff ed fc bd ef 1f 3f bd fb 45 3e bd 4e b1 aa 3d
       -0.12350082 -0.046661314 -0.046453457 0.083345994
0002f0 17 05 0f bd 30 22 a6 3c 59 10 5b 3c e2 c8 f5 bd
       -0.034916963 0.020279974 0.013370597 -0.12001206
000300 80 d1 99 3a a3 e1 da bc 87 b1 d0 be 2e 38 43 be
       0.001173541 -0.02671892 -0.40760443 -0.190644
000310 63 a9 79 3b bd ee b3 3c 5f a1 8b bc 6c 11 41 be
       0.0038095347 0.021964425 -0.017044721 -0.18854302
000320 3e 7d 2c be 7f 6a ba bd 55 8b cd bd dc 12 fd 3b
       -0.16844651 -0.09102344 -0.10036341 0.0077231955
000330 de d2 c1 3c f6 ef ef bb 93 42 03 bc 8b ff fa 3c
       0.02366012 -0.0073223067 -0.008011478 0.03063943
000340 22 a2 1a bd 82 d1 0f be 33 c8 ab bc 21 d1 95 bc
       -0.03775228 -0.14044765 -0.020969486 -0.018288197
000350 5b 16 67 be 37 0c 14 be cd f0 5a 3c 42 c6 05 bd
       -0.22567122 -0.14457785 0.013363075 -0.032659777
000360 99 72 28 bd e9 0a e2 3b 64 33 9e bd 58 9b f5 3c
       -0.041124914 0.0068982732 -0.07724646 0.0299813
000370 1e 40 ac bc 24 48 a1 3c ea 11 6c 3c fe 52 67 3c
       -0.021026667 0.01968772 0.014408568 0.014118908
000380 ad 8e 21 3d 91 b8 ad bb 07 4d bc 3c e8 b1 16 be
       0.039442707 -0.005301543 0.022985948 -0.14716303
000390 a2 1e e0 3d d1 63 35 3d 2a 72 05 bd 6d 96 71 bd
       0.10943343 0.044284645 -0.03257958 -0.058981348
0003a0 44 b1 c6 bc 8e ff b7 3d 64 fe d1 bc 84 4a 1e be
       -0.024254449 0.0898429 -0.025633998 -0.15458113
0003b0 d8 66 d7 bd c0 86 16 bd b0 2f 11 bc b7 4f ac 3b
       -0.10517663 -0.0367496 -0.008861467 0.005258526
0003c0 96 bc 6c 3c 71 f9 42 be 5d 67 8e bc 01 96 18 3d
       0.014449259 -0.19040467 -0.017383272 0.03725243
0003d0 6a 94 ee bd d1 2d 8d bc 0f 51 cf 3c 65 68 dc bb
       -0.116494015 -0.017233761 0.025307206 -0.006726312
0003e0 c2 e1 e6 3c d3 a3 82 3c 65 4a 5c 3d 73 62 97 bd
       0.028183822 0.015947258 0.053781886 -0.073918246
0003f0 36 0a 76 3b cd f0 06 bf f2 73 44 3d d5 a2 ae bb
       0.0037542707 -0.5271118 0.047962137 -0.0053294697

model.8.bias f4 [16]
000000 7f f9 c8 b7 cd 52 54 38 fc 73 98 36 b4 89 c1 b7
       -2.3958039e-05 5.0621853e-05 4.5434554e-06 -2.3071516e-05
000010 f3 bc 31 37 12 a2 27 b7 32 6c bc 36 14 9f aa 37
       1.0594015e-05 -9.991711e-06 5.615432e-06 2.0339656e-05
000020 07 a0 e8 36 b0 be 8b 37 98 65 e0 36 1b 60 8a 36
       6.9327684e-06 1.6658887e-05 6.6875473e-06 4.1239086e-06
000030 02 43 6c b5 ca fb 01 b7 dd e9 f9 36 ee e0 ff 37
       -8.801436e-07 -7.747623e-06 7.4480035e-06 3.050311e-05

model.9.weight f4 [16]
000000 7a 8c 67 3f fc 38 91 3f 51 cc 7e 3f 29 43 8c 3f
       0.90448725 1.1345515 0.9953051 1.0957996
000010 4a ca 91 3f 3a d3 84 3f 8c bd 9c 3f f7 6f 85 3f
       1.1389859 1.0376961 1.2245345 1.0424794
000020 62 9e 8e 3f a6 9d 74 3f 27 d8 99 3f 1e 7f 82 3f
       1.1142085 0.9555305 1.201909 1.0195043
000030 ce fe 83 3f fc 70 99 3f 4f 52 9f 3f ec c9 8a 3f
       1.0312135 1.1987605 1.2446994 1.0842872

model.9.bias f4 [16]
000000 69 8d 4b 3f 49 4f 18 3f 67 38 3c 3f d5 8f 04 3f
       0.7951265 0.5949598 0.73523563 0.5178197
000010 80 49 16 3f 96 5a 21 3f 33 90 2e 3f a4 78 18 3f
       0.587059 0.6302885 0.6818878 0.59559083
000020 ed 4f 28 3f f9 b3 2c 3f 1a 58 2b 3f 14 46 39 3f
       0.6574696 0.67462116 0.6693131 0.72372556
000030 29 e3 32 3f 07 23 1c 3f ef 0c 1b 3f 98 36 fc 3e
       0.6987787 0.6099095 0.6056661 0.49260402

model.9.running_mean f4 [16]
000000 01 93 30 be 20 7d 9d be 88 7e 67 be bc 97 a7 be
       -0.17243578 -0.30759525 -0.22606862 -0.32732952
000010 ef 73 a8 be c0 11 98 be eb 0e 86 be da 84 3e be
       -0.3290095 -0.29701042 -0.26183257 -0.18605366
000020 02 fd 9f be 57 22 53 be c4 fe 9a be 1a 72 ae be
       -0.31247717 -0.20618568 -0.30272496 -0.34071428
000030 70 a5 0d be b3 35 9c be e2 c7 a3 be 28 8a ae be
       -0.1383264 -0.3050972 -0.31988436 -0.3408978

model.9.running_var f4 [16]
000000 04 f8 ee 3e 95 74 c4 3e 04 d2 d5 3e 41 89 d7 3e
       0.46673596 0.38370195 0.41761792 0.42096904
000010 6e 0f f3 3e 51 f6 a5 3e b0 3e 94 3e 53 41 ae 3e
       0.4747271 0.32414487 0.28954077 0.34034213
000020 50 d6 de 3e c3 31 b9 3e 97 0e ab 3e b0 53 f3 3e
       0.43522882 0.36170778 0.3340957 0.47524786
000030 80 5b 84 3e 96 9a b9 3e 52 c1 b1 3e 12 29 c4 3e
       0.2585106 0.36250752 0.34717804 0.38312584

model.12.weight f4 [1, 16]
000000 85 9d da 3e 93 55 f0 3e f9 da cd 3e 31 22 03 3f
       0.42698303 0.46940288 0.40206125 0.51224047
000010 51 07 f4 3e 1d a8 f2 3e 1f 3b d8 3e 59 25 eb 3e
       0.47661832 0.47393885 0.42232606 0.45926932
000020 d3 9a e5 3e d0 20 f2 3e 6c 81 d8 3e 7d 5b e6 3e
       0.44844684 0.4729066 0.4228624 0.44991675
000030 6c 33 ea 3e d9 62 e6 3e 6d 96 de 3e 98 59 06 3f
       0.45742357 0.4499729 0.4347414 0.5248046
