neuralnet/Hyperparameter sweeps/Hyperparameter sweep round 1/bike_volume_model_net_2layer_lr_0.00002000_batch_32_feat_30.pth (torch, 13942 bytes, 13 tensors)

model.0.weight f4 [32, 30]
0.06703663 -0.13218948 -0.16345584 -0.11704012 -0.009314805 0.14636172 0.03827699 -0.074363925
-0.21608715 0.01926292 -0.18076204 0.15479775 -0.06970789 -0.121150576 -0.066900544 0.013895555
-0.19508807 0.016703509 -0.10852727 -0.091887645 -0.1649901 -0.19631007 -0.22055417 -0.14123875
-0.05013454 -0.044304263 0.08753405 0.17363064 0.15585221 0.069276296 -0.17181487 -0.1476572
0.09877718 0.023614112 -0.07762471 0.08458547 0.081429064 0.13961016 -0.061046477 0.1443943
0.12623367 0.026382897 -0.018487714 -0.07773331 -0.12950571 0.015902298 -0.12699847 0.077210166
0.20922498 -0.0176099 -0.22150278 -0.03678889 0.22097312 -0.08299612 -0.06783131 0.16493876
-0.041839667 0.13418451 0.042812802 -0.05033626 -0.13451666 0.07299027 0.016646426 -0.019933533
-0.06585593 0.23681441 -0.2230584 0.021975478 0.135717 0.017700974 -0.033814397 -0.060159825
0.021527583 0.10957762 0.023765171 -0.030406835 -0.25301355 -0.03120483 -0.040071223 0.013575436
0.0355159 -0.13026275 0.16977277 0.13743438 -0.11091273 0.01813077 0.21430604 0.06316709
-0.1513841 0.007777045 0.05851159 0.06948117 0.085960984 -0.11116659 -0.020789191 -0.025694659
0.058490776 -0.057203263 0.046276182 0.1507139 0.023076216 -0.13951206 -0.06260453 0.08561919
0.14708301 -0.27013952 0.062126372 0.046471883 0.016521111 0.0011372293 -0.022370795 0.0678154
0.11541904 0.05313696 -0.18479073 0.04000267 -0.044541433 -0.08919128 0.14165013 -0.05519871
-0.038392432 0.16264282 0.01446255 -0.21700947 0.019385621 -0.01054567 -0.13361682 -0.074531645
-0.13383217 0.021467872 -0.07416095 -0.10219543 0.03257412 -0.11888497 0.24547686 0.04276192
-0.2398305 0.030362444 0.1059017 0.012662888 0.030659102 -0.17222677 0.06650846 -0.044713773
-0.13076337 0.08191821 0.06710669 0.1408687 -0.0864228 0.04678837 0.04289337 -0.048025098
-0.20065324 -0.043587107 0.14557925 0.008541458 0.13909738 -0.039941844 -0.0098074945 -0.0049380804
0.13138814 0.1284442 0.0009353147 -0.18321879 -0.1486199 -0.1092231 0.14745666 -0.072054915
-0.060298 0.018564235 0.03132173 0.08669627 -0.031844825 0.01014169 0.10119157 -0.041497607
-0.031892132 -0.13160972 0.038784 -0.16644119 -0.10568955 -0.174267 0.056152396 0.0734544
0.038177833 0.10515092 -0.18784054 -0.119418375 0.034383066 0.07824777 0.0791443 -0.034056738
0.05974651 -0.073936604 -0.040822722 -0.21849607 -0.16115823 -0.0777618 0.028628666 -0.11268946
0.119701035 -0.015577271 0.07667174 0.0334608 0.059658118 -0.087808326 0.22076438 0.15613844
0.09511451 0.095901124 0.1486579 0.18650885 -0.023552136 -0.066241525 -0.07560125 0.020258097
-0.0680929 0.08390229 -0.17515902 -0.045842353 0.017587557 0.10554363 -0.009364653 0.029647984
0.09495101 0.14720157 0.06297911 0.02235052 -0.061944403 -0.029527174 0.11074263 -0.010569297
-0.017973028 0.06495967 -0.13927029 0.06914813 0.062793136 0.15946732 -0.41537657 -0.11151522
-0.09961696 -0.084915556 0.008189238 0.054865684 0.022417063 0.008023659 -0.20761165 -0.18318233
0.1678558 -0.0075348886 0.1906262 0.24068362 0.021075837 -0.1752665 -0.19299564 -0.17510717
00000000: 804a 893d ae5c 07be f860 27be bbb2 efbd
00000010: 209d 18bc d9df 153e 55c8 1c3d 1d4c 98bd
00000020: f345 5dbe 45cd 9d3c af19 39be 4d83 1e3e
00000030: 03c3 8ebd cb1d f8bd 2703 89bd 2faa 633c
00000040: 2bc5 47be ccd5 883c 8c43 debd 972f bcbd
00000050: 2af3 28be 8205 49be f4d8 61be e4a0 10be
00000060: e059 4dbd 6378 35bd 0d45 b33d 3bcc 313e
00000070: b997 1f3e bbe0 8d3d 3df0 2fbe 7333 17be
00000080: b14b ca3d 6272 c13c b4f9 9ebd 263b ad3d
00000090: 48c4 a63d f7f5 0e3e df0b 7abd 19dc 133e
000000a0: 6643 013e f220 d83c 8c73 97bc a432 9fbd
000000b0: 259d 04be 8945 823c e30b 02be 5d20 9e3d
000000c0: 133f 563e a342 90bc a0d1 62be f2af 16bd
000000d0: c746 623e dff9 a9bd 24eb 8abd b5e5 283e
000000e0: 1260 2bbd aa67 093e 7a5c 2f3d 652d 4ebd
000000f0: bcbe 09be ec7b 953d 165e 883c a64b a3bc
00000100: 79df 86bd 7a7f 723e 6c69 64be eb05 b43c
00000110: 66f9 0a3e a201 913c f780 0abd 266a 76bd
00000120: 9d5a b03c 3b6a e03d 2daf c23c c117 f9bc
00000130: fe8a 81be 46a1 ffbc b921 24bd 816b 5e3c
00000140: 1f79 113d 9963 05be ead8 2d3e 99bb 0c3e
00000150: 3726 e3bd fb86 943c 0b73 5b3e bf5d 813d
00000160: 6f04 1bbe 95d6 fe3b d9a9 6f3d 254c 8e3d
00000170: 500c b03d 4fab e3bd 184e aabc 9b7d d2bc
00000180: 0694 6f3d f84d 6abd 188c 3d3d bf54 1a3e
00000190: 550a bd3c 40dc 0ebe ce36 80bd 1d59 af3d
000001a0: ee9c 163e ba4f 8abe 3978 7e3d 4d59 3e3d
000001b0: 4857 873c 150f 953a f542 b7bc cde2 8a3d
000001c0: d160 ec3d 24a6 593d c839 3dbe d7d9 233d
000001d0: 1471 36bd eba9 b6bd bb0c 113e 0b18 62bd
000001e0: 6241 1dbd d78b 263e 55f4 6c3c bb37 5ebe
000001f0: 98ce 9e3c bfc7 2cbc d9d2 08be 0ca4 98bd
00000200: 4d0b 09be 64dd af3c b2e1 97bd d64b d1bd
00000210: 716c 053d f779 f3bd 495e 7b3e 1f27 2f3d
00000220: 2096 75be a9ba f83c fee2 d83d 0078 4f3c
00000230: cc28 fb3c 375c 30be 9635 883d ca25 37bd
00000240: d5e6 05be bcc4 a73d 3b6f 893d e23f 103e
00000250: 70fe b0bd 29a5 3f3d f5b0 2f3d f7b5 44bd
00000260: 0b78 4dbe 6588 32bd ba12 153e 79f1 0b3c
00000270: 8b6f 0e3e 0f9a 23bd 9daf 20bc 9fcf a1bb
00000280: 9d8a 063e e086 033e e82f 753a b59d 3bbe
00000290: d12f 18be 5cb0 dfbd e1fe 163e 8791 93bd
000002a0: 09fb 76bd 0614 983c 374b 003d d08d b13d
000002b0: b86f 02bd 5529 263c 873d cf3d 65f9 29bd
000002c0: 53a1 02bd b3c4 06be f9db 1e3d 8f6f 2abe
000002d0: c373 d8bd 0c73 32be 0e00 663d 436f 963d
000002e0: 5c60 1c3d 5e59 d73d 4559 40be 9f91 f4bd
000002f0: 42d5 0c3d 5e40 a03d 6816 a23d 147f 0bbd
00000300: c2b8 743d 136c 97bd ba35 27bd 6fbd 5fbe
00000310: aa06 25be 9441 9fbd aa86 ea3c bbc9 e6bd
00000320: d125 f53d cf37 7fbc 1306 9d3d 310e 093d
00000330: 125c 743d dad4 b3bd 0f10 623e c1e2 1f3e
00000340: 65cb c23d cf67 c43d c739 183e 2dfc 3e3e
00000350: 69f0 c0bc a3a9 87bd d4d4 9abd 4ff4 a53c
00000360: 4a74 8bbd f7d4 ab3d e35c 33be 31c5 3bbd
00000370: c813 903c 4227 d83d 346e 19bc 54e0 f23c
00000380: ad75 c23d 02bc 163e 31fb 803d 7018 b73c
00000390: 6ab9 7dbd f9e2 f1bc 08cd e23d d82a 2dbc
000003a0: 2c3c 93bc 9309 853d df9c 0ebe 899d 8d3d
000003b0: b099 803d 674b 233e 3dac d4be 1762 e4bd
000003c0: fa03 ccbd 35e8 adbd 272c 063c d7ba 603d
000003d0: fda3 b73c aa75 033c 2698 54be 2694 3bbe
000003e0: 64e2 2b3e 3ae7 f6bb 8433 433e c475 763e
000003f0: 3ca7 ac3c 1079 33be a6a0 45be 4b4f 33be

model.0.bias f4 [32]
-0.060262896 -0.099990726 -0.14928532 0.032818772 0.061691523 0.12976153 -0.1544658 0.13672686
-0.09980009 0.005962533 0.12393614 0.03347053 -0.082286485 -0.14877555 -0.061058957 -0.0895637
-0.087230824 -0.044850577 -0.12374212 -0.17784934 0.17746542 -0.12415404 0.08984194 0.03816799
0.03403629 0.023951529 -0.14964889 -0.19100495 -0.08516267 -0.13915063 -0.10585915 -0.06716524
00000000: 3ad6 76bd f0c7 ccbd 40de 18be fa6c 063d
00000010: 40b0 7c3d 35e0 043e 482c 1ebe 2002 0c3e
00000020: fd63 ccbd 5a61 c33b 3bd2 fd3d 6518 093d
00000030: d185 a8bd 9e58 18be f518 7abd 2c6d b7bd
00000040: 13a6 b2bd 3db5 37bd 826c fdbd 231e 36be
00000050: 7fb9 353e 7944 febd 0dff b73d 0a56 1c3d
00000060: a369 0b3d ff35 c43c 8f3d 19be cd96 43be
00000070: c469 aebd 817d 0ebe afcc d8bd ee8d 89bd

model.1.weight f4 [32]
0.91874045 0.86962444 1.0142772 0.9842765 0.95857453 0.8704944 0.88390714 0.7838238
0.9802491 0.8706961 1.073728 1.0659772 0.9747565 0.9627449 0.95880073 0.92857504
1.046146 1.0958314 0.99952614 0.8439253 0.95840657 0.9887201 0.8530723 0.8484953
0.9748627 0.8919732 0.9501156 0.8830235 0.9353804 0.9927066 0.950666 0.9034137
00000000: 9332 6b3f b59f 5e3f d6d3 813f 8bf9 7b3f
00000010: 2465 753f b9d8 5e3f bd47 623f ada8 483f
00000020: 9bf1 7a3f f1e5 5e3f eb6f 893f f171 883f
00000030: a489 793f 7376 763f f773 753f 18b7 6d3f
00000040: 1de8 853f 3444 8c3f f2e0 7f3f 7d0b 583f
00000050: 225a 753f c31c 7d3f f262 5a3f fd36 593f
00000060: 9a90 793f 5b58 643f c73a 733f d40d 623f
00000070: 1775 6f3f 0522 7e3f d95e 733f 1f46 673f

model.1.bias f4 [32]
-0.16816832 -0.20860189 -0.3870028 -0.103702165 -0.38264555 -0.17061551 -0.19512373 -0.6385048
-0.15611823 -0.18280989 0.07161044 -0.1537388 -0.1451788 -0.028788038 -0.18115577 -0.42322272
-0.27037254 -0.058378953 -0.37522873 -0.45136657 -0.47098273 -0.40626773 -0.104307435 -0.10394631
-0.35875836 -0.0002915966 -0.2426672 -0.3618763 -0.29718405 -0.051663574 -0.47417715 0.18535645
00000000: 5134 2cbe bc9b 55be 3b25 c6be cd61 d4bd
00000010: 1eea c3be d5b5 2ebe 84ce 47be 0d75 23bf
00000020: 75dd 1fbe 8432 3bbe 7fa8 923d b46d 1dbe
00000030: c0a9 14be e4d4 ebbc e680 39be a6b0 d8be
00000040: 456e 8abe c51e 6fbd fb1d c0be 8519 e7be
00000050: a624 f1be 5302 d0be 239f d5bd cee1 d4bd
00000060: 2daf b7be 6fe1 98b9 c07d 78be da47 b9be
00000070: 8228 98be 2f9d 53bd 59c7 f2be 15ce 3d3e

model.1.running_mean f4 [32]
-0.41399685 -0.023545777 -0.17158681 0.047850356 -0.14027862 -0.2709363 -0.3210715 -0.34331626
-0.032088004 -0.29970536 0.36311662 -0.030738499 -0.27828625 0.00851308 0.53960794 -0.8347124
-0.7790068 -0.6189019 -0.36198893 -0.48632288 -0.07248407 -0.7596786 0.448872 0.15461443
-0.4565529 0.4726008 -0.83680415 -0.50529337 -0.54642636 0.38317132 -0.51126057 0.8628371
00000000: 65f7 d3be 13e3 c0bc 74b4 2fbe bcfe 433d
00000010: 33a5 0fbe 2ab8 8abe 7c63 a4be 26c7 afbe
00000020: b66e 03bd fb72 99be 6cea b93e 4ecf fbbc
00000030: 897b 8ebe 727a 0b3c bf23 0a3f b6af 55bf
00000040: fd6c 47bf 5b70 1ebf 9d56 b9be 50ff f8be
00000050: 8772 94bd 4c7a 42bf 8dd2 e53e 3f53 1e3e
00000060: 4dc1 e9be bbf8 f13e cc38 56bf e85a 01bf
00000070: 99e2 0bbf 082f c43e f9e1 02bf e4e2 5c3f

model.1.running_var f4 [32]
0.24467857 0.2700011 0.19038537 0.08090216 0.29519394 0.6274072 0.16282795 0.5184267
0.15972406 0.28357542 0.3483706 0.2392143 0.14429556 0.4363461 0.60131764 0.7361084
0.26143467 0.18969855 0.115899175 0.19130522 0.3315209 0.63532704 0.54127306 0.21665543
0.33589235 1.0578113 0.9591753 0.5076278 0.41013372 0.6489644 0.25788316 1.4813325
00000000: 058d 7a3e 963d 8a3e 62f4 423e 08b0 a53d
00000010: a923 973e c29d 203f 5fbc 263e 9db7 043f
00000020: b48e 233e cc30 913e a25d b23e 98f4 743e
00000030: 37c2 133e c268 df3e f4ef 193f 9a71 3c3f
00000040: c4da 853e 5640 423e 8c5c ed3d 84e5 433e
00000050: 1bbd a93e cba4 223f df90 0a3f ecda 5d3e
00000060: 15fa ab3e 5c66 873f 838c 753f e5f3 013f
00000070: 0cfd d13e 8822 263f 4309 843e 4e9c bd3f

model.4.weight f4 [16, 32]
-0.010509596 -0.025329819 -0.020670744 -0.089060016 0.055928536 -0.19776587 0.013318851 0.060928866
0.009815693 -0.10367599 0.025834732 -0.040986743 -0.030071853 0.022693671 -0.017015383 -0.28877026
0.018279994 0.07031819 0.08193411 -0.13587302 0.10852088 -0.41411963 0.10280045 0.010384684
0.036584157 0.073423676 -0.028329998 -0.011251288 0.203177 0.0288782 -0.0094457725 0.07872582
0.009559507 -0.14435393 0.017021535 0.31096396 0.14812262 0.038177516 0.11628876 -0.086755484
0.026259936 0.019404283 -0.12612063 0.012218706 0.092553206 -0.19776155 -0.23635976 -0.040336225
-0.010448086 -0.03681258 -0.058163498 -0.022862388 -0.12521803 0.065919645 -0.2502754 -0.13016807
-0.22270046 0.028910294 0.027170008 0.025383905 -0.046759855 -0.088997744 -0.121012874 0.009604645
-0.08379052 -0.06802807 -0.04055473 -0.041369796 0.06732796 -0.3357023 -0.013937977 -0.110260755
-0.036363948 -0.07038634 0.03491944 -0.20324183 0.030700661 0.08171819 -0.019355305 -0.21749663
0.056377336 -0.04427037 0.06746431 -0.036075734 0.10860669 -0.3084168 0.07118771 -0.07293821
0.08636107 -0.036285605 -0.051570173 -0.05421538 0.18064976 -0.03364493 -0.11291735 0.009955353
-0.038497407 0.096657686 -0.080560334 -0.102668904 -0.19912033 0.077550516 0.0623154 -0.061662458
-0.04466492 -0.11014593 0.09642915 0.0808437 0.105258495 0.0045421156 -0.08116829 0.08768121
-0.47955373 -0.02871149 -0.22250414 -0.0908142 -0.19074248 0.010999454 0.0780719 0.0012691106
-0.18015525 -0.05057725 0.0340141 -0.016112054 -0.016014865 -0.023119131 -0.14505391 -0.016851405
-0.1566297 0.10264265 -0.34080756 -0.058365516 -0.07767977 -0.11686075 -0.07319099 -0.12514795
-0.044983946 -0.11948445 0.14354597 -0.08933257 -0.10193299 0.0324472 0.05693994 -0.058925424
-0.012918456 -0.008364906 0.0117080305 0.06329691 0.11135258 -0.03310173 0.049604055 0.0730764
-0.014228597 0.16066822 -0.1332605 -0.15501785 0.09362426 0.054018907 0.16113815 0.08677348
0.013385152 -0.20527022 0.10260334 -0.045703556 0.08202607 -0.05561797 0.010262322 -0.11042809
0.13963722 0.08664377 0.11482914 0.104894936 0.018376602 -0.15267329 -0.17685278 -0.021645075
0.025859421 0.16234967 -0.025985027 -0.11719132 -0.1811967 -0.07215666 -0.032675978 -0.06364322
-0.06467843 -0.03871766 0.017760474 -0.03711034 -0.076410085 -0.2809264 -0.09473024 -0.2010429
-0.10171018 0.12651591 -0.010596138 0.059720844 -0.30410212 0.07051433 0.09572766 -0.112675205
0.054018788 -0.04795533 0.029344702 -0.017246759 -0.015213432 -0.13108316 -0.0005885886 -0.0022009911
-0.07900036 0.043222528 -0.18730004 -0.034547716 -0.114964664 0.018974595 -0.11825937 0.013686912
-0.029826537 -0.18365748 -0.015891211 -0.062372763 -0.28527418 0.048108656 -0.023712307 -0.022111135
0.042612206 -0.42137596 0.04343801 -0.021910751 -0.011608783 -0.068990774 0.06118354 0.029330136
0.11331356 0.09416243 -0.078052446 0.05869119 0.027049191 0.091662064 0.044345263 0.05495578
-0.03389402 -0.05643806 0.074379705 -0.08881347 -0.14502099 -0.0005191221 0.025570858 -0.07380533
-0.29790464 -0.028604845 -0.0071827387 0.09504206 0.021701999 -0.0659864 -0.18415798 0.009451112
00000000: 7130 2cbc 7b80 cfbc b155 a9bc 1965 b6bd
00000010: 5215 653d 2383 4abe 4f37 5a3c 8c90 793d
00000020: 00d2 203c 1454 d4bd 5ca3 d33c b7e1 27bd
00000030: 3f59 f6bc 14e8 b93c d863 8bbc b2d9 93be
00000040: edbf 953c fc02 903d 12cd a73d 4c22 0bbe
00000050: 3240 de3d 7d07 d4be 0b89 d23d 8624 2a3c
00000060: 45d9 153d 275f 963d 5014 e8bc 5257 38bc
00000070: a20d 503e fa91 ec3c 71c2 1abc 013b a13d
00000080: 7a9f 1c3c 84d1 13be bf70 8b3c ab36 9f3e
00000090: 75ad 173e 0760 1c3d cd28 ee3d dcac b1bd
000000a0: 141f d73c bbf5 9e3c c425 01be f830 483c
000000b0: 898c bd3d 0182 4abe 4b08 72be 9937 25bd
000000c0: 732e 2bbc cac8 16bd d93c 6ebd e749 bbbc
000000d0: 2839 00be e100 873d 1924 80be c74a 05be
000000e0: 970b 64be 48d5 ec3c a393 de3c e8f1 cf3c
000000f0: 4387 3fbd 7344 b6bd 99d5 f7bd cd5c 1d3c
00000100: 5d9a abbd 4d52 8bbd b71c 26bd 6073 29bd
00000110: 3ee3 893d 2ce1 abbe 1d5c 64bc 64d0 e1bd
00000120: 5df2 14bd b726 90bd b007 0f3d a01e 50be
00000130: f47f fb3c de5b a73d 048f 9ebc 70b7 5ebe
00000140: eceb 663d d954 35bd ba2a 8a3d 26c4 13bd
00000150: 2f6d de3d cfe8 9dbe ddca 913d a160 95bd
00000160: 13de b03d 37a0 14bd 3f3b 53bd f210 5ebd
00000170: 40fc 383e 44cf 09bd 3641 e7bd c71b 233c
00000180: 75af 1dbd 77f4 c53d d1fc a4bd 1344 d2bd
00000190: 33e6 4bbe ced2 9e3d 6f3e 7f3d c691 7cbd
000001a0: 90f2 36bd 3094 e1bd a57c c53d 6291 a53d
000001b0: c491 d73d 07d6 943b 8f3b a6bd 3592 b33d
000001c0: 1188 f5be 5c34 ebbc 20d8 63be ccfc b9bd
000001d0: ff51 43be 0e37 343c 29e4 9f3d 4958 a63a
000001e0: 9e7a 38be 172a 4fbd 5e52 0b3d 6dfd 83bc
000001f0: 9b31 83bc 5564 bdbc 0389 14be f50b 8abc
00000200: 8963 20be 4f36 d23d 547e aebe ae10 6fbd
00000210: 9216 9fbd b054 efbd 28e5 95bd c926 00be
00000220: 1641 38bd 43b4 f4bd b7fd 123e fff3 b6bd
00000230: 3ec2 d0bd 5be7 043d db39 693d c95b 71bd
00000240: efa7 53bc f50c 09bc 0ad3 3f3c cfa1 813d
00000250: d20c e43d ae95 07bd 9f2d 4b3d 14a9 953d
00000260: 101f 69bc 3686 243e 7175 08be 00bd 1ebe
00000270: 13be bf3d ee42 5d3d 6601 253e 4bb6 b13d
00000280: 664d 5b3c 5b32 52be b321 d23d a733 3bbd
00000290: 49fd a73d abcf 63bd 4c23 283c 1f28 e2bd
000002a0: 0ffd 0e3e 4a72 b13d 8a2b eb3d 28d3 d63d
000002b0: 878a 963c 6356 1cbe e518 35be 0351 b1bc
000002c0: 23d7 d33c fe3e 263e 8dde d4bc 0102 f0bd
000002d0: a18b 39be dfc6 93bd 3fd7 05bd 6057 82bd
000002e0: 2076 84bd 6996 1ebd 6a7e 913c 0301 18bd
000002f0: e47c 9cbd 96d5 8fbe ee01 c2bd 31de 4dbe
00000300: 6d4d d0bd 638d 013e 6d9b 2dbc d89d 743d
00000310: 46b3 9bbe d169 903d dd0c c43d 42c2 e6bd
00000320: ce42 5d3d cf6c 44bd 4d64 f03c 1349 8dbc
00000330: c241 79bc aa3a 06be 834b 1aba 813e 10bb
00000340: f1ca a1bd 1b0a 313d 95cb 3fbe e881 0dbd
00000350: 9872 ebbd 9c70 9b3c f831 f2bd 123f 603c
00000360: c856 f4bc b510 3cbe 492e 82bc 957a 7fbd
00000370: 750f 92be 950d 453d 5040 c2bc 6922 b5bc
00000380: 238a 2e3d 97be d7be 0eec 313d 2d7e b3bc
00000390: c432 3ebc 094b 8dbd 979b 7a3d c145 f03c
000003a0: f110 e83d 3bd8 c03d f6d9 9fbd 2c66 703d
000003b0: 4496 dd3c 52b9 bb3d 61a3 353d 5019 613d
000003c0: 75d4 0abd 982b 67bd 6354 983d d6e3 b5bd
000003d0: 6280 14be b215 08ba fa79 d13c 4027 97bd
000003e0: f586 98be b554 eabc 2e5d ebbb 69a5 c23d
000003f0: 64c8 b13c e123 87bd e993 3cbe d6d8 1a3c

model.4.bias f4 [16]
-0.102151975 0.06862227 -0.009647274 -0.018887945 0.08089342 0.12464763 -0.14583924 0.09786816
-0.17759581 -0.04915326 0.027675275 0.13015129 0.03068998 -0.029899588 0.08285167 0.030761382
00000000: 0e35 d1bd d589 8c3d 9a0f 1ebc e4ba 9abc
00000010: 73ab a53d 4247 ff3d e256 15be 1a6f c83d
00000020: addb 35be ee54 49bd 42b7 e23c 6146 053e
00000030: 8e69 fb3c fbef f4bc 23ae a93d 4bff fb3c

model.5.weight f4 [16]
1.3568304 1.31245 1.2310714 1.2851456 1.289477 1.3766872 1.4521081 1.3325527
1.3266792 1.2907382 1.3279835 1.315857 1.3891928 1.3029872 1.3627484 1.3592893
00000000: 9eac ad3f 5dfe a73f bf93 9d3f a77f a43f
00000010: 950d a53f 4937 b03f aede b93f 1691 aa3f
00000020: a0d0 a93f e936 a53f 5dfb a93f 016e a83f
00000030: 12d1 b13f 49c8 a63f 8a6e ae3f 31fd ad3f

model.5.bias f4 [16]
0.6675514 0.42141238 0.67123586 0.66425896 0.46006635 0.63112 0.7034015 0.48644748
0.51131004 0.5550898 0.6721064 0.6836036 0.7434383 0.5863343 0.63756204 0.59761196
00000000: a6e4 2a3f 5dc3 d73e 1dd6 2b3f e00c 2a3f
00000010: d18d eb3e 1591 213f 1f12 343f a50f f93e
00000020: 37e5 023f 5d1a 0e3f 2a0f 2c3f a500 2f3f
00000030: f951 3e3f 011a 163f 4437 233f 19fd 183f

model.5.running_mean f4 [16]
-0.20398623 -0.19738705 -0.37461537 -0.38812608 -0.031988136 -0.20097335 -0.44919777 -0.05162417
-0.3279655 -0.20777997 -0.085147515 -0.21023491 -0.23098786 -0.25842732 -0.25108874 -0.40914798
00000000: c4e1 50be d51f 4abe 96cd bfbe 76b8 c6be
00000010: fe05 03bd f5cb 4dbe 40fd e5be de73 53bd
00000020: 18eb a7be 46c4 54be d261 aebd d247 57be
00000030: 1588 6cbe 9650 84be b48e 80be d87b d1be

model.5.running_var f4 [16]
0.22395936 0.34433493 0.26251206 0.35173905 0.36633086 0.31425226 0.19629218 0.20883596
0.3530342 0.31218803 0.2785174 0.2536491 0.0732511 0.11651474 0.22056636 0.20517783
00000000: 9a55 653e ab4c b03e fb67 863e 2417 b43e
00000010: b88f bb3e ace5 a03e d100 493e 18d9 553e
00000020: e6c0 b43e 1cd7 9f3e d599 8e3e 4bde 813e
00000030: ac04 963d 489f ee3d 26dc 613e 231a 523e

model.8.weight f4 [1, 16]
0.49317807 0.4724597 0.5381403 0.56056076 0.5077649 0.45292625 0.5223678 0.5013698
0.46954325 0.5682061 0.48859832 0.51172984 0.5121591 0.5051646 0.4976286 0.56040204
00000000: d681 fc3e 3de6 f13e 90c3 093f e980 0f3f
00000010: e1fc 013f f3e5 e73e e5b9 053f c559 003f
00000020: f967 f03e f475 113f 8f29 fa3e ba00 033f
00000030: dc1c 033f 7852 013f 2dc9 fe3e 8276 0f3f
