neuralnet/Hyperparameter sweeps/Hyperparameter sweep round 1/bike_volume_model_net_3layer_lr_0.00010000_batch_32_feat_25.pth (torch, 28237 bytes, 19 tensors)

model.0.weight f4 [64, 25]
000000 5c 3a d9 3d ac 18 e9 3d 5e 00 9e bd 47 7d 77 3d
       0.10606834 0.11381659 -0.07714914 0.06042221
000010 d4 66 8f bd 6c 56 67 be 96 37 75 bc df f1 45 be
       -0.07002035 -0.22591561 -0.014966866 -0.19330548
000020 7b be f1 3d f4 34 63 3e a0 ed 3d bd 95 64 46 3d
       0.118039094 0.22188169 -0.046369195 0.048435766
000030 aa da a4 3d af dc a2 3d 7f 87 1f 3d fb 49 88 bd
       0.08049519 0.07952248 0.03894758 -0.06654736
000040 33 8e 78 be f7 51 90 3d 92 5b 40 3e 20 57 f3 bd
       -0.24272995 0.070468836 0.18784931 -0.11881852
000050 bc c3 c7 bd 57 eb 21 3e f8 dc 6a bd ac f6 07 3e
       -0.0975413 0.15812431 -0.05733964 0.13277692
000060 27 40 da 3d b5 89 55 be b9 b8 b5 3c 58 cf 80 bd
       0.10656767 -0.20853312 0.02218281 -0.06289548
000070 fc b0 ae 3e a8 fb fc bd 61 fb c7 3d e0 23 a2 bd
       0.34119403 -0.12352687 0.097647436 -0.07916999
000080 1e 4c c5 3c 41 55 07 3e c0 d8 3e 3c 79 b9 7d 3d
       0.024084147 0.13216116 0.011648357 0.06194446
000090 40 bc 22 be 00 47 d5 3d 09 db 12 be 54 06 77 3d
       -0.15892124 0.10413933 -0.14341368 0.06030877
0000a0 2a f3 b7 3a 6f 65 1a be c4 67 d1 3d 79 f1 e6 3d
       0.001403426 -0.15077756 0.1022487 0.11276526
0000b0 98 a7 db 3c 36 10 9f 3d 83 83 37 3e 8b f9 24 be
       0.026813313 0.07766764 0.17921261 -0.16110818
0000c0 5d 20 06 3e 5d fb 80 3d f6 28 95 bd 23 ae 47 be
       0.13098283 0.06297944 -0.07283203 -0.19500022
0000d0 51 83 5c 3e 89 73 0d 3e c8 dd ee 3d 81 f0 ca bd
       0.21534468 0.13813604 0.11663395 -0.09909154
0000e0 3f 3f 5b 3a 78 2f 9c 3d bc e4 8e bd 76 50 76 3c
       0.00083636114 0.076262414 -0.06977221 0.015033832
0000f0 c9 90 41 be 42 ce b4 bb b8 0b 0f bd 4b 27 e9 3b
       -0.18902887 -0.005517752 -0.034923285 0.00711528
000100 c5 d6 d8 3d 59 b5 e6 bc ba 5f ae bd ff 34 89 3e
       0.10587839 -0.028162645 -0.08514352 0.26798245
000110 15 4f 4f 3d db b6 b1 bd 5e c7 a4 bb 5b ab 30 3d
       0.050612528 -0.08677455 -0.0050286492 0.043132167
000120 e4 d0 22 bd 2d 6a 36 3e d5 9b 3e bd 0a d4 96 3e
       -0.039749995 0.1781394 -0.04653533 0.29458648
000130 01 e8 8a 3d 9c 26 62 bd 03 3a 71 3c 9b 7a 53 3e
       0.067825325 -0.055212602 0.014723304 0.20652239
000140 a5 88 86 3e 5d e9 dd bc 71 4c 63 bb 12 01 91 3c
       0.26276127 -0.027088815 -0.0034683014 0.017700706
000150 71 49 10 be 68 f1 03 3e 5e e7 a7 3b 4a 9f 2d bc
       -0.14090516 0.12885058 0.0051240167 -0.0105970595
000160 26 11 37 3c 61 40 b8 bb fd 55 8e 3d 39 37 c2 3b
       0.011173522 -0.005622909 0.06949995 0.005926993
000170 5d 41 8a be 0f f5 00 3e a8 72 ed bc 16 ff 1b 3e
       -0.27002993 0.12593482 -0.028985336 0.15234026
000180 bd 24 79 3c 3a 26 9b 3d 42 8e 3d be 5d 11 c6 3c
       0.015206513 0.075756505 -0.18511298 0.024178201
000190 97 c7 37 be 8d cd 53 bd b3 6f 4c 3e ee 89 d4 3c
       -0.17947231 -0.0517097 0.19964485 0.025944676
0001a0 74 08 2d be 53 d0 ec 3c 87 f6 08 3e dd 6e d0 3d
       -0.16897756 0.02890793 0.13375293 0.101773955
0001b0 0b f6 44 bd 0a c0 c2 bd 01 f0 f6 bd f9 3d 4c be
       -0.048086207 -0.09509285 -0.12057496 -0.19945516
0001c0 70 70 b1 bd d6 df 0b 3e 9b e6 af 3d 5b d6 9e 3d
       -0.08664024 0.13659605 0.085889064 0.07755729
0001d0 10 89 73 3d 63 8f 0c be 9a 24 48 3e 4f 37 ba 3d
       0.059456885 -0.13726573 0.19545212 0.090925805
0001e0 ad 7d 80 bc d4 73 ad 3d f6 24 f6 3d f8 5e d2 3c
       -0.015684927 0.08469358 0.120187685 0.02568005
0001f0 50 8c bf 3d 89 70 c3 bd 54 6f 08 3e d6 a4 16 be
       0.09352934 -0.09542949 0.13323718 -0.14711317
000200 b6 81 09 be b3 6c 1a be 85 bd b0 bc 3b 42 dc 3b
       -0.13428387 -0.15080528 -0.021574745 0.0067217625
000210 fc cc 1c 3d 93 9c 06 3d 83 31 20 3e 43 43 09 3d
       0.038281426 0.032864165 0.15643887 0.03351141
000220 4c 9d e3 3d 26 d0 40 bc 23 45 1b be 6f d4 c5 be
       0.111139864 -0.011768376 -0.15163092 -0.38638636
000230 a3 1a 02 3e b0 84 b1 3d ca 53 f1 3c 17 cb ba bd
       0.12705474 0.08667886 0.029458899 -0.091207676
000240 6e f3 ad 3c 28 ae 73 3c 49 f9 ee bd 23 19 9e 3e
       0.02123424 0.014873065 -0.11668641 0.30878553
000250 aa 09 58 bc 25 91 dc 3d c1 0d c3 bd 5b 16 7e bd
       -0.013185898 0.107698716 -0.09524108 -0.06203304
000260 49 42 d5 bd e4 7e b5 3e c3 a2 41 bd 28 9f 29 bd
       -0.104130335 0.35448372 -0.047274362 -0.04141155
000270 b1 9c 81 bd 4c 46 c3 bc 59 52 bf 3d ad a2 27 3d
       -0.06328715 -0.023837231 0.093418784 0.040926624
000280 99 be 3b 3e 35 e8 3c be 9a 7f 14 3d 52 ff 48 be
       0.18334426 -0.18447955 0.036254503 -0.19628647
000290 52 bf c2 bb 07 7c 84 3c e8 d5 5a be 5f e5 b1 3c
       -0.0059432173 0.016172422 -0.21370661 0.021715818
0002a0 08 8f 94 3e 25 92 cf bb 29 98 58 3d fb 87 87 3e
       0.29015374 -0.0063345605 0.052879486 0.26470932
0002b0 a3 11 6d bd 66 83 83 3d 97 71 a2 3d fc a3 5b 3e
       -0.057878148 0.06421547 0.07931822 0.21449274
0002c0 48 37 58 3e 98 bd e6 bd c7 b1 7f 3c ae e8 29 3e
       0.21114838 -0.11266631 0.01560635 0.16592667
0002d0 79 27 e8 bd ea 8e 0d 3e d3 22 8d bc 98 93 f6 bd
       -0.11335654 0.13824049 -0.01722852 -0.1203987
0002e0 a2 29 70 be ac 55 8b 3e b5 1c 2e 3e 42 d9 70 bd
       -0.23453382 0.272138 0.17003138 -0.058800943
0002f0 fe 9f 49 3d 96 49 92 bd 9c ac c1 bd 47 7e 33 bd
       0.049224846 -0.07142942 -0.09456751 -0.0438216
000300 f5 6e 21 be 04 ee 50 3c 84 8b cc 3d dc 44 9f bd
       -0.15764983 0.01275206 0.09987548 -0.07776806
000310 6e 0e 24 3e d3 78 10 bc 50 c2 ee bd b5 e4 68 bd
       0.1602113 -0.008817869 -0.11658156 -0.056858737
000320 e9 f6 a9 be 3e 65 6a bd aa ee 74 3e be d6 57 3c
       -0.3319619 -0.05722546 0.23919168 0.013173757
000330 60 06 14 bd 00 9a 5f 3d 9c cc 10 3e 74 2b 29 3e
       -0.036138892 0.054590225 0.14140552 0.16520482
000340 b5 92 3d be 5e 81 fc bd 2f 20 d2 bd 4a a1 ca bd
       -0.18512996 -0.12329362 -0.10260045 -0.09894045
000350 41 5e 17 be 7c aa 86 bd 2d 89 bb bb 81 72 6a 3d
       -0.14782049 -0.06575486 -0.0057231397 0.057238106
000360 67 86 c6 3d c0 e9 50 bd 13 5e 49 3d 3a ed 34 3e
       0.09693604 -0.05100417 0.04916198 0.1766862
000370 fd 2e a0 bc fd 2e d1 3d b8 f8 8c bd e2 64 e6 3c
       -0.019553656 0.102140404 -0.06883377 0.028124277
000380 6f a9 67 bd 50 ed d8 3c ed 51 e8 3d 27 b0 f9 bd
       -0.05655807 0.026480347 0.11343751 -0.121918015
000390 76 63 b8 3b 9c 57 2e be 43 9d 59 bd 33 3f ac bc
       0.005627091 -0.17025608 -0.053128492 -0.02102623
0003a0 43 1e 3d 3e 7b 74 38 3c 60 b0 8f bc 37 ff c1 bd
       0.18468575 0.01125824 -0.017540157 -0.094725065
0003b0 73 a4 92 3d 94 28 65 3d 15 a1 89 3d 69 2f 3b bd
       0.071602724 0.0559469 0.06720177 -0.04569951
0003c0 da 3b ba 3d a1 a1 4b 3e 22 f3 18 3e c3 84 18 3d
       0.09093447 0.19885875 0.14936498 0.037235986
0003d0 e9 f4 35 bc 6c a8 ce bb b6 9b 07 be 45 cd 7e be
       -0.011105754 -0.0063066985 -0.13242993 -0.24882992
0003e0 49 b6 5b be e0 4e f4 bd 39 69 3e 3e 14 ed 1f 3c
       -0.21456255 -0.11929107 0.18594827 0.009761114
0003f0 e8 d9 dd be 97 4b de bd 01 fa a0 3d 71 25 c5 3c
       -0.43330312 -0.10854261 0.078601845 0.024065705

model.0.bias f4 [64]
000000 64 e5 06 be a1 b6 d2 3d 40 22 01 3e f4 21 0c 3e
       -0.13173443 0.1028874 0.12610722 0.13684827
000010 27 0e b9 bd 0c 81 08 be 5c 3b d2 3d 04 c1 92 bc
       -0.090359025 -0.13330477 0.10265228 -0.017914303
000020 10 6a 67 3d 1a 33 ba bd a8 22 41 be ec 02 57 bd
       0.056497633 -0.09091778 -0.18860877 -0.05249302
000030 4a de de bd a6 07 64 bd 95 ab f9 3d 60 03 01 be
       -0.10882242 -0.055671357 0.1219093 -0.12598944
000040 4c f6 b5 3d aa 59 0a bd 49 15 d4 3c 81 74 cd 3b
       0.08884868 -0.033776917 0.025889056 0.006269992
000050 e1 b3 43 3e 6d d0 c9 bd 7c e7 c6 bd 2e d6 1a 3e
       0.19111587 -0.09854207 -0.09712121 0.15120766
000060 c8 48 24 3d e8 a1 7b 3d 34 49 16 3e 0a a9 67 3c
       0.040108472 0.061433703 0.14676362 0.014139423
000070 ef b3 c3 bb 33 fe 83 bd 16 ca 18 be 58 40 da bd
       -0.0059723775 -0.06444969 -0.1492084 -0.10656804
000080 a3 89 01 bd e6 1c f9 bd c0 9f 6a bd 62 22 b0 bc
       -0.0316254 -0.12163715 -0.057281256 -0.02150077
000090 c9 93 52 3e d0 c4 28 3d b7 7e 9f bd 0a f2 54 bd
       0.20564188 0.04120332 -0.07787841 -0.05198864
0000a0 c7 10 57 be 3c 23 b8 3d 70 39 d4 3d 3d 63 26 be
       -0.21002494 0.089910954 0.10362518 -0.16248794
0000b0 ce 2e 2c be 5b e3 7e bd a2 55 3e bc d2 fb 3d 3e
       -0.1681473 -0.06222854 -0.011617096 0.18553093
0000c0 c9 af 09 bd cf 01 96 3c cb 15 01 bc 71 d1 9d ba
       -0.033614907 0.01831141 -0.007878731 -0.0012040568
0000d0 aa 16 31 3d 80 23 93 bc 93 47 88 bd 22 7b 0f 3e
       0.043234505 -0.017961264 -0.06654277 0.14011815
0000e0 a7 c6 7f bd a9 5f d8 3d 8d d0 0f 3e bf e2 35 be
       -0.06244531 0.10565121 0.140444 -0.17762278
0000f0 fc 74 0d 3e a5 72 01 3e d7 88 f9 3d c0 dd e0 3d
       0.13814157 0.1264139 0.12184303 0.109797955

model.1.weight f4 [64]
000000 69 6c 64 3f 00 1e 61 3f b1 e5 7e 3f 8c ba 55 3f
       0.8922792 0.879364 0.9956923 0.8348777
000010 77 09 68 3f 39 4f 68 3f 97 75 5c 3f 41 23 78 3f
       0.9063944 0.90745884 0.8611693 0.96928793
000020 ee 19 74 3f b7 80 73 3f 60 98 5b 3f ea f0 66 3f
       0.95352066 0.9511828 0.8577938 0.90211356
000030 6b ef 75 3f a3 0a 59 3f 72 a3 6e 3f 1e 73 6e 3f
       0.9606845 0.84781855 0.9321815 0.93144405
000040 9e f6 6b 3f ee 86 50 3f c2 2c 63 3f 26 29 61 3f
       0.9217318 0.81455886 0.8874017 0.8795341
000050 5a e7 66 3f be f6 75 3f f2 a6 68 3f b4 eb 6c 3f
       0.90196764 0.96079624 0.9087974 0.92547154
000060 53 d4 49 3f 6d d9 6a 3f 55 09 55 3f ed 78 6a 3f
       0.78839606 0.91738015 0.83217365 0.9159077
000070 62 84 6e 3f 83 3b 6f 3f 9e 21 61 3f a4 3e 4e 3f
       0.9317075 0.9345018 0.8794192 0.8056433
000080 32 6e 63 3f df a3 5c 3f 6e fb 57 3f 81 33 56 3f
       0.8884002 0.8618755 0.84368026 0.8367234
000090 0b ff 76 3f 28 29 5b 3f 99 62 5b 3f a0 f9 50 3f
       0.96482915 0.85609674 0.85697323 0.816309
0000a0 e2 44 6d 3f 83 77 55 3f 64 5b 79 3f 9f 07 7e 3f
       0.9268323 0.83385485 0.97405076 0.9923038
0000b0 3f f7 7d 3f bf be 5d 3f 24 3f 55 3f 66 21 69 3f
       0.9920539 0.8661918 0.8329947 0.91066587
0000c0 31 15 70 3f 47 66 85 3f 03 eb 79 3f b0 5a 5c 3f
       0.93782336 1.0421838 0.97624224 0.8607588
0000d0 aa 2c 75 3f f0 a2 62 3f a7 21 6c 3f c1 50 71 3f
       0.95771277 0.8852987 0.9223885 0.94263846
0000e0 26 45 6b 3f d3 c4 59 3f 61 50 5c 3f b0 68 58 3f
       0.9190239 0.85065955 0.8606015 0.8453474
0000f0 46 20 74 3f 14 9f 65 3f 4e a9 58 3f 81 08 73 3f
       0.95361745 0.8969586 0.8463334 0.9493485

model.1.bias f4 [64]
000000 58 ea a8 be 60 1d 3b bf 45 a0 ae be 59 b1 2f bf
       -0.3299129 -0.730917 -0.3410665 -0.68629986
000010 a9 12 bc be 79 43 90 be 6e 8b 24 bf 1c cb a2 be
       -0.36732987 -0.28176478 -0.6427525 -0.31795585
000020 ac 1f 90 be 70 58 b2 be be 82 2e bf ae f3 97 be
       -0.28149164 -0.34833097 -0.68168247 -0.296781
000030 b1 c9 4f bd aa 66 23 bf d9 6f 94 be 3a 00 95 be
       -0.050729457 -0.6382853 -0.28991583 -0.29101735
000040 f8 af 91 be 76 93 3a bf 3c 96 21 bf 7e 0e 6a bb
       -0.28454566 -0.7288126 -0.63119864 -0.0035714204
000050 b1 23 c1 be ee 64 98 be 45 27 9a be f5 0c 1f be
       -0.37722543 -0.29764503 -0.30108085 -0.15532286
000060 11 01 47 bf 9a 41 8c be 5b 0a 0a bf bf 8d 6b be
       -0.77736 -0.273938 -0.5392205 -0.2300329
000070 f8 60 ac be 0e e1 cf be 30 4e ec be 8a 8f 08 bf
       -0.3366773 -0.4060139 -0.46153402 -0.53344023
000080 41 1f 4c bf 87 a3 08 bf d6 86 11 bf 6e 96 0a bf
       -0.7973519 -0.5337452 -0.5684637 -0.5413579
000090 c3 f3 06 bf 01 5b 3a bf ac af 2f bf 95 4a 39 bf
       -0.527157 -0.7279511 -0.6862743 -0.7237943
0000a0 5c 5c 56 be 19 e4 35 bf eb f1 19 be e9 85 b3 bd
       -0.2093367 -0.71051174 -0.1503369 -0.08765776
0000b0 b6 e1 f5 bd 83 4f 43 bf 41 a6 07 bf 68 7b 01 bf
       -0.120059416 -0.762932 -0.5298806 -0.5057893
0000c0 dc 73 36 be 80 f3 90 be 3c db ca be 29 0e 8f be
       -0.17817634 -0.28310776 -0.39620388 -0.2794049
0000d0 9d 42 54 be 1c 00 d8 be 94 ad a8 be 22 69 86 be
       -0.20728536 -0.42187583 -0.3294493 -0.26252085
0000e0 87 d0 0f bf e3 71 45 bf b4 ec d7 be ff 6d 23 bf
       -0.5617756 -0.771269 -0.42172778 -0.63839716
0000f0 d7 b3 c7 be ab b7 42 bf 67 db 1f bf c7 3c 42 be
       -0.39004394 -0.76061505 -0.62444156 -0.18968497

model.1.running_mean f4 [64]
000000 a0 e5 43 bc f1 05 1f 3f 31 f6 9e 3e 47 45 d5 be
       -0.011956602 0.6211844 0.31047204 -0.41654417
000010 2c d3 32 be 20 e0 c3 3d e2 14 0f 3f e3 5d c1 3d
       -0.17463368 0.09564233 0.5589124 0.094417356
000020 be ac a0 3e 0c b4 8b 3d 59 49 f7 be 61 9f 3a bf
       0.31381792 0.068214506 -0.48298147 -0.7289944
000030 95 b9 41 be 72 86 9f 3e b4 a2 74 3e 6b 8f b2 be
       -0.1891845 0.3115726 0.23890191 -0.34875044
000040 cf 4b 91 3e 4e 58 06 bf 3f 68 59 bc 08 08 44 3e
       0.2837815 -0.5247849 -0.013269483 0.19143689
000050 56 0e d4 3e 9b 59 62 be 48 76 25 be 4d ad 30 3e
       0.41417187 -0.22104494 -0.16158402 0.17253609
000060 97 ca 41 bf 81 ce cd 3e 99 a4 1a be b2 6e 8d 3e
       -0.7569975 0.40196612 -0.15101852 0.27623516
000070 60 97 e4 bd f0 bc 83 ba 5c 03 9e be 6b ea 62 bf
       -0.11161685 -0.0010050815 -0.30861938 -0.88638943
000080 db 88 35 3d 8b d1 ae bd fa 19 76 bd b6 1a 41 bf
       0.04431997 -0.08536061 -0.060083367 -0.7543138
000090 fb 29 12 3e ce 80 e1 3d 2f ba 9b bc c7 9a 59 bf
       0.14273827 0.11010896 -0.019009678 -0.85001796
0000a0 c1 a2 ec bd 2c f1 87 be ba 9f 2b 3e 10 13 9e 3d
       -0.1155448 -0.26551187 0.1676015 0.0771848
0000b0 30 04 8e bd 4b 27 bc bd ad d5 34 bf 69 76 35 3e
       -0.069343925 -0.09187182 -0.70638543 0.17720951
0000c0 92 e6 68 be 0f 68 75 3e c2 91 b5 3b c5 f8 c2 3e
       -0.22744206 0.23965476 0.0055410573 0.3808042
0000d0 4d f9 96 3e 62 6d f2 be 34 73 e5 3d 83 13 52 3c
       0.29487076 -0.47349077 0.11203614 0.012822035
0000e0 ac c0 8b be 6a ec 0f bf 1c 6c 16 bf c6 d7 00 3e
       -0.27295434 -0.56220114 -0.5875871 0.12582311
0000f0 2b c3 8b 3c 09 39 c6 3c da 10 b6 be 4f 80 0f bc
       0.017060837 0.024197118 -0.35559732 -0.0087586185

model.1.running_var f4 [64]
000000 5f ac 26 3e b7 89 5d 3e 63 5c a8 3d b4 c0 91 3e
       0.16276692 0.21634565 0.08220746 0.28467333
000010 cf 49 ad 3e 09 c1 91 3e 62 dd 3b 3e 5c 2b 9a 3d
       0.33845374 0.28467587 0.1834617 0.075278014
000020 ef 2b a2 3e df f1 0f 3d c6 52 dd 3d 25 ca 59 3e
       0.31674144 0.035142776 0.108068034 0.21268518
000030 48 92 ee 3d 60 a1 83 3e f2 c2 64 3e 02 f6 7f 3d
       0.11648995 0.25709057 0.2233999 0.06249047
000040 56 d9 ff 3d dc be d7 3d b8 ad 15 3d 63 cb 51 3d
       0.124926254 0.105344504 0.036542624 0.051219355
000050 7e 16 0a 3e b4 fc 21 3e c0 ca 38 3e ac 98 16 3e
       0.13485143 0.15819055 0.18046093 0.14706677
000060 0b 54 95 3e f6 54 41 3e 79 93 13 3e ed a6 90 3d
       0.29165682 0.18880066 0.14411725 0.070630886
000070 a1 06 a5 3d 91 11 f5 3d 91 86 7d 3d b8 0f 8b 3e
       0.08057905 0.11966241 0.06189591 0.2716043
000080 9f 55 ba 3d e5 ef 63 3d 57 db fa 3d a9 18 84 3e
       0.09098362 0.055648703 0.12248867 0.25800064
000090 82 72 ab 3d 0c 42 92 3e 10 ad 04 3e 42 cc a5 3e
       0.0837145 0.28566015 0.12956643 0.323824
0000a0 bf a7 e9 3d 3f de ba 3d 12 54 da 3d c5 10 99 3d
       0.11408948 0.09124421 0.106605664 0.07473902
0000b0 a7 8a 0b 3e ea 43 67 3d de 0c a8 3e 95 e9 ea 3d
       0.1362711 0.056461252 0.32822317 0.114703335
0000c0 77 6d 28 3e bf 77 cd 3d 56 9a b4 3d 35 41 50 3e
       0.16448008 0.100326054 0.088185 0.20337375
0000d0 0d d9 2d 3e ef 31 1a 3e 21 f1 a5 3c 61 10 05 3e
       0.1697733 0.1505811 0.02025658 0.1299453
0000e0 09 98 73 3e 81 74 52 3e 3d 5f 76 3e ca 97 12 3e
       0.23788466 0.20552255 0.24059768 0.14315715
0000f0 be d5 99 3d 73 52 a2 3d d8 99 38 3e 58 18 39 3d
       0.07511471 0.07925882 0.18027437 0.04518923

model.4.weight f4 [32, 64]
000000 c2 8a 1f be a2 4f e8 bd 67 70 a9 bd ac 52 08 3e
       -0.15580276 -0.11343314 -0.08273392 0.13312787
000010 ba 53 73 3b 84 94 6e bd b0 52 4e bd 3a 60 0f bd
       0.0037128762 -0.058247104 -0.050371826 -0.03500388
000020 b3 1f ec bc 26 00 f3 bd 50 0c e6 3d 3e 44 19 bc
       -0.02882371 -0.11865263 0.11232817 -0.009354649
000030 a1 19 ea 3d dc 44 ee bd 77 f9 19 be fb 97 41 3d
       0.114306696 -0.11634228 -0.1503657 0.04726408
000040 bf cc 2d 3d a7 79 36 3c c6 60 44 3e f4 6e 77 bc
       0.04243159 0.011137403 0.19177541 -0.015102137
000050 bc 98 f5 3c b0 1f cd 3d f7 ef 19 bd f4 62 c2 3c
       0.029980056 0.100158095 -0.037582364 0.023728825
000060 fb 66 77 3e 29 dc 36 3d b0 ec 87 3d 36 c8 5f bd
       0.24160378 0.044643555 0.066369414 -0.054634295
000070 bc 1c e7 3c 0d 30 f6 3d 55 c9 9f 3d 4f 7e 83 3c
       0.028211944 0.12020884 0.07802073 0.01605144
000080 96 bb a9 bc 99 16 a0 3c 12 03 e9 bc 85 fa 30 3d
       -0.02071933 0.019542025 -0.028443847 0.043207664
000090 0f c3 70 3d 20 db 85 bd 3f 77 48 3d b8 66 04 3e
       0.058779772 -0.065359354 0.048941847 0.12929809
0000a0 66 b6 0b be be 6e 99 3d 2f 4e d0 3d 66 18 cd bd
       -0.13643798 0.074918255 0.10171162 -0.10014419
0000b0 66 f3 e0 3d d1 b4 95 3d 47 a1 2b 3e 89 c9 1e be
       0.109839246 0.073098786 0.16760741 -0.15506567
0000c0 d4 a9 96 bd 10 90 95 bd 1c 96 37 3d 71 83 72 3d
       -0.07356611 -0.07302868 0.04482089 0.059207384
0000d0 cb 15 43 3c 8c 77 96 3d 00 02 cd 3d 87 f7 49 3d
       0.011907051 0.073470205 0.10010147 0.049308326
0000e0 22 c5 e5 bd 4c 25 a6 3d 0f d9 0a bc ba 19 f4 bd
       -0.11219241 0.081125826 -0.008474602 -0.119189695
0000f0 2a 86 52 3d 0a 79 aa bd cc 35 22 bb 51 8d 37 3d
       0.05139748 -0.083238676 -0.0024751304 0.044812504
000100 d1 a1 e7 3c 77 cd bb 3d eb ef fa bd a9 eb b9 3d
       0.028275402 0.09170049 -0.12252792 0.09078152
000110 fe 5d 10 be 20 74 0f be a6 6b cb 3d 7a 3c ae bd
       -0.14098355 -0.14009142 0.09932642 -0.08507629
000120 7e ce e3 bd c2 be c1 bd 24 37 9b 3d 18 5c 6d 3c
       -0.1112337 -0.09460212 0.075788766 0.014487289
000130 33 68 03 be 50 93 97 3d 0e 4d 97 bd e5 2d 81 bd
       -0.12832718 0.074011445 -0.07387744 -0.06307582
000140 c7 e6 ed bd 07 e3 43 3d 2e b2 07 b9 aa dc eb bd
       -0.11616283 0.047823932 -0.0001294098 -0.11516698
000150 9d f0 7e 3d 33 8b ba bd 56 9a de bd 81 72 90 bd
       0.062241185 -0.091085814 -0.10869281 -0.0705309
000160 fd 01 c1 3d d0 4d 1d 3d c0 1e d5 3b a0 f5 b7 bd
       0.09424207 0.038404286 0.00650391 -0.08982396
000170 e3 e6 1d be d0 dc f2 bd 53 bd 78 3c 09 fb 28 bc
       -0.15420108 -0.11858523 0.015181857 -0.010313758
000180 c8 18 bf 3d 81 af 1b 3e 30 6c 26 be f7 2c 94 3d
       0.093308985 0.15203668 -0.16252208 0.07235139
000190 65 e1 ea 3c 70 85 9c 3d 4c 29 87 3d 6d 84 04 3d
       0.02867193 0.07642639 0.06599674 0.032352854
0001a0 67 a8 da bd 14 0c 87 3d 76 19 f4 bd ca ef dc bd
       -0.106766514 0.065941006 -0.11918919 -0.10787924
0001b0 da 4c 09 be da 65 1f 3d c5 ff 08 bb 94 f0 98 3d
       -0.13408223 0.038915493 -0.0020904404 0.07467762
0001c0 05 54 cb 3d 86 cd e8 bd cf 60 ba bd 28 f9 56 3d
       0.09928135 -0.113673255 -0.09100496 0.052483708
0001d0 31 ab d4 bd 5b bf 17 3d 2d f2 90 3d bb 92 d7 bd
       -0.10384215 0.037047725 0.07077441 -0.105260335
0001e0 0e 66 b9 3c b0 c9 9c 3d b9 6e 5c 3d c4 7a 5e 3d
       0.022631671 0.07655656 0.05381653 0.054316297
0001f0 5c bc 9b 3d e4 c7 3f 3d fc 01 5a 3d 37 b9 01 bb
       0.07604286 0.04682149 0.05322455 -0.0019794235
000200 48 86 90 3c 82 42 f1 3d cf 19 c9 bd 2e 5a 07 3e
       0.017642155 0.117802635 -0.09819376 0.13217995
000210 12 0b b2 bd 83 e3 17 be d9 af f8 3d 78 73 d0 3c
       -0.08693518 -0.14832883 0.12142915 0.025445685
000220 03 8b bf bd 88 52 08 bd 61 48 5b 3d 77 c4 d4 bd
       -0.09352686 -0.033281833 0.053535823 -0.10389035
000230 41 d3 b3 bd 93 b3 a1 3d af 7d 46 3d f4 1f 63 3c
       -0.08780528 0.07895579 0.048459705 0.013862599
000240 aa 84 ec bd 7e 7d 1e 3c a0 f7 1a 3e f2 f8 cb bc
       -0.11548741 0.009673474 0.15133524 -0.02489898
000250 e6 2e 13 3d ec 9e b2 bd 7f f5 a2 bc 5e 02 48 bd
       0.035933398 -0.08721718 -0.019892452 -0.048830383
000260 f2 a1 d7 3c ad 9d 07 3c b9 1f 49 3c 8b ce 9e bd
       0.026322339 0.008277339 0.01227563 -0.07754239
000270 61 a8 f6 bd 42 56 39 bd b4 dd 00 be ca b5 d7 bd
       -0.120438345 -0.045248277 -0.12584573 -0.105327204
000280 6e 5e 37 3e a8 a9 d8 3c 5d 72 e0 bd 75 c9 fc bb
       0.17907116 0.026448086 -0.10959313 -0.0077144452
000290 ef 4e e2 3d 9c 62 85 3d 70 53 6e 3d 77 09 e7 bc
       0.11050212 0.06512949 0.05818504 -0.028202755
0002a0 0f c5 b9 bd 97 68 9b 3d 4f d2 8d bc ac 82 75 bd
       -0.09070789 0.07588308 -0.017312197 -0.05993907
0002b0 ed 9b a4 bd 35 1f 6f 3e 42 2c 0f bd c2 b0 92 3b
       -0.08037553 0.23351748 -0.034954317 0.0044766376
0002c0 52 46 56 3d 24 38 bb bd b3 0a f8 bd e7 1f f3 3c
       0.052313156 -0.09141567 -0.12111416 0.029678298
0002d0 a1 45 4f bd b1 c5 0e 3c d6 1d 8a 3d 1e 01 16 bd
       -0.050603513 0.0087141255 0.06743972 -0.03662216
0002e0 16 47 c7 3c 10 fa 9d 3c ff 65 16 3d e1 02 08 3e
       0.024325889 0.019284278 0.036718365 0.13282348
0002f0 f0 c7 84 3d 93 33 82 bb a3 60 0b 3e df ca c1 bb
       0.064834476 -0.0039734333 0.13611083 -0.0059140767
000300 da df 88 3c 41 a7 66 3d b5 29 f1 bc ad 36 b1 bd
       0.016708303 0.05631185 -0.029438833 -0.08653007
000310 79 d1 08 be cf 96 25 bd dc 5a 38 bd 72 51 e3 bd
       -0.13361157 -0.040427025 -0.045008525 -0.11099519
000320 c4 19 20 bc 92 f8 10 bd 27 88 a3 3d 21 02 8f 3c
       -0.009771768 -0.035393305 0.079849534 0.01745707
000330 ef 9c 1d 3d b5 09 46 3d 30 c5 13 bd 0c b9 f8 ba
       0.03847974 0.0483491 -0.036076725 -0.0018976047
000340 99 25 81 3c 25 d8 16 3e 5c 23 53 bd d9 c5 65 3c
       0.015764998 0.1473089 -0.051547393 0.014024221
000350 23 5e 88 bc 38 5e d4 bd 20 bb 4a 3d e0 97 52 be
       -0.01664645 -0.10369533 0.049494863 -0.20565748
000360 2d 6d 7c 3d 10 8e 1b 3d 41 03 07 be f4 a9 c4 3c
       0.061627556 0.03797728 -0.13184835 0.024006821
000370 7d 80 85 bb 3d b3 ad 3b c7 17 d9 bd 2a 6d 58 3d
       -0.004074155 0.005300908 -0.10600238 0.052838482
000380 f2 d4 f1 bd 15 10 27 3d 60 a8 04 3e 5e 23 ef bc
       -0.11808194 0.04078682 0.12954855 -0.02919167
000390 17 8e 18 be 00 84 34 be 93 89 98 3b dc 80 2c 3e
       -0.14897953 -0.17628479 0.004655072 0.16846031
0003a0 9a ba c4 bc ee 18 24 3c 52 a5 cd 3c 1c 4d f0 3c
       -0.02401476 0.010015709 0.025103245 0.029333644
0003b0 7d 2b 12 bd 10 0f b9 bd 50 a6 10 39 5e 7d 6a be
       -0.035686005 -0.09036076 0.00013794866 -0.22899386
0003c0 40 e5 5c 3d 52 8a 28 be d1 f6 03 bd cd 3f 92 3d
       0.053929567 -0.16459015 -0.032217804 0.07141075
0003d0 5d 68 04 be 26 5f f7 bd 4d 32 7a bc 5c 49 09 3d
       -0.12930436 -0.12078695 -0.015270782 0.033517227
0003e0 36 0c 0c 3d bd 88 2a 3e 4b 8e 08 be b8 21 8f bd
       0.034191333 0.16653724 -0.1333553 -0.06988853
0003f0 8e 96 12 3c 2a 07 ae 3d 0a d2 83 bd 0b a0 83 be
       0.008947028 0.0849746 -0.06436546 -0.2570804

model.4.bias f4 [32]
000000 01 bc b8 3d 0d 58 a1 3d 3a 43 b8 3d 5d fa bb 3d
       0.09020234 0.078781225 0.089971974 0.091786124
000010 7a da 53 3d 1a c9 08 bb 1e e3 03 3d 6a ac 93 bc
       0.051722027 -0.002087182 0.032199018 -0.01802655
000020 bd 14 bb bb a2 85 e8 3d 61 47 1c be dd 4a aa 3d
       -0.0057092593 0.113536134 -0.15261604 0.0831506
000030 e5 74 13 bc 44 66 dd bd d0 bb c9 3d a7 15 93 bd
       -0.009000038 -0.10810521 0.098502755 -0.07181864
000040 21 e9 f1 ba 41 7f a9 bd f7 87 40 3d 99 41 cd 3d
       -0.0018456319 -0.08276225 0.047004666 0.100222774
000050 a3 e5 b4 bd 8d 9f 82 bd e5 81 9d 3d 9b 03 31 bc
       -0.08832862 -0.06378088 0.07690791 -0.010804082
000060 8d 17 70 3c e7 4c 11 bd b5 db de 3d b5 22 c1 bd
       0.014654052 -0.03547373 0.108817495 -0.09430448
000070 b3 77 18 bc 55 9d b7 bd 27 38 c4 bd a2 ca 86 3d
       -0.009305882 -0.089655556 -0.09581023 0.06581618

model.5.weight f4 [32]
000000 5b 7f 66 3f 46 6e 5f 3f 09 b6 6f 3f ba 49 57 3f
       0.9003808 0.8727764 0.9363714 0.8409687
000010 db 91 76 3f 25 0b 53 3f ac 10 63 3f ab a1 6a 3f
       0.9631631 0.8243888 0.88697314 0.91652936
000020 57 8b 7b 3f 2b 29 5f 3f 9e 8a 81 3f 47 33 6d 3f
       0.9825949 0.8717219 1.0120428 0.9265637
000030 f1 04 86 3f 2c c1 8a 3f d1 86 64 3f 8a 72 74 3f
       1.0470258 1.0840201 0.89268214 0.9548727
000040 99 6f 65 3f f8 9d 6a 3f 7d 22 65 3f 93 e3 77 3f
       0.8962341 0.9164729 0.8950575 0.96831626
000050 f7 d7 72 3f 6f 2d 53 3f e2 31 7f 3f 44 c5 80 3f
       0.94860786 0.824912 0.9968549 1.0060201
000060 6e cb 60 3f f0 5f 6b 3f 47 9b 7e 3f 16 81 77 3f
       0.8781041 0.91943264 0.99455684 0.96681345
000070 9b 90 83 3f eb db 80 3f 87 77 75 3f d3 79 63 3f
       1.0278505 1.0067114 0.9588551 0.88857764

model.5.bias f4 [32]
000000 95 9d 79 be 6b 6f 13 bf a5 0e 16 bf 49 6c ee be
       -0.24376519 -0.57591885 -0.58616096 -0.4656699
000010 b8 33 c1 be f5 43 a4 be 31 1b ae be 2f c0 ac bb
       -0.3773477 -0.32083097 -0.3400512 -0.0052719335
000020 23 5a 5c be 07 bb f0 be 7f e6 ed be d0 9d fd be
       -0.2151876 -0.4701769 -0.46464917 -0.49534464
000030 62 1c ae be 00 28 24 be 13 6d fc be 71 f7 ac be
       -0.3400603 -0.16030884 -0.49301967 -0.33782533
000040 a5 28 0d bf bb 3b 68 be ec fd 9f be 19 68 bd be
       -0.55140144 -0.22679035 -0.31248415 -0.36993483
000050 89 f7 17 bf cf 59 9c be 6e 23 79 be 02 ba ff bd
       -0.59362084 -0.3053727 -0.24329922 -0.1248665
000060 1b 8f 53 be c0 4b 09 be ac 7a 4c be a3 3c fc be
       -0.20660059 -0.13407803 -0.1996867 -0.49265012
000070 d1 26 b9 be 90 c1 f6 be 87 8e f4 be 04 68 c1 bd
       -0.36162427 -0.4819455 -0.4776499 -0.094436675

model.5.running_mean f4 [32]
000000 0d 31 d4 3d 33 b0 be be ff c1 65 be d3 ae 13 be
       0.10360918 -0.37243804 -0.22437285 -0.14422159
000010 b8 55 28 be 48 95 83 be 4f a2 90 be 98 83 52 3e
       -0.16438949 -0.2569983 -0.28248832 0.20558012
000020 a0 4e 92 3e eb d2 d8 3d c9 6a 02 bf 1f 32 4b be
       0.2857561 0.105871044 -0.5094419 -0.19843338
000030 a7 55 b0 3c 8b 33 68 3d 50 c4 da 3b 19 82 ac be
       0.021525217 0.05668978 0.0066762343 -0.33693007
000040 f3 2f 9a be 85 03 e4 3d e4 a4 e8 bd 80 b1 6b bd
       -0.30114707 0.11133484 -0.113595754 -0.057542324
000050 1e 7d ec be 40 42 03 be 34 58 43 3e 29 bf 8c be
       -0.46189207 -0.12818241 0.19076616 -0.27489594
000060 24 9c f2 3d e7 4c c2 3e 47 07 07 3f ef d1 e2 be
       0.11846188 0.37949297 0.5274548 -0.44300792
000070 a4 52 9c be b1 48 d3 be 2c 3e ef be f8 cd b2 3e
       -0.305318 -0.41266397 -0.4672712 0.34922767

model.5.running_var f4 [32]
000000 14 71 1a 3f 60 88 83 3e fe 3a b9 3d 37 4d 0e 3f
       0.60328794 0.25689983 0.09044455 0.5558657
000010 db 8c c8 3e ec 18 a0 3e 90 31 c0 3e a7 d3 9f 3e
       0.39169964 0.31269014 0.37537813 0.31216165
000020 14 09 91 3e d1 5e c8 3d 55 62 cd 3e 48 e7 a3 3d
       0.2832724 0.0978371 0.40114084 0.08003098
000030 b5 be f5 3e 2e 40 00 3e 3c 89 b5 3d 2b 10 d2 3e
       0.4799706 0.12524483 0.08864066 0.4102796
000040 e4 bf e6 3d 64 1e 75 3e 96 80 1c 3e ec b3 a5 3e
       0.11267069 0.23937374 0.15283427 0.32363832
000050 3c f4 66 3e 0e b6 c8 3e 06 18 17 3e d9 7b 2d 3f
       0.22554106 0.39201397 0.14755258 0.677671
000060 7c ff 31 3e 15 04 1b 3e 2c 45 31 3e 9f 72 98 3e
       0.17382616 0.15138276 0.17311543 0.2977495
000070 7b dc fc 3d 87 c9 9f 3e 8a ae bb 3e 54 93 60 3e
       0.12346741 0.3120844 0.366566 0.21931201

model.8.weight f4 [16, 32]
000000 77 fe 76 bd 97 6a 02 be 26 e5 eb 3c 0a 8d 12 3c
       -0.06030127 -0.12735973 0.02879579 0.008944759
000010 cb aa 57 be cb 99 07 3c 57 18 3b be c6 50 40 3d
       -0.21061246 0.008276413 -0.18271004 0.04695203
000020 70 23 06 bc ce 9b 12 3e 9f c4 29 be d0 a7 af 3c
       -0.00818716 0.14317247 -0.16578911 0.021442324
000030 b1 d9 fb 3b cb f4 5a be 5e 1d f9 3d d3 8e 02 bb
       0.007685863 -0.21382444 0.121638045 -0.0019921556
000040 34 1e fc 3c 3f 26 2b bc 70 f5 3e 3d 76 9d 2a be
       0.03077612 -0.01044613 0.046620786 -0.16661629
000050 6b b1 8e bd 30 fd 38 bd ca cf 80 bc c0 cd 80 3c
       -0.069674335 -0.045163333 -0.015724082 0.01572311
000060 3c 04 70 bd 94 40 63 bd 86 8f d4 3c 29 a5 47 be
       -0.05859779 -0.05548151 0.025947344 -0.19496597
000070 48 71 0c 3c 30 a7 bb bd a3 2a 55 be 02 ed 4d 3b
       0.00857193 -0.09162748 -0.20817046 0.0031421785
000080 d3 00 f7 bd dd 9c b5 bd 48 79 89 3d 1a c4 62 3a
       -0.12060704 -0.0886781 0.06712586 0.0008650437
000090 cf 24 d3 bd f9 7f be 3d f0 1b f2 bd 0d 9a a2 bd
       -0.10309755 0.093017526 -0.11821735 -0.07939539
0000a0 d4 49 1a 3d cb 3a 0e bd 3c 29 71 be b0 d7 83 3d
       0.037668064 -0.034724038 -0.23550886 0.064376235
0000b0 47 1b 23 bc e6 e8 1a be 6c 2b 94 bd cc 03 91 be
       -0.009955234 -0.15127906 -0.072348446 -0.2832321
0000c0 02 23 81 3d c2 09 67 3d 3f 79 4a 3d b7 c9 3e bd
       0.06305505 0.05640579 0.049432036 -0.04657909
0000d0 92 a5 14 3d 0a 06 03 3d 05 6f 0c be 31 49 f2 bd
       0.036290713 0.03198818 -0.13714226 -0.118303664
0000e0 52 a2 7c 3d b8 9b 56 bc 13 3d b4 bc 34 c3 6e be
       0.06167824 -0.01309865 -0.022001779 -0.23316652
0000f0 bf 11 a7 3d 68 0d 8a be 22 e3 44 be 73 30 f1 3c
       0.08157682 -0.26963353 -0.1922727 0.029442048
000100 b4 c7 11 be 6d ac e3 bd 03 56 af 3c 04 df 0a 3e
       -0.14236337 -0.11116872 0.021403318 0.13561636
000110 b8 60 a8 3d 9b 4b ed 3d 3d 75 62 bd c6 64 60 be
       0.08221573 0.11586686 -0.05528759 -0.21913442
000120 77 6b 88 3d 44 93 be bd 0a 50 ff bd a1 ec 1f 3d
       0.06661122 -0.093054324 -0.12466438 0.039044026
000130 d9 7e b5 3b bf d7 7a 3d c5 24 e5 bd 88 3f 9b be
       0.005538803 0.061240908 -0.11188654 -0.30321908
000140 49 14 fb 3a 28 7c 34 bc 1f cc 3d 3d 69 bc 88 3c
       0.0019155826 -0.011015929 0.046337243 0.016691403
000150 65 74 4c bc 12 c2 6e 3d 2d a3 1d be 54 e8 86 be
       -0.0124789225 0.05829055 -0.15394278 -0.26349127
000160 a5 4c b6 3d 5a b1 27 ba 5f ec 8c bd 33 46 cb bd
       0.089013375 -0.0006396972 -0.06881022 -0.09925499
000170 e9 7e da 3d c2 c8 61 be cb 4d 0f bd 19 b4 7f 3d
       0.106687374 -0.2204924 -0.0349863 0.062427614
000180 cb 35 20 bd 60 e5 30 be 73 db a6 3c 75 2a ca bd
       -0.0391138 -0.17275 0.020368313 -0.09871379
000190 b2 a6 92 be d6 01 e8 3c 00 d9 45 be 42 1d 37 3d
       -0.28642803 0.028321188 -0.1932106 0.044705637
0001a0 32 52 08 3b 31 57 f4 3d fd db 39 be 09 f5 15 3d
       0.0020800945 0.11930693 -0.18150325 0.036610637
0001b0 ce 7a 82 bc 9a ec 67 be ba 1b 0d 3e 73 39 c8 ba
       -0.015927698 -0.2264885 0.13780108 -0.001527591
0001c0 25 62 38 3d fb 9f 4e 3c 75 22 76 3d b1 e9 83 be
       0.045015473 0.0126113845 0.060091455 -0.2576423
0001d0 d6 b1 cb bd 59 7f b4 bd 2d da 2e 3d 4e 58 4c 3d
       -0.09946029 -0.08813352 0.042688537 0.0498889
0001e0 bf 55 52 bd 25 e1 c9 bc 54 e5 47 bd 70 32 54 be
       -0.051351305 -0.02464349 -0.04880269 -0.20722365
0001f0 34 9a 54 bc 31 ff a2 bd aa d8 82 be 36 ff a4 bd
       -0.012976218 -0.0795883 -0.25555927 -0.0805649
000200 cb 72 83 bd 47 06 03 be 94 ce 0d be 0e 61 2e 3e
       -0.064183794 -0.12795363 -0.13848335 0.17029211
000210 50 ed 68 3d ee c8 62 3c 8e c7 05 bb 00 38 da 3c
       0.056866944 0.013841851 -0.0020413133 0.026638031
000220 d7 ad 15 3c 70 60 3d 3e c6 5c c8 3b 98 2b c8 bc
       0.009135685 0.18493819 0.006114575 -0.02443485
000230 ce 79 da be 6c bf ac 3d 34 1d 5c 3d 7a d9 c6 bb
       -0.42671055 0.08434948 0.053738788 -0.0060684057
000240 f7 2a c6 bd dc ca 5f be 8a d1 c1 3b 7c cd 97 bd
       -0.09676164 -0.21854728 0.0059148716 -0.0741224
000250 4b c5 b0 be 27 63 46 be 3b 65 e9 3d d7 3e f7 3c
       -0.34525523 -0.19373761 0.11396261 0.030181332
000260 77 18 ee bd 13 9b eb bb 69 25 e2 bd 30 10 c1 bb
       -0.1162576 -0.007190117 -0.11042292 -0.0058918223
000270 6e 64 c1 3c 9c c1 a8 bc dd 8d a8 bc 02 04 d1 bd
       0.023607459 -0.020600133 -0.020575458 -0.102058426
000280 2d 31 11 3b 41 3e 36 bc 19 3e a0 be 7e 84 0f 3e
       0.0022154555 -0.011123241 -0.31297377 0.14015386
000290 29 4d 88 3c f7 7a d5 3c 56 25 61 3d 14 3b b5 3c
       0.016638355 0.02605961 0.054967247 0.022122897
0002a0 6b 71 2d bd 82 ed f6 3d 4a 02 ec 3c 5a d4 ba be
       -0.042344492 0.1205702 0.028809685 -0.36490136
0002b0 f7 79 48 bc ec 1c 3f 3d 28 ac eb 3d 66 10 f0 3c
       -0.01223611 0.04665844 0.115074456 0.029304694
0002c0 9b 78 a7 be bc 6f 5f 3b ce 2b 9f 3d f5 1b 22 3d
       -0.32709202 0.0034093698 0.07772027 0.039577443
0002d0 7f b1 7a 3b 6e c1 7d 3d 3b 14 91 3c 73 d0 db 3c
       0.0038252769 0.061952047 0.017709842 0.026832795
0002e0 0d ee b9 bd 36 aa 50 3c bd 05 23 3d 3a 38 40 3d
       -0.09078608 0.012735894 0.039800394 0.04692862
0002f0 15 57 67 be f4 10 30 3d 2e 7d 29 3d 61 0e 73 bd
       -0.22591813 0.042984918 0.041379146 -0.059339885
000300 0b 11 e3 bd 7b 9a 24 be d3 0f 80 3d ce 7c 04 be
       -0.11087235 -0.16074555 0.06253018 -0.12938234
000310 d5 bd 7a be ee a5 b0 3d c6 f9 09 be 2f 85 8f 3d
       -0.24486478 0.086253986 -0.13474187 0.07007825
000320 50 c2 0f 3d fb 9f 19 3d 7d 49 7f be 34 47 92 3d
       0.03509742 0.037506085 -0.24930377 0.07142487
000330 ef cb 2c 3c f1 ba 81 bc 57 3c fc 3d e9 33 ca bd
       0.010546668 -0.01583621 0.123161964 -0.09873182
000340 0c e3 06 3d 04 3c d8 bc f4 e3 99 3c 89 11 5a be
       0.032931373 -0.026395805 0.018785454 -0.21295752
000350 b3 a8 d7 bc a2 1d b2 bd 75 d2 b7 3c be 72 26 bb
       -0.02632556 -0.08697058 0.02243922 -0.0025397982
000360 fe 55 7e 3c 4d 45 50 bd 51 7c 2e be 5d c6 8e be
       0.015523432 -0.05084734 -0.1703961 -0.27885714
000370 81 59 60 3d cf a8 39 be a3 f4 96 be b8 49 e1 bd
       0.054772858 -0.18130802 -0.29483518 -0.11000389
000380 ff 28 95 bd 6f 83 4e be dd 0f 91 3d 42 89 b2 bd
       -0.0728321 -0.20167325 0.07083104 -0.08717586
000390 bd 35 82 be 89 00 2e 3d fb f7 ee bd 76 bb a2 bc
       -0.25431624 0.04248098 -0.11668392 -0.019864779
0003a0 e1 a2 05 3d 58 be b8 3d e1 39 7c be 03 72 44 3d
       0.032626037 0.0902068 -0.24631454 0.047960293
0003b0 f7 19 62 3c e8 65 99 bd 25 e5 0e 3d 63 f2 c0 bd
       0.013800136 -0.0749014 0.034886498 -0.094212316
0003c0 8c d9 45 3d cb af 9a bd a3 29 f3 3c ae d2 51 be
       0.048303172 -0.07553061 0.02968294 -0.20490524
0003d0 fe 75 2a bd 01 06 a1 bd 9f 51 80 3d c2 46 35 3d
       -0.041616432 -0.07862473 0.06265568 0.044256933
0003e0 26 44 19 bc a8 a5 15 bd 2e ba aa bd dc 29 89 be
       -0.009354627 -0.036534935 -0.08336292 -0.2678975
0003f0 78 ee 90 3c eb 2d 30 be c8 d5 90 be eb 16 f9 bc
       0.017691836 -0.17205016 -0.28288102 -0.030406436

model.8.bias f4 [16]
000000 11 19 75 bc ac 25 6c 3c 1e ff a3 3c 5b 32 eb bd
       -0.01495959 0.014413279 0.02001911 -0.11484214
000010 84 de 15 be fa 06 e1 3c de f1 7e bd 0e 39 2f be
       -0.14635664 0.027469147 -0.06224238 -0.17111608
000020 d4 b9 f0 3d 21 b8 9b 3d f3 a3 0a 3e 3b 4e 19 be
       0.11754194 0.07603479 0.13539104 -0.14971249
000030 46 b9 b5 bd 1a e3 72 bd ac d3 c7 bd 20 b1 3c 3e
       -0.08873229 -0.059298612 -0.0975717 0.18426943

model.9.weight f4 [16]
000000 a2 24 39 3f 9b 04 57 3f 3a 69 6f 3f a7 91 43 3f
       0.7232152 0.839914 0.9351994 0.7639412
000010 8d 7a 38 3f ee 71 6b 3f 15 6e 3d 3f 4a f7 52 3f
       0.72062 0.9197072 0.73996097 0.82408583
000020 0b 9e 5b 3f 1f 94 41 3f 8a bc 22 3f 43 f6 4f 3f
       0.8578803 0.7561664 0.6356894 0.8123514
000030 90 72 55 3f 77 7a 55 3f 01 6b 7f 3f c0 cb 3c 3f
       0.83377934 0.8338999 0.9977265 0.737484

model.9.bias f4 [16]
000000 83 17 35 3f 3a 96 40 3f 61 07 3c 3f 7a b4 41 3f
       0.70739 0.7522923 0.7344876 0.7566601
000010 29 37 52 3f a3 87 3c 3f e1 a9 4c 3f 39 6b 6a 3f
       0.8211542 0.73644465 0.79946715 0.9156986
000020 82 b9 77 3f 9b 56 39 3f e3 61 50 3f 91 04 54 3f
       0.9676744 0.72397774 0.81399363 0.8281947
000030 ac 64 74 3f d9 07 2a 3f 4f 3f 51 3f 7c dc 36 3f
       0.95466113 0.66418225 0.81737226 0.7143018

model.9.running_mean f4 [16]
000000 e8 91 6f be 6f cc 73 be 64 4b 19 be d2 53 c2 be
       -0.23395503 -0.23808454 -0.14970165 -0.37954575
000010 8c 5e a4 be 79 56 12 3c 02 ed 9c be e1 42 d2 be
       -0.32103384 0.0089317495 -0.30649573 -0.4106665
000020 14 af 24 3d 8f f6 4e be 62 8f ac bc 60 ec 04 be
       0.04020603 -0.20211242 -0.021064464 -0.12980795
000030 da ec 97 be 07 f2 7e be 9f fa 7a be 1e 6b 4f bd
       -0.2967289 -0.24897014 -0.24509667 -0.050639264

model.9.running_var f4 [16]
000000 66 ac a3 3f 04 eb f0 3f ae e2 77 3f 2b f6 de 3f
       1.2786987 1.8821721 0.9683026 1.7418875
000010 f2 e8 33 3e 29 3b 55 3e 3e a6 04 40 b1 e7 02 40
       0.1756933 0.20823349 2.0726466 2.0453913
000020 b4 4b 61 3e c2 75 0b 40 91 00 27 3e 2f 97 7b 3e
       0.22001535 2.1790624 0.1630881 0.2456939
000030 fc b8 08 3e 7d 2c bf 3f 9e fb 7f 3f 77 6a a8 3f
       0.13351816 1.4935452 0.9999331 1.315749

model.12.weight f4 [1, 16]
000000 79 c6 df 3e d7 8b c9 3e df cf c1 3e de fd cf 3e
       0.4370611 0.39364502 0.37853906 0.40623373
000010 0b 39 c4 3e f6 08 c6 3e 45 42 cc 3e 56 7f b1 3e
       0.3832477 0.38678712 0.3989431 0.34667462
000020 71 2f a6 3e bc db d9 3e de b0 cb 3e eb 9a bc 3e
       0.3245807 0.42550457 0.39783376 0.36836943
000030 47 26 a8 3e 9d 59 d6 3e 51 69 b1 3e 73 e9 da 3e
       0.32841703 0.41865245 0.34650663 0.42756233
