neuralnet/Hyperparameter sweeps/Hyperparameter sweep round 1/bike_volume_model_net_3layer_lr_0.00010000_batch_48_feat_35.pth (torch, 30797 bytes, 19 tensors)

model.0.weight f4 [64, 35]
0	0x3e075f10	0.13219857
1	0x3dfe9506	0.12430768
2	0x3d3b964b	0.045797627
3	0xbe157110	-0.14593911
4	0x3d7b522c	0.061357662
5	0x3c894963	0.016758626
6	0xbd968440	-0.073494434
7	0x3c69a29a	0.014259959
8	0x3e362d45	0.17790706
9	0x3e1013a9	0.1407
10	0xbcd9a78d	-0.026569152
11	0x3d31f1b4	0.043443397
12	0xbe5f0401	-0.21778871
13	0xbdb71b57	-0.089407615
14	0x3a31b0ac	0.00067783403
15	0xbd79757a	-0.06090305
16	0xbd03f06a	-0.0322117
17	0x3db817ae	0.089888915
18	0xbd7da53d	-0.06192516
19	0x3e0249b3	0.12723427
20	0x3c28f9a1	0.010313422
21	0x3d0eee19	0.034895036
22	0xbcf19361	-0.029489221
23	0xbd9512d9	-0.072789855
24	0xbc149755	-0.0090692835
25	0xbaa62528	-0.0012675868
26	0xbd382218	-0.04495439
27	0xbe192c1d	-0.14958234
28	0x3da3f4a4	0.08005646
29	0x3d59b6c6	0.053152822
30	0xbd5c298a	-0.053750552
31	0xbd1d7345	-0.038440008
32	0x3bc382e6	0.005966532
33	0xbe0d76be	-0.13814828
34	0xbdd49e8b	-0.10381802
35	0xbe1b0cf8	-0.15141666
36	0xbd576aa2	-0.052591927
37	0x3c986e6a	0.018607337
38	0xbddfd963	-0.10930135
39	0x3d555fb7	0.052093234
40	0xbe90df7a	-0.282955
41	0xbd52495c	-0.051339492
42	0x3ba7cabb	0.005120603
43	0x3c8e7c61	0.017393293
44	0x3e23424c	0.15943259
45	0x3d24f93e	0.04027676
46	0x3b80f59b	0.0039355285
47	0xbe0afb6e	-0.13572475
48	0xbd855548	-0.06510407
49	0xbcbdefad	-0.023185575
50	0xbdb27afe	-0.08714865
51	0xbd599a94	-0.053125933
52	0x3e2e9c1b	0.17051737
53	0xbdab735c	-0.083716124
54	0x3e04b281	0.12958719
55	0xbe445910	-0.191746
56	0xbdf9656a	-0.12177546
57	0x3db61e6d	0.08892522
58	0xbd168fcf	-0.03675824
59	0xbb0df773	-0.0021662384
60	0xbd13dce4	-0.03609933
61	0xbe3193a5	-0.17341478
62	0x3d8d91e4	0.06912592
63	0x3d243766	0.040091895
64	0x3e41a49a	0.18910447
65	0x3d14c6db	0.036322456
66	0x3e43c419	0.19117774
67	0xbda42535	-0.08014909
68	0x3d50bf46	0.050963663
69	0x3d4af25a	0.04954753
70	0x3df06979	0.11738867
71	0x3dc56049	0.096375056
72	0x3dd706ec	0.10499367
73	0xbcf92d85	-0.030417213
74	0x3daccd0b	0.08437546
75	0x3e55f48f	0.20894073
76	0xbd4f97cf	-0.050681885
77	0x3e08914f	0.13336681
78	0x3db8cca8	0.0902341
79	0x3db48d4e	0.08816014
80	0x3d8e793d	0.06956718
81	0xbc796683	-0.015222195
82	0xbdccf628	-0.10007888
83	0x3bd8d8e8	0.006617654
84	0x3df2dd57	0.118586235
85	0xbe3973b6	-0.18110546
86	0x3e62ad29	0.22136368
87	0xbca535cc	-0.020167254
88	0xba990f47	-0.0011677527
89	0x3d0edf22	0.034880765
90	0x3c453dab	0.012038629
91	0xbd9cfec4	-0.0766578
92	0xbd51bc08	-0.05120471
93	0x3d350dae	0.0442025
94	0xbcbcdd8d	-0.023054862
95	0xbd7d36ad	-0.06181972
96	0x3d949cab	0.072564445
97	0xbe17fa20	-0.14841509
98	0xbd0ebf55	-0.034850437
99	0x3d8150bb	0.06314226
100	0x3c83d3f0	0.01609227
101	0xbcb2e3ec	-0.021837197
102	0xbcf8e948	-0.030384675
103	0xbe03c418	-0.12867773
104	0xbe19ff08	-0.15038693
105	0xbcc658d4	-0.024212278
106	0x3a470f42	0.0007593521
107	0x3dd25740	0.10270548
108	0xbebbd360	-0.36684704
109	0xbd3470e7	-0.044052985
110	0x3e081c14	0.13291961
111	0x3d9d2194	0.0767242
112	0xbe0a893d	-0.13528915
113	0x3cb0ceb2	0.021582935
114	0x3b9e1b59	0.0048250374
115	0xbe542535	-0.20717318
116	0x3d2514ef	0.040303167
117	0x3d9a9c29	0.075493164
118	0xbce8e5e3	-0.028429931
119	0xbe060f5e	-0.130918
120	0x3d13b1a5	0.036058087
121	0xbd89d963	-0.06730916
122	0xbd3f66e1	-0.046728972
123	0x3de1c467	0.11023789
124	0x3d629638	0.05531904
125	0x3d9b86b4	0.07594052
126	0x3cb965f9	0.022631632
127	0x3d7ec678	0.062200993
128	0xbde57711	-0.11204351
129	0x3d3c0b88	0.045909435
130	0x3dd3667b	0.10322281
131	0x3dafe9d8	0.08589524
132	0xbdac4dea	-0.084132984
133	0xbdf7b978	-0.12095922
134	0x3b2e7128	0.002661774
135	0xbc8419c0	-0.01612556
136	0x3db0ace9	0.0862673
137	0x3de85935	0.1134514
138	0xbd031065	-0.031998057
139	0xbe8929d7	-0.26789734
140	0x3c7dd0a1	0.015491636
141	0xbd0bbf63	-0.034118067
142	0x3e05c759	0.13064326
143	0xbe106000	-0.14099121
144	0xbcfb1eaf	-0.03065428
145	0x3daaf089	0.0834666
146	0xbd09125c	-0.033464774
147	0x3bc249c8	0.0059292056
148	0x3da8bc54	0.08239046
149	0xbc18e108	-0.009330995
150	0x3dff0dec	0.12453827
151	0x3e58ac3c	0.21159452
152	0xbdadab1b	-0.084799014
153	0xbe26a4a1	-0.16273738
154	0xbd41cf69	-0.047316942
155	0x3ce44b21	0.027867856
156	0x3e32a743	0.17446618
157	0x3d8966d1	0.06709064
158	0x3dc8b83f	0.09800767
159	0xbb3fa691	-0.0029243568
160	0x3c0532d7	0.008129797
161	0xbd5d72b2	-0.05406446
162	0x3bac3dfa	0.0052564116
163	0xbda5a215	-0.08087555
164	0x3dede6b5	0.116162695
165	0xbd65b244	-0.05607821
166	0xbd72980d	-0.05922704
167	0x3dac207e	0.08404635
168	0xbd90ca9a	-0.07069893
169	0xbcb950f2	-0.022621606
170	0xbc8cd9bb	-0.017193666
171	0xbe32700f	-0.1742556
172	0x3e5f888a	0.2182943
173	0x3db32895	0.08747975
174	0x3d3c7b70	0.046016157
175	0xbdfb6b13	-0.12276282
176	0xbe168b95	-0.14701684
177	0xbdda9158	-0.10672253
178	0xbe4c0fe6	-0.1992794
179	0x3d568eea	0.052382387
180	0x3d364690	0.044500887
181	0xbd305321	-0.043048028
182	0xbd4f2883	-0.050575744
183	0x3df1f318	0.118139446
184	0xbdc78233	-0.097416304
185	0x3e10a6c5	0.14126118
186	0xbdbabf15	-0.09118477
187	0xbdf5da31	-0.12004507
188	0x3d8e789a	0.06956597
189	0xbb3439aa	-0.002750019
190	0x3dc88613	0.09791198
191	0x3e2ecad9	0.17069568
192	0xbdcaf0a1	-0.099091776
193	0xbd01bb0c	-0.031672522
194	0xbc7378fa	-0.014860386
195	0xbba05e28	-0.004894037
196	0x3d9baf64	0.076018125
197	0xbdee3a97	-0.11632269
198	0x3df4716a	0.119356945
199	0xbd6aca1e	-0.05732166
200	0xbc69ccbc	-0.014270004
201	0xbdecdcc0	-0.11565542
202	0x3d1cab13	0.038249087
203	0x3d9d07ba	0.07667489
204	0x3d12997b	0.0357909
205	0x3dea78b1	0.11448801
206	0x3df5c5ed	0.12000642
207	0x3d8a12aa	0.06741841
208	0x3e2629aa	0.16226831
209	0x3d8779c4	0.06615022
210	0x3c331eec	0.010932665
211	0x3e20e1c6	0.15711126
212	0xbded99a0	-0.11601567
213	0x3d03db52	0.032191582
214	0x3c8faea7	0.017539335
215	0x3d8ffe5a	0.070309356
216	0xbd288212	-0.04113967
217	0x3c99d2ae	0.018777218
218	0x3dccf349	0.100073405
219	0x3e11f95b	0.14255278
220	0xbd20065d	-0.03906857
221	0xbe173082	-0.14764598
222	0x3d8021f5	0.06256477
223	0xbd4993c0	-0.04921317
224	0xbd319d1d	-0.043362726
225	0xbdf408ee	-0.11915766
226	0xbead8069	-0.33887032
227	0xbd4306f1	-0.04761404
228	0xbdb0085e	-0.08595346
229	0xbdfd41f5	-0.12366096
230	0x3d00fede	0.03149306
231	0xbd66d897	-0.0563589
232	0x3d4a2eb6	0.049360953
233	0x3d6c2aa1	0.05765784
234	0xbd2a77b7	-0.041618075
235	0x3db4fa13	0.0883676
236	0x3d8caae5	0.06868533
237	0x3dc80d60	0.09768176
238	0x3e469550	0.19392896
239	0xbdc59c85	-0.09648994
240	0xbddca611	-0.10773862
241	0xbcff1aef	-0.031140773
242	0xbe2b0a7b	-0.16703217
243	0x3cced084	0.025245912
244	0xbe1d6f95	-0.15374596
245	0x3dfd78fe	0.12376593
246	0xbd1abb53	-0.037776303
247	0x3df2b9e6	0.118518636
248	0x3e1337eb	0.143768
249	0xbd4e617c	-0.050385937
250	0x3d28f436	0.041248523
251	0x3e63ab9a	0.2223343
252	0x3ca656c8	0.020305052
253	0x3dd00eaf	0.10159051
254	0xbd1d4be9	-0.03840247
255	0x3e38baf7	0.18040071

model.0.bias f4 [64]
0	0xbe1fb2f0	-0.15595603
1	0x3d09d5a0	0.033650994
2	0xbd205a6c	-0.039148733
3	0x3e0aecbd	0.13566871
4	0xbd85be26	-0.065304086
5	0xbd7efc5c	-0.062252387
6	0x3c0686ce	0.008210851
7	0x3db2a815	0.08723465
8	0xbd960fef	-0.07327258
9	0xbe0d1f10	-0.1378138
10	0xbe10d454	-0.14143497
11	0x3d26712a	0.040635265
12	0xbe54af8a	-0.20770088
13	0xbda60f6f	-0.081084125
14	0x3d19dd04	0.037564293
15	0xbdabd99e	-0.083911166
16	0x3e154de4	0.14580494
17	0xbdc2cb9f	-0.09511494
18	0xbdcd94b4	-0.100381285
19	0xbd73a4cc	-0.059483334
20	0xbe06276f	-0.1310098
21	0x3e48ab6e	0.19596645
22	0xbcab4079	-0.020904766
23	0x3e26d556	0.16292319
24	0xbcddeecb	-0.027091404
25	0xbdabf3df	-0.08396124
26	0x3cdcf56c	0.026972495
27	0xbc8d6eb0	-0.017264694
28	0xba3f828e	-0.0007305526
29	0xbd96e770	-0.07368362
30	0x3e20ac63	0.1569076
31	0xbe19f1bb	-0.15033619
32	0x3d01c58f	0.031682547
33	0xbd236282	-0.039888866
34	0x3d0395ce	0.032125287
35	0xbd1d5b58	-0.03841719
36	0x3dafacc2	0.08577873
37	0xbcd85c70	-0.026411265
38	0xbd3a2d13	-0.045453142
39	0x3d911c49	0.07085473
40	0x3dc1bf20	0.09460282
41	0xbd37b58d	-0.044850875
42	0xbdb71684	-0.089398414
43	0x3b047454	0.0020210939
44	0xbdd26ab7	-0.102742605
45	0xbba45bab	-0.0050158105
46	0xbd388e58	-0.045057625
47	0x3e2c5811	0.1683047
48	0xbe1e35c7	-0.15450202
49	0xbe49b49a	-0.196978
50	0x3e1ab467	0.1510788
51	0x3e194731	0.14968564
52	0x3e06e8cd	0.13174744
53	0x3b2f1e6b	0.0026721011
54	0xbc1ad3d4	-0.009449918
55	0x3e1841b0	0.14868808
56	0x3e1f7b47	0.1557437
57	0x3d3d56b1	0.046225253
58	0xbe21cf74	-0.15801793
59	0x3d7f6449	0.0623515
60	0x3e1e7c20	0.15477037
61	0xbceb29d2	-0.028706465
62	0xbe2c9e2c	-0.16857213
63	0x3d68d221	0.05684102

model.1.weight f4 [64]
0	0x3f571a06	0.84024084
1	0x3f66cff3	0.90161055
2	0x3f6c67ac	0.9234569
3	0x3f4ba2f1	0.79545504
4	0x3f70df5e	0.9409083
5	0x3f5a73f7	0.853332
6	0x3f68a3e3	0.9087507
7	0x3f76e662	0.96445286
8	0x3f53006c	0.8242252
9	0x3f5596a8	0.8343301
10	0x3f78eb4c	0.97234035
11	0x3f43ddac	0.7651012
12	0x3f51ae19	0.81906277
13	0x3f83ed2d	1.0306755
14	0x3f740804	0.9532473
15	0x3f5fd82b	0.8743922
16	0x3f68ae4a	0.90890944
17	0x3f498d10	0.7873087
18	0x3f77c19c	0.967798
19	0x3f6f7f23	0.9355337
20	0x3f53b6fb	0.8270108
21	0x3f5b3f71	0.8564368
22	0x3f48bad4	0.7841008
23	0x3f65a0e9	0.89698654
24	0x3f77f29a	0.96854556
25	0x3f80bca1	1.0057565
26	0x3f6e45c5	0.9307521
27	0x3f5ee57d	0.8706892
28	0x3f62b682	0.88559735
29	0x3f782995	0.9693845
30	0x3f573570	0.84065914
31	0x3f4933a5	0.7859443
32	0x3f71ad71	0.94405276
33	0x3f705702	0.93882763
34	0x3f831d43	1.0243305
35	0x3f7a7a39	0.97842747
36	0x3f5d2946	0.86391103
37	0x3f563a7a	0.8368298
38	0x3f61cede	0.8820628
39	0x3f3b4f46	0.73167837
40	0x3f700fbc	0.9377401
41	0x3f5e3291	0.8679591
42	0x3f806447	1.0030602
43	0x3f75ddc7	0.9604153
44	0x3f72b481	0.9480668
45	0x3f77f793	0.96862143
46	0x3f52eee9	0.823958
47	0x3f56408d	0.83692247
48	0x3f7a35d0	0.9773836
49	0x3f72eb4b	0.9489028
50	0x3f4d8942	0.80287564
51	0x3f75f34c	0.96074367
52	0x3f53d269	0.82742935
53	0x3f735f6f	0.95067495
54	0x3f6165ee	0.8804616
55	0x3f42f5a4	0.7615607
56	0x3f5116c3	0.81675357
57	0x3f61cb9b	0.882013
58	0x3f5a37e9	0.8524156
59	0x3f7ac42c	0.97955585
60	0x3f6f9bad	0.9359692
61	0x3f7a3d4c	0.9774978
62	0x3f584c2a	0.8449122
63	0x3f704ddd	0.9386881

model.1.bias f4 [64]
0	0xbf349802	-0.70544446
1	0xbf1a03be	-0.6016196
2	0xbf10c450	-0.5654955
3	0xbf34fe0c	-0.70700145
4	0xbdb9f4e9	-0.09079916
5	0xbf17d2e9	-0.593062
6	0xbed000e9	-0.40625694
7	0xbe70a04a	-0.23498645
8	0xbf0915fd	-0.53549176
9	0xbf24e819	-0.6441665
10	0xbe70a804	-0.23501593
11	0xbf22d4b1	-0.6360579
12	0xbf224b5f	-0.6339626
13	0xbeaf8021	-0.34277442
14	0xbf178c2f	-0.5919828
15	0xbefa6f90	-0.4891324
16	0xbf14458c	-0.5791862
17	0xbf2f744b	-0.68536824
18	0xbdc478c5	-0.095933475
19	0xbf16c2f2	-0.5889121
20	0xbec672f1	-0.38759568
21	0xbf31c0ce	-0.6943482
22	0xbf37ec55	-0.7184499
23	0xbf2d95a9	-0.6780649
24	0xbe541961	-0.20712806
25	0xbe93b05f	-0.28845498
26	0xbeafb66e	-0.3431887
27	0xbe8b13fe	-0.2716369
28	0xbe8e9c04	-0.27853405
29	0xbe135c93	-0.14390783
30	0xbf224c73	-0.633979
31	0xbf3d3f83	-0.73925036
32	0xbeac9adf	-0.33711907
33	0xbee8c2fd	-0.45461264
34	0xbe2e5ed3	-0.1702836
35	0xbe45f5dd	-0.1933207
36	0xbeb93494	-0.36172926
37	0xbf3c1cf3	-0.73481673
38	0xbec542cc	-0.38527524
39	0xbf0d05ff	-0.55087274
40	0xbe8bb6eb	-0.27287993
41	0xbf1984c7	-0.5996823
42	0xbe4f91e2	-0.20270494
43	0xbef92b62	-0.4866591
44	0xbe83ad85	-0.25718322
45	0xbe67951d	-0.22615476
46	0xbf2f9cb1	-0.6859847
47	0xbf2d8568	-0.67781687
48	0xbe0fc086	-0.14038286
49	0xbe4fe819	-0.20303382
50	0xbf2546c4	-0.64561105
51	0xbec293e8	-0.3800347
52	0xbf2d9f6f	-0.678214
53	0xbed593ce	-0.4171433
54	0xbf0acad5	-0.5421575
55	0xbf29a6c4	-0.6627009
56	0xbee9792c	-0.4560026
57	0xbf271c82	-0.65277874
58	0xbf1f8541	-0.62312704
59	0xbe573fba	-0.21020404
60	0xbe88d51e	-0.26725096
61	0xbe637a64	-0.22214657
62	0xbf6936fc	-0.91099524
63	0xbeab7288	-0.33485818

model.1.running_mean f4 [64]
0	0xbef450b7	-0.4771783
1	0x3e9eca57	0.31013748
2	0xbf6d90cd	-0.92799073
3	0xbf7d583c	-0.9896276
4	0xbe3bfb98	-0.18357694
5	0xbe2ecf9c	-0.17071384
6	0x3b835dac	0.0040089693
7	0x3ebcdf92	0.3688932
8	0xbf9046b9	-1.1271583
9	0xbf0fd9d1	-0.56191736
10	0x3ee2c502	0.4429093
11	0xbf554ecf	-0.8332338
12	0xbf27bf33	-0.6552612
13	0xbe0b2814	-0.13589507
14	0xbf4cfbcd	-0.8007172
15	0x3f371c27	0.7152733
16	0x3e4783c2	0.19483855
17	0xbf31d0bb	-0.6945912
18	0xbe94398a	-0.2895015
19	0xbd240340	-0.040042162
20	0xbf18cf5c	-0.59691405
21	0x3d6edada	0.058314182
22	0xbf0ce002	-0.5502931
23	0x3f140568	0.5782075
24	0x3e88d250	0.26722956
25	0xbdc3c60c	-0.09559259
26	0xbf0b5937	-0.54433006
27	0x3e579c60	0.21055746
28	0x3e273c6c	0.16331643
29	0x3ea021b7	0.31275722
30	0xbeb8ebf0	-0.36117506
31	0xbf41621b	-0.7554032
32	0xbd2d9919	-0.042382333
33	0x3c51a61c	0.012795951
34	0x3e3bfd36	0.18358311
35	0xbd3bd18c	-0.045854136
36	0xbe05e48a	-0.13075462
37	0xbdb4f366	-0.08835487
38	0x3eeff8c1	0.46869472
39	0xbf7c1b4a	-0.9847914
40	0x3f279ba9	0.65471894
41	0xbd0b859a	-0.03406296
42	0xbe82e59e	-0.2556581
43	0x3edcff85	0.43163696
44	0xbe5e2ab7	-0.21695982
45	0xbd562b03	-0.052287113
46	0x3e49b0a8	0.19696295
47	0xbf280009	-0.65625054
48	0xbe4a8607	-0.1977769
49	0xbe348fb1	-0.17632939
50	0xbf1b87fa	-0.6075436
51	0x3db07d1d	0.086176135
52	0x3e2dd5c8	0.16976082
53	0x3eb84142	0.35987288
54	0xbe73e979	-0.23819532
55	0xbf90ac49	-1.1302577
56	0xbf04caef	-0.5187215
57	0xbf127edd	-0.5722483
58	0xbf45701b	-0.77124184
59	0x3e8ef0e8	0.27918172
60	0x3f383c4a	0.71966994
61	0x3e57cdbc	0.21074575
62	0x3d6f8b99	0.05848274
63	0x3d827abe	0.063710675

model.1.running_var f4 [64]
0	0x3dbb20b0	0.09137094
1	0x3dd6d55b	0.10489913
2	0x3e85f9dc	0.2616719
3	0x3f001cec	0.5004413
4	0x3ea2ee37	0.31822369
5	0x3da33a14	0.07970062
6	0x3e31831e	0.17335173
7	0x3e049cd8	0.12950456
8	0x3ee8d2f3	0.4547344
9	0x3e19dd9e	0.15025946
10	0x3e4fea75	0.20304282
11	0x3e9e8851	0.30963376
12	0x3e1c8fc8	0.15289223
13	0x3dfbd431	0.12296332
14	0x3e836abc	0.2566737
15	0x3e3a486f	0.18191694
16	0x3d6d77a7	0.057975437
17	0x3e427ee3	0.18993716
18	0x3e2953b7	0.16535841
19	0x3dede03a	0.116150334
20	0x3e2db2d0	0.16962743
21	0x3d55e846	0.052223466
22	0x3e200998	0.1562866
23	0x3e4b99ea	0.19882932
24	0x3e392144	0.18079096
25	0x3d9c6885	0.07637123
26	0x3e0e9e72	0.1392763
27	0x3d840eff	0.06448173
28	0x3e4ac344	0.1980105
29	0x3dae9078	0.08523649
30	0x3e0556fb	0.13021462
31	0x3e00d740	0.12582111
32	0x3df5d411	0.12003339
33	0x3e09a9f7	0.13443743
34	0x3dbc4466	0.091927335
35	0x3e463cc2	0.19359115
36	0x3dd3dabd	0.103444554
37	0x3d741580	0.059590816
38	0x3e588ae3	0.21146731
39	0x3ea757fb	0.3268431
40	0x3e4c9b18	0.19981039
41	0x3e0ce59a	0.13759461
42	0x3e2d241a	0.16908303
43	0x3dfa20db	0.12213298
44	0x3d4385a8	0.047734886
45	0x3df474d8	0.11936349
46	0x3e035e75	0.12829001
47	0x3e5d5551	0.21614577
48	0x3e8f6dfc	0.280136
49	0x3d77a1b2	0.06045694
50	0x3e34b580	0.17647362
51	0x3e509a94	0.20371467
52	0x3d2afb13	0.04174335
53	0x3d69f0e2	0.05711449
54	0x3e8dd7e3	0.2770377
55	0x3f07ebc2	0.5309411
56	0x3e4e4495	0.2014335
57	0x3e8424b0	0.2580924
58	0x3e0c8a5c	0.13724655
59	0x3dc98430	0.09839666
60	0x3e81c597	0.25346062
61	0x3e5ab1f8	0.21356952
62	0x3d9da53b	0.07697531
63	0x3d7c42ea	0.06158725

model.4.weight f4 [32, 64]
0	0x3b25c42e	0.0025293934
1	0x3c478789	0.01217831
2	0xbddf328a	-0.108983114
3	0xbab91fd7	-0.0014123869
4	0x3d0b251b	0.033970933
5	0xbd154307	-0.036440875
6	0xbc4829fa	-0.012217039
7	0x3b0ca2b4	0.0021459283
8	0xbd768c9b	-0.060192686
9	0xbe62566c	-0.2210328
10	0xbd80746c	-0.06272206
11	0xbd8f52eb	-0.06998237
12	0xbd051720	-0.032492757
13	0x3d71599e	0.058923356
14	0xbda1525f	-0.07877039
15	0xbd4ea301	-0.05044842
16	0x3c442f97	0.011974237
17	0x3cc61e24	0.024184294
18	0x3d8c16d3	0.06840291
19	0xbcb885b1	-0.022524687
20	0x3d8ac02a	0.06774934
21	0xbc936690	-0.017993242
22	0x3c9ae1f4	0.018906571
23	0xbd5d2dfa	-0.053998925
24	0x3d25d88a	0.04048971
25	0x3e4a182a	0.1973578
26	0x3d23b455	0.0399669
27	0xbcfaf4d3	-0.03063432
28	0xbc6136c7	-0.01374597
29	0x3d7c90cb	0.061661523
30	0xbdc4b88f	-0.09605514
31	0xbd7c9723	-0.061667573
32	0xbcd298bb	-0.025707593
33	0xbdee861c	-0.11646673
34	0x3cb8c8b7	0.022556646
35	0xbaabc4bf	-0.00131049
36	0xbda6c33e	-0.08142708
37	0xbe4ff217	-0.20307194
38	0x3e180840	0.14846897
39	0xbcd6983c	-0.026195638
40	0x3c7dfa88	0.015501626
41	0xbe11c666	-0.14235839
42	0x3d8d54b9	0.06900925
43	0xbdb7859d	-0.089610316
44	0x3d2b9523	0.041890275
45	0xbd68c1c9	-0.056825433
46	0xbe0667e1	-0.13125564
47	0xbd4777d2	-0.048698254
48	0x3d555c3e	0.052089922
49	0xba38d5fa	-0.0007050928
50	0x3d93297f	0.07185649
51	0xbd120d80	-0.035657406
52	0xbd9127dd	-0.070876814
53	0xbd8d13c7	-0.06888538
54	0x3d445642	0.047933824
55	0x3cebfc52	0.02880684
56	0xbdd94c68	-0.106102765
57	0xbd999497	-0.074990444
58	0x3d7bf4d2	0.061512776
59	0x3dd55f9f	0.10418629
60	0xbdc23041	-0.0948186
61	0x3d8cdd0a	0.06878097
62	0xbd9d1847	-0.07670646
63	0x3d544850	0.051826775
64	0x3be4a766	0.0069779633
65	0x3d9e33a4	0.077246934
66	0x3cfa5b41	0.030561091
67	0x3dd95689	0.106122084
68	0xbd9a2f61	-0.07528568
69	0x3de0b1a8	0.10971385
70	0xbdaba061	-0.08380199
71	0xbd046827	-0.03232589
72	0x3d9d26a0	0.07673383
73	0x3cf077f6	0.029354077
74	0x3d574d78	0.052564114
75	0x3de89e3f	0.11358308
76	0x3d99a0a0	0.0750134
77	0xbd82acde	-0.06380628
78	0x3d29dcc4	0.041470304
79	0x3d3c01fc	0.04590033
80	0x3d72e35c	0.059298858
81	0x3d6e98b2	0.05825109
82	0xbda44037	-0.080200605
83	0x3dc167f8	0.094436586
84	0x3cf3098d	0.02966764
85	0x3de47939	0.11155934
86	0x3d504790	0.050849497
87	0x3dc9d88d	0.09855757
88	0xbdd1db64	-0.102469236
89	0xbdd09281	-0.101841934
90	0xbc59482d	-0.013261837
91	0xbd2129eb	-0.039346617
92	0xbde8c458	-0.113655746
93	0xbd9ab00d	-0.0755311
94	0x3d976902	0.073930755
95	0x3dd1764f	0.10227644
96	0xbd7d870d	-0.061896373
97	0x3d88eb97	0.0668556
98	0xbd7d97df	-0.061912414
99	0xbd8ce26b	-0.06879123
100	0x3d0d42f7	0.03448769
101	0x3db662e9	0.08905584
102	0x3d86a4ce	0.06574403
103	0x3e2d4623	0.16921286
104	0xbd219c4e	-0.039455704
105	0x3d4b339e	0.049609773
106	0xbda8c5c0	-0.08240843
107	0x3d92c984	0.07167342
108	0xbdb53c6a	-0.08849414
109	0xbd93e1aa	-0.072207764
110	0x3e13dddd	0.14440103
111	0x3da84def	0.0821799
112	0xbdae07be	-0.084975705
113	0xbd7851c1	-0.06062484
114	0x3d9516dc	0.07279751
115	0xbd77d4c6	-0.06050565
116	0x3e06406f	0.13110517
117	0x3d7b018f	0.061280783
118	0x3cfac63b	0.030612102
119	0x3dba2ff8	0.090911806
120	0x3ca3f709	0.020015256
121	0x3d4355b5	0.04768916
122	0x3d5e6736	0.05429765
123	0xbda278d1	-0.079332
124	0x3d075194	0.033036783
125	0xbd97ccfb	-0.07412144
126	0x3e48d31b	0.1961178
127	0xbdbe71a2	-0.092990175
128	0x3e6b1df6	0.22960648
129	0xbca0dc86	-0.019636404
130	0x3e12c660	0.14333487
131	0xbd17c821	-0.037056092
132	0x3d6a1b42	0.0571549
133	0xbc5b2303	-0.013375047
134	0x3c7c7d8f	0.015410795
135	0xbd95249d	-0.07282374
136	0x3d3efe9e	0.04662954
137	0x3de95737	0.11393588
138	0x3c80fb44	0.015744813
139	0x3cdfda6f	0.027325837
140	0xbd6b43c3	-0.05743767
141	0xbd738686	-0.059454463
142	0x3e2412fd	0.16022868
143	0xbd9e0f72	-0.0771779
144	0x3d97c4df	0.07410597
145	0x3dcfacc9	0.10140378
146	0x3ce31faf	0.027725069
147	0xbc317a2a	-0.010832349
148	0x3bb66cb1	0.0055671562
149	0xbc430212	-0.011902349
150	0x3d22e812	0.0397721
151	0xbd9e8d00	-0.07741737
152	0xbd38f732	-0.04515762
153	0x3d9da914	0.07698265
154	0x3d3eb83d	0.046562422
155	0xbdc6abdc	-0.09700748
156	0xbcb0e8c3	-0.021595364
157	0x3da8e6cc	0.08247146
158	0xbd62b4a6	-0.05534806
159	0xbc926488	-0.017870203
160	0x3dd0a066	0.101868436
161	0xbe379b06	-0.1793023
162	0x3cd7f849	0.026363509
163	0xbc842fc9	-0.016136067
164	0xbda12991	-0.07869256
165	0x3be93aff	0.0071176286
166	0xbbfc1e77	-0.0076940614
167	0x3d589600	0.052877426
168	0xbccef2c6	-0.025262248
169	0xbd6f06c1	-0.05835605
170	0x3d3e152b	0.046406906
171	0xbdcb0a7e	-0.099141106
172	0xbd93d8c1	-0.07219077
173	0x3d19fdd6	0.037595592
174	0xbc806321	-0.015672268
175	0x3c945e9d	0.018111521
176	0x3cbf9256	0.023385208
177	0xbd133dfb	-0.03594778
178	0x3d40a68f	0.047033843
179	0xbcba0d0c	-0.0227113
180	0x3d1e6415	0.038669664
181	0xbd542bcd	-0.051799584
182	0x3e3245c0	0.1740942
183	0x3ceb710c	0.028740428
184	0x3e2f951e	0.17146727
185	0x3dace226	0.08441572
186	0x3e154c25	0.14579828
187	0xbc932f42	-0.01796687
188	0xbe08d1d1	-0.13361289
189	0xbd3d24ef	-0.0461778
190	0xbdbfd0f6	-0.09366028
191	0x3d116f82	0.035506733
192	0xbd9bc1d0	-0.07605326
193	0xbd302a43	-0.043009054
194	0xbd7dc406	-0.06195452
195	0xbb4fbf54	-0.0031699734
196	0x3dbb7bb8	0.09154457
197	0x3d584d73	0.052808236
198	0x3c71397e	0.01472318
199	0x3d894a67	0.06703644
200	0xbca45ad8	-0.020062849
201	0xbd3a17a7	-0.045432713
202	0xbd142adc	-0.036173686
203	0xbb235349	-0.0024921468
204	0x3b97e94b	0.004635965
205	0x3dd02e59	0.1016509
206	0xbda8916a	-0.082308605
207	0xbdbb64c8	-0.09150082
208	0xbd8a213c	-0.0674462
209	0xbd9f33e6	-0.07773571
210	0x3d7b685e	0.06137883
211	0xbc99e815	-0.018787423
212	0x3dab3d4c	0.08361301
213	0xbdf6c60e	-0.12049495
214	0xbd353f6c	-0.044249937
215	0xbe03bd10	-0.1286509
216	0x3dda1f60	0.106505156
217	0x3df410ec	0.1191729
218	0x3d821108	0.06350905
219	0x3d159a6d	0.036524225
220	0x3d6fbf73	0.05853219
221	0x3da2a93e	0.07942437
222	0xbd36cb54	-0.044627503
223	0xbdc6c51f	-0.097055666
224	0x3d115218	0.03547868
225	0x3c91e286	0.01780821
226	0x3db9926a	0.090611294
227	0x3dac9b7d	0.084280945
228	0xbd9e7b8d	-0.07738409
229	0xbdb044a3	-0.086068414
230	0xbdd65f95	-0.104674496
231	0xbdafa22b	-0.08575853
232	0x3d866f55	0.06564204
233	0x3ab1d540	0.0013567582
234	0x3dda50c2	0.106599346
235	0xbe398c35	-0.18119891
236	0x3dc9ab5e	0.09847139
237	0x3d6fdbee	0.05855935
238	0xbc734edd	-0.014850345
239	0x3acb7d6b	0.0015525048
240	0x3dc049d4	0.093890816
241	0x3d1f8878	0.038948506
242	0xbd731f56	-0.059356056
243	0x3dd07e4f	0.101803415
244	0xbd6c355b	-0.05766807
245	0xbd341fc0	-0.04397559
246	0xbce8b1c2	-0.028405074
247	0xbd9fc1f9	-0.07800669
248	0xbd012639	-0.031530593
249	0xbdf0f45a	-0.11765356
250	0xbdaa16fb	-0.083051644
251	0x3d996667	0.07490235
252	0x3ca1cd08	0.019751087
253	0x3dfa2a34	0.12215081
254	0xbe048c95	-0.12944253
255	0x3d82c6d6	0.06385581

model.4.bias f4 [32]
0	0xbce22d5d	-0.027609522
1	0x3d616787	0.055030372
2	0x3e061642	0.13094428
3	0x3cc25a2d	0.02372464
4	0x3d576cdf	0.052594062
5	0x3cf84b49	0.030309336
6	0xbd9c0f76	-0.076201364
7	0x3d28ee0d	0.041242648
8	0xbbe93914	-0.0071174
9	0x3d1816d4	0.037131146
10	0x3e12877c	0.14309496
11	0x3dc1d46c	0.094643444
12	0xbd938580	-0.072031975
13	0xbd9239f3	-0.07139959
14	0xbe0273ec	-0.12739533
15	0x3dba4eab	0.09097036
16	0xbc8f72e3	-0.017510837
17	0xbdbdc188	-0.09265429
18	0x3d4d39f5	0.0501041
19	0xbdb4602d	-0.088074066
20	0x3de5e981	0.11226178
21	0xbe047a97	-0.1293739
22	0xbe1295ca	-0.14314952
23	0x3c4e5222	0.012592824
24	0x3c0a633a	0.008446509
25	0x3da11c52	0.0786673
26	0x3d43ec7e	0.04783296
27	0xbca09fd1	-0.019607456
28	0x3d5fe012	0.05465705
29	0x3d8542ef	0.06506907
30	0xbdd2dd2e	-0.10296093
31	0x39e40ab0	0.00043495512

model.5.weight f4 [32]
0	0x3f7c0913	0.98451346
1	0x3f6ebec0	0.9325981
2	0x3f734f03	0.9504244
3	0x3f5d1b72	0.86370003
4	0x3f735cdb	0.9506356
5	0x3f665e7c	0.8998792
6	0x3f71d103	0.9445955
7	0x3f814453	1.0098976
8	0x3f77fc1b	0.9686906
9	0x3f708fa7	0.93969196
10	0x3f6dca5f	0.9288692
11	0x3f66193a	0.8988224
12	0x3f71127c	0.9416883
13	0x3f7b1df1	0.9809256
14	0x3f5ee200	0.870636
15	0x3f6fbe75	0.9364999
16	0x3f6b853c	0.92000175
17	0x3f860c7d	1.0472561
18	0x3f7b080a	0.9805914
19	0x3f6c80c1	0.9238396
20	0x3f865a88	1.0496378
21	0x3f8839ed	1.0642678
22	0x3f8185b5	1.0118929
23	0x3f5d151b	0.8636033
24	0x3f5d740a	0.86505187
25	0x3f7a725c	0.9783075
26	0x3f61f09e	0.8825778
27	0x3f6ede23	0.93307704
28	0x3f7c3bf5	0.9852899
29	0x3f7d909d	0.9904879
30	0x3f5619d6	0.8363317
31	0x3f777318	0.96659994

model.5.bias f4 [32]
0	0xbdbe4f4f	-0.09292471
1	0xbedc0deb	-0.4297937
2	0xbe07d8b7	-0.13266264
3	0xbe307f7f	-0.17236136
4	0xbf08a56f	-0.5337743
5	0xbf105f06	-0.56394994
6	0x3d08cd7c	0.03339909
7	0xbed94727	-0.42437097
8	0xbe922d49	-0.28550175
9	0xbeb01ffd	-0.34399405
10	0xbe19527e	-0.14972875
11	0xbeebcba7	-0.46053812
12	0xbdc15a46	-0.094410464
13	0xbef3d3dd	-0.47622576
14	0xbd642d6d	-0.055707384
15	0xbeea9664	-0.45817864
16	0xbde33cba	-0.11095567
17	0xbf15e8e1	-0.5855847
18	0xbc70504f	-0.014667585
19	0xbe904752	-0.28179413
20	0xbe9796e1	-0.296073
21	0xbc8681ea	-0.01641937
22	0xbe067d1a	-0.1313366
23	0xbeaa8375	-0.3330342
24	0xbe709547	-0.23494445
25	0xbec27f63	-0.37987813
26	0xbf16e0ab	-0.58936566
27	0xbf0eb8c8	-0.55750704
28	0xbeee429b	-0.4653519
29	0xbc70c719	-0.014695906
30	0xbf1f2af6	-0.6217493
31	0xbe8e6202	-0.2780915

model.5.running_mean f4 [32]
0	0x3e1b0df7	0.15142046
1	0xbece1e87	-0.40257666
2	0x3dcd8780	0.1003561
3	0x3efaae3e	0.4896106
4	0xbeb24561	-0.34818557
5	0xbeb5265f	-0.35380837
6	0x3da51233	0.08060112
7	0xbebfb5bd	-0.37443343
8	0xbee3a3ef	-0.4446101
9	0xbb3a8222	-0.0028458913
10	0xbd7c4aa1	-0.06159461
11	0xbe991710	-0.29900408
12	0x3e5bef36	0.2147797
13	0xbf019f0c	-0.5063331
14	0xbec5283e	-0.38507265
15	0xbecaa1c1	-0.39576533
16	0xbc9a4ead	-0.018836344
17	0xbf1ee4d7	-0.6206793
18	0x3edc8f53	0.43078098
19	0xbeb4c888	-0.35309243
20	0x3e7006a1	0.23440029
21	0x3dcc70c8	0.09982449
22	0xbef4c911	-0.47809651
23	0xbdd5f6b8	-0.104474485
24	0xbdc19c7b	-0.094536744
25	0xbe6f8a61	-0.23392631
26	0xbed7ac4f	-0.4212365
27	0xbea8c4c2	-0.32962614
28	0xbec5a15d	-0.38599673
29	0x3efd2734	0.49443972
30	0xbf116de7	-0.5680832
31	0xbe47203e	-0.19445893

model.5.running_var f4 [32]
0	0x3e06ccbd	0.13164039
1	0x3e149f2f	0.14513849
2	0x3ece8005	0.40332046
3	0x3ddf20a1	0.10894895
4	0x3e99527b	0.2994574
5	0x3eab42e8	0.33449483
6	0x3dcf4184	0.10119918
7	0x3deb53c2	0.11490585
8	0x3e87007e	0.26367563
9	0x3da9844a	0.08277185
10	0x3ebd8108	0.37012506
11	0x3dcce62b	0.100048386
12	0x3e98ddb1	0.29856637
13	0x3def6976	0.11690037
14	0x3ea0229c	0.31276405
15	0x3e2ce5ea	0.1688458
16	0x3e4feccc	0.20305175
17	0x3e1938b6	0.1496304
18	0x3dbbd29c	0.0917103
19	0x3ee4da86	0.4469797
20	0x3d8d4720	0.06898332
21	0x3da864f8	0.08222383
22	0x3e85f29e	0.26161665
23	0x3ec9ade1	0.39390472
24	0x3e0c8a0b	0.13724534
25	0x3dbd5f76	0.09246723
26	0x3da52dc0	0.08065367
27	0x3e954707	0.29155752
28	0x3dd88241	0.10571719
29	0x3df6b30a	0.12045868
30	0x3dfe7b4e	0.12425862
31	0x3f10b1a1	0.5652104

model.8.weight f4 [16, 32]
0	0x3c897f78	0.016784415
1	0xbe4a9596	-0.19783625
2	0x3ad95c1f	0.001658324
3	0xbd056af8	-0.032572716
4	0x3d2c16c9	0.042013917
5	0x3d69b0a0	0.05705321
6	0xbe6fbc61	-0.23411705
7	0xbe4ec075	-0.20190604
8	0xbe3f64b6	-0.18690762
9	0xbd0aa989	-0.033853088
10	0xbc73eea1	-0.0148884365
11	0x3d943047	0.07235771
12	0x3d4f375c	0.050589904
13	0xbe3e16cd	-0.18563385
14	0xbdd96f59	-0.10616941
15	0xbe2f5f40	-0.17126179
16	0x3cad785e	0.02117556
17	0xbde36667	-0.11103516
18	0x3d9b9976	0.0759763
19	0xbdbf59a2	-0.09343268
20	0xbdca0f38	-0.09866184
21	0xbd326729	-0.043555412
22	0xbe2a96d8	-0.16659105
23	0xbe25d647	-0.16195022
24	0x3cabaa3d	0.0209552
25	0x3df95f3b	0.12176367
26	0xbd0e7640	-0.03478074
27	0x3d1d6078	0.038422078
28	0xbe460b5a	-0.19340268
29	0x3d2be7fc	0.041969284
30	0xbce128e8	-0.027485326
31	0x3d980f1f	0.07424759
32	0x3cbac276	0.022797804
33	0xbe4de924	-0.20108467
34	0x3d378b64	0.044810668
35	0x3c023ef8	0.007949583
36	0x3d8c78d8	0.068589866
37	0x3d620d87	0.055188682
38	0xbd48f3c0	-0.049060583
39	0xbe5a05f6	-0.21291336
40	0xbe378753	-0.17922716
41	0xbde0b8cb	-0.109727465
42	0xbd82a934	-0.06379929
43	0x3cc34f01	0.023841383
44	0xbca31613	-0.019907987
45	0xbe513a5c	-0.20432419
46	0xbdaa9030	-0.08328283
47	0xbe460082	-0.19336131
48	0xbc7e9c34	-0.015540171
49	0xbdf0cd3d	-0.11757896
50	0xbc821a5b	-0.015881708
51	0xbe22eac5	-0.1590987
52	0xbe0c6cea	-0.13713422
53	0xbccdfce8	-0.02514501
54	0xbe063dcc	-0.13109511
55	0xbde55457	-0.11197727
56	0x3b911602	0.0044276724
57	0x3e035015	0.12823518
58	0xbd873a43	-0.066029094
59	0x3d73fea8	0.05956903
60	0xbe52e077	-0.20593439
61	0xbb3fe483	-0.002928049
62	0x3aed182a	0.0018088866
63	0x3d47eaa5	0.04880776
64	0x3ba516d7	0.005038123
65	0xbd093e97	-0.033506956
66	0xbe0738a6	-0.13205203
67	0xbd4178aa	-0.047234215
68	0x37e7c650	2.7629692e-05
69	0xbd8dba53	-0.06920304
70	0x3d9ad409	0.07559974
71	0xbc8e4e81	-0.017371418
72	0xbb8b02ad	-0.0042422623
73	0x3d611326	0.054949902
74	0xbd1349f9	-0.035959218
75	0x3bb13d7b	0.0054089404
76	0xbe2b1b58	-0.1670965
77	0xbd849b7b	-0.06474968
78	0xbdc0e9b5	-0.09419576
79	0xbd774c95	-0.06037577
80	0xbdffb979	-0.12486548
81	0xbe109472	-0.14119127
82	0xbdb3d9a8	-0.08781749
83	0xbd12d6e7	-0.035849478
84	0x3da617aa	0.08109982
85	0x3dc8fc06	0.09813695
86	0x3d587a2f	0.0528509
87	0xbce078e4	-0.027401395
88	0xbbda98d1	-0.006671049
89	0x3d6d8a1d	0.057993043
90	0xbe99c35f	-0.3003187
91	0xbe0bad93	-0.13640432
92	0xbd2303f0	-0.039798677
93	0xbdd820b5	-0.10553113
94	0xbe951f7a	-0.29125577
95	0xbda6a367	-0.08136635
96	0xbc9528f4	-0.018208005
97	0xbe2d998b	-0.16953103
98	0x3d64e747	0.055884626
99	0xbdab6a6e	-0.08369909
100	0x3d94ec11	0.072715886
101	0x3b864341	0.0040973728
102	0x3d42eb60	0.047587752
103	0xbe29cd5c	-0.16582245
104	0xbe27be5d	-0.16381212
105	0x3cbfd03c	0.023414724
106	0xbdfdf5fd	-0.12400434
107	0x3d7ac092	0.061218806
108	0xbccc240a	-0.024919529
109	0xbe59d89c	-0.21274036
110	0xbdd4b8ff	-0.10386848
111	0xbe3e9d7b	-0.18614762
112	0x3d6252b9	0.05525467
113	0xbe782e87	-0.24236499
114	0xbe144386	-0.14478883
115	0xbe571c44	-0.21006876
116	0xbe97ca3a	-0.29646474
117	0x3d6c6ac3	0.057719003
118	0xbd86da07	-0.06584554
119	0xbc94b123	-0.018150872
120	0xbd512073	-0.051056337
121	0x3c3e30a6	0.011608278
122	0xbe2509c1	-0.16117002
123	0x3d8f58ce	0.0699936
124	0xbe50df03	-0.20397572
125	0xbd53e2e6	-0.05173006
126	0xbdb6114e	-0.08890019
127	0x3d4da71e	0.050208203
128	0xbdb2b8c7	-0.0872665
129	0x3d077c41	0.033077482
130	0x3d78d459	0.060749386
131	0xbe5b19e4	-0.21396595
132	0xbea9f350	-0.33193445
133	0xbde01c10	-0.109428525
134	0x3d1b2a50	0.03788215
135	0x3d648454	0.05579026
136	0x3d614204	0.054994598
137	0x3ddd4a95	0.10805241
138	0xbdff84a8	-0.12476474
139	0xbeb3c493	-0.35110912
140	0x3e1f0a0a	0.15531173
141	0x3c710a38	0.014711909
142	0xbd5d5c04	-0.05404283
143	0x3d71f875	0.059074838
144	0xbdbd6cac	-0.09249243
145	0xbd10dccc	-0.03536682
146	0x3c944322	0.018098418
147	0x3bfc750e	0.0077043837
148	0x3dafb6d8	0.085797966
149	0x3d5b785e	0.053581588
150	0xbc5db56f	-0.013532027
151	0xbd940e2f	-0.07229268
152	0xbe52d1d9	-0.20587863
153	0xbe4e582f	-0.20150827
154	0xbd1aead0	-0.03782159
155	0xbe4bab79	-0.1988963
156	0x3d281750	0.041037858
157	0xbdf903d9	-0.12158937
158	0xbe1aaca1	-0.15104915
159	0xbb0f3477	-0.002185134
160	0x3d331835	0.043724257
161	0x3c6dfd73	0.014525759
162	0xbe8824c3	-0.26590547
163	0xbd3842cc	-0.044985577
164	0xbd277755	-0.04088529
165	0xbe7c0885	-0.24612625
166	0x3d9523f8	0.07282251
167	0x3c7a94b2	0.015294241
168	0xbbf838ca	-0.007575129
169	0x3ce5c514	0.028048076
170	0xbd94f6c3	-0.072736286
171	0xbd33ca44	-0.043894067
172	0xbe974ceb	-0.2955087
173	0xbc95145e	-0.018198188
174	0x3ce54f43	0.027991896
175	0x3c3af05c	0.011409845
176	0xbcb5efe2	-0.022209112
177	0xbd424298	-0.04742679
178	0xbc83d916	-0.016094726
179	0x3d90f652	0.07078232
180	0x3bffb8c6	0.007804009
181	0x3dd0932e	0.10184322
182	0x3d8e0cad	0.069360115
183	0x3d581ba8	0.05276075
184	0xbd608e85	-0.054823417
185	0x3b87c0b7	0.0041428464
186	0xbe1f9936	-0.15585789
187	0xbe44beb5	-0.19213374
188	0x3d04357a	0.03227756
189	0xbd90c1fe	-0.07068251
190	0xbe65bbd9	-0.2243494
191	0xbe8aa8f1	-0.27082017
192	0xbe359cdd	-0.1773562
193	0x3c5bbbdb	0.013411487
194	0x3bfd53bf	0.0077309306
195	0xbd203525	-0.039113183
196	0xbe7fd386	-0.24983034
197	0xbe01bd23	-0.12669806
198	0x3db0078b	0.08595189
199	0x3d544d58	0.051831573
200	0x3d1f85f0	0.038946092
201	0x3e01171a	0.12606469
202	0xbd05bd6d	-0.032651354
203	0xbecaa2d0	-0.3957734
204	0x3cb4a599	0.02205162
205	0x3d514ba3	0.051097523
206	0xbd8a72d2	-0.067601815
207	0x3c7e92c3	0.01553792
208	0x3da7ef2e	0.08199917
209	0x3cfaf544	0.03063453
210	0xbe0c2ac7	-0.13688193
211	0xbd49d9a7	-0.049279835
212	0x3da94080	0.082642555
213	0x3d0dc53a	0.034611918
214	0xbd1e78bf	-0.03868937
215	0xbd88c089	-0.06677348
216	0xbeb670bd	-0.35632887
217	0xbe6bf799	-0.2304367
218	0xbc360860	-0.011110395
219	0xbe0a790a	-0.13522735
220	0x3d43db49	0.04781655
221	0xbc9f63c8	-0.01945676
222	0xbc958d04	-0.018255718
223	0xbb546c80	-0.0032413304
224	0x3d178dab	0.03700034
225	0xbe3095e9	-0.17244686
226	0x3bb1dd51	0.0054279943
227	0x3d536a01	0.051614765
228	0x3d850628	0.06495315
229	0x3d23f983	0.040032875
230	0xbe4148a6	-0.1887537
231	0xbe29133a	-0.1651124
232	0xbe1146fe	-0.14187238
233	0xbd0819bb	-0.033227663
234	0xbd85de83	-0.06536581
235	0x3cf917d0	0.030406862
236	0x3d52ee7d	0.05149697
237	0xbe0dc1a1	-0.13843395
238	0xbdb29ab5	-0.08720914
239	0xbe28efbe	-0.16497704
240	0x3d41ff72	0.047362752
241	0xbd960b69	-0.07326395
242	0x3da6699d	0.08125613
243	0xbd94a202	-0.07257463
244	0xbd3ddb31	-0.046351615
245	0xbe9cf903	-0.3065873
246	0xbe331db2	-0.17491797
247	0xbe20b3b6	-0.15693554
248	0x3d21924f	0.03944617
249	0x3dfea850	0.12434447
250	0xbd5df155	-0.05418523
251	0x3cf9368c	0.030421518
252	0xbe125493	-0.14290075
253	0x3dacb3ea	0.084327534
254	0xbc908779	-0.017642723
255	0x3dac0b97	0.08400648

model.8.bias f4 [16]
0	0xbd7737b5	-0.06035586
1	0xbe126c22	-0.14299062
2	0xbe349897	-0.17636333
3	0x3dc276da	0.094953254
4	0x3c6cd53d	0.014455137
5	0xbdd7c2dc	-0.10535213
6	0xbc873602	-0.016505245
7	0xbdcff714	-0.10154548
8	0xbe146c38	-0.14494407
9	0xbd808dd1	-0.06277049
10	0xbbd4dbd8	-0.006495934
11	0xbd1d4cbb	-0.038403254
12	0x3cf2cd44	0.029638894
13	0x3e01a466	0.1266037
14	0x3d346ae5	0.044047255
15	0x3ddae23d	0.10687683

model.9.weight f4 [16]
0	0x3f59a596	0.8501829
1	0x3f6a84d5	0.91608936
2	0x3f196a50	0.59927845
3	0x3f4f8197	0.81057113
4	0x3f207c16	0.6268934
5	0x3f3f2df6	0.74679506
6	0x3f3a0178	0.7265849
7	0x3f75dd8c	0.9604118
8	0x3f57e211	0.84329325
9	0x3f5c9f2d	0.8618038
10	0x3f32af1e	0.6979846
11	0x3f27fb26	0.656176
12	0x3f7b3b0a	0.9813696
13	0x3f492dc3	0.7858545
14	0x3f3ca069	0.73682266
15	0x3f7198c1	0.9437371

model.9.bias f4 [16]
0	0x3f41bf9c	0.75683
1	0x3f64712b	0.8923518
2	0x3f764d35	0.9621156
3	0x3f660d3e	0.89863956
4	0x3f8135ad	1.0094506
5	0x3f5293f5	0.82257015
6	0x3f6bcac7	0.9210629
7	0x3f3e0d8f	0.7423944
8	0x3f2aa660	0.6666012
9	0x3f42add4	0.7604649
10	0x3f66275e	0.8990382
11	0x3f7674da	0.9627205
12	0x3f57d2d9	0.84306103
13	0x3f4f5b68	0.8099885
14	0x3f556c41	0.8336831
15	0x3f6ebd25	0.9325736

model.9.running_mean f4 [16]
0	0xbe508467	-0.20363007
1	0xbe865d50	-0.26243067
2	0xbe6f26b2	-0.23354605
3	0xbd08c395	-0.033389647
4	0xbda2c483	-0.07947638
5	0xbe422ffe	-0.1896362
6	0xbdd8b81a	-0.105819896
7	0xbe7e38da	-0.24826375
8	0xbe9f3f76	-0.31103104
9	0xbe190746	-0.14944181
10	0xbd3fa2da	-0.046786167
11	0xbe341839	-0.17587365
12	0xbe022d6f	-0.12712644
13	0x3dbc23c6	0.09186511
14	0xbd65cf7c	-0.056106076
15	0xbd403e29	-0.04693428

model.9.running_var f4 [16]
0	0x3f5ce4e7	0.8628678
1	0x3f4d3d3d	0.8017157
2	0x3e289b28	0.16465437
3	0x3f13891c	0.5763109
4	0x3e619015	0.22027619
5	0x3ed5dc9d	0.41769877
6	0x3e3022a3	0.17200713
7	0x3f7f9c4c	0.99847865
8	0x3f8cef2c	1.101049
9	0x3ef2b548	0.47403932
10	0x3ec6565e	0.38737768
11	0x3e3e0a93	0.18558721
12	0x3f9bd45c	1.2174182
13	0x3f1016d8	0.56284857
14	0x3f20a387	0.6274952
15	0x3f88354f	1.0641268

model.12.weight f4 [1, 16]
0	0x3ed23296	0.4105422
1	0x3eb8c586	0.36088198
2	0x3ebbb879	0.3666418
3	0x3ebf7104	0.37390912
4	0x3eb676c0	0.35637474
5	0x3ec70b7f	0.38875958
6	0x3eba3efc	0.36376178
7	0x3ec54622	0.3853007
8	0x3edf73c3	0.43643007
9	0x3ecbd117	0.3980796
10	0x3ec6c17b	0.3881949
11	0x3ebb08e6	0.36530226
12	0x3eb95365	0.36196437
13	0x3ece3295	0.40272966
14	0x3ed04949	0.40680912
15	0x3eafa8e7	0.3430855
