neuralnet/Hyperparameter sweeps/Hyperparameter sweep round 1/bike_volume_model_net_2layer_lr_0.00010000_batch_32_feat_35.pth (torch, 14582 bytes, 13 tensors)

model.0.weight f4 [32, 35]
0	0x3dcff127	0.10153418
1	0x3dcd18fc	0.10014531
2	0x3e40d4c5	0.18831165
3	0xbdfdd2ec	-0.12393746
4	0x3dae9abd	0.08525608
5	0x3d9bc804	0.07606509
6	0x3dac80d1	0.08423007
7	0x3e557731	0.20846249
8	0x3e03057e	0.12795064
9	0x3d97e7d0	0.074172616
10	0x3c05c762	0.008165212
11	0xbe098e6c	-0.13433236
12	0xbd8d2d01	-0.068933494
13	0xbb6fcf7a	-0.0036592172
14	0x3d9f8129	0.07788307
15	0xbdd63ea7	-0.10461169
16	0xbbc1ca35	-0.0059139975
17	0x3d7ed46d	0.062214304
18	0xbe18e91f	-0.14932679
19	0x3e6f0942	0.23343375
20	0xbbe35690	-0.0069378093
21	0xbc1af336	-0.0094574
22	0xbbc0a094	-0.0058785174
23	0xbd3820aa	-0.044953026
24	0xbce528ed	-0.027973616
25	0xbc3da131	-0.011574076
26	0x3c9973fd	0.018732065
27	0xbe30f920	-0.17282534
28	0x3cbab8b5	0.022793153
29	0xbd10e0e4	-0.035370722
30	0xbd1771a6	-0.036973618
31	0xbe02157a	-0.12703505
32	0x3cdb650c	0.026781581
33	0xbe7d0c29	-0.2471167
34	0xbe2c4196	-0.16821894
35	0xbe64aa46	-0.22330579
36	0x3d387f06	0.045043014
37	0xbd19c485	-0.03754093
38	0xbdfcb926	-0.12340002
39	0xbd25e579	-0.040502045
40	0xbb5bd84f	-0.0033545678
41	0x3e2b0cc3	0.16704087
42	0xbd623b07	-0.055232074
43	0x3dc72f0e	0.09725772
44	0x3de97056	0.113983795
45	0x3d912a77	0.07088178
46	0xbdd48560	-0.10377002
47	0xbe2781a5	-0.16358049
48	0xbe3e2a70	-0.18570876
49	0xbd5707ca	-0.052497663
50	0xbd92a57b	-0.07160469
51	0x3d2f06c5	0.042731065
52	0x3dd374c9	0.103250094
53	0x3de310a8	0.11087161
54	0x3e569d71	0.20958497
55	0xbe50abe2	-0.20378068
56	0xbddd0f58	-0.10793942
57	0xbdf116ab	-0.11771902
58	0xbe112953	-0.1417592
59	0xbdcdb029	-0.100433655
60	0xbd73cbb7	-0.05952045
61	0xbe8150ee	-0.25257057
62	0xbe25ff1e	-0.162106
63	0xbb95a6e6	-0.004567015
64	0x3e177827	0.14791928
65	0xbbc13a78	-0.0058968626
66	0x3e12f838	0.143525
67	0xbd34b142	-0.04411436
68	0x3d4e09ad	0.050302196
69	0x3d70c357	0.05878004
70	0xbe77a033	-0.24182205
71	0x3de11e48	0.10992104
72	0xbd57afb1	-0.052657787
73	0xbe065a2b	-0.13120334
74	0xbcbde5c9	-0.02318086
75	0xbe1ba027	-0.15197812
76	0x3e7bc804	0.24588019
77	0xbe81648e	-0.2527203
78	0xbda57ef0	-0.08080852
79	0xba5f481a	-0.0008517519
80	0xbdc331e7	-0.095310025
81	0xbdd4f527	-0.103983216
82	0x3caff736	0.021480184
83	0x3d00019c	0.031251535
84	0xbcae3024	-0.02126319
85	0xbd9119bb	-0.07084986
86	0x3e1e865a	0.15480939
87	0x3dd4619e	0.103701815
88	0xbde2b74b	-0.110701166
89	0x3df73efd	0.12072561
90	0xbe919974	-0.28437388
91	0xbd98e4dd	-0.07465527
92	0x3d8cabda	0.068687156
93	0x3d00633b	0.031344634
94	0x3d1a8d5e	0.037732475
95	0xbd85aa9b	-0.06526681
96	0xbe552a54	-0.20816928
97	0x3d953059	0.07284612
98	0x3d4e7f1c	0.05041419
99	0x3d5bc767	0.05365696
100	0x3da5077d	0.08058069
101	0x3e7d957e	0.24764058
102	0x3ddd4b1f	0.10805344
103	0xbd78a2ff	-0.06070232
104	0xbc82e801	-0.015979769
105	0x3d980acd	0.07423935
106	0xbbd9e74a	-0.0066498863
107	0x3c6473dc	0.013943639
108	0xbd87234a	-0.06598528
109	0xbc921cf9	-0.01783608
110	0x3b6155b8	0.0034383368
111	0x3e23f4c8	0.16011345
112	0xbe482aae	-0.19547531
113	0x3d5fbb79	0.054622147
114	0x3e31dee5	0.17370184
115	0x3d9a71ed	0.07541261
116	0x3d877594	0.06614223
117	0x3cf23bd9	0.029569553
118	0x3db816aa	0.08988698
119	0xbb425ac6	-0.0029656156
120	0x3e1e887a	0.15481749
121	0xbeb9e1d9	-0.3630512
122	0x3c911b93	0.017713344
123	0xbca3ee21	-0.02001101
124	0xbcc704b5	-0.024294237
125	0x3d9fcfc3	0.07803299
126	0xbd629548	-0.055318147
127	0xbdbe1c0a	-0.09282692
128	0xbd972a0e	-0.07381068
129	0x3dc92940	0.09822321
130	0x3de537c2	0.111922756
131	0x3d2e4650	0.042547524
132	0xbdb21a83	-0.08696463
133	0xbdb8b23a	-0.09018369
134	0x3d6900aa	0.0568854
135	0xbc8b34fc	-0.016993038
136	0xbdeb44de	-0.11487745
137	0x3ca5bac3	0.020230656
138	0x3e3574ab	0.17720287
139	0x3daeb656	0.085308716
140	0xbd8a83e9	-0.06763441
141	0x3d6d57f7	0.057945218
142	0xbdbc585e	-0.09196542
143	0x3e1531cf	0.14569782
144	0x3d9c675e	0.07636903
145	0x3d61531c	0.0550109
146	0x3c789ac6	0.01517362
147	0x3df8d55a	0.121500686
148	0xbdfe9dd7	-0.12432449
149	0x3d1bfaee	0.038081102
150	0xbe22850d	-0.15871067
151	0xbdae257d	-0.08503244
152	0xbdb6d110	-0.08926594
153	0x3d9ad8fe	0.07560919
154	0x3cab2c04	0.020895012
155	0xbd935418	-0.07193774
156	0x3d8032a7	0.06259661
157	0xbdc4e375	-0.096136965
158	0x3d2ca2f6	0.0421476
159	0x3e63adcc	0.22234267
160	0x3d4135e8	0.04717055
161	0x3c405296	0.01173844
162	0x3c6f736c	0.014614921
163	0x3c1b9454	0.009495813
164	0x3c8ac5bc	0.01693999
165	0x3c04c698	0.008103989
166	0xbcb428aa	-0.021992046
167	0xbe7b0771	-0.24514557
168	0xbea11a02	-0.31465155
169	0x3e482412	0.1954501
170	0x3d0ce180	0.03439474
171	0x3c752cd6	0.014964303
172	0xbd7785d9	-0.06043038
173	0xbd00a58f	-0.03140789
174	0xbe1bbf2d	-0.15209647
175	0x3dcbeeb9	0.09957642
176	0x3e75f10d	0.24017735
177	0x3cb7baa1	0.022427859
178	0x3d46d2cd	0.04854088
179	0x3d543793	0.051810812
180	0xbe03d55c	-0.12874359
181	0xbd942c45	-0.07235006
182	0x3e1aae53	0.15105562
183	0x3d2367ae	0.0398938
184	0x3c33bbc2	0.010970058
185	0x3c6ee0fe	0.0145800095
186	0xbdc0a88e	-0.09407149
187	0xbd7b74c2	-0.061390646
188	0xbdf2c5c2	-0.118541256
189	0x3d366189	0.04452661
190	0xbe803551	-0.25040677
191	0x3e087b3a	0.13328257
192	0x3d42a946	0.047524713
193	0x3cb304dc	0.021852903
194	0x3ddc7b08	0.10765654
195	0x3c7fd7b4	0.0156153925
196	0x3bf3ef76	0.0074443175
197	0x3b8bff8d	0.0042724074
198	0xbd843560	-0.06455493
199	0x3d50f66b	0.051016252
200	0xbcb987bc	-0.022647731
201	0x3d613cf8	0.054989785
202	0xbda5e436	-0.081001684
203	0xbe604552	-0.21901444
204	0x3e08d26c	0.1336152
205	0xbe4d5f8b	-0.20055978
206	0xbd825f31	-0.063658126
207	0x3d6521cf	0.055940446
208	0xbd92d6e2	-0.07169892
209	0xbe3b8ef6	-0.18316254
210	0x3bfb541a	0.007669938
211	0x3e51e42f	0.20497201
212	0x3d85843b	0.065193616
213	0x3d24bcf4	0.040219262
214	0xbd85c382	-0.06531431
215	0x3e0a0fd0	0.13482594
216	0x3d53ee43	0.051740896
217	0xbdcc2fbf	-0.09970044
218	0xbd90dbe1	-0.070731886
219	0x3cd7c450	0.026338726
220	0xbea8f8d3	-0.33002338
221	0xbd0506a1	-0.032477025
222	0xbb436ea9	-0.0029820597
223	0xbce58b69	-0.028020578
224	0xbd5176fb	-0.05113886
225	0xbe0780e8	-0.13232768
226	0xbb471c32	-0.0030381796
227	0x3e06d11a	0.13165703
228	0x3d6d15cd	0.05788212
229	0x3e7be4f5	0.24599059
230	0xbca29ef8	-0.019851193
231	0xbb0f8326	-0.002189824
232	0x3e052154	0.13000995
233	0xbe1d0671	-0.15334488
234	0x3bff1cb2	0.007785403
235	0xbc5f2df3	-0.013621795
236	0xbdbb30ce	-0.09140168
237	0xbe20ea59	-0.15714397
238	0xbdcabe8f	-0.098996274
239	0x3dbb5d4e	0.09148656
240	0x3c9d0b30	0.019170374
241	0xbdc41485	-0.09574226
242	0x3d905157	0.07046764
243	0xbe596ec0	-0.21233654
244	0xbe2d0e82	-0.16900066
245	0xbd433f80	-0.04766798
246	0x3d8b4f8e	0.06802283
247	0xbc519b37	-0.012793354
248	0xbd33996f	-0.043847498
249	0xbcf18fa3	-0.029487437
250	0xbb999da3	-0.004687981
251	0x3e3cc042	0.18432716
252	0x3d6bf295	0.05760439
253	0x3d43aba9	0.04777113
254	0xbc80179c	-0.015636258
255	0xbcf758fa	-0.030193795

model.0.bias f4 [32]
0	0x3dec49eb	0.11537536
1	0x3d81843f	0.06324052
2	0x3e031995	0.12802728
3	0xbc920948	-0.017826691
4	0xbe044601	-0.1291733
5	0x3dc1ab51	0.09456504
6	0x3d815196	0.063143894
7	0xbda1f741	-0.07908488
8	0x3c91b484	0.017786272
9	0x3d10f95b	0.035394054
10	0xbe38ed0a	-0.18059173
11	0x3e376fdd	0.17913766
12	0xbd632547	-0.055455472
13	0xbdfdb018	-0.12387103
14	0x3d0fda42	0.035120256
15	0xbdf2f6f5	-0.118635096
16	0x3daf5953	0.08561959
17	0xbdddf393	-0.10837474
18	0xbe0e9708	-0.13924801
19	0xbe17fe00	-0.14842987
20	0xbd73b89e	-0.059502237
21	0xbe40113c	-0.18756574
22	0xbc87f21a	-0.016594935
23	0x3e058719	0.13039817
24	0x3cb03645	0.021510253
25	0x3c29a875	0.010355105
26	0xbe404085	-0.18774612
27	0x3df06b58	0.11739224
28	0x3d8cb277	0.06869977
29	0xbd97adc8	-0.07406193
30	0xbda60dad	-0.08108077
31	0x3dcd21a3	0.10016181

model.1.weight f4 [32]
0	0x3f3b8d21	0.7326222
1	0x3f1df417	0.61700577
2	0x3f57de38	0.84323454
3	0x3f5b5b82	0.85686505
4	0x3f601e5a	0.8754631
5	0x3f41861b	0.75595254
6	0x3f3c5948	0.7357373
7	0x3f345384	0.70439935
8	0x3f4ca311	0.7993632
9	0x3f6497f9	0.8929439
10	0x3f529301	0.8225556
11	0x3f67da27	0.9056725
12	0x3f46cd1f	0.7765674
13	0x3f4cf750	0.8006487
14	0x3f325eb9	0.69675785
15	0x3f64f7b4	0.89440465
16	0x3f3ddaf0	0.741622
17	0x3f2c8d0d	0.67402726
18	0x3f59e16d	0.851096
19	0x3f436566	0.76326597
20	0x3f4310ff	0.7619781
21	0x3f4ba615	0.79550296
22	0x3f1d42d9	0.61430126
23	0x3f44d6fe	0.7689055
24	0x3f42e991	0.76137644
25	0x3f2ad727	0.66734546
26	0x3f51b4c4	0.8191645
27	0x3f506ced	0.8141621
28	0x3f4ecd91	0.8078242
29	0x3f5343c2	0.82525265
30	0x3f466eb8	0.77512693
31	0x3f233797	0.637567

model.1.bias f4 [32]
0	0xbf7ed614	-0.9954541
1	0xbf66f8de	-0.9022349
2	0xbf40bc6f	-0.75287527
3	0xbf002265	-0.5005248
4	0xbf0d9f71	-0.55321413
5	0xbf1835da	-0.5945717
6	0xbf620122	-0.8828298
7	0xbf7fb4f2	-0.99885476
8	0xbec48341	-0.3838139
9	0xbeb9ec6c	-0.36313188
10	0xbf2ff87e	-0.68738544
11	0xbe9b4464	-0.30325615
12	0xbed34a7a	-0.4126776
13	0xbe9adba9	-0.30245712
14	0xbee5e713	-0.44902858
15	0xbf1c62f5	-0.61088496
16	0xbed4bc4d	-0.41549912
17	0xbeeaed94	-0.45884383
18	0xbeb1a17e	-0.3469352
19	0xbeb34afd	-0.3501815
20	0xbe829c79	-0.25510004
21	0xbf531c99	-0.8246551
22	0xbf34eadd	-0.7067087
23	0xbe779687	-0.24178515
24	0xbf36e5ec	-0.7144458
25	0xbf0a2afd	-0.53971845
26	0xbf276c8b	-0.654
27	0xbef14452	-0.47122437
28	0xbf0b9f7f	-0.54540247
29	0xbf200aaa	-0.6251627
30	0xbda14976	-0.0787534
31	0xbe7cd8a8	-0.24692023

model.1.running_mean f4 [32]
0	0xbe8661f8	-0.2624662
1	0x3eb9b5d7	0.36271545
2	0x3e00837a	0.12550154
3	0x3e8604fb	0.26175675
4	0xbefd2f46	-0.4945013
5	0xbeabdd7e	-0.33567423
6	0xbd37fec9	-0.044920716
7	0x3ce02a38	0.027363881
8	0xbf7874aa	-0.97053015
9	0x3f1db9f6	0.6161188
10	0xbf655b51	-0.8959246
11	0xbdb3a251	-0.08771194
12	0xbe57ce38	-0.2107476
13	0xbdb3953f	-0.08768701
14	0x3d2089e9	0.03919402
15	0x3dc880e1	0.09790207
16	0x3e56b01a	0.20965615
17	0x3e33a885	0.17544754
18	0xbe945384	-0.28969967
19	0x3e01aa8a	0.12662712
20	0xbdb182d6	-0.08667533
21	0xbede17db	-0.43377575
22	0xbf319c34	-0.6937897
23	0x3e0c1353	0.13679247
24	0xbec90ada	-0.39266092
25	0x3f02a268	0.5102906
26	0xbeb87743	-0.3602849
27	0xbf2dcca0	-0.6789036
28	0xbf4372a0	-0.7634678
29	0x3e309798	0.17245328
30	0xbf235572	-0.63802254
31	0x3dc56114	0.09637657

model.1.running_var f4 [32]
0	0x3dec2dc5	0.11532167
1	0x3def4c70	0.11684501
2	0x3ef6fbad	0.48238888
3	0x3d97a192	0.07403864
4	0x3e5834d8	0.21113908
5	0x3e8715d0	0.2638383
6	0x3e1765ee	0.14784977
7	0x3d271615	0.040792543
8	0x3ec25baa	0.3796056
9	0x3e7c805b	0.24658339
10	0x3eafb823	0.34320173
11	0x3eb101a2	0.34571558
12	0x3ddfe23d	0.109318234
13	0x3e4eca89	0.20194449
14	0x3e29fdeb	0.16600768
15	0x3dc8b03d	0.0979924
16	0x3e2c44c9	0.16823114
17	0x3e0b603e	0.13610932
18	0x3e0329b2	0.12808874
19	0x3dad5134	0.08462754
20	0x3e20999d	0.15683599
21	0x3dc9f493	0.09861102
22	0x3e406a6e	0.187906
23	0x3db28a75	0.08717815
24	0x3e00d98e	0.1258299
25	0x3e2416e4	0.16024357
26	0x3e28ccc3	0.1648436
27	0x3ea06286	0.31325167
28	0x3eb382fa	0.35060865
29	0x3e0c5af9	0.13706578
30	0x3ea76367	0.32693025
31	0x3e22dd5b	0.15904753

model.4.weight f4 [16, 32]
0	0xbe856c64	-0.26059258
1	0xbebb9066	-0.36633605
2	0x3dc183b5	0.09448949
3	0x3bce6eff	0.006299853
4	0x3d7273c0	0.05919242
5	0xbdd7077e	-0.10499476
6	0xbda48360	-0.0803287
7	0xbe4d4295	-0.2004493
8	0xbe71d78b	-0.2361738
9	0x3d5f421e	0.054506414
10	0xbc8e8f14	-0.01740221
11	0x3c8cc8b5	0.017185548
12	0xbc5b2be8	-0.013377167
13	0x3ba70143	0.005096586
14	0xbd0320ea	-0.03201381
15	0x3b099de9	0.0020998663
16	0xbdca0f50	-0.09866202
17	0xbd5cd720	-0.053916097
18	0xbb66deb6	-0.003522796
19	0xbd12fe7d	-0.03588723
20	0xbc72051b	-0.014771725
21	0xbe1ddf9d	-0.15417333
22	0xbd03255d	-0.032018054
23	0xb98b39ca	-0.00026555202
24	0xbee70855	-0.45123544
25	0xbe49a559	-0.19691981
26	0x3cf352a7	0.029702498
27	0x3b9b5b20	0.0047410876
28	0xbc94ba43	-0.018155223
29	0x3d933650	0.07188094
30	0xbd0c39f6	-0.034234963
31	0x3bf8d4d6	0.0075937314
32	0xbe2eb602	-0.17061618
33	0xbcf07c57	-0.029356165
34	0xbed13f22	-0.4086848
35	0x3dff58f9	0.12468142
36	0xbe198277	-0.14991175
37	0x3d0e7c4a	0.0347865
38	0xbe2a9d33	-0.16661529
39	0xbe4c952c	-0.1997878
40	0x3d861a50	0.065479875
41	0x3d4646ea	0.048407473
42	0x3db2ba52	0.08726944
43	0xbd8cabae	-0.06868683
44	0xbe2039cf	-0.15647052
45	0x3d34a955	0.0441068
46	0x3d558818	0.052131742
47	0xbbd3ecb3	-0.0064674257
48	0x3d48ae8e	0.048994593
49	0x3da80e9d	0.08205912
50	0x3d01ae37	0.031660285
51	0x3d841894	0.064500004
52	0xbd508b5c	-0.050914153
53	0x3c100516	0.008790275
54	0xbe90c19f	-0.2827272
55	0x3bd25c15	0.0064196684
56	0x3dd529c3	0.10408356
57	0x3dd6a1de	0.104800925
58	0xbea8a4a3	-0.32938108
59	0xbe8664bd	-0.26248732
60	0x3d9cd947	0.0765863
61	0xbe1ef62f	-0.15523599
62	0xbc1f79e1	-0.009733648
63	0x3dd20ea1	0.102566965
64	0xbe30944e	-0.17244074
65	0xbe12ab2b	-0.14323108
66	0xbe1861ae	-0.14881012
67	0x3c9dbbfd	0.019254679
68	0xbe875eea	-0.264396
69	0x3ba8277b	0.0051316596
70	0xbec3c0aa	-0.3823293
71	0xbee1cec4	-0.44103062
72	0xb9f42bcb	-0.00046571935
73	0xbc3ca3c5	-0.011513655
74	0xbec3869c	-0.38188636
75	0x3ba834c4	0.0051332433
76	0xbb44f2cc	-0.0030051945
77	0x3bb0026d	0.005371383
78	0xbc100ee4	-0.008792613
79	0xbd877064	-0.06613234
80	0x3d3e201f	0.04641735
81	0x3d00f050	0.03147918
82	0xbca491e9	-0.020089107
83	0xbb308b5e	-0.0026938538
84	0xbda478f2	-0.08030881
85	0xbe2af741	-0.16695882
86	0xbeccb5ef	-0.39982554
87	0x3c86eb15	0.016469518
88	0xbcabec8b	-0.020986816
89	0xbd1e7611	-0.038686816
90	0xbddbce73	-0.107327364
91	0x3da972d4	0.08273855
92	0xbda40008	-0.080078185
93	0xbbb26d2e	-0.005445144
94	0x3bd3706d	0.006452611
95	0xbc83993d	-0.01606428
96	0xbe5e7db5	-0.21727641
97	0xbd4fe3c9	-0.050754342
98	0xbf02bc62	-0.510687
99	0x3dc30239	0.09521908
100	0xbdc405fe	-0.095714554
101	0x3b563984	0.003268809
102	0xbe2ea35d	-0.17054506
103	0xbe700a33	-0.2344139
104	0x3daddcca	0.08489378
105	0x3d2947b4	0.041328147
106	0x3e2614b9	0.16218843
107	0x3cf3c088	0.029754892
108	0xbdd44c83	-0.10366156
109	0x3d317280	0.043322086
110	0x3d0fec73	0.035137605
111	0x3d3e9125	0.04652514
112	0x3cb2cee9	0.021827178
113	0x3dca5aac	0.098805755
114	0x3ceedbdb	0.02915757
115	0x3cffccc9	0.031225579
116	0xbce0584f	-0.027385859
117	0x3c31e478	0.010857694
118	0xbec7e071	-0.39038423
119	0x3c929aa5	0.017896006
120	0x3d953ba7	0.072867684
121	0x3dae861a	0.085216716
122	0xbec97997	-0.39350578
123	0xbe95a7ff	-0.29229733
124	0x3d9b6664	0.07587889
125	0xbd9be03b	-0.07611128
126	0xbcc4e53f	-0.024035094
127	0x3dc33e11	0.095333226
128	0xbe8647ac	-0.26226556
129	0xbf133b61	-0.5751248
130	0x3d313785	0.04326584
131	0xbcf75d88	-0.030195966
132	0x3d88d774	0.066817194
133	0xbe4c7740	-0.19967365
134	0x3ba93032	0.005163216
135	0xbdfaf0de	-0.12252973
136	0xbd914d3b	-0.07094809
137	0xbbee345e	-0.0072694262
138	0x3c0f60ff	0.008751153
139	0x3ca57c1e	0.020200785
140	0x3b85a311	0.004078277
141	0x3c85e83d	0.016346091
142	0x3c927c4a	0.017881531
143	0x3cd7fed7	0.026366634
144	0xbe4372ec	-0.19086808
145	0xbd0bb2b8	-0.034105986
146	0x3cea1ee6	0.028579187
147	0xbe08cdfb	-0.13359825
148	0x3d2cafbd	0.042159785
149	0xbd49d7d2	-0.049278088
150	0xbd4ae321	-0.049533013
151	0xbccae470	-0.02476713
152	0xbe52d72a	-0.20589891
153	0xbe44f75b	-0.19234984
154	0x3d0ac842	0.033882387
155	0x3bd6d814	0.0065565202
156	0xbb5b8297	-0.0033494586
157	0x3d9427ac	0.07234129
158	0xbe69bec3	-0.22826676
159	0x3d03b7fb	0.03215788
160	0xbe3f16ba	-0.18661013
161	0xbe23adb0	-0.15984225
162	0xbe152b85	-0.14567383
163	0x3cb09886	0.021557104
164	0xbe5fc114	-0.21850997
165	0xbb9bc69b	-0.0047539
166	0xbed90e61	-0.42393783
167	0xbee64b8b	-0.4497951
168	0x39265a39	0.00015864604
169	0xbbc61fa7	-0.0060462537
170	0xbec0fc2e	-0.37692398
171	0x3cb799fd	0.022412295
172	0xbca7f058	-0.020500347
173	0xbb32d907	-0.0027290003
174	0xbc3198eb	-0.010839681
175	0xbdb9478f	-0.09046852
176	0x3d5697eb	0.052390974
177	0x3d0c2f48	0.03422478
178	0xbc12bb5f	-0.008955806
179	0xbc172930	-0.009226128
180	0xbda8e4d1	-0.08246768
181	0xbe36ecf2	-0.17863825
182	0xbec982cd	-0.39357606
183	0x3c806e1f	0.01567751
184	0xbca7d488	-0.020487085
185	0xbd4d6a88	-0.050150424
186	0xbd778835	-0.06043263
187	0x3d15402f	0.036438163
188	0xbde6c125	-0.11267308
189	0x3d28d80e	0.04122167
190	0x3c04d688	0.008107789
191	0xbca7eced	-0.020498717
192	0xbea2536a	-0.31704265
193	0xbdb46e0f	-0.088100545
194	0x3d8e9108	0.06961256
195	0xbca11324	-0.019662447
196	0x3d2b2222	0.0417806
197	0xbd904f6c	-0.070463985
198	0xbe63df99	-0.22253264
199	0xbe9c9e12	-0.30589348
200	0xbd6f8ddd	-0.0584849
201	0xbc0edaf8	-0.008719198
202	0xbd15da38	-0.036585063
203	0x3b15e7be	0.0022873725
204	0x3d2a51ee	0.04158204
205	0xbee60d43	-0.44931993
206	0xbdc565ee	-0.09638582
207	0x3dfe1e4c	0.124081224
208	0xbc038913	-0.0080282865
209	0x3d8774d4	0.0661408
210	0xbd3fce1b	-0.046827417
211	0xbd2d3665	-0.042288203
212	0xbbc6b160	-0.006063625
213	0xbe49213e	-0.19641587
214	0xbe5c015b	-0.21484892
215	0x3dc32887	0.09529214
216	0xbdf133df	-0.11777472
217	0x3cc10866	0.023563575
218	0x3ae82398	0.0017710803
219	0xbc420c53	-0.011843759
220	0xbca37a42	-0.019955758
221	0x3dd5427b	0.10413071
222	0x3d1e9d98	0.03872451
223	0xbd8090de	-0.06277631
224	0xbde44258	-0.111454666
225	0xbce94bde	-0.02847856
226	0xbd067409	-0.032825503
227	0xbd0bcd49	-0.034131322
228	0xbe10e2b0	-0.14148974
229	0x3d3b160d	0.045675326
230	0xbe38e5a1	-0.18056346
231	0xbe31ab4e	-0.17350504
232	0x3cd639f0	0.026150674
233	0x3ce45b55	0.027875582
234	0x3d59289d	0.053017247
235	0xbe27cb84	-0.16386229
236	0xbe14dd95	-0.14537652
237	0x3cd3da5f	0.025860963
238	0x3d17c2d6	0.037051044
239	0x3d3c2cde	0.045941226
240	0x3d434efa	0.04768274
241	0x3b32b31e	0.0027267407
242	0x3d215d98	0.0393959
243	0x3c4022c2	0.011727037
244	0xbdbd7bbd	-0.09252117
245	0xbd66a934	-0.05631371
246	0xbd765e37	-0.060148444
247	0xbbea0b58	-0.0071424656
248	0x3d8281f7	0.06372445
249	0x3da3f77a	0.08006187
250	0xbdf17774	-0.11790362
251	0xbde3eac2	-0.11128761
252	0x3d0cccd0	0.034375012
253	0xbee67093	-0.45007762
254	0x3ccdeaaf	0.02513632
255	0x3dbb89a2	0.09157111

model.4.bias f4 [16]
0	0xbe0456b3	-0.12923698
1	0x3e161336	0.14655766
2	0xbe3a3929	-0.18185867
3	0x3d800ac5	0.06252054
4	0xbdf1ea9a	-0.11812325
5	0x3d337466	0.043812178
6	0x3bcd55b5	0.0062663206
7	0x3dd3b91e	0.10338043
8	0x3d1e6ca5	0.03867783
9	0xbe1a7b35	-0.15086062
10	0xbdcd64a9	-0.10028965
11	0xbe072cf3	-0.1320074
12	0x3d7bc2e2	0.06146515
13	0x3dc3d51c	0.09562132
14	0x3dc8a395	0.09796826
15	0xbd889082	-0.06668188

model.5.weight f4 [16]
0	0x3f82d6f9	1.0221854
1	0x3f863475	1.0484759
2	0x3f61abbc	0.8815267
3	0x3f86af53	1.0522255
4	0x3f9709dd	1.1799885
5	0x3f559c46	0.8344158
6	0x3f94e5c6	1.1632621
7	0x3fa2b7d3	1.2712349
8	0x3f8c29a8	1.0950212
9	0x3f99ab92	1.2005484
10	0x3f95f76a	1.171613
11	0x3f6beb99	0.9215637
12	0x3f8e4c56	1.1117046
13	0x3f8e20ce	1.1103761
14	0x3f890661	1.0705072
15	0x3f6683ac	0.90044665

model.5.bias f4 [16]
0	0x3f3c6e78	0.7360606
1	0x3f0ec7bc	0.5577352
2	0x3f58e712	0.84727585
3	0x3f38e0cb	0.72218007
4	0x3f023b62	0.5087186
5	0x3f53a025	0.82666236
6	0x3f5b14b5	0.8557847
7	0x3ec1a652	0.37822205
8	0x3f192f35	0.5983766
9	0x3f06865a	0.52548754
10	0x3f3f5031	0.7473174
11	0x3f6de7b6	0.9293169
12	0x3f331a71	0.6996222
13	0x3f37df4d	0.71825105
14	0x3f47fc7f	0.78119653
15	0x3f4a4a8b	0.79019994

model.5.running_mean f4 [16]
0	0xbe431419	-0.19050635
1	0x3da52449	0.080635615
2	0xbea0e550	-0.31424952
3	0x3d1167aa	0.035499252
4	0xbe087e90	-0.1332953
5	0xbda2fa7f	-0.079579346
6	0xbdf9436a	-0.12171061
7	0xbd02b5dc	-0.031911716
8	0xbdbb1ead	-0.0913671
9	0xbe8878d2	-0.2665468
10	0xbe4fc009	-0.202881
11	0xbe7d3b01	-0.2472954
12	0xbd47a627	-0.04874244
13	0xbd544dac	-0.051831886
14	0xbdea822c	-0.114506096
15	0xbe743ddb	-0.23851721

model.5.running_var f4 [16]
0	0x3cfc00c7	0.03076209
1	0x3e04793f	0.12936877
2	0x3d92a971	0.07161225
3	0x3df03a9b	0.11729928
4	0x3c5d6ac1	0.013514222
5	0x3d8669e7	0.06563168
6	0x3dbb9058	0.09158391
7	0x3dc59e90	0.09649384
8	0x3da6ae24	0.081386834
9	0x3d933bec	0.071891636
10	0x3d877970	0.06614959
11	0x3db54762	0.08851506
12	0x3dad1bcd	0.08452568
13	0x3e3dd5ab	0.18538539
14	0x3e3742e3	0.17896609
15	0x3dac5816	0.084152386

model.8.weight f4 [1, 16]
0	0x3edaff58	0.42772937
1	0x3ee66971	0.4500232
2	0x3edbed69	0.42954567
3	0x3ed02cfd	0.40659323
4	0x3ee6a135	0.45044866
5	0x3ee49138	0.44642043
6	0x3ebc9615	0.36833254
7	0x3ede7452	0.4344812
8	0x3ee8718e	0.45399135
9	0x3ed6cf7f	0.41955182
10	0x3ec5e0d4	0.38648093
11	0x3ec997eb	0.39373717
12	0x3ed69751	0.4191232
13	0x3ecb62d4	0.39723837
14	0x3ec7bc48	0.39010835
15	0x3ed8f501	0.42374423
