neuralnet/Hyperparameter sweeps/Hyperparameter sweep round 1/bike_volume_model_net_2layer_lr_0.00005000_batch_32_feat_25.pth (torch, 13302 bytes, 13 tensors)

model.0.weight f4 [32, 25]
000000 f5 5c 11 bd 19 00 4d bd ee b9 87 be 75 0a 06 be
       -0.03548904 -0.05004892 -0.2650904 -0.13089927
000010 ba 35 8f bc 9b f8 87 bd dc 2b 7f bd 33 f4 42 3e
       -0.017481674 -0.066392146 -0.062297687 0.19038467
000020 e2 ce 13 be 34 26 69 bc 84 99 ec 3d 63 8c 97 3d
       -0.14434388 -0.0142303 0.11552718 0.073998235
000030 8d 93 10 bd f3 3e c5 ba 01 e2 c7 bd 14 8d bb bd
       -0.035296965 -0.0015048668 -0.09759904 -0.09157768
000040 82 92 34 bd 6b 5d 8c be 2a 9c 7e be 24 b8 87 3d
       -0.044085033 -0.27415022 -0.2486426 0.06626919
000050 c9 82 81 bd c8 ba a5 bd b4 45 fe 3d c0 4b 64 bd
       -0.063237734 -0.08092266 0.124156386 -0.055736303
000060 af 68 f4 bd d3 91 4e 3e 92 52 a7 bd 28 08 fc bd
       -0.11934029 0.20172815 -0.08170046 -0.12306243
000070 b6 9f 3f bc 82 a5 36 be fc 22 e3 bd 08 6a 71 3e
       -0.011695793 -0.17836574 -0.11090657 0.23575604
000080 8a 56 3a 3e 4b 64 7a be 01 89 35 be d7 ec c6 bd
       0.18197075 -0.24452321 -0.17728044 -0.09713142
000090 25 05 76 bc 25 dd ad be 33 7c fe bc 75 4d 08 3d
       -0.015015875 -0.33957782 -0.031065082 0.033276994
0000a0 e5 9f 1f bd 8d 32 dd 3d 30 e8 7f 3d 51 ba 56 3e
       -0.038970847 0.108006574 0.06247729 0.20969512
0000b0 00 87 b5 3d 93 6d dc 3d 06 0c 21 be cf 02 30 3e
       0.0886364 0.10763087 -0.15727243 0.17188571
0000c0 43 ea 22 3d 68 03 03 3e d8 e1 f3 3c a6 b5 63 3b
       0.03977419 0.12794268 0.029770777 0.0034745722
0000d0 5c 67 f8 3d c4 60 b3 3d 22 50 00 be bc ab d9 bd
       0.12129089 0.08758691 -0.12530568 -0.10628459
0000e0 68 6a 23 3d 9b 8e 4b 3e 0e f1 26 3e 6d 3b 8c 3d
       0.0398964 0.19878618 0.16302893 0.06847272
0000f0 56 84 0b 3e 35 72 42 3d 08 15 81 bc 15 23 1c bc
       0.13624701 0.047472198 -0.015757099 -0.009529849
000100 e7 00 23 be 1c 5c 95 be fb 55 6d 3c 37 b7 41 be
       -0.15918313 -0.29171836 0.014485831 -0.18917547
000110 0f 52 72 be ec 76 fb 3c 09 2e 6a bd 6b 22 43 be
       -0.23664115 0.030696355 -0.05717281 -0.19056098
000120 6e 97 79 3d dd d0 92 3c 8c 89 f1 bc d2 22 8f bd
       0.06093543 0.01792186 -0.029484533 -0.06989063
000130 b1 03 f2 bd 72 2a 8e 3d c9 2a 5c be 6f 00 75 bd
       -0.1181711 0.069416896 -0.21500696 -0.059814867
000140 01 e7 14 3e d0 ad 15 3d 8b 7a 57 be 86 71 b1 bd
       0.14541246 0.036542714 -0.2104284 -0.08664231
000150 17 b2 df bd 9a 4b 24 be d9 8c 36 be 38 32 fe bd
       -0.1092264 -0.16044465 -0.17827167 -0.12411922
000160 a2 58 0e bd 2e 96 23 3e 60 90 64 3e 9d d4 66 bb
       -0.034752496 0.15975258 0.223207 -0.0035221942
000170 01 f1 3a 3e 01 8c 16 3e 2e 00 f7 bd 8f fc 19 be
       0.18255998 0.14701845 -0.12060581 -0.1503775
000180 67 8c 43 bc 88 80 4c bd 16 af e8 3c 95 44 e0 3c
       -0.01193533 -0.049927264 0.0284038 0.027376452
000190 fa 75 07 3e 01 a1 de 3d 91 3e 2f be ce e5 58 3d
       0.13228598 0.10870553 -0.17113711 0.052953534
0001a0 73 f1 4a 3d e6 f4 6d 3e a3 49 82 bc a7 18 54 bd
       0.04954667 0.23237953 -0.015904253 -0.051781323
0001b0 7f fd 21 3d 53 e7 e0 bd 90 17 7a 3e 63 d3 d0 3c
       0.039548393 -0.109816216 0.24423051 0.025491422
0001c0 5b f5 0c 3d 61 74 f3 bc d5 f0 9f bc d2 93 ce 3c
       0.034413677 -0.02971858 -0.019524017 0.02521697
0001d0 c2 36 77 bc b5 e7 44 be a4 6a 7d bd 9c 1e e0 3d
       -0.015088739 -0.19229014 -0.06186928 0.10943338
0001e0 b6 05 4a 3d 09 cb 38 bd ec 6a 82 3d 7e 28 6d be
       0.049321853 -0.045115504 0.0636805 -0.23159978
0001f0 04 dc e7 bd b7 8f 19 be b6 31 0a 3d fe b3 05 bd
       -0.113212615 -0.14996229 0.033738814 -0.032642357
000200 f6 27 3f be d2 83 1b be 05 8a 51 3d ea b9 c7 bc
       -0.18667588 -0.15187004 0.051157016 -0.024380643
000210 0b dd 93 3d e5 c6 80 be 90 93 8b 3e f3 b3 d5 bd
       0.07219895 -0.25151744 0.2726102 -0.10434713
000220 6d 33 2b 3c 86 12 9a 3c b5 a1 11 bd ec b2 3a be
       0.010449273 0.01880766 -0.035554606 -0.18232316
000230 2e 1a 6f 3e 2f 15 e5 3c b0 fe d4 bd 4d 72 fd 3d
       0.2334983 0.027964203 -0.1040014 0.12375317
000240 7c b5 06 3d 34 18 ab bd c5 9d 07 be 02 01 7a 3c
       0.03288792 -0.08354226 -0.13243778 0.015259029
000250 5a a2 a3 3d ac 32 b1 3d 7e 62 dc 3d 63 71 f4 3a
       0.079899505 0.08652243 0.107609734 0.0018649515
000260 d8 e4 3a be 77 0c 10 3d c8 ca 4b 3d 98 9a 11 be
       -0.1825136 0.035168137 0.049753934 -0.14219129
000270 59 9e 39 bc f6 0a 0e be 3a 72 29 3e 84 78 5e 3d
       -0.011329257 -0.13871369 0.1654748 0.05431415
000280 21 2e 3f be 3c 1d 49 be bb 88 bd 3c f8 50 ee 3d
       -0.1866994 -0.19640058 0.023136487 0.11636537
000290 12 88 d9 3c 58 d9 c2 bd 67 e0 8f bd 50 12 1d bd
       0.026554141 -0.09514111 -0.07025223 -0.038347542
0002a0 db 0e 8f 3d d6 6a 71 bb 4b 7c 2f bd 54 e3 1b be
       0.06985255 -0.003683736 -0.042843144 -0.15223438
0002b0 25 dd b0 3d f1 f7 bb 3d f3 1f 16 3e 19 a3 44 3e
       0.0863593 0.091781504 0.14660625 0.19202842
0002c0 8c c8 24 3e 1f e5 92 be 6c 5f 35 bd 4a a5 bc bc
       0.16092128 -0.2869043 -0.044280455 -0.023028035
0002d0 51 19 32 3e 2b 66 10 3c 83 10 ac bd 57 56 80 3e
       0.1739247 0.008813421 -0.08401587 0.25065872
0002e0 d6 a6 b1 bd 61 96 62 3e 5d 28 1e 3d c9 5d 81 3b
       -0.086743996 0.22127678 0.038612712 0.0039479476
0002f0 8d 6b bb 3b dc fe ba bb 3a ac 96 3c 26 30 04 3d
       0.005719608 -0.005706651 0.01839267 0.03227248
000300 61 e8 a5 bd b7 f6 c9 3d 35 95 2d 3b 1c 90 95 bd
       -0.081009634 0.0986151 0.002648664 -0.07302877
000310 16 e3 3b bd f2 96 15 3d 9c 1f 44 be 69 fd 1c be
       -0.045870863 0.036520906 -0.19152683 -0.15331043
000320 a9 4d c3 bd 3b 42 04 3c ef 6f 4f 3d 95 3e 50 3e
       -0.09536297 0.008072431 0.050643858 0.20336373
000330 3e 8c ce 3c f0 7e 2e bd 93 60 0d be 51 cb 49 3d
       0.025213357 -0.042601526 -0.13806371 0.049266163
000340 59 95 7f bd 5b 35 3b 3e c8 07 df bd a1 49 16 3e
       -0.06239829 0.18282072 -0.10890156 0.14676525
000350 f1 d6 6a be 85 0a 82 3d 9a 96 06 bd d2 2c 47 3e
       -0.22933556 0.06349663 -0.03285847 0.19450691
000360 77 c6 9c 3d b8 98 95 bc 3e 28 3c 3d 4c df 25 3e
       0.07655042 -0.018261299 0.045936815 0.16198462
000370 7b 5b 1c 3e aa 0c 14 be a4 d6 b8 3c b8 1c 9e 3d
       0.15269272 -0.14457956 0.022563286 0.077203214
000380 79 1c 58 3c cb ba 16 be b9 d3 e6 b9 ae 2c 89 bc
       0.013190382 -0.14719693 -0.00044026764 -0.016744938
000390 7b d0 f8 3d e6 a5 eb 3d 7f 31 d4 ba 0f e1 3f be
       0.121491395 0.11506252 -0.0016189067 -0.18738197
0003a0 73 69 a3 bc 19 81 05 bc 03 4c 1d 3e b2 76 8d 3e
       -0.019947743 -0.008148455 0.15361027 0.2762962
0003b0 16 9b 80 bc 08 4a a0 3c 12 07 21 bd a1 4a b8 bc
       -0.01569895 0.01956655 -0.039313383 -0.022496523
0003c0 4e c4 82 bd b9 be 10 be ef e6 08 be 40 20 9c 3c
       -0.063850984 -0.14135255 -0.13369344 0.019058347
0003d0 51 66 80 bc e0 9a 11 3d f0 54 76 3d d8 21 8d 3d
       -0.015673788 0.03554809 0.060139596 0.06891221
0003e0 05 17 12 bd df e3 5f 3d d9 bd b3 bd 57 bf e5 bd
       -0.035666484 0.054660674 -0.08776445 -0.11218136
0003f0 33 be 40 3c 60 54 80 bd 4f 01 88 ba 90 b9 b0 bc
       0.011764097 -0.06266093 -0.0010376367 -0.021572858

model.0.bias f4 [32]
000000 ea 93 aa 3d a5 ec 00 be 6a 61 10 be b8 dc 22 3e
       0.083289936 -0.12590273 -0.1409966 0.1590451
000010 98 3b c9 bd b1 c7 2e 3d 07 e8 19 be b1 b7 66 3c
       -0.0982582 0.04267091 -0.15029918 0.014081881
000020 c5 1d 06 3e 0c c1 a4 bd 04 1c 85 3d 60 01 58 3e
       0.13097294 -0.08044633 0.06499484 0.21094275
000030 75 02 8e 3c c3 b7 a1 3d 12 d2 c0 bc 2d 4f 41 be
       0.017335156 0.07896378 -0.02353767 -0.1887786
000040 d8 e4 2f 3e 3e 1b 1d be 3a f7 e6 3d 51 a1 f1 3d
       0.1717714 -0.15342423 0.112776235 0.11798347
000050 7d ab 09 be dc cc 3b 3c 66 85 06 3c 2a 6d 1e be
       -0.13444324 0.0114624165 0.008210516 -0.1547133
000060 92 be e7 3c 03 4a 46 3e 39 bb ae 3d 02 30 bd 3d
       0.028289113 0.1936417 0.08531804 0.092376724
000070 fd b4 c3 3d 4e 1b 0f 3e 8b 2f 3c be 9d 11 30 bd
       0.09556005 0.1397526 -0.18377511 -0.042985547

model.1.weight f4 [32]
000000 da 3b 6a 3f 02 91 58 3f ca fb 47 3f 6b 95 66 3f
       0.91497576 0.84596264 0.78118575 0.90071744
000010 b6 4c 45 3f 35 48 4d 3f 2c 05 64 3f a8 e0 64 3f
       0.77070177 0.80188304 0.8907039 0.894053
000020 4f 91 81 3f e4 30 61 3f 13 55 6b 3f 35 4e 3a 3f
       1.012247 0.87965226 0.9192669 0.72775584
000030 3f ae 5a 3f 57 70 83 3f 6b 9f 5d 3f 56 6a 38 3f
       0.8542213 1.0268658 0.8657138 0.72037256
000040 1b 9f 52 3f e0 7c 52 3f cc f5 41 3f 2a e9 4d 3f
       0.82274026 0.82221794 0.7576568 0.80433905
000050 f9 0f 7f 3f d6 9c 4e 3f 8a 4a 74 3f 6b ba 67 3f
       0.9963375 0.8070806 0.9542624 0.90518826
000060 15 d6 47 3f 98 e0 4f 3f 18 c6 6f 3f 73 e2 3d 3f
       0.7806104 0.8120208 0.9366164 0.7417366
000070 eb c4 6a 3f 02 6f 72 3f 9d 65 7b 3f 6d 96 48 3f
       0.9170672 0.94700634 0.98201925 0.7835453

model.1.bias f4 [32]
000000 fd 64 e0 be 8b d6 c0 bc 41 79 b1 be 3b 90 ea bd
       -0.43827048 -0.023539802 -0.34662822 -0.11453291
000010 2c d5 57 bf 48 61 a8 be 64 4e 92 be 94 b2 52 bf
       -0.8430965 -0.3288672 -0.28575432 -0.8230374
000020 9c 07 31 be 51 af 25 bf 30 10 10 bf e1 70 93 be
       -0.17288059 -0.64720637 -0.562747 -0.28797057
000030 ad 8b d2 bd 30 80 e3 be a6 c4 fb be aa dc 63 bf
       -0.10280547 -0.44433737 -0.49173468 -0.8900858
000040 ba 6b 6d be d9 0b bf be 45 6a fb be b2 a7 97 be
       -0.23185626 -0.37313727 -0.49104515 -0.2962013
000050 ee 0d 27 be 70 64 68 be 2c 39 02 bf 7f 9e c6 be
       -0.16313908 -0.22694564 -0.5086849 -0.38792798
000060 f6 12 3b be 0f fc bf bd 4f 5d bc be c4 2e 74 be
       -0.18268952 -0.09374248 -0.3678994 -0.23845965
000070 b9 36 97 be a7 d9 13 bf cc c5 fd be 42 37 46 3d
       -0.29533938 -0.57753986 -0.4956497 0.04839254

model.1.running_mean f4 [32]
000000 29 b2 01 bf 94 ce 80 3e 95 01 b1 be c8 00 e9 3d
       -0.50662476 0.25157607 -0.3457152 0.11377102
000010 66 d2 da be e7 24 9b 3d 73 2f 85 bd 1a 5f cc be
       -0.42738646 0.07575398 -0.06503191 -0.39916307
000020 c6 02 38 3f bc ec 9f bc ba 9e 90 be d8 a1 20 bd
       0.7187923 -0.019522063 -0.282461 -0.039216846
000030 29 6c 6a 3e a6 b1 b4 bd 95 f1 7e bc 62 85 7e 3e
       0.22892822 -0.08822946 -0.015560527 0.24855569
000040 34 a5 98 3c 46 e5 9d bd 27 59 de 3e 8d 2b fa 3e
       0.018633462 -0.07709746 0.43427393 0.48861352
000050 58 39 d7 be 1a 97 d1 3d 35 10 81 bd 26 56 a8 bd
       -0.42035937 0.102338985 -0.06301919 -0.082195565
000060 6e ab a1 3e c6 76 53 3e 37 f5 73 3e 01 bc 02 be
       0.31576103 0.20650777 0.23824011 -0.1276703
000070 1b 8e 76 bc a0 32 d4 be cd 2b 29 bf 50 7c a7 3c
       -0.015048529 -0.41444874 -0.6608246 0.020445019

model.1.running_var f4 [32]
000000 a6 b8 05 3f 39 88 31 3f 77 1d 84 3d 8b 0c 2d 3e
       0.52234876 0.69348484 0.064509325 0.16899316
000010 83 34 0d 3e fd c2 f7 3d 40 df 1a 3e 9b 31 14 3e
       0.13789563 0.12097738 0.15124226 0.14472048
000020 9a 5d 05 3e e6 55 a0 3d 60 56 7e 3e 50 84 f1 3d
       0.13023987 0.07828884 0.24837637 0.11792815
000030 14 5b 87 3e 4d 5a c0 3d 1e fc b2 3d 38 33 00 3e
       0.26436675 0.093922235 0.08739494 0.12519538
000040 42 cc b4 3d fd 85 51 3e 79 39 55 3d ba 98 00 3e
       0.088280216 0.20461269 0.052056763 0.1255826
000050 11 ba 4f 3e 11 9e 40 3e 24 55 3a 3e 48 dc 35 3e
       0.20285822 0.18810298 0.18196541 0.17759812
000060 cb 64 c1 3e dc 6e 43 3d b2 4d fc 3d 54 f3 4a 3e
       0.3777221 0.047713146 0.12319507 0.19819385
000070 8b 44 8b 3d d0 99 13 3e 42 9f 4b 3e cc 3f 1a 3e
       0.06800183 0.14414144 0.19884971 0.15063399

model.4.weight f4 [16, 32]
000000 74 a9 fe 3c 6d d4 99 be 6e 27 5e be 2d d5 af bd
       0.03108666 -0.3004488 -0.21694729 -0.08585582
000010 87 f2 34 be 2d 63 2a 3e 29 c2 01 3e 9f 02 8f be
       -0.17670642 0.16639395 0.12671722 -0.27931687
000020 91 78 90 3b 37 d6 47 3b cc 9e 53 3c ea eb 0e 3e
       0.004408904 0.0030492672 0.012916278 0.13957182
000030 68 86 35 be b1 5c 86 3c 6b 57 2a 3e 89 a6 75 bd
       -0.17727053 0.01640162 0.1663491 -0.059973273
000040 79 52 42 be 63 3f 4e 3d 8f 70 72 be 56 e6 15 be
       -0.18976773 0.05035342 -0.2367575 -0.14638647
000050 57 5b 5d 3d 5f 65 03 3d 96 f3 62 bd 47 54 17 3d
       0.054042187 0.032079097 -0.055408083 0.036945608
000060 c7 85 5c bd 76 ca 06 3c 58 1b 5c 3e a9 72 5f 3d
       -0.053838518 0.008226981 0.21494806 0.054552708
000070 28 f2 05 be 98 dd 45 bd 9c 38 2b bd a3 60 cd bc
       -0.13080657 -0.04830703 -0.041802034 -0.025070494
000080 a5 53 49 be 8d fa 0c bc cf 08 1a 3c 55 98 3f bd
       -0.19660814 -0.008604658 0.009401514 -0.046776135
000090 89 cf e0 be 23 9c 9e bc 8d 98 27 bd f1 5a 21 3d
       -0.43908337 -0.019361561 -0.040916968 0.03939337
0000a0 d3 a7 ab 3c 5f a1 a6 be e9 ae 51 bd 9d 55 27 bd
       0.020954048 -0.3254499 -0.051192198 -0.04085313
0000b0 60 95 3a 3d 1d d9 84 bd b6 ac ce bd 49 7d 47 be
       0.04555261 -0.064867236 -0.10091536 -0.19481386
0000c0 fd 44 d7 bc f4 de 02 3d b3 35 5b 3d 66 99 ab 3a
       -0.026278013 0.031950906 0.05351801 0.0013091981
0000d0 5c 4d 45 be f2 e5 4f bd c3 e7 d7 3d 9b c4 b5 be
       -0.19267792 -0.050756402 0.10542252 -0.3550156
0000e0 cd 68 0b bd 94 f7 33 ba a8 a2 af bc de ca 5b 3c
       -0.034035493 -0.00068652 -0.021439865 0.0134150665
0000f0 0d 37 36 3d e3 d6 ac bd 34 f8 3d 3d df b1 5a bc
       0.044486094 -0.08439424 0.046379283 -0.013348072
000100 dc 63 5a be c2 80 e3 3c 84 a7 4a 3d 69 27 c7 3c
       -0.21327156 0.027771357 0.04947616 0.024310784
000110 ce be 7c be b0 b7 3a bd be 1c 78 bd 10 84 85 3d
       -0.24682161 -0.045585334 -0.060574286 0.065193295
000120 08 1c cf 3c 11 aa 90 be 13 cc 7e be eb 07 40 bc
       0.025281921 -0.2825475 -0.24882536 -0.011720638
000130 8e d3 39 3d fd f0 47 bc f2 f8 79 bd 4a 05 87 be
       0.04536777 -0.012203452 -0.06102843 -0.26371223
000140 f5 63 67 3a 53 f1 44 3c 01 f7 96 3d 3c af 62 3c
       0.00088268454 0.012020427 0.07371331 0.013835724
000150 55 76 80 be f8 2d d8 3c 67 fd 1e 3d 0f f2 3d be
       -0.2509028 0.026389107 0.038815882 -0.1854937
000160 d3 44 75 bb 40 7b 4f 3d ac dc 63 bd ba a6 8c 3d
       -0.0037425056 0.05065465 -0.05563037 0.06867738
000170 e6 fe c7 3d b3 53 47 3d f3 60 95 3d ae ab 91 3d
       0.09765415 0.048663806 0.07293882 0.071128234
000180 fa d3 52 bc bf a3 7d 3d a8 23 d5 bd 70 17 df 3c
       -0.012867922 0.06192374 -0.104071915 0.027232856
000190 f4 53 89 be b8 d6 1a bd 75 89 0c be 0e b6 d5 be
       -0.26821864 -0.037802428 -0.1372431 -0.4174046
0001a0 ed f4 c4 3c e8 aa 49 3c 9a b3 98 3c ef fa 81 3d
       0.024042571 0.012308814 0.018640328 0.0634669
0001b0 9b 32 c6 bd b4 e1 b8 bd 37 03 2c 3e a8 e3 8c be
       -0.09677621 -0.090274245 0.16798101 -0.27517438
0001c0 af f2 64 bd 9a 59 68 bc 0f c1 d3 3c 25 46 a1 3d
       -0.055895504 -0.014181519 0.025848893 0.07874707
0001d0 f5 2a 78 3d 8d 40 46 3d 22 f7 8e 3d b6 0d 10 3d
       0.060587842 0.048401404 0.069807306 0.035169326
0001e0 63 a0 a7 bd 12 db 3f be ec 54 10 bd 76 0a a5 bd
       -0.08184888 -0.18735912 -0.035237238 -0.08058636
0001f0 de 1d b6 bd 85 0a 8c be 46 c1 3c 3c 8c c8 de bc
       -0.088924155 -0.27351776 0.011520689 -0.027195238
000200 eb 68 10 be a2 d8 39 3d 9f bc 80 bd 59 dd 91 3a
       -0.14102523 0.045372613 -0.062859766 0.0011128589
000210 39 dc 8f be 11 56 70 bd 75 82 f4 bc 64 fe ec bd
       -0.28097704 -0.05867583 -0.029847363 -0.11571959
000220 15 e2 45 bd 80 dd 8b bd c2 89 bd 3c 2e 12 7e 3d
       -0.04831131 -0.06829357 0.023136977 0.062029056
000230 fe cd 96 3d 8c 2f a3 be 24 02 01 bd 0c 23 97 be
       0.07363509 -0.31872213 -0.031496182 -0.29518926
000240 b4 e7 d1 bc 3c af 87 bd aa 73 2f bd ba e3 a0 3c
       -0.02562318 -0.0662522 -0.042834915 0.019639838
000250 7e 26 87 3d cf 93 b1 bd c4 e9 52 3d 7f f6 d7 bd
       0.06599139 -0.086707704 0.051492468 -0.10545062
000260 2e 1b 9b 3b ed 7a f8 bc 0b 30 9c 3d 83 f7 bd 3c
       0.0047334647 -0.030332053 0.07626351 0.023189312
000270 a9 83 36 bd bf 76 64 be 3c 0a bd be 4d d4 b2 bd
       -0.044559155 -0.22310923 -0.3692187 -0.087318994
000280 d5 1d dd bb fb 71 c2 3c 7d de 09 be d8 f4 1d 3d
       -0.006747941 0.02373599 -0.13463779 0.03856358
000290 b1 f7 2a be 3f 34 d1 bb 34 6e c3 bc 76 9f 65 be
       -0.1669605 -0.006384402 -0.02385626 -0.22424111
0002a0 e2 c7 3c bc 11 47 c2 3b fa 3d 20 3d 66 9e 95 bd
       -0.011522265 0.005928882 0.039121605 -0.07305603
0002b0 ac ea 3b 3c 2b a5 e5 3b 3b 32 9e bc bd f8 aa be
       0.011469524 0.007008215 -0.019311061 -0.33392897
0002c0 d7 47 80 be 09 3b 16 3b 79 b1 03 bd 52 5e 84 3c
       -0.2505481 0.0022923371 -0.032151673 0.016158257
0002d0 26 be 5e 3d ed 90 9b 3c cb 89 8c 3d 92 c6 19 bd
       0.05438056 0.018990004 0.068622194 -0.037542887
0002e0 2b 4e 1f bb 96 6e 2c 3d a3 12 18 3d a5 66 76 bd
       -0.0024308066 0.04209765 0.03712715 -0.060156483
0002f0 36 14 c4 3c 37 cc 63 be 40 dc 9d be b5 9b dc 3c
       0.023935419 -0.2224587 -0.308321 0.026929716
000300 98 81 e7 3c ab c5 4d 3d 3f f7 c1 bc 89 0e e8 3c
       0.028260037 0.05023734 -0.023677466 0.028327243
000310 70 21 6a be f9 d0 a3 3d 78 58 64 3e 0b 6c 8d be
       -0.22864318 0.07998843 0.22299373 -0.27621493
000320 06 7e e1 3d 86 e3 0a 3d 12 ff c7 3c 2d fd 0b 3e
       0.11010365 0.03390839 0.02441362 0.13670798
000330 d1 27 ab be 7d f2 ab 3b fc a4 61 3d f0 80 a0 bd
       -0.33428815 0.0052474127 0.055088982 -0.07837093
000340 fa 83 a6 3c cf 11 80 3b e6 9e 37 be e8 cc e3 bb
       0.020326603 0.003908373 -0.17931709 -0.006951917
000350 3e 42 be 3c 2b 07 82 bd d5 46 2a bd 41 c2 96 3d
       0.023224946 -0.063490234 -0.041571457 0.0736127
000360 51 1c 8f be 95 68 dc bd 08 6a ba 3c dc f5 42 bd
       -0.2795129 -0.10762135 0.022755638 -0.04759775
000370 1a 31 ee bd 9f ba 82 bd 3b d7 63 bd cb fc 0c be
       -0.11630459 -0.063832514 -0.05562518 -0.13768308
000380 b9 db 88 bd bb 35 97 bd af 8c 88 bc 57 e6 f4 bb
       -0.06682534 -0.07383295 -0.016668646 -0.0074737477
000390 2b dd 85 be 72 1d 08 3d 78 04 82 3d 54 fa 51 be
       -0.261453 0.033231206 0.063485086 -0.20505649
0003a0 71 a0 9d 3c fd c5 af bd b7 8a 83 3c e8 9d 28 bd
       0.019241543 -0.08582685 0.016057355 -0.041166216
0003b0 37 d0 7b 3c 62 fb 1b bf ac 40 80 bd 4f 34 06 be
       0.0153694665 -0.60930455 -0.06262335 -0.13105892
0003c0 9e f6 87 3d 59 d1 a3 bd 45 26 68 3c 96 fd 88 bb
       0.06638835 -0.07998914 0.01416928 -0.0041806204
0003d0 1f f4 32 3d 2f 99 47 bc d8 8b 2f bd 21 bc ac ba
       0.043689843 -0.012182518 -0.042857975 -0.0013178625
0003e0 a1 f5 7e bd 94 7e be bd bf 64 ee 3b ef fd 78 3c
       -0.06224597 -0.093014866 0.0072751935 0.015197261
0003f0 b8 a2 d8 bd 55 ce cd bd eb f4 ab bc 61 6c 4a bd
       -0.10577911 -0.1004912 -0.02099081 -0.049419764

model.4.bias f4 [16]
000000 85 5a 7f bd 70 a0 d1 3d 26 48 b3 3d 64 44 c5 3d
       -0.062342186 0.10235679 0.087539956 0.09632185
000010 a2 bb 2f 3e 4b 8f 83 bd de f4 48 3d 1f 62 1f be
       0.1716142 -0.06423815 0.04906165 -0.15564774
000020 cb 68 e0 bd 75 ec fc bd 10 1e 88 3d e9 a9 1f 3e
       -0.10957488 -0.12349788 0.06646359 0.1559216
000030 0d d8 11 3e 9d 2c 0d 3d 97 d4 0c be f2 75 e7 bd
       0.14242573 0.034466375 -0.13752972 -0.11301793

model.5.weight f4 [16]
000000 37 29 a0 3f 9d 3a 9f 3f 57 88 99 3f 2a b6 97 3f
       1.2512578 1.2439762 1.1994733 1.1852467
000010 ec 6c 92 3f 4c 8c bb 3f 7f cc 9d 3f 75 b8 99 3f
       1.143949 1.465219 1.2328032 1.2009417
000020 0d ca 9e 3f 9b f8 93 3f 98 e6 ac 3f 48 16 72 3f
       1.2405411 1.1560243 1.3507872 0.9456525
000030 b1 2f 92 3f 66 82 9f 3f 4c 5b 9e 3f e9 88 9d 3f
       1.1420804 1.246167 1.2371612 1.2307407

model.5.bias f4 [16]
000000 e8 96 18 3f df 13 28 3f dd d9 ef 3e 95 89 1a 3f
       0.59605265 0.6565532 0.46845904 0.60366184
000010 03 f5 5c 3f b4 36 1b 3f 8f e2 29 3f 0b 9f 54 3f
       0.8631136 0.60630345 0.66361326 0.8305518
000020 47 70 1c 3f 6f bc 02 3f 33 2b 31 3f dd b2 37 3f
       0.6110882 0.51068777 0.6920654 0.717573
000030 b0 45 20 3f 4b 70 16 3f 28 03 4a 3f 01 e8 fd 3e
       0.62606335 0.58765095 0.78911066 0.49591067

model.5.running_mean f4 [16]
000000 ca 74 83 be df b5 d5 bd 5c 80 94 3c fb 3d e0 bd
       -0.2567504 -0.1043508 0.018127613 -0.10949322
000010 79 a7 00 be c3 20 51 be aa ad 1b be 55 92 f5 be
       -0.12563886 -0.20422654 -0.15202966 -0.47963205
000020 31 e2 b3 be 0a 5b 66 be 84 62 1d 3e 6c 55 b7 3d
       -0.35133508 -0.22495666 0.15369612 0.0895184
000030 1f ff a2 3d 5c e7 04 be 42 11 2f be 84 6a 9e be
       0.07958817 -0.12978882 -0.17096427 -0.3094064

model.5.running_var f4 [16]
000000 ba e8 04 3e 09 8c 94 3d 87 e6 df 3d e4 01 9b 3d
       0.12979403 0.07253272 0.109326415 0.0756872
000010 96 91 fc 3d 74 3d 8a 3d a2 30 b6 3d 20 75 a4 3d
       0.12332456 0.067500025 0.08895995 0.08030152
000020 1c 2e ed 3d bc 21 0d 3e b1 fb 12 3e 03 c9 d2 3d
       0.1158106 0.137824 0.14353825 0.10292246
000030 8d a6 9b 3d fc 34 fd 3d b2 d9 a8 3d 3e ab f1 3d
       0.076001264 0.123636216 0.08244647 0.1180024

model.8.weight f4 [1, 16]
000000 67 6a d0 3e 7f 04 e6 3e d6 58 02 3f cd 53 e9 3e
       0.4070618 0.44925305 0.509168 0.45571747
000010 1e d3 d8 3e 30 96 db 3e 04 bd d0 3e f8 24 de 3e
       0.4234857 0.4288802 0.40769207 0.4338758
000020 d9 63 e6 3e 38 ef 01 3f f6 dc ca 3e ed 6f 00 3f
       0.44998053 0.50755644 0.39621705 0.50170785
000030 0b 5e f5 3e cf 7d 01 3f a7 3b d2 3e d8 dc 01 3f
       0.47923312 0.50582594 0.41061136 0.50727606
