neuralnet/Hyperparameter sweeps/Hyperparameter sweep round 1/bike_volume_model_net_2layer_lr_0.00002000_batch_64_feat_35.pth (torch, 14582 bytes, 13 tensors)

model.0.weight f4 [32, 35]
000000 0e 4a b9 3d f5 dc 92 bd 4b 0d b1 3d 9d b1 cd bc
       0.09047328 -0.071710505 0.086451136 -0.025109107
000010 a8 17 2a bb d8 17 f2 3d b0 f4 d1 bd 49 1d ee bd
       -0.0025954042 0.11820954 -0.102517486 -0.116266795
000020 a6 fc b4 bd f1 e5 00 be 5e f3 4b bd c8 63 27 3e
       -0.08837251 -0.12587716 -0.04979264 0.16346657
000030 72 1e 85 bd 59 a3 0d 3e ae 11 4e bd cf fb 88 3d
       -0.064999476 0.13831843 -0.05030983 0.06688654
000040 1e 2b 25 bd c5 83 99 bd 78 fa 33 bd ef 04 0a bd
       -0.040324323 -0.07495836 -0.043940037 -0.03369611
000050 e2 8f 3e 3e 59 72 65 3e d4 47 b3 3d 89 38 87 3c
       0.18609574 0.22406901 0.087539345 0.01650645
000060 11 e7 50 bd ee 60 8b 3d 56 07 a2 3d fe ba e4 3d
       -0.051001612 0.06805597 0.079115555 0.111684784
000070 25 1d a3 bd cc ec b9 bd a7 3a 57 bb 67 f9 ef 3b
       -0.07964543 -0.090783685 -0.0032841356 0.0073234322
000080 58 f5 2c 3d 0e e6 fa 3d ee 62 59 3d c7 d8 5f bd
       0.042226166 0.12250911 0.053072862 -0.054650094
000090 65 5c 00 be 70 db a1 bd 39 33 00 3e fe 33 a7 bb
       -0.12535246 -0.079031825 0.1251954 -0.0051026335
0000a0 8e 53 ad bd e5 3a ec bd c0 fa 61 3b f5 4c 74 3d
       -0.084632024 -0.11534671 0.0034481734 0.059643704
0000b0 bb 51 54 bd 02 e7 b3 3d 03 c3 ec bd 1f 4b 92 3a
       -0.051835757 0.087842956 -0.11560633 0.0011161304
0000c0 60 b8 d8 3b 2e 11 81 bd 03 68 23 3e 97 63 9d bd
       0.006613776 -0.06302105 0.15957646 -0.07685011
0000d0 d1 ef 97 3d c7 38 06 bd f7 51 dc 3d ea 8d 13 3e
       0.07418788 -0.03276899 0.10757821 0.14409605
0000e0 ed 2e 2c 3e 2b bf ee bd 1f cd 2a be f1 05 d6 3d
       0.16814776 -0.11657556 -0.1667981 0.10450352
0000f0 b0 26 0f be 85 74 98 3d 0b fa 06 3e 7c ec e9 3d
       -0.13979602 0.07444099 0.13181321 0.11422059
000100 ba 26 05 3e 3a c9 12 be 97 fa 58 3d 2b 90 b5 bc
       0.13003054 -0.14334574 0.052973356 -0.022163471
000110 d7 c7 e3 3d 90 c3 de bc 16 1e ae 3c fb f1 be 3b
       0.11122101 -0.02719286 0.02125458 0.005827186
000120 7d bd 1e 3e a9 49 45 bc 4d 75 26 3e 6f e3 87 3c
       0.15501972 -0.012041488 0.16255684 0.016587941
000130 23 21 3c bd 83 83 8f 3d 38 26 98 3d 07 6b 2a be
       -0.04593004 0.07007506 0.07429165 -0.1664239
000140 9f d8 e6 3d 66 e6 17 3d f5 bd 3c bc 94 6c 0a be
       0.11271786 0.03708496 -0.011519899 -0.13517982
000150 99 8c 30 3c 2f bf 3a 3e a0 bc 8e bd b9 a4 1b 3d
       0.010775709 0.18236993 -0.06969571 0.03799889
000160 94 7a 09 be 49 67 9b 3d eb 83 6a 3e 0c f6 13 ba
       -0.13425666 0.075880595 0.22901885 -0.0005644269
000170 e6 07 f8 bd 4c 0a a2 bd cb f5 c9 3d dc b8 0b be
       -0.121108815 -0.0791212 0.098613344 -0.13644737
000180 48 a6 bb bc 8a 57 2a bd 75 7b 5e 3c fa d9 8a 3c
       -0.022906438 -0.04158739 0.013579239 0.016949642
000190 2a 0e a4 bd 9c fe 86 bd cc b3 82 3d 68 8c fc bc
       -0.08010514 -0.06591532 0.0638195 -0.03082867
0001a0 01 8e d1 bc 5d 2c 94 bb 44 1c 32 3c ed db 37 bc
       -0.025580408 -0.00452189 0.010870997 -0.011221868
0001b0 6b b9 97 bd c7 1d fa 3d c5 8d 95 3d 29 81 13 bc
       -0.074084125 0.12212711 0.07302431 -0.009002962
0001c0 7b 9f ff bd 15 05 e6 bc 84 8d d8 3d fd 85 25 bd
       -0.1248159 -0.028078595 0.10573867 -0.040410984
0001d0 53 d0 a7 3b ee f7 31 be ae 45 3b 3e a9 68 08 3d
       0.0051212697 -0.17379734 0.182883 0.033302937
0001e0 fd 59 08 3e ab 4b 76 3d 80 3a 1a 3c 35 05 e5 bb
       0.13315578 0.060130756 0.009413362 -0.006989146
0001f0 e8 e6 c2 3d 2c f7 61 3e 26 97 8d 3d 61 94 f9 3d
       0.09516698 0.22066945 0.06913595 0.12186504
000200 4a 4b 0d 3d ae 99 f8 bd e5 02 de 3d b0 d1 38 be
       0.03449563 -0.12138687 0.10840396 -0.1804874
000210 a9 71 f8 bc 91 fd e0 bd dd c0 db bc 86 09 1a bd
       -0.030327635 -0.10985864 -0.026825363 -0.03760674
000220 5a aa 28 bc 70 a1 97 3d b4 4f b9 bd 94 7e 6f bc
       -0.010294521 0.07403839 -0.09048405 -0.014617581
000230 06 16 bc bd 39 f2 dd bb cb 87 c6 bc 31 29 f1 bc
       -0.09183888 -0.00677326 -0.024234673 -0.029438587
000240 5a 61 f3 3d 9b ad 91 3b 4c 1e 51 3d 27 ac 91 bc
       0.11883803 0.004445744 0.051054284 -0.017782284
000250 8d 68 1b be e4 9b 89 3d 49 34 29 3c 88 e6 18 bd
       -0.15176602 0.06719187 0.010327407 -0.037329227
000260 a2 c0 48 be 27 b7 92 3d 61 10 2e bd a5 f2 64 3d
       -0.19604734 0.0716384 -0.04249609 0.055895466
000270 1f 0e 89 bd 5d ae 36 be 06 19 48 3e cb ff da 3d
       -0.066921465 -0.17839952 0.19540796 0.1069332
000280 67 ee 23 be b6 67 d1 bc 10 49 e3 3d 23 09 31 be
       -0.16008912 -0.025562149 0.1109792 -0.17288642
000290 bb 3c f2 bd ad 06 31 3d be 25 73 3d 44 12 83 3d
       -0.1182799 0.043219257 0.059362166 0.06399968
0002a0 df f5 ba 3d 25 cf 31 bd a5 8d 89 bd ff b8 75 3e
       0.091289274 -0.04341044 -0.0671647 0.23996352
0002b0 85 38 4e bc 1e 2a d8 ba 61 b6 9a 3d ad 1c 2a be
       -0.0125867175 -0.0016492044 0.07554317 -0.16612501
0002c0 e2 8e 58 3d 71 ae 02 be fb e3 f3 3d 3f c8 14 3e
       0.05287064 -0.12761857 0.11908718 0.14529513
0002d0 69 d1 84 3d dc 2a 8e 3c 79 f1 30 be 6d 86 2a 3c
       0.06485254 0.017354421 -0.17279615 0.010408026
0002e0 e2 3c 07 3e 66 d3 0e be 45 54 14 3c 4c 14 f6 3c
       0.13206819 -0.1394783 0.009053295 0.030038975
0002f0 71 3d 5d 3d 4c e7 7b 3c 1f 0b c1 3d 95 5c 14 3d
       0.054013673 0.01537497 0.09425949 0.036221106
000300 56 64 b1 bc 09 e2 70 bd 65 94 04 be be 0e 23 bd
       -0.02165429 -0.058809314 -0.12947233 -0.03980898
000310 da 5d 17 3d 9a 24 aa bd ae 1a 16 bc 87 ad cf 3d
       0.03695474 -0.083077624 -0.009161634 0.101405196
000320 ba b5 12 bd 5e df 4b bb 67 fc 07 3e b6 84 92 3d
       -0.03581784 -0.003110848 0.13279878 0.07154219
000330 cb 95 21 3d 24 23 35 3d 42 7a c3 bc 16 42 c1 bd
       0.039449494 0.044222966 -0.023862008 -0.09436433
000340 40 31 42 3d 5a 0b 0e bc dd ab b1 bd c2 c8 60 bd
       0.04741025 -0.008669699 -0.086753584 -0.054878958
000350 34 ea f6 bb 91 e1 79 3d b3 62 42 3d b6 de e5 3d
       -0.0075352434 0.061006133 0.04745741 0.11224119
000360 ed e5 cf 3d 4a d8 a4 3d 1a 1e e4 3c 7e eb 05 3e
       0.10151277 0.08049066 0.027846385 0.13078114
000370 c1 50 d1 3c 7b a0 ed bd 87 31 87 bd f5 16 41 3d
       0.025551202 -0.11602875 -0.066012435 0.047141034
000380 ee b6 1b bc 78 7b 6e bd a3 bf 28 be 61 d6 94 bd
       -0.009504063 -0.058223218 -0.16479354 -0.07267452
000390 20 ef d8 bd 42 2f 47 be bf 58 f3 3d cb d9 31 3d
       -0.105924845 -0.19451621 0.11882161 0.043420594
0003a0 01 c6 19 3d 88 f6 90 bd ff 1e 81 bc 9c 10 cd 3d
       0.037542347 -0.07078272 -0.01576185 0.100129336
0003b0 a0 6f 32 3d 6c 17 5a 3d 69 6e 4a 3d dc db 38 3d
       0.043563485 0.053244993 0.0494217 0.04513155
0003c0 67 1f 05 be 62 69 fe 3d 14 9d 30 be a4 0d 4a 3e
       -0.1300026 0.12422444 -0.1724742 0.19731766
0003d0 9c a5 63 3d 0c e3 00 3e 8f 43 9b 3d 8e e5 12 be
       0.05557786 0.12586612 0.07581245 -0.1434538
0003e0 4d 8e 9b ba d7 96 12 3e 5c 3b 91 3d e3 a0 21 bd
       -0.001186797 0.14315353 0.070914 -0.039460074
0003f0 35 fb df bd 6e a6 5e be 16 77 0b be 7b 0c bd bd
       -0.10936586 -0.21743175 -0.13619646 -0.09230896

model.0.bias f4 [32]
000000 41 68 71 bd bd a8 02 be 5e 53 14 3e c3 2b 36 3c
       -0.058937315 -0.12759681 0.14484927 0.011118832
000010 a0 e1 10 be 2e 2c d3 bd 47 e9 fe 3d cd 0c 1f be
       -0.14148569 -0.10311161 0.12446838 -0.15532227
000020 fc 73 aa 3c 27 20 09 be 39 ce e5 3c 56 d5 75 bd
       0.020807259 -0.13391171 0.028052436 -0.060017906
000030 db 0f 9b bd b6 2f ce 3d 4b da 30 3d 6c 16 ea bd
       -0.075713836 0.10067694 0.04317693 -0.11430058
000040 f1 59 85 bd 26 e8 8b bd a0 44 28 bd 33 ca 0c 3e
       -0.065112956 -0.06831388 -0.04108107 0.13749008
000050 3f ed 33 3c bd c7 04 bd e9 3d 3d 3d bb d5 24 be
       0.010981857 -0.032417048 0.04620162 -0.16097157
000060 37 01 ea bc 25 75 18 be 55 29 13 be a6 79 0d be
       -0.028565032 -0.14888437 -0.14371236 -0.13815936
000070 15 aa 13 3e 9b d4 d8 3c 7c 9b 09 3e f9 31 2d 3e
       0.1442035 0.026468566 0.13438219 0.16913594

model.1.weight f4 [32]
000000 e2 30 7f 3f c7 b4 83 3f 21 a8 6d 3f 9f 84 81 3f
       0.99683964 1.0289544 0.9283467 1.0118598
000010 ef 0c 85 3f c4 89 61 3f 35 f3 5f 3f 4f a1 91 3f
       1.0394572 0.8810084 0.8748048 1.1377352
000020 d7 b4 72 3f 5a 89 80 3f 44 e7 79 3f 2f 10 81 3f
       0.9480719 1.0041916 0.9761851 1.0083064
000030 bf ab 68 3f 6f ee 83 3f 36 3e 67 3f 44 6f 57 3f
       0.90887064 1.0307139 0.903293 0.8415415
000040 03 cc 77 3f 97 57 7d 3f 76 98 7c 3f 1f 6f 88 3f
       0.9679567 0.98961776 0.98670137 1.0658911
000050 3b 76 84 3f 3a 70 7c 3f 28 eb 78 3f a2 2b 6e 3f
       1.0348581 0.98608744 0.9723382 0.9303533
000060 16 c8 68 3f 92 41 7a 3f ca 11 6b 3f b2 d9 72 3f
       0.90930307 0.977563 0.9182402 0.94863427
000070 82 f9 7d 3f c5 64 65 3f 34 e5 7c 3f 04 51 64 3f
       0.99208844 0.8960689 0.98787236 0.8918612

model.1.bias f4 [32]
000000 40 1d cf bc 6b e0 f0 bc 3b 9a be bd a5 59 a5 be
       -0.025282502 -0.029403886 -0.09306761 -0.32294956
000010 1e 4c a2 bd b4 10 b6 bd b0 76 30 be 47 16 0e be
       -0.079246745 -0.088899046 -0.17232776 -0.13875686
000020 30 b1 d3 be 99 da db be ea ca b4 be 13 36 42 be
       -0.4134612 -0.42940214 -0.3531106 -0.1896594
000030 dd b7 e0 bd d7 eb 84 be 7c 82 9c be ff 95 e4 3d
       -0.10972569 -0.25961182 -0.30568302 0.11161422
000040 6f c6 87 bd 60 33 b1 be 7b 27 17 be f7 b3 78 be
       -0.06629645 -0.3460951 -0.14761154 -0.24287401
000050 b0 e5 c7 bd 19 7c 28 3d da f6 f0 bc 15 ba 16 be
       -0.09760606 0.041133974 -0.029414583 -0.14719422
000060 d8 85 5b be 4d 92 b9 be 4d e7 06 3b 12 16 c5 3c
       -0.21437776 -0.3624443 0.0020584643 0.024058376
000070 f1 35 90 be 54 fe 6a be 57 dc 99 bd 21 f0 83 be
       -0.28166154 -0.22948581 -0.075127296 -0.2576914

model.1.running_mean f4 [32]
000000 b5 6a 3f 3e 21 de 1b 3f f8 6b 45 3f 9d 55 05 bf
       0.18693049 0.60885817 0.7711787 -0.5208376
000010 72 36 75 3d 75 ea a4 3d bd 79 9a 3e cc 69 18 bf
       0.059866376 0.08052532 0.30171004 -0.59536433
000020 68 4c 0a bf d5 aa f6 be 6f 82 1d bd f0 e0 7a be
       -0.54022837 -0.4817721 -0.03845447 -0.2449987
000030 89 2a f8 3d 35 c7 40 be c9 d5 56 bf 18 b2 08 3f
       0.12117488 -0.18825991 -0.8391996 0.5339675
000040 7e 98 af 3d 09 98 0e bf 2a f9 4f be a1 5d f1 be
       0.085740075 -0.5570074 -0.20309892 -0.47141746
000050 55 73 a2 bd 81 16 88 3e bf 64 4e 3f 83 09 6b be
       -0.07932154 0.2657967 0.80622476 -0.22952847
000060 9a b8 0a 3e 4b 30 4f bf a9 03 5b 3f 25 0c c2 3e
       0.13546982 -0.80933064 0.8555246 0.3789989
000070 8a 4a 8e be ca 99 b3 3d 46 6a b0 3e 42 29 ba be
       -0.27791244 0.08769567 0.3445608 -0.36359602

model.1.running_var f4 [32]
000000 d2 4c 13 3e 27 c6 b3 3e 01 0a 8f 3e 77 8b f7 3e
       0.14384773 0.35112116 0.2793732 0.4834859
000010 1f c9 54 3e 7a 08 4d 3e b2 a8 36 3e f9 52 ae 3e
       0.20779847 0.20022765 0.1783779 0.34047678
000020 4f 0c 72 3e 2d d2 3f 3e 58 8a 28 3e 06 28 1d 3e
       0.23637508 0.1873252 0.16459024 0.15347299
000030 3c 92 2d 3e f0 df 56 3e b0 21 66 3f a5 37 17 3f
       0.16950315 0.20983863 0.89895153 0.5906928
000040 0a 27 e0 3d c4 d8 d5 3e d1 db 06 3e 3c 86 82 3e
       0.10944946 0.41766942 0.13169791 0.25493038
000050 7a 5d 28 3e 61 aa 76 3e 7b b5 34 3f c8 a5 e8 3d
       0.16441908 0.24088432 0.7058942 0.11359745
000060 81 af 95 3d 04 7f b4 3e a2 b5 29 3f 25 51 c6 3e
       0.07308865 0.35253155 0.66292775 0.38733783
000070 97 5d 91 3e 8a a6 79 3e 4d 3f 4e 3e ab d2 8b 3e
       0.28391716 0.24379936 0.20141335 0.27309164

model.4.weight f4 [16, 32]
000000 b7 f3 80 3d a9 ec 0e bc 29 d3 0f 3c 54 0d 7a be
       0.06296485 -0.008723416 0.008778372 -0.24419147
000010 91 3b 2a bc c6 df 4c bd 27 ca a9 bb 5b f0 0c 3e
       -0.010390178 -0.050018094 -0.005181569 0.13763563
000020 42 db cc bd af 1f ed 3d 32 ca 16 be 8e 15 43 bd
       -0.100027576 0.11578309 -0.14725569 -0.047627978
000030 ed 85 fd 3c e9 89 49 bc f8 0d 09 3e ec a8 65 3d
       0.03094765 -0.012300947 0.13384235 0.0560693
000040 4f 64 e9 3c ae 85 87 be 9f b1 34 bc d6 94 34 be
       0.028490214 -0.26469177 -0.011028676 -0.17634901
000050 92 d6 92 be f8 fc f7 3c 4f 4d ce bb 4b b4 0e be
       -0.2867933 0.030271992 -0.006295837 -0.13935964
000060 6f de a4 bd c8 9d 3b be 5e 42 1f 3d d9 07 37 3c
       -0.08050238 -0.18321908 0.038881652 0.011171305
000070 c1 34 41 bd 8f b0 82 3d 7d ce fc 3b 2d 60 01 be
       -0.04716945 0.06381332 0.007715045 -0.12634344
000080 6c 41 2a 3d 9b 1c 15 be 6c 3a 9b 3b 8e e3 5f 3c
       0.041566297 -0.14561693 0.004737189 0.013665093
000090 38 bd d2 3d c2 4d 32 3e e2 98 49 3e fe ba d5 3d
       0.10289997 0.17412475 0.19687226 0.104360566
0000a0 40 8c 54 3b 68 23 48 be a3 ca b2 3d 2c f1 42 3d
       0.0032432228 -0.19544756 0.08730056 0.04759328
0000b0 e7 a9 de 3d 31 f5 35 be 1d e1 2c bc ac 78 c4 bc
       0.1087225 -0.17769314 -0.010551718 -0.023983322
0000c0 a8 4c 84 3d 09 0f 2a 3d cf 08 9b bc f5 7e 64 bc
       0.064599335 0.041518245 -0.018925099 -0.013946285
0000d0 c2 dc 11 3e f0 f3 ed bc 77 dc ab bd 39 f3 20 3e
       0.14244369 -0.029046983 -0.0839166 0.15717782
0000e0 26 6e c9 3d 39 83 a6 3d 00 f7 13 3c cd b7 96 be
       0.09835462 0.081304975 0.009031057 -0.29437104
0000f0 14 2f ea bd e8 1a e3 3c 49 c9 06 be 30 a2 0a 3d
       -0.11434761 0.02772279 -0.13162722 0.03384608
000100 fe 65 84 bd ac 9b 42 be 63 3e 59 bd 87 0a 5c bc
       -0.06464766 -0.19004697 -0.053038012 -0.013430244
000110 e1 6b 29 3e 7d 68 e8 3d 54 cd 4c 3e 6e ca 9c 3d
       0.16545059 0.113480546 0.20000201 0.07655798
000120 ab a1 b7 bc 7d 38 71 be 18 97 bf 3c b2 d7 36 bc
       -0.022415956 -0.23556705 0.023387477 -0.011159824
000130 c8 1b 66 bd 7d 75 1e be 0e f8 4c 3c 48 e8 56 be
       -0.056178838 -0.15474506 0.012510313 -0.20987046
000140 f3 60 ec 3d 64 6d d0 bc 53 1f d0 bd 43 d0 8b 3d
       0.11541929 -0.025442787 -0.101622246 0.06826832
000150 a4 0a ce 3d f1 74 0b be f0 ee af 3c b8 3c 4c 3a
       0.10060623 -0.13618828 0.021476239 0.000779103
000160 ad ee 70 3d 5d 01 0a 3d da bc b6 bd 88 72 c1 bc
       0.05882137 0.033692706 -0.08922739 -0.023614183
000170 2d 07 8b bd 3d fd b9 3d 21 7f 4b bd 28 a5 f4 3c
       -0.06788478 0.090815045 -0.049681786 0.029863909
000180 51 02 67 3c 70 3a a1 3c b3 71 0c 3d 3c fd 8c be
       0.014099673 0.019681185 0.03428812 -0.27536952
000190 b6 40 72 3d b7 6e 42 be d3 79 8b 3d dc 55 7c 3d
       0.059143744 -0.18987547 0.068103455 0.06160532
0001a0 b4 fe 95 bd 71 24 2e 3e 46 0f f3 bd d2 ca 04 be
       -0.073239714 0.17006089 -0.118681476 -0.12967995
0001b0 3c 90 4b 3d af a9 a9 3d 5a 24 ac be f7 89 3c 3d
       0.0496981 0.08284318 -0.33621484 0.04603001
0001c0 d3 cd 08 be fe 8e 73 bd 2a 45 13 3e df 73 d9 be
       -0.13359766 -0.05946254 0.14381853 -0.42471215
0001d0 5f 1b ca 3d 9f 0c 5a 3d 07 cb 12 3d b5 ce ce 3d
       0.09868502 0.053234693 0.035838153 0.1009802
0001e0 6f d5 0b bc 10 57 6e be 40 61 7f 3d 28 fc 03 bd
       -0.008534773 -0.23275399 0.062348604 -0.032222897
0001f0 7d 42 ff bd f3 9a 9b bc 80 84 89 bc e4 51 46 bd
       -0.124638535 -0.018994784 -0.016786814 -0.04841794
000200 91 ec 28 be 6b 18 50 be 21 57 b1 bd cc c4 51 bd
       -0.16496493 -0.20321815 -0.08659197 -0.05121307
000210 ef ce ae be 9b 58 0b bd fa fe a3 3b 52 d8 35 be
       -0.34142253 -0.034020048 0.005004761 -0.17758301
000220 d1 5d 89 bd 4d 6a fe bd f2 b2 75 bd b0 d1 44 3d
       -0.06707347 -0.12422619 -0.05998511 0.048051536
000230 75 2b 62 3c d1 73 9d bd 08 78 9e bc 82 ee 49 bd
       0.013804306 -0.07688106 -0.019344345 -0.049299724
000240 51 75 1a 3c 9b c3 4a bd db c6 23 bd 15 30 70 bd
       0.0094273845 -0.04950295 -0.039984565 -0.058639605
000250 7c f6 d6 3d ca ba d2 3b dc 3b 1c 3e 31 3f 12 3d
       0.10496232 0.0064309584 0.1525721 0.035704795
000260 3f e5 e2 3c 2e 77 c8 bd bf 1c a9 bd 98 64 ac bd
       0.027697204 -0.09788357 -0.08257436 -0.08417624
000270 17 ba 24 bb 95 dd 94 3c 22 ad 2f 3d 5c 91 13 bd
       -0.0025135332 0.018172065 0.04288972 -0.036027297
000280 72 cf 65 3d 47 c4 e7 3d 00 e3 1b 3d 51 e4 97 be
       0.05610604 0.11316734 0.03805828 -0.2966638
000290 c2 33 c7 bd 09 2e 8e 3d 47 e6 e1 bd 2f 80 5f 3c
       -0.09726669 0.06942374 -0.1103025 0.013641401
0002a0 55 62 01 be 5d df 93 3d e8 cb e7 bd 76 ae c0 bd
       -0.12635167 0.072203375 -0.11318189 -0.09408276
0002b0 1e 3f 26 be bc 7f 55 bc 88 da 1c 3e 87 82 47 3d
       -0.16235015 -0.0130309425 0.15317738 0.048708465
0002c0 6f 40 fa 3c a4 8e 46 be 98 c6 60 bd ab d2 34 be
       0.030548302 -0.1939035 -0.054876894 -0.17658488
0002d0 3d 8d 01 be 71 3e 13 3d fc d9 7c 3c 3d 5c 3d bc
       -0.12651534 0.03594822 0.015432831 -0.011557636
0002e0 06 86 2a 3e 37 48 1b be b7 90 ad 3d 2d 1c bd 3a
       0.16652688 -0.15164267 0.08474868 0.0014427953
0002f0 1e 93 99 3d b3 6f 7c 3d 09 32 8c bc 6a 77 1b be
       0.074987635 0.061629962 -0.017113702 -0.15182272
000300 5a 59 87 be e4 33 0e be 11 f2 9f bd e1 bf 0f 3d
       -0.26435357 -0.13886982 -0.078098424 0.0350951
000310 34 3a 36 bd be 48 d5 3d a2 60 80 3d a6 39 8e 3d
       -0.0444891 0.10414265 0.06268431 0.06944589
000320 85 d6 94 bd 14 45 91 bd 18 e2 7f 3b c8 33 5d 3d
       -0.07267479 -0.07093254 0.0039044674 0.05400446
000330 15 0f b0 3d eb bb 3c be 9b 73 bc bd e8 03 06 bd
       0.08596627 -0.1843106 -0.092017375 -0.03271857
000340 6e 4b aa 3d ed d7 c5 bd 78 35 a5 bc 0d 19 93 bd
       0.08315168 -0.09660325 -0.020167097 -0.071825124
000350 7b 83 7f 3c ea eb 7b be b9 a6 c2 be 3c 39 d0 3d
       0.015595312 -0.24601713 -0.38017824 0.101671666
000360 56 81 c1 3d e2 94 b4 bd 0b 53 d7 bd 63 c4 80 be
       0.09448497 -0.0881746 -0.10513886 -0.2514983
000370 a4 07 68 bb cd 4f 05 3e 4d b2 72 3e a3 f9 4a bb
       -0.0035404945 0.13018723 0.23700829 -0.003097155
000380 79 f8 a1 3c 05 59 1a 3c 98 96 32 3d 1e 62 32 bc
       0.019771801 0.009420638 0.04360065 -0.010887651
000390 2c ac dd bd 5a 66 02 3e 65 90 77 3d ec 8c c5 be
       -0.10823855 0.12734357 0.06044044 -0.38584077
0003a0 27 2f 4c be b3 39 05 be cc 17 8a be b0 b9 34 bd
       -0.19939862 -0.13010292 -0.2697128 -0.044122398
0003b0 3d 9f 26 bd 81 84 3f 3d 35 a8 d2 bc bc 41 04 bd
       -0.040679205 0.046757225 -0.025714973 -0.03228925
0003c0 ad 68 af bc 37 e6 bd bd 00 5c fe bb 7b dc 9a 3d
       -0.021412218 -0.092724256 -0.007762432 0.075615846
0003d0 58 ff 7a bd ac 02 ad bd 54 f5 10 3d c1 43 f5 bc
       -0.06127867 -0.08447775 0.035390213 -0.029939534
0003e0 97 8d 08 be ff 31 47 be c6 23 3c bd 42 82 66 3c
       -0.13335262 -0.19452666 -0.045932554 0.014069142
0003f0 b5 31 80 bd 35 1c 31 be 44 8c 0d bc 7d 28 7d bd
       -0.06259481 -0.17295916 -0.008639399 -0.06180619

model.4.bias f4 [16]
000000 b3 0f c3 bd 4b 69 2e 3e d6 2b 79 bd a7 f1 93 3c
       -0.09524479 0.17032354 -0.06083282 0.018059565
000010 26 46 13 3d 23 89 0e 3e fd 27 d8 bd 47 f8 b3 3d
       0.03595557 0.13919501 -0.10554502 0.087875895
000020 72 47 be bd 4d 9a 8b 3d f4 43 be 3d 4e c9 e7 3d
       -0.09290971 0.0681654 0.09290305 0.11317693
000030 32 99 3d 3d fb 53 fb 3c e8 09 32 bd 50 68 74 bd
       0.046288677 0.030679693 -0.04346648 -0.059669793

model.5.weight f4 [16]
000000 2d cd b1 3f ce 9a b2 3f cb f5 a8 3f 31 3d ad 3f
       1.389074 1.3953493 1.320001 1.3534299
000010 26 83 ad 3f b7 8b b4 3f 59 5c b4 3f af 0d ae 3f
       1.3555648 1.4105138 1.4090682 1.3597926
000020 4c 83 bf 3f 51 de b1 3f a3 1e b5 3f 72 6c b2 3f
       1.4961944 1.389597 1.4149975 1.3939345
000030 d1 d2 be 3f c6 85 b0 3f 09 82 bf 3f 44 f4 ae 3f
       1.4908086 1.3790824 1.4961559 1.3668294

model.5.bias f4 [16]
000000 3b 96 05 3f 98 e9 ef 3e b9 8d c6 3e 74 e3 09 3f
       0.5218236 0.46857905 0.3878 0.5386269
000010 88 8e 27 3f a3 04 0d 3f 30 5e 11 3f 46 59 1a 3f
       0.6545186 0.550852 0.56784344 0.6029247
000020 5a b1 1c 3f 05 e2 ee 3e 2e a5 0e 3f 8d 6a ec 3e
       0.61208117 0.46656814 0.55720794 0.46175042
000030 16 16 1b 3f 10 3b 10 3f eb a2 0f 3f c3 03 09 3f
       0.60580575 0.5634012 0.5610797 0.53521365

model.5.running_mean f4 [16]
000000 90 ef cc be e7 52 3e 3e 9a 7d 83 be ba af 88 be
       -0.40026522 0.18586312 -0.25681764 -0.2669657
000010 83 42 e9 be 12 ae 98 bd 8c 45 1f bf b6 aa d9 be
       -0.45558557 -0.07455076 -0.62215495 -0.42513055
000020 f0 02 01 bf 7a 39 0d be ed f7 88 be a9 a4 a2 be
       -0.5039511 -0.13791457 -0.26751652 -0.3176625
000030 e3 08 3d be 5d ba 46 be 4e 53 fc bd b2 74 d4 be
       -0.18460421 -0.1940703 -0.123205766 -0.4149528

model.5.running_var f4 [16]
000000 6e b5 b6 3e 13 10 d4 3e bb 5a a7 3e bd b8 25 3f
       0.35685295 0.41418514 0.3268641 0.64735013
000010 da b5 1b 3e 71 f0 b7 3e 99 ed 13 3f b3 98 85 3e
       0.1520609 0.3592563 0.5778442 0.26093063
000020 c6 db d9 3e 7e 82 05 3f 29 25 9a 3e 58 ca d3 3e
       0.42550486 0.5215224 0.30106476 0.41365314
000030 21 98 43 3e d4 0b 01 3e e3 f9 0d 3f b2 bd 01 3f
       0.19101001 0.12602168 0.5545942 0.5068008

model.8.weight f4 [1, 16]
000000 51 75 1c 3f 86 89 eb 3e 00 12 e7 3e ec 9a 1f 3f
       0.6111651 0.4600336 0.4513092 0.6234577
000010 87 84 01 3f c2 15 15 3f 6a 5b 01 3f 68 12 1d 3f
       0.50592846 0.58236325 0.5053011 0.6135621
000020 0e cc fe 3e 60 96 1f 3f 59 a2 fd 3e a4 2e ea 3e
       0.49765056 0.6233883 0.49537924 0.4573871
000030 eb 5b 0e 3f 93 b3 f9 3e c8 e3 fe 3e 25 85 1b 3f
       0.55609006 0.48769817 0.49783158 0.6075004
