neuralnet/Hyperparameter sweeps/Hyperparameter sweep round 1/bike_volume_model_net_2layer_lr_0.00010000_batch_64_feat_35.pth (torch, 14582 bytes, 13 tensors)

model.0.weight f4 [32, 35]
000000 9d 6b 88 3e dd 1f 5f 3c 1a f4 41 3d 82 58 a8 bd
       0.26644602 0.013618437 0.047351934 -0.082200065
000010 88 00 04 3d 68 66 b7 3d f9 8f 51 bd d4 09 1c bc
       0.03222707 0.08955079 -0.051162694 -0.009523828
000020 f5 7b 0d be d6 4c 9d bc a0 81 38 be 10 bb 27 3d
       -0.13816817 -0.019201677 -0.18018198 0.04094988
000030 68 f7 07 bc 14 35 49 bd dc 0c d4 bd 4d 5a 87 bc
       -0.008298732 -0.049122885 -0.10354015 -0.016522551
000040 b9 86 4d 3d 13 ff f2 3d 70 41 c4 3d 6e 07 01 3d
       0.05017731 0.11865058 0.09582794 0.031501226
000050 e0 87 89 3d e9 86 f9 3d cb f1 d0 3d 48 11 1e 3c
       0.06715369 0.12183935 0.10202368 0.009647675
000060 3b 57 73 3d 61 70 e7 3c 83 5f ac 3c c6 10 cd bd
       0.05940936 0.028251829 0.021041637 -0.10012965
000070 18 63 24 be ed 84 84 3d 15 53 b9 3d 5a 44 17 3d
       -0.16053426 0.06470666 0.0904905 0.03693042
000080 05 8a 79 3d d7 d3 cb 3c 05 13 59 be 45 17 c9 bd
       0.06092264 0.024881287 -0.21198662 -0.098188914
000090 ec f1 03 3d e9 cd 19 3e db f4 55 3c 2a c0 85 3d
       0.032213137 0.15019955 0.013058866 0.06530793
0000a0 45 9a 19 3d 63 a2 3d 3e 72 38 dd 3d 95 17 7f bd
       0.03750064 0.18518977 0.10801782 -0.06227835
0000b0 12 19 5f 3a f2 6a 2e be 18 26 54 3e 85 e2 27 3e
       0.00085105107 -0.17032984 0.20717657 0.16395004
0000c0 1d 21 55 3b 85 7f dd bd 6b 51 18 bd 15 7e d3 bd
       0.0032520958 -0.10815338 -0.03718702 -0.103267826
0000d0 77 41 ba bd 78 51 73 be 6b d6 d1 3c 14 ac f2 3d
       -0.09094518 -0.23761547 0.025614938 0.118492275
0000e0 aa de a9 3d b7 2f b9 bd e8 4b aa bc d7 62 de 3c
       0.08294423 -0.09042304 -0.020788148 0.02714674
0000f0 fd 2e b4 bc 4b 69 d3 bd 89 4b 3d 3e 9a 08 81 3d
       -0.021995062 -0.103228174 0.18485846 0.06300469
000100 29 f4 c0 bd 2b 3a 1f bd 0c 6a 0a 3d 64 3d 0c 3e
       -0.0942157 -0.038873833 0.03379254 0.13695294
000110 8c 3c 15 3e eb c4 ed bd ac 16 d9 3d f0 f5 ea 3d
       0.14573878 -0.11609825 0.106000274 0.1147269
000120 e8 72 80 3d d6 cc a6 3d 0e d9 d7 ba ea 53 4d bc
       0.06271917 0.08144538 -0.0016467886 -0.012532214
000130 8e 15 50 bb 80 2d 29 bd b8 07 99 3d ef a4 91 bc
       -0.003175113 -0.041303158 0.07472175 -0.017778842
000140 64 03 ab bd 3a 83 11 be 41 eb 50 3d 0f 85 93 bc
       -0.08350256 -0.14210215 0.051005606 -0.018007783
000150 c5 99 f9 3c d6 7b 06 be 57 6a 3d 3e 79 21 b6 3d
       0.03046883 -0.13133177 0.18497597 0.08893103
000160 06 b5 42 3d 12 aa ae 3d 8f cc cb 3c 93 ec 38 bd
       0.04753592 0.08528532 0.024877815 -0.04514749
000170 5e ca e2 3b 6a 34 4b 3d 45 03 e7 bc 4f 8f 6d 3d
       0.0069210967 0.049610533 -0.028199801 0.057997998
000180 c0 4e 6a 3c ec 7f 08 be 59 09 14 3e f0 68 dd bd
       0.014301002 -0.13330048 0.14456691 -0.10811031
000190 a4 9c c9 bc be d1 18 be 3f 81 82 b9 5c cd 3f be
       -0.024610825 -0.1492376 -0.00024891828 -0.18730682
0001a0 a7 e4 50 3c 28 41 11 3e 55 40 30 3e b5 fc d2 3d
       0.0127498275 0.14185011 0.1721204 0.10302106
0001b0 cd b9 6a be eb ba 18 3d 78 c6 2b 3d 03 66 b0 3c
       -0.2292244 0.037287634 0.04193732 0.021533018
0001c0 e4 2c 7d 3d db 2e 71 3d 58 be ba 3c 4e 1a 58 3d
       0.06181039 0.058882575 0.022795841 0.05275946
0001d0 35 da db bb 6c 59 00 be 9f f5 fe bc be f5 01 3e
       -0.006709362 -0.12534112 -0.03112298 0.126914
0001e0 e6 05 01 be 4a dd 10 bb 93 a4 1c 3e 71 9a 1c bd
       -0.12599906 -0.0022104555 0.15297155 -0.038233224
0001f0 5b 63 0d 3e ad 41 7e bb 78 5c 90 3b 91 5c a4 3a
       0.13807432 -0.003879647 0.0044055544 0.0012539794
000200 fd 83 80 bd 81 b5 79 bd 42 86 1a 3c 13 08 f7 bc
       -0.06275175 -0.06096411 0.009431424 -0.030155217
000210 e3 d9 c5 bd 25 f9 98 3d 75 42 92 3d 40 a1 2d 3a
       -0.09660699 0.074693955 0.07141582 0.00066234544
000220 5f 7c fb 3b b2 37 84 3d a9 ba 13 be 68 8d 23 be
       0.0076747383 0.064559355 -0.14426674 -0.15971911
000230 9a 25 97 bc 5c 0d a8 bc bf ec 81 3d 98 6b 0d 3e
       -0.018450547 -0.020514183 0.06343984 0.13810575
000240 1c 7e bc bc 73 50 62 3d 36 b1 49 bb 89 09 9a bd
       -0.023009352 0.055252504 -0.0030775792 -0.0752135
000250 ee f6 56 bd 55 36 84 3c b8 85 e1 bd c6 42 d6 bd
       -0.052481584 0.016139189 -0.11011833 -0.10461955
000260 aa 60 15 3e ec b3 9f b9 72 64 d3 bc 1e 0f 60 3c
       0.14587656 -0.00030460896 -0.025804732 0.013675479
000270 1e 40 f7 3d f1 fa 49 3e 94 ee 86 be 6f 3d 9e 3d
       0.12072776 0.19724633 -0.26353896 0.07726561
000280 96 95 46 3e c8 6a da 3d c1 5d c2 be ce 2c 6a be
       0.19393 0.10664898 -0.37962154 -0.22868654
000290 79 da b0 bd 7a b5 71 3c b4 fd c6 bd 46 7b ab b9
       -0.0863542 0.01475274 -0.09716359 -0.00032707507
0002a0 c5 38 1f 3e 6f 3b 40 bd 29 4e b7 3c 6f 10 cd bd
       0.15549 -0.04693168 0.022376137 -0.100129
0002b0 53 fa 8a 3c 48 6d 33 be 78 0a e1 bc b2 aa a9 3d
       0.016965067 -0.17522156 -0.027470812 0.08284511
0002c0 6b 24 6e 3e b2 ae fe 3d 2d 3b 93 be ec 77 ba 3d
       0.2325608 0.12435664 -0.28756085 0.091049045
0002d0 c6 9a a2 3d 63 4e 17 be 7c 69 03 bd 9e 50 62 bd
       0.07939677 -0.14775996 -0.03208302 -0.055252664
0002e0 7a 72 39 3b b0 c7 f8 bd 84 92 8e 3d 3b c2 4a 3a
       0.0028296993 -0.12147462 0.069615394 0.0007734631
0002f0 b8 28 19 bd 78 4a 4f 3d b6 0b 46 be 37 be 26 3c
       -0.037392348 0.05060813 -0.19340405 0.010177187
000300 6c d6 bd 3d 3d 3b b3 bd 2e 53 05 3e ca 2c e8 bc
       0.09269413 -0.08751533 0.13020012 -0.02834167
000310 c0 ba f4 bc 30 1c 08 3c 4a f8 8a bd 89 73 34 bd
       -0.029874206 0.008307502 -0.06785639 -0.044055495
000320 57 95 4e 3b 97 f4 83 bd e8 ee 01 be ac e5 1a 3d
       0.003152212 -0.06443136 -0.12688792 0.03781669
000330 04 c1 8a bc 09 e2 61 3c 06 b5 5c b9 0b 0e b7 3d
       -0.01693774 0.013786801 -0.00021048271 0.08938225
000340 b8 24 80 be e5 1a 29 be 7c d7 48 3e 08 14 01 be
       -0.25028014 -0.16514166 0.19613451 -0.12605298
000350 1d 63 90 3d ff fa 86 bd 5a 8c 98 3c cf c8 a4 3d
       0.07050154 -0.065908425 0.018621612 0.08046114
000360 99 09 45 3d 94 59 11 be 9d f5 29 3c 80 15 af 3c
       0.048104856 -0.14194328 0.0103735 0.021372557
000370 06 9c 0a be 5f 2b 56 bd 55 7f 77 3b ff fa e1 3c
       -0.1353608 -0.052287456 0.0037765105 0.027585505
000380 56 47 60 bb f4 11 43 3e 91 06 24 3d 3a f7 fb 3c
       -0.0034222207 0.19049817 0.040045325 0.030757535
000390 5f 6b bc 3d f4 ff 95 ba 01 1a 92 bd 00 ce 62 3d
       0.09200167 -0.0011444078 -0.07133866 0.05537224
0003a0 fd 92 04 3d de 30 a7 bd b8 47 0d 3d 1c 70 29 be
       0.03236674 -0.081636176 0.034492224 -0.16546673
0003b0 c6 b0 80 bd 9f 23 eb 3d 74 f9 1f 3d 97 98 35 be
       -0.06283717 0.114814036 0.039056256 -0.1773399
0003c0 a5 5f 06 3c 36 29 0d be 4b 11 07 3e 2d 4c b4 bc
       0.008201514 -0.13785252 0.1319019 -0.02200898
0003d0 e6 89 1b be 6f 41 ea 3c fd a6 1e 3e 6f 2d bd bb
       -0.15189323 0.028595654 0.15493388 -0.0057732384
0003e0 43 3f d4 bd 8f 59 0d 3d 83 a6 ff 3d 58 bd 0d bd
       -0.10363629 0.034509238 0.124829315 -0.0346044
0003f0 2d 47 d7 3d 19 b7 e9 bd a5 02 d4 3d 77 32 78 3a
       0.105116226 -0.11411876 0.10352067 0.0009467969

model.0.bias f4 [32]
000000 93 06 fc bd 7f 73 87 bc 6c cc c1 3d a7 1d 37 3d
       -0.123059414 -0.016534565 0.094628185 0.044706013
000010 ef 66 7e 3c e6 a6 29 bc a7 21 14 3e 8d af da bd
       0.015527471 -0.010354733 0.14465962 -0.10678015
000020 de 5b 00 bb 72 82 02 be 5a 2e e2 3d 4f 5e 00 be
       -0.0019586007 -0.12745073 0.11043997 -0.12535976
000030 bd 43 2d be a8 ae d4 3d 5f f0 0c be 43 dd 12 be
       -0.16920371 0.103848755 -0.1376357 -0.14342217
000040 a1 14 06 be a6 b4 1a 3d d8 fa a7 bd bf dc 1f be
       -0.13093807 0.037769936 -0.082021415 -0.15611552
000050 78 7c 95 3d 38 5c f2 bc b6 ca 77 3d 56 11 25 3e
       0.07299131 -0.029584989 0.060496055 0.16119894
000060 b4 59 e9 bc e5 7d 8e 3c db ca cc 3d 07 a7 d1 3c
       -0.028485157 0.017394016 0.09999629 0.02559234
000070 bf 36 ee bd c7 f9 1a 3d fe 2e 51 3d 75 d9 ca bc
       -0.11631536 0.037835862 0.051070206 -0.024761895

model.1.weight f4 [32]
000000 ab 08 4c 3f eb 76 39 3f d6 42 42 3f 3b aa 38 3f
       0.79700726 0.7244708 0.75883234 0.7213475
000010 e4 cb 39 3f 05 66 30 3f ec b6 52 3f bd 03 4b 3f
       0.7257674 0.6890567 0.82310367 0.7930258
000020 09 df 46 3f a1 4c 5f 3f 41 29 89 3f 7c 22 59 3f
       0.77684075 0.872263 1.0715715 0.84818244
000030 93 a0 59 3f f9 8a 39 3f 90 e5 52 3f 10 92 41 3f
       0.8501064 0.7247768 0.82381535 0.756135
000040 5e 36 5a 3f d1 10 3f 3f 2a 1c 45 3f b2 bb 63 3f
       0.8523921 0.74635035 0.769961 0.88958275
000050 26 3e 61 3f a9 25 42 3f 38 75 2f 3f 54 3e 74 3f
       0.87985456 0.75838715 0.68538237 0.95407605
000060 89 24 56 3f cd e1 4b 3f da fb 62 3f 9e aa 26 3f
       0.836495 0.7964142 0.88665545 0.6510409
000070 d8 af 41 3f 98 31 3f 3f fb 27 60 3f c2 68 38 3f
       0.7565894 0.7468505 0.87561005 0.7203485

model.1.bias f4 [32]
000000 5f 3f 0a bf 53 2e c7 be 95 c1 54 bf d5 15 4c bf
       -0.54002947 -0.3890253 -0.8310788 -0.79720813
000010 44 6f dc be e2 47 46 bf 45 d2 df be 73 d0 4f bf
       -0.4305364 -0.77453434 -0.4371511 -0.81177443
000020 c8 fe 84 be ca b5 bf be d5 b1 87 be 8d 5f 2a bf
       -0.25975633 -0.37443382 -0.26502863 -0.6655205
000030 a6 f4 1f bf 63 94 80 bf 78 9e 78 be 5f 24 ba be
       -0.6248268 -1.0045284 -0.24279201 -0.36355874
000040 b6 c8 df be f6 a2 c8 be e9 3f 8d be e6 29 e6 be
       -0.43707818 -0.3918683 -0.27587822 -0.4495384
000050 c7 fd 0b bf 2a d6 04 bf 0a e2 66 be b8 71 ce be
       -0.5468411 -0.5188929 -0.22547165 -0.40321136
000060 d1 54 26 bf 77 ca 4f bf 2c a0 08 bf 9b 71 a1 be
       -0.6497317 -0.8116831 -0.533694 -0.31531987
000070 77 fc 21 bf 6d dc f2 be 4d 7f 24 bf 82 c4 23 bf
       -0.63275856 -0.47433797 -0.64256746 -0.6397172

model.1.running_mean f4 [32]
000000 c7 21 23 bf b6 47 ac 3e 4c cf 7f bd ea f8 9b be
       -0.63723415 0.3364846 -0.062453553 -0.30463344
000010 86 f4 0e 3f 81 37 22 bf 2f eb 9a bd 16 e4 2c bf
       0.55841863 -0.6336594 -0.07564389 -0.6753553
000020 9e 77 c6 be df 95 55 be d4 2f c2 3d a3 be 4a bc
       -0.38763136 -0.20857953 0.09481779 -0.012374553
000030 b8 d9 5b bf 86 09 22 3e 1f b2 cb 3d b0 83 5b 3e
       -0.8587909 0.15823945 0.09946083 0.21436954
000040 75 2f 5b be fb a6 a5 bd 38 31 95 be 5f d3 c8 be
       -0.21404822 -0.080884896 -0.29139113 -0.39223763
000050 a4 b5 3d 3e 01 4d 73 3e 12 ef 33 3f 2c 06 bc be
       0.18526322 0.23759843 0.7028667 -0.3672346
000060 45 96 44 be b9 68 03 be a0 a5 46 bd 0a b5 69 3e
       -0.19197948 -0.12832917 -0.048497796 0.22822967
000070 f3 c3 e8 be 71 21 be 3d a4 5d 75 bd 2d e3 1f 3e
       -0.45461997 0.09283722 -0.059903756 0.15614004

model.1.running_var f4 [32]
000000 aa ae 88 3e 0a 3b 8c 3e 8c 62 e4 3d ef a6 f6 3d
       0.26695758 0.27388793 0.11151609 0.12043559
000010 8d 27 90 3e 4c 10 84 3e db 1c b0 3d e0 c7 30 3e
       0.28155175 0.25793684 0.08599254 0.17263746
000020 3c 42 07 3e 35 4b af 3e 1b 27 a9 3d 1b d9 0f 3e
       0.1320886 0.34237066 0.08259412 0.14047663
000030 2d 40 91 3e 58 41 ec 3d fd 23 52 3e 96 b5 08 3e
       0.28369275 0.11535901 0.20521541 0.1335052
000040 37 d0 8b 3d 32 7e 17 3e 6a 69 17 3e 8c 0b f5 3d
       0.06826823 0.14794233 0.14786306 0.11965093
000050 b9 66 09 3e c1 ac 22 3e 34 1e 87 3e d0 bb 89 3e
       0.13418092 0.15886213 0.2639023 0.26901102
000060 ce f2 08 3e bf 9c 89 3d cf ae f4 3d ef 83 ab 3d
       0.13373873 0.0671935 0.119474046 0.08374774
000070 2a b7 3b 3e ff b6 a8 3d 19 31 d2 3d 79 ab 83 3e
       0.1833159 0.08238029 0.10263271 0.2571676

model.4.weight f4 [16, 32]
000000 d1 fc e5 3c 0a 5c a1 3b 94 64 77 3c f5 34 1e 3c
       0.028074654 0.004924302 0.015099663 0.009656181
000010 17 22 6c ba d5 de d0 3a b3 95 9e 3d e4 11 8b be
       -0.00090077653 0.001593555 0.077433966 -0.27162087
000020 03 91 de 3a cf 08 d1 bd 91 1b 9b 3c 32 23 ba 3c
       0.0016980473 -0.10206758 0.018934043 0.02272186
000030 90 27 bc be d4 a1 b5 be 92 e6 25 3d 5c 7d a0 3d
       -0.36748934 -0.35475028 0.040503092 0.078364104
000040 a2 37 1f bc f7 5f 0b bd ce d4 71 3c ac 1c 44 3b
       -0.009717854 -0.034027066 0.014760209 0.0029924316
000050 50 2d 17 3d 98 f0 97 bb c9 c2 59 3d 4c db 3b be
       0.036908448 -0.0046368353 0.053164277 -0.18345374
000060 bc c9 04 bb 64 71 67 be 50 64 b4 be 31 6e 32 3d
       -0.0020261845 -0.22601849 -0.35232782 0.043562118
000070 be ba e1 3d 31 37 13 bc 4d 9c 7a be 03 34 53 bd
       0.11021946 -0.008985327 -0.24473687 -0.051563274
000080 38 1e 41 bd a0 64 98 3c eb f7 4e 3c d3 bd 47 bc
       -0.04714796 0.01860267 0.01263235 -0.012191254
000090 8d dd 82 3c c7 3a dc bd 00 b1 8c 3d 69 91 8b be
       0.015974784 -0.107533984 0.068696976 -0.27259377
0000a0 c1 29 01 3d 05 75 a2 bd 5c 71 03 3d ec 2c 00 3a
       0.03153396 -0.07932476 0.03209053 0.00048895064
0000b0 2e 89 a5 be 93 00 94 be 97 2c e9 3c 51 c3 62 3d
       -0.32331222 -0.28906688 0.028463645 0.05536205
0000c0 6a c6 6b be 1d 7e dc 3c 96 2b 25 3d 6b 1a 07 3d
       -0.23024908 0.026915604 0.04032477 0.03298418
0000d0 b7 09 4a 3d e0 87 b2 3c d4 35 a3 3d 56 db 22 be
       0.04932567 0.021793306 0.07969251 -0.15903983
0000e0 dd 67 7d bd e8 07 70 be f4 bc b3 be 42 6d 40 3d
       -0.06186663 -0.23440516 -0.35105097 0.046979196
0000f0 67 05 6f 3d c6 6d 8f 3c c3 f5 37 3e 8d 4e bf 3b
       0.05835476 0.017508399 0.17964844 0.0058382214
000100 b8 23 f3 bc ff 10 c9 3d fa 3a 29 be fb 98 43 be
       -0.029680118 0.09817695 -0.16526404 -0.19101326
000110 e8 0b b4 be f7 3c e1 bd d6 3c 0f bd 31 06 6a bd
       -0.35165334 -0.10997956 -0.034970127 -0.05713481
000120 37 41 1e bc 6f c6 d2 3d e7 13 f8 3c ee 4e 68 be
       -0.009659103 0.102917545 0.030282928 -0.2268636
000130 fe aa 31 bd ec 34 5e 3c 12 77 ec be ab 35 7f bd
       -0.04337596 0.013562422 -0.46184593 -0.06230704
000140 d1 48 9d 3d 9e 4f cb 3d 62 a4 98 3d 3d 13 d3 3c
       0.07679904 0.09927295 0.074532285 0.02576601
000150 5c 68 68 be d5 3a d4 3d 82 b0 86 bd 82 c4 8f bb
       -0.2269606 0.10362784 -0.06576635 -0.004387439
000160 71 f2 1a 3d 3c 3d ac bd a1 54 07 3d 37 b3 40 bd
       0.037828866 -0.08410117 0.033039693 -0.047045913
000170 b5 50 da bd f1 51 8d 3e 11 90 f7 3c b2 00 e0 3d
       -0.10659925 0.2760158 0.030220063 0.109376326
000180 4c 8e 0a be 27 08 75 bd 6d 44 06 be f9 9b 56 be
       -0.13530844 -0.059822228 -0.1311204 -0.20957936
000190 71 e1 48 3d 3e 4f 9f be 0c 27 9e bd 61 a7 58 be
       0.049043123 -0.31115144 -0.07722291 -0.211576
0001a0 48 e2 f4 bd d7 05 37 be 8d 31 81 3c 92 4b 27 3d
       -0.11957222 -0.17873321 0.015770698 0.040843554
0001b0 ef c6 ab 3c 75 8e a8 be c7 08 55 3b 70 9a aa bb
       0.020968882 -0.32921186 0.0032506452 -0.0052063987
0001c0 17 76 fd 3c 1e d5 15 3d 96 0b 49 be 68 90 87 bb
       0.030940099 0.036580198 -0.19633326 -0.0041370876
0001d0 39 8e 88 3c 08 91 6c 3c 79 fd ae bd fa c2 ba 3c
       0.01666938 0.014438875 -0.0854444 0.02279805
0001e0 30 2b 8b be 43 08 20 bd 30 0a 8b 3c 82 1e 01 bb
       -0.27181387 -0.03907038 0.016972631 -0.0019702022
0001f0 06 69 4d bd c8 03 47 bb 35 95 96 bb b9 1b 49 be
       -0.050148986 -0.0030367244 -0.0045954236 -0.19639482
000200 88 8b e6 3c 12 51 85 bc 71 d5 3f 3c a0 35 94 3b
       0.028142706 -0.016274009 0.011708603 0.004522994
000210 da ae 1c 3c cc 38 84 bd 13 52 98 3d 86 23 8a be
       0.009563172 -0.06456146 0.074375294 -0.26980227
000220 b2 78 a5 3c a0 d5 a5 bd 9d be 05 3d 3d 89 ce bb
       0.020199154 -0.08097386 0.032652486 -0.006302981
000230 40 09 cc be c1 cd a7 be 12 e2 bd 3c 69 a5 84 3d
       -0.39850807 -0.32774165 0.023179088 0.06476862
000240 ad 4c 9b bd cf ee 86 3b ae ed e5 3c 91 82 bf 3c
       -0.07582984 0.0041178237 0.028067436 0.023377689
000250 f2 f1 67 3d f9 36 4b bc f6 58 c3 3d 2b 8e 5b be
       0.05662722 -0.012403243 0.09538452 -0.21440952
000260 05 1f 41 bc 08 70 59 be 43 ac 8f be 06 71 b3 3c
       -0.011787181 -0.21234143 -0.28061113 0.02190448
000270 ea 5e 81 3d bd 6a b0 3c 01 13 a5 3d 65 06 82 3c
       0.063169315 0.021535272 0.08060265 0.01587219
000280 a6 f6 58 3d 54 ec c8 3d fd fb 99 be b4 9f b6 be
       0.052969597 0.09810701 -0.30075064 -0.3566872
000290 43 5c 9f bb ca ee 9a be fb 33 8f bc 50 f1 1d be
       -0.0048632934 -0.30260307 -0.01748084 -0.15424085
0002a0 b0 43 f9 3b 35 5c d5 3d 59 ca d4 be 84 c1 01 bd
       0.007606946 0.10417978 -0.4156063 -0.03167869
0002b0 51 28 4f 3d 1c 63 68 bd 00 02 71 bd d0 2b 90 bc
       0.050575558 -0.056735143 -0.058839798 -0.017599016
0002c0 e7 b9 18 bd 64 e0 8b 3d 09 91 7b bc 13 2d 8a 3d
       -0.037286665 0.068299085 -0.015354403 0.067468785
0002d0 7d cb 40 3d ea 02 e9 3d 1d 4b 31 3e 3c 06 19 3d
       0.04706906 0.11377509 0.1731381 0.03735946
0002e0 2a 77 eb 3c fe 15 eb bd 0e fb ee bc cb c4 0c be
       0.028743345 -0.11478804 -0.029172447 -0.13746946
0002f0 19 96 47 be 5d 0a bb 3c a0 b5 0c 3c c4 05 0a 3e
       -0.19490851 0.02283209 0.008588225 0.13478762
000300 cc ce 3a be 6e 56 dc bc 81 d5 20 be 0e 7d 8c be
       -0.18242949 -0.026896682 -0.15706445 -0.2743916
000310 c3 3b 47 3d 73 48 b6 be 4b ec c7 bd 0e e4 2a be
       0.048640978 -0.3560215 -0.09761866 -0.16688558
000320 2f 8a 89 bd 1e 93 b9 3d 4a 15 d8 3c da 00 d8 bb
       -0.067158096 0.090612635 0.026377339 -0.0065918984
000330 0c 2e 86 3d cf 6c 9a be 7b 08 06 3c e3 92 f0 bc
       0.065517515 -0.3016114 0.008180733 -0.029366916
000340 5e 8a fa bc fd e2 e2 3c 6e d8 c1 bc f3 94 9e 3c
       -0.030583557 0.027696127 -0.023662772 0.019358134
000350 2f 55 02 3d 82 20 0a 3d d6 15 01 bc 69 6a 09 3d
       0.03181952 0.033722408 -0.007878741 0.033548746
000360 a8 2b 3c be 5b 5d 8f bc 3b 13 17 3c 70 c0 16 bd
       -0.18376029 -0.01750057 0.0092208935 -0.036804616
000370 68 24 ec be c7 1a 4a 3b da 19 b6 ba a6 50 94 3d
       -0.46121526 0.0030838714 -0.0013893202 0.07241945
000380 3f 9c f6 bd 98 34 93 bc d6 16 0b be 54 b0 4b be
       -0.1204152 -0.017969415 -0.1358293 -0.19891483
000390 eb 38 56 3c 36 99 9e be 52 05 32 3b 93 72 37 be
       0.013075094 -0.30976266 0.0027163816 -0.179148
0003a0 92 03 ae bc e7 02 19 bc 72 f5 7c 3c 79 89 3b 3c
       -0.021241937 -0.009339071 0.015439378 0.01144635
0003b0 91 58 61 3d 22 ed 8f be c4 51 90 3b 3c f0 b1 3c
       0.055016104 -0.28110605 0.0044042785 0.021720998
0003c0 bc e4 1d 3c 09 4e aa 3c 79 c5 82 3c 09 44 10 bf
       0.009637054 0.020789163 0.015963303 -0.56353813
0003d0 85 84 e0 3c 5e f4 ca ba a3 2c 93 bc a7 35 24 3d
       0.02740694 -0.0015484204 -0.01796562 0.04009023
0003e0 09 8e b8 bd 41 ce ca bd a3 18 94 bc 9f 15 54 bb
       -0.09011466 -0.09902621 -0.018078154 -0.003236152
0003f0 83 04 bf 3b 8e 44 1d 3d 8b 14 08 3d 21 7a f6 3c
       0.0058293953 0.038395457 0.033222716 0.030087532

model.4.bias f4 [16]
000000 31 43 d6 3d 60 72 11 be e5 39 ef 3d 5a b1 35 3e
       0.104620345 -0.14203787 0.116809644 0.17743436
000010 74 b2 03 3e 89 00 2a be 84 45 88 bd 45 4f 06 3e
       0.12861043 -0.16601767 -0.06653884 0.13116176
000020 38 83 32 3e 8e 15 4c bd bf b1 0f bd 50 41 bd bc
       0.17432868 -0.049825244 -0.03508162 -0.023102432
000030 16 51 03 3d 4e 85 20 3e 82 ab 24 3e 14 e0 33 3d
       0.03205975 0.15675852 0.1608105 0.04391487

model.5.weight f4 [16]
000000 94 9a 9c 3f c1 3d ad 3f 29 16 a5 3f 78 3a 96 3f
       1.2234674 1.3534471 1.2897388 1.1736593
000010 c8 81 a0 3f c9 b0 9f 3f bc 6c 8e 3f 09 94 ac 3f
       1.2539606 1.2475826 1.1126933 1.3482677
000020 e4 fb a5 3f a6 60 9d 3f 77 db 99 3f 29 8e 98 3f
       1.2967496 1.229512 1.20201 1.1918384
000030 d5 09 ae 3f ac 65 9a 3f ed 6f 96 3f cf 0b a0 3f
       1.359675 1.2062278 1.1752907 1.2503604

model.5.bias f4 [16]
000000 f5 02 e7 3e 29 28 21 3f ca b7 a3 3e b2 76 03 3f
       0.45119444 0.62951905 0.31976157 0.5135299
000010 7e 5b 0d 3f dd 28 43 3f 95 4d 4c 3f e1 aa 17 3f
       0.5521773 0.7623423 0.7980588 0.59245116
000020 68 81 e9 3e e5 1f 52 3f 21 cb 1f 3f 9c 99 02 3f
       0.45606542 0.8207992 0.62419325 0.5101564
000030 34 b1 22 3f 8b b8 34 3f 23 58 19 3f 6c e0 20 3f
       0.6355164 0.7059409 0.5990011 0.6284244

model.5.running_mean f4 [16]
000000 47 4b 16 bd 3d fd 7d be c1 5c 5f bd a1 29 4f bc
       -0.036692884 -0.24803634 -0.054531816 -0.012644202
000010 d7 45 c0 3c a5 70 9f be 40 a4 42 be 3d d3 44 bc
       0.023470802 -0.31140628 -0.19007969 -0.012013254
000020 f2 ba 0f 3c 25 6c 2c be 2f e5 50 be 08 f0 69 be
       0.008772599 -0.16838129 -0.20399927 -0.22845471
000030 36 6b bc bd 54 ce 90 3b f1 81 7a 3d d9 23 ef bd
       -0.09200136 0.0044191275 0.061159078 -0.11676759

model.5.running_var f4 [16]
000000 69 f4 49 3e 73 dd 00 3e 7b 59 22 3e 4d d6 95 3d
       0.19722141 0.12584476 0.15854447 0.07316265
000010 4f c6 10 3e 62 4b 34 3e 4c 5d 9b 3d e8 8a ed 3d
       0.14138149 0.17606881 0.07586154 0.1159876
000020 cb be f8 3d 8a 5c ab 3d e8 36 0e 3e 4c 3b d3 3d
       0.12145766 0.0836726 0.13888133 0.10314044
000030 89 36 68 3e 46 5c 03 3e eb 14 c2 3d 18 a4 3a 3e
       0.22677054 0.12828168 0.09476646 0.1822666

model.8.weight f4 [1, 16]
000000 90 90 05 3f e2 42 d6 3e e7 81 e8 3e 99 a4 04 3f
       0.5217371 0.41847903 0.45411608 0.51813656
000010 93 0a f0 3e 20 b0 c0 3e b8 e0 de 3e b8 94 e9 3e
       0.46883067 0.37634373 0.43530822 0.45621276
000020 40 29 e8 3e 22 08 c3 3e 89 59 ee 3e db ce 08 3f
       0.4534397 0.38092142 0.46552685 0.53440636
000030 ac 86 d3 3e 77 24 eb 3e c9 3d f8 3e da d2 d3 3e
       0.41313684 0.45926258 0.48484638 0.41371804
