neuralnet/Hyperparameter sweeps/Hyperparameter sweep round 1/bike_volume_model_net_3layer_lr_0.00002000_batch_32_feat_20.pth (torch, 26957 bytes, 19 tensors)

model.0.weight f4 [64, 20]
0	0x3e13a631	0.14418866
1	0x3e22cdb5	0.15898784
2	0xbe58bbe8	-0.2116543
3	0xbdc49bfc	-0.09600064
4	0x3d05588c	0.032555148
5	0x3e1a688e	0.15078947
6	0x3dc09fd3	0.09405484
7	0xbe7a1aee	-0.24424335
8	0xbdaa9e66	-0.08330993
9	0x3e28b5aa	0.1647555
10	0x3e7dd1c2	0.24787048
11	0xbe06df9a	-0.13171235
12	0x3da942f4	0.082647234
13	0xbe6d4535	-0.23170932
14	0x3d1de8db	0.038552146
15	0xbe1ded8e	-0.15422651
16	0xbc6b0d92	-0.014346497
17	0x3dc639c6	0.09678988
18	0xbe8415f5	-0.25798002
19	0xbe08733e	-0.13325211
20	0xbdb88aa1	-0.09010816
21	0xbdc72b2c	-0.09725031
22	0x3ca56305	0.020188818
23	0xbda7c1a7	-0.08191233
24	0xbe634cee	-0.22197315
25	0x3d8fa37d	0.07013605
26	0x3da4a723	0.08039691
27	0x3d98ce28	0.07461196
28	0x3c6be168	0.014397003
29	0xbd1aa4b4	-0.03775473
30	0x3e077ec8	0.13231957
31	0xbda7c930	-0.0819267
32	0xbde0e442	-0.10981037
33	0xbdf89664	-0.1213806
34	0xbe646e9c	-0.22307819
35	0x3dd7d2f5	0.10538284
36	0x3d781527	0.060567047
37	0x3dbf041e	0.09326957
38	0xbe371f97	-0.17883144
39	0xbd234d31	-0.039868537
40	0xbe561db3	-0.20909767
41	0x3c9d39cf	0.019192604
42	0x3c9b8beb	0.018987617
43	0x3d82bd11	0.06383718
44	0xbb0b989c	-0.002130068
45	0xbc2b30bc	-0.010448631
46	0xbdf3394d	-0.11876164
47	0x3df79121	0.12088228
48	0x3db5b267	0.08871918
49	0xbe1dfead	-0.15429182
50	0x3db2a58c	0.08722982
51	0xbda7d323	-0.08194568
52	0x3d266b1a	0.040629484
53	0x3dca8b6c	0.09889874
54	0xbe82ca88	-0.25545144
55	0xbbb0c6bf	-0.005394786
56	0x3cdfcc2a	0.027319033
57	0x3d723c70	0.05913967
58	0xbebd2486	-0.36941928
59	0xbe4f79fc	-0.20261377
60	0xbe618d86	-0.22026643
61	0xbda2c92e	-0.07948528
62	0x3e27cf78	0.16387737
63	0x3e04b311	0.12958933
64	0x3c964aa4	0.018346138
65	0x3d428eba	0.047499396
66	0x3d2734dd	0.0408219
67	0xbde0bb98	-0.10973281
68	0xbded756d	-0.11594663
69	0xbda0e099	-0.078553386
70	0x3e76bb67	0.24094926
71	0xbd7c3df2	-0.061582513
72	0xbcb02c04	-0.021505363
73	0x3c8fed65	0.017569253
74	0x3e0ead2a	0.13933244
75	0x3e154d74	0.14580327
76	0xbde8367f	-0.11338519
77	0xbe8efd1a	-0.27927476
78	0x3e27672e	0.16347954
79	0x3d5a7e3d	0.053343046
80	0x3de0d7f9	0.109786935
81	0xbe875593	-0.26432475
82	0x3d6762bb	0.05649064
83	0x3d03f173	0.032212686
84	0xbdc25f85	-0.09490875
85	0xbcf578bd	-0.029964799
86	0xbb33fb87	-0.0027463154
87	0x3e0b4c32	0.13603285
88	0xbd6c6014	-0.057708815
89	0xbdb14869	-0.08656389
90	0xbe4c3186	-0.19940767
91	0x3d559fac	0.052154228
92	0x3cf2547b	0.029581299
93	0x3d431afc	0.047633156
94	0xbe5c4585	-0.21510895
95	0x3e339552	0.1753743
96	0x3d8a1a53	0.06743302
97	0x3d0b8691	0.03406388
98	0x3e47ddf0	0.19518256
99	0x3db5151d	0.08841918
100	0xbe1baf8c	-0.15203685
101	0x3e01586d	0.12631388
102	0x3deff2e2	0.11716248
103	0xbd82c544	-0.06385282
104	0xbe39ad35	-0.1813248
105	0xbd674520	-0.056462407
106	0xbdffed84	-0.124964744
107	0xbd40c595	-0.04706343
108	0xbc24c7d6	-0.01005741
109	0x3e39decf	0.18151401
110	0xbd8ea7d1	-0.06965602
111	0x3db78e64	0.08962706
112	0xbe74dd56	-0.23912558
113	0x3b764f06	0.0037583723
114	0xbb839e6b	-0.0040166876
115	0xbe110a96	-0.14164194
116	0x3c3448e0	0.011003703
117	0xbdcdb9fa	-0.10045238
118	0xbe111ec0	-0.14171886
119	0xbd894056	-0.06701724
120	0x3c459a6b	0.012060742
121	0xbd8e8bf5	-0.069602884
122	0x3da9a0bb	0.0828261
123	0xbdda948c	-0.10672864
124	0xbe7732a5	-0.24140413
125	0xbdc583c5	-0.09644274
126	0xbb57e30d	-0.003294173
127	0x3e068ac5	0.13138874
128	0x3df99865	0.1218727
129	0x3e066898	0.13125837
130	0xbe866c70	-0.26254606
131	0xbc9063cf	-0.017625717
132	0xbb3959eb	-0.0028282355
133	0x3e6f2b8e	0.23356459
134	0x3e076970	0.13223815
135	0xbe3636a0	-0.17794275
136	0xbdb5bfce	-0.088744745
137	0xbe33b624	-0.1754995
138	0x3d293e3d	0.04131912
139	0xbe134a26	-0.14383754
140	0xbdeff71b	-0.117170535
141	0x3e21c4c7	0.15797721
142	0xbdda71ad	-0.10666213
143	0x3d94c8db	0.07264873
144	0xbe58c706	-0.21169671
145	0x3db4e564	0.08832815
146	0x3d2bee19	0.041975114
147	0xbda81a71	-0.08208168
148	0x3e28810c	0.16455477
149	0x3bd108bf	0.0063792164
150	0x3e72d4b1	0.23713948
151	0xbb4c8b6c	-0.0031211032
152	0xbdd6e265	-0.104924
153	0xbdfe7ef7	-0.1242656
154	0xbb352c92	-0.0027644974
155	0xbd6e44d1	-0.058171097
156	0xbd949730	-0.07255399
157	0x3aa49535	0.0012556674
158	0xbe0d9e82	-0.13829997
159	0xbc9d196f	-0.019177167
160	0xbdd6c91a	-0.10487576
161	0x3ce3e116	0.02781729
162	0xbdf8fdcb	-0.12157782
163	0x3e220e40	0.15825748
164	0x3dfee9bf	0.12446927
165	0x3dbdc5f6	0.09266274
166	0x3d24f7f7	0.04027554
167	0xbe5ef150	-0.21771741
168	0xbbbc47fd	-0.0057458864
169	0x3d3ced88	0.046124965
170	0xbd3d8475	-0.0462689
171	0xbe4ab08e	-0.19793913
172	0x3da96c8b	0.08272656
173	0x3debb4db	0.11509105
174	0xbe28331d	-0.16425748
175	0xbe8be34f	-0.2732186
176	0x3e09cf82	0.13458064
177	0x3e588f0e	0.21148321
178	0xbe5f5692	-0.21810368
179	0x3d8ba55c	0.06818649
180	0x3dbb111b	0.09134122
181	0xbde7d1a5	-0.113192834
182	0x3e5e3537	0.21699987
183	0x3e2cc974	0.16873723
184	0xbca99baa	-0.02070411
185	0x3d04710a	0.032334365
186	0xbe33a4d4	-0.17543346
187	0xbdd4d770	-0.10392654
188	0x3e83e134	0.25757754
189	0xbd99f4ec	-0.07517418
190	0x3d545a56	0.051843964
191	0x3e05fe0a	0.1308519
192	0xbe49288b	-0.19644372
193	0x3dc547c9	0.096328326
194	0x3dc87657	0.097881965
195	0xbd95babe	-0.07311009
196	0xbcd3802e	-0.025817957
197	0x3cb7a66b	0.022418221
198	0xbc7cbee3	-0.01542637
199	0x3d92d234	0.07168999
200	0xbc90eb7c	-0.017690413
201	0xbcd5e371	-0.02610943
202	0x3b978a28	0.004624624
203	0x3d555ad4	0.052088574
204	0xbd9ed7c8	-0.07756001
205	0x3d2b6bbf	0.0418508
206	0xbdbf8ec3	-0.093534015
207	0xbdb6b3b0	-0.089209914
208	0x3e7ecc36	0.24882588
209	0xbd6624ca	-0.05618743
210	0x3e3de7e5	0.18545492
211	0xbcd5c441	-0.026094558
212	0x3e233de3	0.15941577
213	0xbdea7dcc	-0.11449775
214	0x3d744379	0.05963466
215	0xbe5fd64a	-0.21859089
216	0x3d07532e	0.03303831
217	0x3e1fac2a	0.15593019
218	0xbe1bc716	-0.15212664
219	0xbe2e88f4	-0.17044431
220	0xbccb2fea	-0.02480312
221	0xbe4cb8c4	-0.19992357
222	0xbdc8e3cf	-0.09809076
223	0xbe5d32b9	-0.2160138
224	0xbe704331	-0.23463131
225	0xbd4d6455	-0.050144512
226	0xbe03ee82	-0.12883952
227	0xbd4c85f5	-0.04993244
228	0x3ddaef8c	0.10690221
229	0x3d68129b	0.05665837
230	0x3ca051bb	0.019570222
231	0xbd331956	-0.043725334
232	0x3d5a1a62	0.053247817
233	0x3d890c22	0.06691767
234	0xbe1313a2	-0.14362958
235	0x3cfb0729	0.030643063
236	0x3e5cb437	0.21553122
237	0x3d92a043	0.07159474
238	0x3bfec136	0.0077744974
239	0xbe419484	-0.1890431
240	0xbd387a3e	-0.045038454
241	0xbd7212eb	-0.059100073
242	0xbcda36e1	-0.026637496
243	0xbca52870	-0.020160884
244	0x3e07c4d7	0.13258682
245	0xbdd492d3	-0.10379567
246	0xbe355164	-0.1770683
247	0x3e55d0e0	0.2088046
248	0xbe4b31f3	-0.19843273
249	0x3c7d9441	0.015477241
250	0xbdc564a1	-0.09638334
251	0x3dbf2af4	0.093343645
252	0x3e0f89e4	0.14017445
253	0xbd1290c3	-0.035782587
254	0x3de5852a	0.1120704
255	0x3cc2953a	0.023752797

model.0.bias f4 [64]
0	0x3e2d794f	0.16940807
1	0xbdc82519	-0.09772701
2	0xbdcd0002	-0.10009767
3	0x3c997280	0.018731356
4	0xbd45f8da	-0.048333026
5	0xbe55a663	-0.20864253
6	0xbdc176f0	-0.09446514
7	0xbe603832	-0.21896437
8	0x3cc747ac	0.024326168
9	0x3e1fa0cd	0.15588684
10	0x3ddcdc52	0.1078421
11	0xbe432709	-0.1905786
12	0x3dd6016f	0.10449492
13	0xbe0b0daf	-0.13579439
14	0x3d8cd78d	0.068770505
15	0x3e22229c	0.15833515
16	0xbe325e58	-0.17418802
17	0xbc8c2b3e	-0.017110463
18	0x3cb30f6f	0.021857945
19	0x3ce15658	0.027506992
20	0x3e1d7c98	0.1537956
21	0xbd161d0e	-0.036648802
22	0xbdfdc048	-0.1239019
23	0xbc9a7389	-0.01885392
24	0xbe62eeda	-0.22161427
25	0x3e1aebf7	0.15129076
26	0xbdb8c94a	-0.09022768
27	0x3dbad14b	0.09121951
28	0xbe3793a2	-0.17927411
29	0x3e500288	0.20313466
30	0xbd8a2a43	-0.06746342
31	0xbd82c73b	-0.063856564
32	0xbd19f763	-0.037589442
33	0x3e588eda	0.21148244
34	0xbe6cc636	-0.23122486
35	0x3e199265	0.14997251
36	0xbd47b9c1	-0.048761133
37	0x3e131cd6	0.14366469
38	0xbd4b6b5c	-0.049662933
39	0x3e050025	0.12988336
40	0x3e51f83b	0.20504849
41	0xbe21bd4e	-0.1579487
42	0x3d5c7f97	0.053832617
43	0x3db57d10	0.088617444
44	0xbc126846	-0.008935994
45	0x3dcf261b	0.1011469
46	0xbe08e26a	-0.1336762
47	0xbe401943	-0.18759637
48	0xbd6cbf38	-0.057799548
49	0xbe55ee4d	-0.20891686
50	0xbe5a059e	-0.21291205
51	0x3d67165f	0.05641782
52	0x3e1a75ad	0.15083952
53	0x3e0fd349	0.14045443
54	0xbcccce28	-0.025000647
55	0xbdde6055	-0.108582176
56	0xbd36c4ca	-0.044621266
57	0xbe09cb4a	-0.13456455
58	0x3db6d8ac	0.08928046
59	0x3e4e040d	0.20118733
60	0xbddc34a3	-0.10752227
61	0x3e3600f4	0.17773801
62	0xbe2b244d	-0.16713066
63	0x3e452361	0.19251777

model.1.weight f4 [64]
0	0x3f801b96	1.0008419
1	0x3f749f6f	0.95555776
2	0x3f6b9610	0.9202585
3	0x3f6b5693	0.91928977
4	0x3f861a46	1.0476768
5	0x3f6f6e2d	0.9352749
6	0x3f8595a4	1.0436292
7	0x3f7f02e5	0.9961379
8	0x3f69f6b7	0.9139208
9	0x3f753b99	0.95794064
10	0x3f68206d	0.9067448
11	0x3f70312c	0.9382503
12	0x3f847786	1.0348976
13	0x3f821e23	1.0165447
14	0x3f734853	0.95032233
15	0x3f898193	1.0742668
16	0x3f8a0217	1.0781888
17	0x3f793648	0.9734845
18	0x3f64599c	0.89199233
19	0x3f66c039	0.9013706
20	0x3f7ec219	0.9951492
21	0x3f77443c	0.9658849
22	0x3f76fa3a	0.96475565
23	0x3f6657f7	0.89977974
24	0x3f6ee508	0.93318224
25	0x3f6003ee	0.87505996
26	0x3f709f43	0.93993014
27	0x3f6a193f	0.9144477
28	0x3f748ab7	0.9552416
29	0x3f7b2eb3	0.9811813
30	0x3f6fc9da	0.93667376
31	0x3f612f33	0.87962645
32	0x3f80e13e	1.0068738
33	0x3f796568	0.9742036
34	0x3f70e662	0.94101536
35	0x3f826477	1.018691
36	0x3f75c396	0.96001565
37	0x3f86ff9b	1.0546755
38	0x3f63620d	0.8882149
39	0x3f692d90	0.9108515
40	0x3f6931c0	0.9109154
41	0x3f8b5da7	1.0887955
42	0x3f72e9c9	0.9488798
43	0x3f7b6c14	0.9821179
44	0x3f7fa362	0.9985868
45	0x3f748718	0.95518637
46	0x3f849ace	1.0359743
47	0x3f8223c2	1.0167162
48	0x3f773be0	0.96575737
49	0x3f717cb0	0.94330883
50	0x3f61e7cc	0.8824432
51	0x3f8027df	1.0012168
52	0x3f6bd898	0.9212737
53	0x3f726ed6	0.9470037
54	0x3f6035d1	0.8758212
55	0x3f78770a	0.9705664
56	0x3f8bacff	1.0912169
57	0x3f6bc839	0.9210239
58	0x3f8897db	1.0671343
59	0x3f58c121	0.8466969
60	0x3f7362d7	0.9507269
61	0x3f6ee6b9	0.93320805
62	0x3f6c612f	0.9233579
63	0x3f810447	1.007943

model.1.bias f4 [64]
0	0xbef902d2	-0.48634964
1	0xbed5930c	-0.4171375
2	0xbed64ad8	-0.41853976
3	0x3e972dc0	0.29527092
4	0xbe1f3aa0	-0.15549707
5	0xbe4b07f5	-0.19827254
6	0xbe6940c8	-0.22778618
7	0xbf033f58	-0.5126853
8	0xbeaad02c	-0.33361948
9	0xbdf77fe3	-0.12084939
10	0xbedc5893	-0.43036327
11	0xbed0d475	-0.40787092
12	0xbe4050fd	-0.18780895
13	0xbd997729	-0.07493431
14	0xbe8fbc83	-0.2807351
15	0xbe043712	-0.12911633
16	0xbd0015ff	-0.031270977
17	0xbd1adbdc	-0.03780733
18	0xbeeab562	-0.4584151
19	0xbead1eae	-0.3381247
20	0xbe28dcd4	-0.16490489
21	0xbc8f426e	-0.01748773
22	0xbe2a8437	-0.16651998
23	0xbd0515ff	-0.03249168
24	0xbeaf2e43	-0.34214982
25	0xbd34f73b	-0.04418109
26	0xbdd7210c	-0.1050435
27	0xbea4374f	-0.32073447
28	0xbb2fe2b5	-0.0026838009
29	0x3c1e1d81	0.009650589
30	0xbe7c8b6e	-0.24662563
31	0xbe259425	-0.16169794
32	0xbe68e14e	-0.22742197
33	0xbe02990e	-0.12753698
34	0xbecf0355	-0.4043223
35	0xbc4c8a77	-0.0124841845
36	0xbcb66f48	-0.02226986
37	0xbdd16380	-0.10224056
38	0xbeadff5e	-0.33983892
39	0xbee27111	-0.44226888
40	0xbeb839cb	-0.35981593
41	0x3d116e46	0.035505556
42	0xbe2a093e	-0.16605088
43	0xbe5e2b09	-0.21696104
44	0xbe2f3329	-0.1710936
45	0xbe85fd9d	-0.26170054
46	0xbe0fa673	-0.14028339
47	0xbe9d93c9	-0.30776814
48	0xbc112cb2	-0.008860754
49	0xbebb92f3	-0.3663555
50	0xbea7aff3	-0.32751426
51	0xbdf90a45	-0.12160162
52	0xbdc9fecf	-0.09863054
53	0xbe55b3bb	-0.20869343
54	0xbec61510	-0.38687944
55	0xbe5ce388	-0.21571171
56	0xbdb46607	-0.08808523
57	0xbf00150d	-0.5003212
58	0xbd103586	-0.035207294
59	0xbeafea1f	-0.34358308
60	0x3c609f86	0.013709908
61	0xbe910c81	-0.28329852
62	0xbe9dfbef	-0.30856273
63	0xbeb949a4	-0.36188996

model.1.running_mean f4 [64]
0	0xbe371321	-0.17878391
1	0xbef4d8ce	-0.4782166
2	0xbecb238a	-0.39675552
3	0x3f1d424a	0.61429274
4	0xbe53946e	-0.2066209
5	0x3cbaadd7	0.022787971
6	0xbd727dbc	-0.05920194
7	0xbe1e34d2	-0.15449837
8	0xbead0023	-0.33789167
9	0x3ee45bb6	0.4460122
10	0xbe2d7e00	-0.16942596
11	0xbf1e7e22	-0.61911213
12	0x3e54ef11	0.20794322
13	0xbebff5ae	-0.37492126
14	0xbebbe3d6	-0.36697263
15	0x3e825c44	0.25461018
16	0xbe46f873	-0.19430713
17	0x3ee8dda9	0.45481613
18	0xbf01ca05	-0.5069888
19	0xbe891afd	-0.26778403
20	0x3e852ff9	0.26013163
21	0x3ec4361b	0.3832253
22	0xbd98926d	-0.074498035
23	0x3ebe5867	0.3717682
24	0xbf135a9a	-0.5756012
25	0x3eb16d6e	0.346538
26	0xbe92742a	-0.2860425
27	0xbec49710	-0.38396502
28	0x3e359691	0.17733218
29	0x3ecd7f3e	0.4013614
30	0xbecbed05	-0.3982927
31	0xbd56201c	-0.052276716
32	0xbccb389a	-0.024807263
33	0xbce09260	-0.027413547
34	0xbf20b4a1	-0.6277562
35	0x3e508f15	0.20367081
36	0x3dd8da8c	0.105885595
37	0x3ce5a5f9	0.028033243
38	0xbe716f92	-0.23577717
39	0xbe89c519	-0.26908186
40	0xbe0fd58e	-0.14046308
41	0x3e4677e2	0.19381669
42	0xbc0a9ba8	-0.008459963
43	0xbd38a10a	-0.045075454
44	0xbe277a48	-0.1635524
45	0xbeab0134	-0.33399355
46	0xbd060a2e	-0.03272455
47	0x3ce61579	0.02808641
48	0xbe5f01c2	-0.21778014
49	0xbf113e7f	-0.56735986
50	0xbf3b75da	-0.732267
51	0x3ea8de0c	0.32981908
52	0x3ee07246	0.43837184
53	0x3ed2981e	0.4113168
54	0xbdb7456d	-0.08948789
55	0x3e6c855e	0.2309775
56	0x3da77be9	0.08177931
57	0xbf099927	-0.53749317
58	0x3e90dbb7	0.2829263
59	0x3e57b85d	0.21066423
60	0x3ebb678c	0.36602437
61	0x3e4ec568	0.20192492
62	0xbf16c0b3	-0.58887786
63	0xbd15dc56	-0.03658708

model.1.running_var f4 [64]
0	0x3e84da0b	0.25947604
1	0x3e7b022f	0.24512552
2	0x3f0aa924	0.5416434
3	0x3fb632ec	1.423429
4	0x3dc942e5	0.09827212
5	0x3e821853	0.25409183
6	0x3d0ef53d	0.034901846
7	0x3de1f255	0.11032549
8	0x3f26f335	0.65214854
9	0x3dd18d1c	0.102319926
10	0x3ea61834	0.3244034
11	0x3e9011ec	0.28138673
12	0x3dab1250	0.08353102
13	0x3de9ee70	0.114224315
14	0x3eacc401	0.3374329
15	0x3d98e823	0.074661516
16	0x3e02cf3d	0.12774368
17	0x3f83b99a	1.0291016
18	0x3ee7aeab	0.4525045
19	0x3ec2ebd1	0.3807054
20	0x3d72f7da	0.0593184
21	0x3e9cb7f1	0.30609086
22	0x3e213dea	0.15746275
23	0x3ef9427e	0.48683542
24	0x3f2b23c8	0.6685147
25	0x3f265a02	0.6498109
26	0x3ef10998	0.47077632
27	0x3ef437ed	0.47698918
28	0x3de998d4	0.11406103
29	0x3d81b0f0	0.06332576
30	0x3e49b9e1	0.19699813
31	0x3e3ece4b	0.18633382
32	0x3d8a8fbf	0.06765699
33	0x3e3e0c06	0.18559274
34	0x3e10574d	0.14095803
35	0x3e93ab7d	0.28841773
36	0x3d76be0d	0.06023984
37	0x3d7615e8	0.060079485
38	0x3f3c7fb9	0.7363239
39	0x3e011e53	0.12609224
40	0x3e2523f6	0.16127
41	0x3e2c8abf	0.16849802
42	0x3e778cba	0.24174777
43	0x3e81167c	0.25212467
44	0x3e296826	0.16543636
45	0x3ef1ea2a	0.47248966
46	0x3e0286b8	0.12746704
47	0x3ea0e35a	0.31423455
48	0x3e03867d	0.12844272
49	0x3ea3c7c8	0.31988358
50	0x3fc718d7	1.5554456
51	0x3dd519f0	0.10405338
52	0x3d7beb03	0.06150342
53	0x3e76b609	0.24092878
54	0x3f42e7df	0.7613506
55	0x3da1b034	0.07894936
56	0x3d97f57c	0.07419869
57	0x3e96dbda	0.29464608
58	0x3dad4fcf	0.08462488
59	0x3e989b4b	0.2980598
60	0x3f75435d	0.95805913
61	0x3eba7af7	0.3642194
62	0x3e5f6386	0.21815309
63	0x3dd485c0	0.10377073

model.4.weight f4 [32, 64]
0	0xbd83e53b	-0.064402066
1	0x3dad5dac	0.08465132
2	0xbd3c084c	-0.04590635
3	0x3a749f1c	0.00093315705
4	0xbd9c847c	-0.07642457
5	0xbd2c0871	-0.042000238
6	0x3d8a132c	0.06741938
7	0xbe3788b0	-0.17923236
8	0xbd0fd46e	-0.035114698
9	0xbd805bf9	-0.062675424
10	0xbd90632d	-0.07050166
11	0x3c20603b	0.009788568
12	0x3dc8f2a5	0.09811906
13	0x3c60e9c8	0.013727613
14	0x3e1a72f8	0.1508292
15	0x3d859c57	0.0652396
16	0x3de50f79	0.11184592
17	0xbd31781a	-0.04332743
18	0xbbb412dc	-0.0054954123
19	0xbdc016c9	-0.09379346
20	0xbca2d0d2	-0.019874964
21	0xbdd61fa3	-0.10455253
22	0x3dc99131	0.09842146
23	0x3d44632f	0.04794615
24	0x3c988b4f	0.018621115
25	0x3c38f9e1	0.0112900445
26	0x3c358187	0.011078245
27	0x3dc1f8a3	0.09471252
28	0xbc235185	-0.009968166
29	0xbda765f1	-0.08173741
30	0x3e0ae4aa	0.13563791
31	0xbd8f3c19	-0.069938846
32	0x3d1c8b26	0.03821864
33	0xbc8e0787	-0.017337574
34	0x3cd53e15	0.02603058
35	0x3c805354	0.015664734
36	0xbda1e883	-0.07905676
37	0xbbff23df	-0.0077862586
38	0xbdb94945	-0.09047178
39	0xbd6e1c1e	-0.058132283
40	0x3e2acc60	0.16679525
41	0xbe0afc7d	-0.13572879
42	0x3d5fb77b	0.05461834
43	0xbdb5c1ae	-0.08874832
44	0x3c22fcd2	0.009947972
45	0xbde84316	-0.113409206
46	0xbd7e71b1	-0.062120143
47	0xbd4ee4b1	-0.050511066
48	0xbcc092b4	-0.023507454
49	0x3cfcf855	0.030880133
50	0x3d2794a1	0.040913228
51	0xbbb2f04e	-0.0054607755
52	0xbd1df7d7	-0.038566437
53	0xbe03ba95	-0.12864144
54	0x3cdf0f94	0.027229108
55	0xbe21a80d	-0.15786763
56	0x3e1300a9	0.1435572
57	0xbd96b7b0	-0.07359254
58	0x3e107f13	0.14110975
59	0xbde30f81	-0.110869415
60	0x3cdae2ac	0.026719414
61	0x3d175bf5	0.03695293
62	0x3c8f330c	0.017480396
63	0xbdb762f4	-0.08954421
64	0xbdd7aa11	-0.105304845
65	0x3bb5cdc2	0.00554821
66	0x3da3d1b0	0.07998979
67	0xbd18b08e	-0.03727775
68	0x3d9a8b51	0.07546104
69	0x3d63971a	0.055564024
70	0x3dd34579	0.10315985
71	0xbd3f3d70	-0.04668945
72	0xbb08b11a	-0.0020857514
73	0x3c12e8dd	0.008966652
74	0xbdc5063e	-0.09620331
75	0xbccf1b25	-0.025281498
76	0xbdcf6612	-0.1012689
77	0xbdf1b41c	-0.11801931
78	0x3de252ba	0.11050935
79	0x3da5307d	0.08065889
80	0x3de69c94	0.11260334
81	0xbd9c3506	-0.07627301
82	0x3c821e4f	0.015883593
83	0x3b88c4f9	0.0041738716
84	0x3d213a81	0.039362434
85	0xbd42a383	-0.04751922
86	0xbd886163	-0.066592
87	0x3cec0c36	0.028814416
88	0x3d57cf1d	0.052687753
89	0x3c164ccd	0.009173584
90	0xbc4a6aa0	-0.012354523
91	0x3e07f76b	0.13277976
92	0xbc6e855f	-0.014558165
93	0xbc46f76e	-0.012143953
94	0x3e1e2102	0.15442279
95	0x3bc17648	0.005903993
96	0xbdbe05a3	-0.09278419
97	0x3d02a0c8	0.031891614
98	0xbdc87ef0	-0.097898364
99	0xbc3b4bf7	-0.011431686
100	0x3c923365	0.017846772
101	0x3c821df5	0.015883425
102	0x3dd06e29	0.101772614
103	0xbdce4bc8	-0.10073048
104	0x3b2f94a9	0.002679149
105	0xbde98a99	-0.114033885
106	0xbd98d0d2	-0.07461704
107	0x3c822c7b	0.01589035
108	0xbdb3e620	-0.08784127
109	0x3d912059	0.07086248
110	0xbe1cf302	-0.15327075
111	0x3d3626a1	0.044470433
112	0xbd078796	-0.03308829
113	0x3d97b41b	0.07407399
114	0x3dd0dc53	0.101982735
115	0xbd4dbe98	-0.050230592
116	0x3cc6f2f4	0.024285771
117	0x3ce95959	0.028484987
118	0x3d67f982	0.056634434
119	0xbdbf4af3	-0.09340467
120	0x3c8852fc	0.016641133
121	0xbd03a19c	-0.032136545
122	0x3d195c6c	0.037441656
123	0x3d909817	0.07060259
124	0xbd9a58fb	-0.07536503
125	0x3d6b714a	0.057481088
126	0x3e182ab8	0.14860046
127	0xbe0fb74e	-0.14034769
128	0xbd143d69	-0.036191378
129	0x3d2b5be6	0.041835688
130	0x3c808354	0.015687622
131	0x3d875f30	0.066099524
132	0xbd1f7075	-0.038925607
133	0x3ca0101d	0.019538933
134	0xbdd78665	-0.105236806
135	0x3da31c01	0.07964326
136	0x3d22d373	0.039752435
137	0x3d169664	0.036764517
138	0xbcf9afee	-0.030479398
139	0x3ccd3423	0.025049275
140	0xbd8f532c	-0.06998286
141	0xbddf6805	-0.10908512
142	0xbd85668c	-0.065137
143	0xbdbbaa73	-0.0916337
144	0xbe3c2a05	-0.18375404
145	0x3ad8a8cb	0.0016529796
146	0xbcc130b8	-0.023582801
147	0xbc9cf6e5	-0.019160697
148	0xbdafff20	-0.08593583
149	0x3d7ea28b	0.06216673
150	0xbe1d4036	-0.15356526
151	0xbd389bb3	-0.04507036
152	0xbd76bddb	-0.060239654
153	0x3c26b516	0.01017501
154	0x3e54a1cc	0.20764846
155	0xbdd8fe3e	-0.10595368
156	0x3cfb4b24	0.030675478
157	0x3d4a85e0	0.04944408
158	0x3d18fe66	0.03735199
159	0xbdbe4a1e	-0.092914805
160	0xbd9fd1d4	-0.078036934
161	0xbd02a539	-0.03189585
162	0x3da6ec54	0.08150545
163	0x3d72d4e3	0.059285056
164	0xbd55bef0	-0.052184045
165	0xbdfa40d7	-0.122193985
166	0x3dd3905b	0.10330268
167	0x3cd3fc0f	0.025877027
168	0x3c82345f	0.015894113
169	0xbd96a1a5	-0.0735505
170	0xbd1867ee	-0.03720849
171	0xbd5b8c7c	-0.053600773
172	0xbda9bc83	-0.08287909
173	0xbcfe33f3	-0.03103063
174	0x3d7d07b7	0.061774936
175	0x3d95d2b1	0.07315577
176	0x3c94562d	0.018107498
177	0xbcec11ca	-0.028817076
178	0x3c0ad3b0	0.008473322
179	0x3cc0961e	0.023509081
180	0xbcb49b23	-0.022046631
181	0x3baefc01	0.0053401
182	0xbcccb287	-0.024987472
183	0x3dfa2c1a	0.12215443
184	0xbe01e0dc	-0.12683433
185	0x3cea9e1a	0.028639842
186	0xbd7d77ba	-0.06188176
187	0x3e071df5	0.13195021
188	0x3d0d03ef	0.03442758
189	0xbdd34e76	-0.103176996
190	0x3dad6917	0.0846731
191	0x3e598274	0.2124117
192	0x3dec205f	0.11529612
193	0xbd6901f6	-0.056886636
194	0xbd9aeea0	-0.07565045
195	0x3cddc0c4	0.027069457
196	0xbd934f5d	-0.07192872
197	0xbe2236cd	-0.15841217
198	0xbd9dbc40	-0.077019215
199	0xbd4d792b	-0.050164383
200	0xbbc67770	-0.0060567185
201	0xba125409	-0.000558198
202	0xbd3d43a1	-0.046207074
203	0x3d6d06f7	0.05786797
204	0xbe496558	-0.19667566
205	0x3c7439f8	0.014906399
206	0xbd1b891a	-0.037972547
207	0xbd880890	-0.06642258
208	0x3d0fafdb	0.03507982
209	0xbcb33a24	-0.02187831
210	0xbd8149ad	-0.06312881
211	0x3d93aff8	0.07211298
212	0xbd809454	-0.06278291
213	0x3d278005	0.040893573
214	0xbdfa6017	-0.12225359
215	0xbc918635	-0.01776419
216	0xbd2b4445	-0.041813154
217	0x3d15b691	0.036551062
218	0xbd3e91a6	-0.04652562
219	0x3b2c15a0	0.0026258007
220	0x3d0cc5ef	0.03436845
221	0x3d172fa3	0.036910664
222	0xbe164cb7	-0.14677702
223	0x3e07b21b	0.13251536
224	0xbd12c8a7	-0.03583589
225	0xbd92081f	-0.07130455
226	0xbc6e9e6f	-0.014564141
227	0xbdb19176	-0.086703226
228	0xbda76099	-0.081727214
229	0xbe1f9437	-0.15583883
230	0x3d9dfaff	0.07713889
231	0x3d9d5049	0.07681329
232	0xbd0e3f45	-0.034728307
233	0xbc604f03	-0.013690713
234	0xbd702772	-0.058631368
235	0x3c99fccb	0.018797299
236	0xbd2baba3	-0.041911732
237	0x3dae449c	0.0850918
238	0xbd5e55ba	-0.054280974
239	0xbda6a2de	-0.08136533
240	0xbdb9315c	-0.09042618
241	0xbbdc68a0	-0.0067263395
242	0xbd627ae9	-0.055292998
243	0xbc6d5746	-0.01448614
244	0x3c937902	0.018002037
245	0x3cb4cdd9	0.022070812
246	0x3d128f03	0.035780918
247	0xbd668b0d	-0.056284953
248	0x3ddff673	0.10935678
249	0x3dc3185d	0.09526131
250	0x3d20d1fd	0.03926276
251	0x3d627717	0.055289354
252	0x3d2e9910	0.04262644
253	0x3c829241	0.01593888
254	0x3d2aff6b	0.04174749
255	0xbaf2f16c	-0.0018535084

model.4.bias f4 [32]
0	0xbdb1c074	-0.08679286
1	0x3d8a7b6a	0.067618206
2	0x3dd5d396	0.104407474
3	0xbd9e7909	-0.077379294
4	0x3b4e595c	0.0031486368
5	0xbe02f7db	-0.12789862
6	0xbd5158e1	-0.051110152
7	0x3d3251f0	0.043535173
8	0x3dcf3a60	0.10118556
9	0x3d173250	0.036913216
10	0x3df24ec6	0.11831431
11	0xbdb64b87	-0.089011244
12	0xbda3a531	-0.07990492
13	0xbdc55985	-0.09636215
14	0xbde070db	-0.109590255
15	0x3d832a30	0.06404531
16	0xbd407add	-0.04699217
17	0xbd9a8d3e	-0.07546471
18	0xbdf906b4	-0.12159482
19	0x3dce6f29	0.10079796
20	0x3dcaa89b	0.0989544
21	0x3c04b654	0.008100111
22	0x3c86f1c5	0.016472707
23	0xbd77d92c	-0.060509846
24	0x3ce9b99d	0.02853089
25	0x3debb6b8	0.1150946
26	0xbd872d4a	-0.06600435
27	0xbdbafd26	-0.091303155
28	0xbdd2afd2	-0.10287441
29	0x3d939e30	0.07207906
30	0xbb5077da	-0.0031809718
31	0x3d415aa6	0.04720559

model.5.weight f4 [32]
0	0x3f86b809	1.0524913
1	0x3f8ef87b	1.116958
2	0x3f82215f	1.0166434
3	0x3f7288b4	0.9473984
4	0x3f7341a6	0.95022047
5	0x3f6bd840	0.92126846
6	0x3f65fc5d	0.898382
7	0x3f75c74c	0.9600723
8	0x3f8c84a8	1.0977983
9	0x3f5cc0cb	0.8623168
10	0x3f886c3b	1.0658029
11	0x3f7d0ab7	0.98844475
12	0x3f6f1907	0.93397564
13	0x3f6ce717	0.92540115
14	0x3f677abe	0.90421665
15	0x3f8c81fe	1.097717
16	0x3f5b40dc	0.8564584
17	0x3f761e70	0.96140194
18	0x3f885fd6	1.0654247
19	0x3f814444	1.0098958
20	0x3f78a4a2	0.9712621
21	0x3f6fc834	0.9366486
22	0x3f898363	1.0743221
23	0x3f733fb1	0.9501906
24	0x3f7ceb5a	0.9879662
25	0x3f75556a	0.95833457
26	0x3f635518	0.8880172
27	0x3f7d14a4	0.9885962
28	0x3f8b9c74	1.0907121
29	0x3f90f465	1.1324583
30	0x3f5ae470	0.8550482
31	0x3f90f32f	1.1324214

model.5.bias f4 [32]
0	0x3d14645a	0.036228515
1	0xbd0bfdd7	-0.034177627
2	0xbdac4832	-0.08412208
3	0xbd7d0ea4	-0.06178154
4	0xbcaf2958	-0.021382019
5	0xbeba3fc2	-0.36376768
6	0x3cbb915a	0.022896457
7	0xbd837bb9	-0.064200826
8	0xbe8a91e2	-0.27064425
9	0xbd07fd73	-0.033200692
10	0xbd0db289	-0.034594093
11	0x3d9a61ce	0.07538186
12	0x3de804c0	0.11329031
13	0xbd585276	-0.052813016
14	0x3bf941a2	0.007606701
15	0xbea1c921	-0.31598762
16	0x3d03c27a	0.03216789
17	0xbeadac65	-0.3392059
18	0xbe001f7c	-0.1251201
19	0xbe76ac9c	-0.24089283
20	0xbdf6d639	-0.120525785
21	0xbde35b3d	-0.11101387
22	0xbdc03833	-0.09385719
23	0xbe1ad6c6	-0.15120992
24	0xbd336719	-0.043799493
25	0xbe0ff89d	-0.14059682
26	0x3df31cfe	0.11870764
27	0xbde200fc	-0.11035344
28	0xbdc15335	-0.094396986
29	0xbdd85c7b	-0.10564514
30	0x3da84c1c	0.08217642
31	0xbe9bf64b	-0.30461344

model.5.running_mean f4 [32]
0	0xbe3dbdda	-0.18529454
1	0x3cd8460e	0.026400592
2	0xbe1cd6b9	-0.15316285
3	0xbe7baf5f	-0.24578618
4	0xbe0170cf	-0.1264069
5	0x3de98f08	0.11404234
6	0xbe9a2e35	-0.30113378
7	0xbe0c66be	-0.13711068
8	0x3dd80e72	0.1054963
9	0xbe6c7db9	-0.23094834
10	0xbd43c9a8	-0.047799736
11	0xbe3195ea	-0.17342344
12	0xbeadc8a6	-0.33942145
13	0xbe8004b2	-0.25003582
14	0xbda6660e	-0.08124934
15	0x3d6dcdba	0.058057524
16	0x3d94e426	0.07270078
17	0xbd6ac756	-0.057319008
18	0x3d0fa1ea	0.035066523
19	0x3ee5f82a	0.44915897
20	0xbe66d4f8	-0.22542179
21	0xbee417e8	-0.4454949
22	0x3e9aa1ba	0.30201513
23	0xbe9e7589	-0.30949047
24	0xbdc23eec	-0.09484658
25	0xbcf7559a	-0.030192185
26	0xbe5daaf6	-0.21647248
27	0xbe0aea29	-0.13565888
28	0xbe10867b	-0.141138
29	0xbcf84e28	-0.030310705
30	0xbe57c108	-0.2106973
31	0xbc9c7f6b	-0.019103726

model.5.running_var f4 [32]
0	0x3edd25ee	0.43193
1	0x3ee09ea8	0.43871045
2	0x3e65416f	0.22388242
3	0x3ddd216c	0.1079739
4	0x3e1059e1	0.14096786
5	0x3e97aeea	0.29625636
6	0x3e16a851	0.14712645
7	0x3ed03ffb	0.40673813
8	0x3e905325	0.28188434
9	0x3e85f95d	0.26166812
10	0x3e4788f2	0.19485834
11	0x3dfedeab	0.12444814
12	0x3e6ddb4b	0.23228185
13	0x3e422b7b	0.18961899
14	0x3e1cf0db	0.15326254
15	0x3e7eec4b	0.24894826
16	0x3eb22d63	0.34800252
17	0x3e82802e	0.25488418
18	0x3ec31f2d	0.38109723
19	0x3ed0a52e	0.40751022
20	0x3eaae6bb	0.33379158
21	0x3e9ffd92	0.31248146
22	0x3f136866	0.57581174
23	0x3e3d3eaf	0.18480943
24	0x3f24adc1	0.6432763
25	0x3ec80935	0.39069524
26	0x3e56c3bf	0.20973109
27	0x3e32b54f	0.17451976
28	0x3e7167b2	0.23574713
29	0x3f4d7e43	0.80270785
30	0x3e018f48	0.12652314
31	0x3e98263a	0.29716665

model.8.weight f4 [16, 32]
0	0xbdf0d2cf	-0.117589585
1	0xbebd6225	-0.3698894
2	0xbcdfa35f	-0.027299581
3	0x3d2da991	0.04239804
4	0xbe3b214e	-0.18274423
5	0x3d5abf16	0.05340489
6	0x3dfdba26	0.123890206
7	0xbd83574c	-0.06413135
8	0xbd43b982	-0.047784336
9	0x3dc3921b	0.09549352
10	0xbd7917ef	-0.06081384
11	0x3d85102a	0.06497224
12	0xbc7fad59	-0.015605294
13	0xbd3ff39d	-0.046863187
14	0x3d66e3ad	0.056369472
15	0xbc5851e7	-0.013203121
16	0x3d79ee6d	0.061018396
17	0x3d0097d7	0.031394806
18	0x3db9f695	0.09080235
19	0xbdc1be92	-0.094601765
20	0x3e246dd0	0.16057515
21	0xbe529587	-0.20564853
22	0x3c714846	0.014726704
23	0xbda20c46	-0.07912497
24	0xbd57e26d	-0.05270617
25	0xbd1d4ca7	-0.03840318
26	0x3c63e220	0.013908893
27	0x3d3607b1	0.04444093
28	0x3d9e0872	0.077164546
29	0x3cb50bcb	0.02210035
30	0xbd9ef944	-0.077623874
31	0x3dc10da1	0.09426428
32	0xbb1dbf32	-0.002407026
33	0xbe6da172	-0.23206118
34	0x3d36f878	0.044670552
35	0x3b91b00e	0.004446036
36	0xbb83c54a	-0.0040213214
37	0xbdb11087	-0.086457305
38	0x3d94cc03	0.07265475
39	0x3e0e9686	0.13924608
40	0xbe8b53b5	-0.272123
41	0x3daf1000	0.08547974
42	0xbe60acef	-0.21940969
43	0xbc3627cd	-0.011117888
44	0xbd46ce9d	-0.048536886
45	0xbd3c19de	-0.045923106
46	0x3c83d46a	0.016092498
47	0xbe17291b	-0.14761774
48	0xbdc4739d	-0.09592364
49	0xbcf17920	-0.029476702
50	0x3d379d98	0.044828027
51	0xbe5a6aaa	-0.21329752
52	0x3d43405d	0.047668803
53	0x3d9557b5	0.072921194
54	0xbe56a393	-0.20960836
55	0x3c959e45	0.018263945
56	0xbc882adb	-0.016621998
57	0x3ddbf636	0.107403204
58	0x3d55f32c	0.05223386
59	0x3d1a5e1b	0.037687402
60	0x3d87d4d3	0.0663239
61	0x3c10d33f	0.0088394275
62	0x3d7d6bcf	0.061870392
63	0xbd5f603b	-0.054535132
64	0x3d8ac6a0	0.06776166
65	0x3d678dc4	0.056531683
66	0xbda038a5	-0.07823304
67	0xbd45f468	-0.048328787
68	0xbc5a00d7	-0.013305864
69	0xbe8b1179	-0.27161768
70	0xbcfe0023	-0.031005925
71	0x3dc327c9	0.09529073
72	0xbd1a0767	-0.037604716
73	0xbcdbc082	-0.026825193
74	0x3c433d15	0.011916419
75	0xbe180cde	-0.14848658
76	0x3de62615	0.11237732
77	0xbcd19150	-0.025581986
78	0xbe32e0a5	-0.17468508
79	0x3b60e188	0.0034314115
80	0xbc275713	-0.010213631
81	0xbe03f28c	-0.12885493
82	0xbe380a3f	-0.17972659
83	0x3d81eced	0.06344018
84	0xbd5b1082	-0.05348254
85	0x3e044f7d	0.12920947
86	0xbc93b8ea	-0.01803251
87	0xbceb813d	-0.028748149
88	0xba1e97cb	-0.00060498406
89	0x3a638503	0.0008679183
90	0xbc4c9809	-0.01248742
91	0x3d2071fb	0.0391712
92	0x3ba648cb	0.0050745956
93	0xbec1160a	-0.37712127
94	0x3d88386e	0.06651388
95	0xbd803053	-0.06259217
96	0x3dc7d378	0.09757131
97	0xbdb7aced	-0.0896853
98	0x3e10341c	0.14082378
99	0x3e14f6ac	0.14547223
100	0xbe193153	-0.14960222
101	0x3c832e96	0.016013425
102	0xbcb39b0c	-0.021924518
103	0xbe0bc5f5	-0.13649733
104	0xbde3d4db	-0.11124583
105	0x3dc946c2	0.09827949
106	0xbdcd595c	-0.100268096
107	0x3c96b7f5	0.018398264
108	0x3dbd3aec	0.09239754
109	0x3c76a2fd	0.015053508
110	0x3c538fec	0.012912732
111	0xbe7b7cae	-0.2455928
112	0x3d412761	0.047156695
113	0xbdf28185	-0.1184111
114	0xbe4f9b57	-0.20274101
115	0x3da178b8	0.078843534
116	0xbd86425a	-0.06555624
117	0xbe008a55	-0.1255277
118	0xbd54776f	-0.051871713
119	0x3b4110f4	0.0029459568
120	0xbcc39505	-0.023874769
121	0xbd32b18e	-0.04362636
122	0x3dee6b09	0.11641509
123	0xbb280eb1	-0.0025643522
124	0xbe443f00	-0.19164658
125	0x3e0893a0	0.13337564
126	0x3d88c8fa	0.06678958
127	0xbe95b639	-0.29240587
128	0x39cbb2ac	0.00038852298
129	0xbc28bfeb	-0.010299663
130	0xbd6f18a0	-0.058373094
131	0x3d58c289	0.0529199
132	0xbe7988e6	-0.24368629
133	0x3d25e9c2	0.040506132
134	0xbd55ea97	-0.052225675
135	0xbdcc92ff	-0.09988975
136	0xbe34d3ea	-0.17658964
137	0x3cb02bb0	0.021505207
138	0xbda1ab89	-0.07894046
139	0x3d5f10e7	0.05445948
140	0x3ce4cb40	0.027928948
141	0x3e10f67d	0.14156528
142	0xbca7d233	-0.020485973
143	0xbe0337c6	-0.12814245
144	0x3cc87a17	0.02447228
145	0xbe0197bf	-0.12655543
146	0xbd621f21	-0.055205468
147	0xbe995813	-0.29950008
148	0xbcc0f9af	-0.023556558
149	0x3df722fe	0.12067221
150	0xbe099b57	-0.13438164
151	0x3d3a766c	0.045523092
152	0xbe121195	-0.1426452
153	0x3da5d2d4	0.08096853
154	0x3d09896a	0.033578314
155	0x3d4478c0	0.04796672
156	0x3d9ace24	0.075588495
157	0x3d8da9cd	0.069171526
158	0x3d90950a	0.07059677
159	0xbdc99d4b	-0.098444544
160	0x3ce4d6e9	0.027934508
161	0x3e1f0648	0.1552974
162	0xbbe86a84	-0.007092776
163	0xbcb78361	-0.022401514
164	0xbde58e37	-0.11208766
165	0xbd09f49f	-0.033680554
166	0x3cdaeec1	0.026725175
167	0xbe5f3bb3	-0.21800117
168	0x3d780b25	0.060557503
169	0xbd74489f	-0.05963957
170	0xbc5fb2df	-0.013653486
171	0x3da10136	0.07861559
172	0x3d2e8694	0.042608812
173	0xbe53ea4b	-0.20694844
174	0xbd26ee0e	-0.04075437
175	0xbe02a77e	-0.12759206
176	0x3cce5743	0.025188094
177	0xbe4e9638	-0.20174491
178	0xbe3c58b8	-0.18393219
179	0x3dce391b	0.10069486
180	0xbd39724d	-0.04527502
181	0x3de91c68	0.11382371
182	0xbde4f375	-0.11179248
183	0x3bd17c2f	0.0063929777
184	0xbd32157e	-0.043477528
185	0x3d91076a	0.07081492
186	0x3cf0966c	0.029368602
187	0xbd395ecd	-0.045256425
188	0xbdff86f7	-0.124769144
189	0xbd373968	-0.04473248
190	0x3c5e55a8	0.013570227
191	0xbe0ecd91	-0.13945605
192	0x3d85a14f	0.06524908
193	0xbd2e3be4	-0.042537585
194	0xbe4f68d3	-0.20254831
195	0xbded92b9	-0.11600251
196	0x3e0d87e4	0.1382137
197	0xbdc7cb29	-0.097555466
198	0xbc94733f	-0.01812136
199	0x3d4a00de	0.049317233
200	0x3cd4abc0	0.025960803
201	0x3da01399	0.07816238
202	0x3de294c1	0.11063529
203	0xbd745b06	-0.05965712
204	0x3c617e45	0.013763015
205	0x3d6875dd	0.05675303
206	0xbd70e81c	-0.058815107
207	0x3db01e48	0.08599526
208	0xbe368d21	-0.17827274
209	0x3dc23e08	0.09484488
210	0x3d1fdfa5	0.039031643
211	0x3ba6e214	0.0050928686
212	0x3c27084a	0.010194847
213	0x3be66021	0.0070305024
214	0x3dd03422	0.101661935
215	0xbe50da91	-0.20395876
216	0x3e55bd5f	0.2087302
217	0xbea1a15a	-0.31568414
218	0xbdb47175	-0.08810703
219	0xbe0af579	-0.13570203
220	0x3c2f5cd6	0.010703286
221	0xbdc402a9	-0.0957082
222	0xbd527080	-0.05137682
223	0x3d89375d	0.06700013
224	0xbdf27325	-0.11838368
225	0x3d25c168	0.04046765
226	0x3cc354b1	0.023844095
227	0xbd47b03f	-0.048752066
228	0x3d4acf83	0.049514305
229	0xbcacd88b	-0.02109935
230	0x3e119c91	0.14219882
231	0xbdbf6b98	-0.09346694
232	0xbdde88de	-0.10865949
233	0x3dcff5e4	0.10154322
234	0x3e039c2b	0.12852542
235	0xbe06c53c	-0.13161176
236	0xbd591537	-0.052998748
237	0xbc63a709	-0.013894805
238	0x3d1c2c18	0.03812799
239	0xbdbb1240	-0.0913434
240	0xbb5e9428	-0.003396282
241	0xbe767e85	-0.24071701
242	0xbe493ad3	-0.19651346
243	0x3dd453ce	0.10367547
244	0xbde28553	-0.11060586
245	0x3dc85ee3	0.09783723
246	0x3b847192	0.004041859
247	0x3c113f05	0.008865123
248	0xbe6a7ea3	-0.2289987
249	0xbc3322bb	-0.010933573
250	0xbbb621e0	-0.0055582374
251	0xbca8b3b3	-0.0205935
252	0xbe9a65e8	-0.30155873
253	0xbd1f75c6	-0.038930677
254	0x3d99b86a	0.07505877
255	0xbe791549	-0.24324526

model.8.bias f4 [16]
0	0x3c92e543	0.017931586
1	0xbe2cfc7e	-0.16893193
2	0x3e3487b4	0.17629892
3	0xbdd6ab6b	-0.10481914
4	0x3ccf4c17	0.025304837
5	0x3d4ff3b5	0.050769527
6	0xbe1a23c4	-0.15052706
7	0xbdfbc158	-0.12292737
8	0x3daaa128	0.08331519
9	0xbd39be52	-0.04534752
10	0x3dda787d	0.106675126
11	0xbd621bf0	-0.055202425
12	0x3d68884f	0.05677062
13	0x3d8b847b	0.06812378
14	0xbdf9fafa	-0.12206073
15	0x3db2ffea	0.08740218

model.9.weight f4 [16]
0	0x3f90246b	1.1261114
1	0x3f80e1a6	1.0068862
2	0x3f7ab5b1	0.9793349
3	0x3f8d5471	1.1041394
4	0x3f93ed73	1.1556839
5	0x3f8f29da	1.1184647
6	0x3f947a72	1.1599867
7	0x3f8d6580	1.10466
8	0x3f900283	1.1250767
9	0x3f95414f	1.1660556
10	0x3f913a8d	1.1345993
11	0x3f7a6d5c	0.9782312
12	0x3f70b2a2	0.9402257
13	0x3f92cc4d	1.1468598
14	0x3f91aa52	1.1380103
15	0x3f936ea3	1.1518139

model.9.bias f4 [16]
0	0x3f5dc053	0.8662159
1	0x3f54eabb	0.8317067
2	0x3f63ff7c	0.89061713
3	0x3f63549b	0.8880097
4	0x3f621096	0.8830656
5	0x3f576863	0.84143656
6	0x3f24b1eb	0.6433398
7	0x3f682f51	0.906972
8	0x3f5d9436	0.86554277
9	0x3f4d118e	0.8010491
10	0x3f38f2e7	0.7224564
11	0x3f609714	0.87730527
12	0x3f473b15	0.7782453
13	0x3f104823	0.5636007
14	0x3f0f9861	0.56091887
15	0x3f6013df	0.8753032

model.9.running_mean f4 [16]
0	0xbde6f66b	-0.11277469
1	0xbed0d5f1	-0.40788224
2	0x3bcd0323	0.0062564774
3	0xbeb9868c	-0.36235464
4	0xbe81b524	-0.25333512
5	0xbe76667c	-0.24062532
6	0xbe1622fb	-0.14661781
7	0xbec28a4a	-0.3799613
8	0xbe0a66b8	-0.13515747
9	0xbe764412	-0.24049404
10	0xbc56d5a6	-0.013112461
11	0xbee91a9b	-0.4552811
12	0xbe3c3107	-0.18378077
13	0xbdb89096	-0.090119526
14	0xbe22b890	-0.15890718
15	0xbe3d41bb	-0.18482105

model.9.running_var f4 [16]
0	0x3f05b7a2	0.52233326
1	0x3f2a9e12	0.66647446
2	0x3e493a1d	0.19651075
3	0x3f517614	0.818208
4	0x3ee352b9	0.4439905
5	0x3ed6ebd7	0.41976807
6	0x3f01df33	0.507312
7	0x3f2016e8	0.6253495
8	0x3f086e35	0.5329316
9	0x3f04c2c2	0.51859677
10	0x3e83c446	0.25735682
11	0x3f14c46a	0.58112204
12	0x3eb58d04	0.3545915
13	0x3f63bf15	0.88963443
14	0x3f076392	0.5288631
15	0x3f227c1b	0.6347062

model.12.weight f4 [1, 16]
0	0x3f0024ca	0.50056136
1	0x3f0859e6	0.53262174
2	0x3f040987	0.5157704
3	0x3ef0bcdb	0.47019085
4	0x3ef2e7ae	0.47442383
5	0x3efb448d	0.49075738
6	0x3ee4157d	0.44547644
7	0x3efdafd2	0.49548203
8	0x3ef68572	0.48148686
9	0x3edbd2ce	0.4293427
10	0x3ee90d77	0.45518085
11	0x3f0a7af0	0.5409384
12	0x3f158780	0.5840988
13	0x3edffd19	0.43747786
14	0x3ee15ac3	0.44014558
15	0x3ef2068c	0.4727062
