neuralnet/Hyperparameter sweeps/Hyperparameter sweep round 1/bike_volume_model_net_3layer_lr_0.00010000_batch_64_feat_35.pth (torch, 30797 bytes, 19 tensors)

model.0.weight f4 [64, 35]
000000 f9 50 3f 3e ca 3b 46 bb 48 85 1e 3d 09 c4 58 3c
       0.18683232 -0.003024804 0.038701326 0.013230332
000010 01 75 00 3d 7f 4d 90 3c ca da 0b 3e 35 6f 28 3e
       0.031361584 0.017615078 0.1365768 0.16448672
000020 b9 0c 5f bd 64 1e 68 be 84 40 5e be 7a df ce bc
       -0.054455493 -0.22667843 -0.21704298 -0.025253046
000030 86 c3 9c bd 70 27 7e bd db 0b 2d bd 2f b1 15 be
       -0.07654481 -0.06204933 -0.042247634 -0.14618371
000040 69 fe b2 bd 75 ca 1b 3e c1 8d 1c 3e c1 ff 0d 3d
       -0.08739931 0.1521395 0.1528845 0.034667734
000050 b9 d6 87 bd 5d 51 c6 bd 9d 25 34 3c c7 08 14 bc
       -0.06632752 -0.096834876 0.010995296 -0.009035296
000060 70 23 b1 bd b9 c7 1b be 70 23 10 be 81 16 01 be
       -0.08649337 -0.15212907 -0.14076018 -0.12606241
000070 01 26 4d bd f6 ad cd bd 49 49 91 39 d6 28 45 be
       -0.05008507 -0.10042946 0.00027711157 -0.19253859
000080 1e 2d fc bd ae 5e a1 3d 78 50 5d be 56 ba 02 be
       -0.12313293 0.07879387 -0.21612728 -0.12766394
000090 2d bd 18 bd 32 8c ef bc 28 86 31 bd 90 31 ec 3b
       -0.037289787 -0.029241655 -0.043340832 0.0072080567
0000a0 dd 11 18 bd 7d a3 1e bd 31 79 e8 3c 6c 15 12 be
       -0.03712641 -0.038730133 0.028378101 -0.14265984
0000b0 c0 ec 08 bc 58 4e 06 bd d7 ec dc bd 55 7d f9 bd
       -0.008357227 -0.03278956 -0.10787361 -0.12182108
0000c0 a5 03 96 3c 66 48 6b bd ef da 08 be 0a a6 37 3e
       0.018312285 -0.05744209 -0.13364767 0.17934433
0000d0 8b 09 11 3e 16 0b f0 bb 0f 60 5b 3e 07 bc 04 bd
       0.14163797 -0.0073255403 0.21423362 -0.03240588
0000e0 01 66 d2 bd 2a 61 f9 bd 13 37 b8 3d a4 7f 9d bd
       -0.10273362 -0.12176736 0.089948796 -0.07690361
0000f0 49 5f d7 3c 69 47 42 be cb 9a 90 bd 3e 31 04 3e
       0.026290553 -0.18972553 -0.070607744 0.1290941
000100 87 04 92 bc c8 4c a0 3d 72 f4 fb 3c 46 6f f3 bd
       -0.017824424 0.07827145 0.030756209 -0.11886458
000110 d7 b2 dd 3a 8d 84 05 be 58 6c ed 3d 38 77 cb 3d
       0.001691426 -0.13038845 0.115929306 0.099348485
000120 fe cf 00 3c a2 49 7e bd fd f4 3f bc 16 e5 99 3d
       0.007862089 -0.06208194 -0.011716125 0.07514398
000130 8b f5 0c bd 09 13 48 bd 21 43 95 bd 70 ce d6 bc
       -0.034413856 -0.04884628 -0.072881944 -0.026221484
000140 ad b1 ee 3d 18 ac f0 bd 4c 77 da bc ec bf 38 3e
       0.11654983 -0.11751574 -0.026668213 0.18041962
000150 a1 fd 4e 3d 88 5a d8 3c 56 a8 eb be 7b 6c 93 3d
       0.050534848 0.026410356 -0.46026868 0.071984254
000160 f9 62 95 bd 78 99 48 bd 7c 87 c1 3d 6b 5d 8c 3d
       -0.07294268 -0.048974484 0.0944967 0.068537556
000170 61 68 da 38 0f f8 5a 3d 4c 71 48 bd 40 3a f1 3d
       0.00010414492 0.053459223 -0.048936173 0.117786884
000180 38 ee d4 3d 1d 34 34 bd a7 65 63 3c 24 e2 35 3e
       0.10396999 -0.04399501 0.013879216 0.17762047
000190 47 16 69 be 16 5e d1 3d 2c 6c 18 be 88 f2 4e bd
       -0.22762404 0.102230236 -0.14885014 -0.050524265
0001a0 04 4b 2d bd 1a b0 19 be 05 0a 99 bd 91 74 8c be
       -0.04230787 -0.15008584 -0.07472614 -0.27432683
0001b0 16 15 b2 bd ef 65 2d 3c 7b 63 79 bc 6c 38 68 be
       -0.08695428 0.010583385 -0.015221472 -0.22677773
0001c0 63 3f 96 3d ca 85 ca bc ba e8 5f 3d 5c d3 d6 bc
       0.07336309 -0.024721999 0.054665305 -0.02622383
0001d0 fc e8 d3 3d 33 f2 2b 3c 0b 76 7c 3d 70 de d2 bc
       0.103471726 0.0104947565 0.061636012 -0.025740832
0001e0 e8 5e 68 3b 08 f5 80 bd 69 65 84 be 73 95 b2 bd
       0.003545696 -0.06296736 -0.2585862 -0.087199114
0001f0 fe 98 25 3d 92 f3 17 3e 85 5b c4 3c 7b 4b 79 bd
       0.040429108 0.14839008 0.023969421 -0.060863
000200 9e af 4c 3d 43 cb ae bd 84 ae 42 bc ef 44 39 3d
       0.04997217 -0.08534863 -0.011882428 0.045231756
000210 3c 62 fc bd b7 3e 37 be db 48 6e 3d 6f 5f 0f 3d
       -0.12323424 -0.17895018 0.05817495 0.035003122
000220 bf fc f4 3d 75 2d 1b 3d 44 62 0e bd b4 8b c4 bd
       0.1196227 0.037885148 -0.034761682 -0.09596959
000230 bf 35 66 3d 00 67 0e 3e 52 41 96 3d d0 fc c5 3c
       0.0562036 0.13906479 0.073366776 0.024168402
000240 48 6d 16 3d c3 af 36 3c 70 d4 e9 bd df fa 0f be
       0.036725312 0.011150303 -0.11417472 -0.14060543
000250 62 85 41 bd 8d 1c d0 3d a9 42 5e be 12 cf b7 3c
       -0.047246344 0.10161696 -0.21705116 0.022437606
000260 9d e9 3a 3a 94 c7 d9 bd ff 60 5c bd 71 34 ab bd
       0.0007130148 -0.1063377 -0.05380344 -0.08359612
000270 e0 64 9d 3d 0b 95 18 3e 8f d2 38 bd 54 56 94 3e
       0.07685256 0.14900605 -0.04512268 0.28972113
000280 4c e5 b0 3d 88 34 c6 3c 8a 4f 99 3d 66 57 16 bd
       0.08637485 0.02419497 0.07485874 -0.036704443
000290 eb 37 03 3d ce 36 61 3d 5f f9 cc bc 57 f0 4a be
       0.03203575 0.054983906 -0.025021253 -0.19818245
0002a0 d3 3e 1d be c1 1e a0 3d 54 b4 6c bc 3a 76 92 bd
       -0.15355997 0.07818366 -0.01444729 -0.07151456
0002b0 83 d4 7a 3d 24 e8 6d be 73 20 06 be 17 f2 96 3b
       0.061237823 -0.23233086 -0.13098316 0.004606496
0002c0 6b 04 86 3d 24 fc 36 3e 85 4e 9b 3c 90 57 52 3d
       0.065438114 0.17869622 0.01895834 0.051353037
0002d0 fd b2 1c 3e a2 87 d8 ba 1d 51 45 3e 38 ab a6 3c
       0.15302654 -0.0016519914 0.19269224 0.020345315
0002e0 88 67 a1 3c 2c 2e c6 bc 15 1a 76 3d 5a a8 c6 bd
       0.019702688 -0.024191938 0.060083468 -0.09700079
0002f0 c4 a4 83 3e 0c c4 3d bd 91 b4 48 be c2 fa 38 bd
       0.25711644 -0.046329543 -0.1960013 -0.045161016
000300 8a 9c 3d 3e 49 91 3d be 80 11 d7 3d 0f af 5c 3d
       0.18516746 -0.18512453 0.10501385 0.053877886
000310 09 a1 24 be 6f ad 6d 3c 65 9c a8 bd 22 6c 29 3d
       -0.16077055 0.014506682 -0.08232955 0.04136289
000320 59 59 24 3d 9a cd 78 3d 8e 89 3d be 4c 4d a2 3a
       0.04012427 0.060742952 -0.18509504 0.0012382655
000330 ea df 07 be 93 6b a7 3c f4 2e c3 3c 88 09 25 3d
       -0.1326901 0.020437038 0.0238261 0.040292293
000340 d1 b3 03 be 63 83 5e bb 40 84 1c be 0b d9 36 bc
       -0.12861563 -0.0033952824 -0.15284824 -0.0111601455
000350 46 b4 dd 3b e4 c3 70 3d 87 cd 8b bc da d0 3b 3e
       0.006765875 0.058780566 -0.017065777 0.1834139
000360 b7 81 99 3d f0 67 a7 bc ba f7 05 3e f3 33 ce 3d
       0.07495444 -0.020435303 0.13082781 0.10068502
000370 84 df 70 3e 73 86 34 be 06 4b 81 bd 9a d0 25 bd
       0.23522764 -0.17629413 -0.06313138 -0.04048214
000380 05 19 4a 3d 5c 6c 61 3e 40 6c 88 3e 0d ad 14 bd
       0.049340267 0.22013992 0.26645088 -0.036297847
000390 d1 20 56 bc 17 00 21 be e7 bd db 3c 42 2c b8 bd
       -0.0130693475 -0.1572269 0.026823951 -0.089928165
0003a0 a9 6d 9e 3d bb 39 62 ba 51 b2 e0 bc ef 7a c8 3c
       0.0773576 -0.00086298183 -0.027428778 0.024472682
0003b0 30 31 01 3e 68 1c 3a 3d 3f 51 bb bd ef d6 ab 3d
       0.1261642 0.045437247 -0.09146356 0.08390605
0003c0 f4 b8 c9 3c 33 9c dd bd 7f f5 88 bd a2 70 42 be
       0.024624325 -0.10820808 -0.0668745 -0.18988279
0003d0 39 68 ed 3c d9 4e 30 be 75 6a 1b be 94 37 01 be
       0.028980361 -0.17217578 -0.15177329 -0.12618858
0003e0 58 e4 66 bd 21 96 8e 3d e3 97 5d bd a8 1c 33 3d
       -0.05637011 0.069622286 -0.05409993 0.0437285
0003f0 bf 37 85 3d e7 2a 77 3b 5b 2c 08 bd 21 81 07 3e
       0.06504773 0.003771478 -0.033245426 0.13232853

model.0.bias f4 [64]
000000 e2 e0 1b 3e b8 a4 45 be a6 33 00 be e2 22 04 3d
       0.15222505 -0.19301116 -0.12519702 0.03225983
000010 b0 5c 10 bd a4 6e d9 3d ec f5 d9 3d ed 64 3c 3d
       -0.035244644 0.10616806 0.10642609 0.045994688
000020 0d e5 87 bd 77 60 26 3e 4a 83 1d bd 49 00 96 bd
       -0.06635485 0.16247736 -0.038455285 -0.07324273
000030 ae d0 cf 3d 70 ae 06 be 35 37 3c 3d 40 5b 11 3e
       0.10147224 -0.1315248 0.045951087 0.14194965
000040 96 56 5c 3d 68 a0 63 bd 08 24 2e be 68 a0 9f 3d
       0.053793512 -0.055572897 -0.17005932 0.07794267
000050 cb 67 8d bd 0e ce b9 bc e0 68 8b bd d8 76 66 3d
       -0.069045626 -0.022681262 -0.06807113 0.056265682
000060 b3 c3 c6 bd f9 da 38 3e 7b f6 58 bd a1 bb 13 3e
       -0.097052954 0.18052281 -0.052969437 0.14427043
000070 1a 26 e9 3d e1 14 ca bc b1 3f 17 be 23 97 6e 3c
       0.113842204 -0.024668159 -0.1477039 0.014562401
000080 2f cc 00 be e5 0e 41 3d 22 a4 12 3e 57 82 4b 3d
       -0.1257789 0.047133345 0.14320424 0.04968485
000090 98 87 2b be 55 90 03 3e f4 b3 55 3d cc e4 77 bd
       -0.16750944 0.12848027 0.05217357 -0.060520932
0000a0 ab 59 b1 bd ab d8 38 3d c2 90 6a 3d 20 2a 7f 3c
       -0.08659681 0.045128506 0.057266958 0.015574008
0000b0 d9 0a bd 3d 3b ea e6 3d cd b8 da bb 69 0d c0 bd
       0.09230585 0.11275145 -0.006674862 -0.09377558
0000c0 af f2 3d 3e 14 17 96 3a cc 7a 37 be 4e cd 13 3d
       0.18549608 0.001145097 -0.17917937 0.036084466
0000d0 5a b2 ee 3d 42 69 fa 3d 11 9f 8a bd 66 d0 a3 bd
       0.116551116 0.122271076 -0.06768621 -0.07998733
0000e0 2b d0 7b 3c ed b4 30 be ea fd cd 3d b6 53 55 3c
       0.015369455 -0.17256518 0.10058196 0.0130204465
0000f0 f4 31 00 3d a8 5b 49 3c 4d 54 b9 bd ba 68 f7 bc
       0.03129764 0.012289919 -0.09049282 -0.030201305

model.1.weight f4 [64]
000000 15 bb 71 3f 9f 99 60 3f 86 bb 78 3f 41 43 5e 3f
       0.9442609 0.8773441 0.9716114 0.8682137
000010 e4 22 46 3f 8f cc 5e 3f e9 71 76 3f 3c 0b 5b 3f
       0.7739699 0.8703088 0.96267563 0.8556402
000020 3e c2 57 3f f2 92 6c 3f 28 f7 64 3f 7e 02 5f 3f
       0.84280765 0.9241172 0.8943963 0.8711318
000030 ce 93 6a 3f 93 3a 5f 3f 4a 30 64 3f cf 15 68 3f
       0.9163178 0.8719875 0.89136183 0.9065828
000040 c5 38 6f 3f 10 13 66 3f c5 eb 6d 3f db be 57 3f
       0.93446 0.8987284 0.9293788 0.842756
000050 3a b4 6a 3f 88 d8 5e 3f 03 39 80 3f bd 2a 62 3f
       0.91681254 0.8704915 1.0017399 0.88346463
000060 d7 3a 50 3f b7 5e 54 3f 03 25 4e 3f 52 c2 60 3f
       0.8133978 0.82957023 0.80525225 0.8779651
000070 ef 1a 47 3f c8 43 80 3f 99 4c 7a 3f b4 08 57 3f
       0.7777547 1.0020685 0.9777313 0.83997655
000080 71 e2 7e 3f 70 c1 59 3f 8a 51 6e 3f d9 dd 49 3f
       0.9956427 0.8506079 0.9309317 0.7885414
000090 5a 6a 86 3f 00 a3 61 3f 99 b1 4f 3f af c1 49 3f
       1.0501206 0.88139343 0.8113037 0.7881116
0000a0 b1 7b 48 3f 99 48 4d 3f f7 9e 5b 3f b9 e5 60 3f
       0.7831374 0.801889 0.85789436 0.8785053
0000b0 ea 85 57 3f 60 e5 55 3f 73 31 64 3f 39 a0 69 3f
       0.8418871 0.83553123 0.89137954 0.91260105
0000c0 71 51 60 3f de 82 50 3f 53 88 81 3f 2d d6 6b 3f
       0.8762427 0.8144969 1.0119728 0.9212368
0000d0 71 d3 48 3f b0 62 59 3f 61 e3 6a 3f 8e 68 59 3f
       0.78447634 0.8491621 0.917532 0.8492516
0000e0 66 f2 73 3f 28 e9 7d 3f 3b e6 79 3f 8b 9e 47 3f
       0.95291746 0.99183893 0.9761693 0.7797629
0000f0 8c 71 68 3f b6 75 67 3f f3 cd 78 3f b7 3f 4f 3f
       0.9079826 0.9041399 0.97189254 0.80956596

model.1.bias f4 [64]
000000 e1 1b fe be 3f c7 16 bf 64 33 09 be aa 2f 90 be
       -0.49630645 -0.58897775 -0.1339851 -0.28161365
000010 51 91 48 bf 01 3e 2c bf cf 7c 8f be ad cf db be
       -0.78346735 -0.6728211 -0.2802491 -0.42931882
000020 6d 8d 1c bf 65 3b 64 be ad 50 ef be 1f 7f 3b bf
       -0.611533 -0.22288282 -0.46741238 -0.73240846
000030 ff e0 7e be fd dc 90 be 22 5d 8e be 32 f1 e7 be
       -0.24890517 -0.282936 -0.2780543 -0.45301205
000040 92 34 ed be bd 2b 3c bf 10 40 b3 be 7e 67 28 bf
       -0.4632917 -0.7350424 -0.35009813 -0.65782917
000050 ed 33 09 bf f8 85 5f bf 76 53 e9 be 47 21 18 bf
       -0.5359486 -0.87313795 -0.45571488 -0.5942578
000060 02 62 20 bf 79 29 3e bf 54 a0 0d bf 36 7e 04 bf
       -0.6264955 -0.7428203 -0.55322766 -0.5175508
000070 49 16 32 bf 69 bf 91 be 56 b9 95 be 27 58 2c bf
       -0.69565254 -0.28466347 -0.29242963 -0.6732201
000080 fd 63 87 be 5e 22 5e bf 57 87 77 be ec 74 3a bf
       -0.26443473 -0.8677119 -0.24172722 -0.7283466
000090 da 90 92 be 89 10 13 bf a0 31 17 bf a4 ae 3e bf
       -0.28626138 -0.57447106 -0.59060097 -0.7448523
0000a0 a1 8d 20 bf de b6 1c bf 38 4b 01 bf aa 6b 27 bf
       -0.6271611 -0.61216533 -0.505054 -0.6539866
0000b0 e3 cf 27 bf 73 17 e0 be 7f 8c e2 be 75 3c 43 be
       -0.65551585 -0.4376789 -0.44247815 -0.19066031
0000c0 41 7b bb be 66 30 3f bf 6a cb 6b be 82 e1 03 bf
       -0.36617473 -0.74683225 -0.23026815 -0.5151597
0000d0 31 85 4e bf 1a 10 17 bf 80 42 a0 be 31 d6 fe be
       -0.80671984 -0.59008944 -0.31300735 -0.4977279
0000e0 f5 2f 1f be 8c 0a 71 be 70 c2 64 be aa dd 30 bf
       -0.15545638 -0.2353918 -0.22339797 -0.6908823
0000f0 24 6f bd be 4f 9c 15 bf f6 98 6a be 72 75 f1 be
       -0.36998856 -0.58441633 -0.22909912 -0.47159916

model.1.running_mean f4 [64]
000000 4f 24 2f 3e cd 59 2f be 71 db 9d bc cc 79 3f bf
       0.17103694 -0.171241 -0.019269677 -0.7479522
000010 e8 a0 a8 be 13 77 00 bf 44 c9 30 3e d4 54 9d 3c
       -0.32935262 -0.5018169 0.17264277 0.019205488
000020 eb d5 14 bf e0 b2 57 3e fe 1d 1c 3e 40 29 24 3e
       -0.5813891 0.21064329 0.15245816 0.1603136
000030 9d bc b3 3e 67 5d a8 be a1 05 8d 3e 26 b5 e9 3e
       0.35104838 -0.3288376 0.27543357 0.45646018
000040 9a 4e 64 3e bf 09 1e 3e a5 d3 5d 3e 11 38 59 be
       0.22295609 0.15433405 0.21662767 -0.21212794
000050 04 31 c5 3d 8a 84 94 3e e7 ae 29 be a3 d7 80 3e
       0.096284896 0.2900737 -0.16570626 0.25164518
000060 b0 3b 06 bf 6d ae fc bc 37 16 8b be e9 a4 17 3e
       -0.52434826 -0.030844891 -0.27165386 0.14809002
000070 f7 2e bc be 43 79 d5 bc fa 8d 60 be 0b b1 35 bd
       -0.3675458 -0.026058799 -0.2192916 -0.044358294
000080 5c 05 97 bd 0d 00 02 3e ce ce b2 3e f6 61 c9 3d
       -0.07374069 0.12695332 0.34923404 0.09833138
000090 4f 79 03 3e e6 92 a5 be 04 e8 11 bf 3e 47 18 bf
       0.12839244 -0.32338637 -0.5699465 -0.59483707
0000a0 36 e7 54 bf 54 3e 2e bf 65 5b 91 be 4f 2e 14 be
       -0.831653 -0.68063855 -0.2839004 -0.1447079
0000b0 6f d9 d8 3e dc a7 59 be 1f b5 b0 3e c8 b5 49 bd
       0.4235339 -0.2125544 0.34513184 -0.049245626
0000c0 a2 bf e2 3e b5 bf 0a bf a7 74 dd 3d ac 00 f0 3e
       0.4428683 -0.5419877 0.10813265 0.46875513
0000d0 38 2a 88 3e bc 7b 90 be ea 64 09 be e1 9f d9 be
       0.2659471 -0.28219402 -0.13417402 -0.4250479
0000e0 03 b2 05 3e d1 da 60 be 70 63 90 3e a2 b2 0a bf
       0.13056187 -0.21958472 0.28200865 -0.5417882
0000f0 e2 9a 58 be ed 5e f5 3e ef f4 89 3e f2 55 c6 be
       -0.21152833 0.47923985 0.26944682 -0.38737446

model.1.running_var f4 [64]
000000 0c 9c ea 3d b4 a9 8b 3d 03 c0 a1 3e 37 f5 15 3f
       0.11455545 0.06819478 0.31591806 0.58577293
000010 60 08 23 3e 09 50 a1 3e e3 53 94 3d b2 50 fd 3d
       0.15921164 0.31506374 0.072425626 0.12368907
000020 a2 9d 93 3e 0e f2 88 3e a9 f7 0c 3e 44 8a 01 3e
       0.28831202 0.26747173 0.1376635 0.126504
000030 38 c5 e5 3d 42 14 22 3e c3 81 0e 3e 25 35 71 3e
       0.11219257 0.1582804 0.13916688 0.2355543
000040 29 76 16 3e 59 ed b6 3d 42 86 51 3e 76 a7 79 3e
       0.14693512 0.08931989 0.20461372 0.24380288
000050 65 e1 91 3d cb 80 b8 3d ef 61 ab 3e 2b 47 e2 3d
       0.07123069 0.0900894 0.33473155 0.110487305
000060 bf ff 8c 3e ed 71 63 3e 5c 3a 45 3e f3 de 83 3d
       0.2753887 0.22211428 0.19260544 0.064390086
000070 4b 45 c4 3e 78 02 f4 3d 5d 2d d1 3d 13 43 30 3e
       0.38334116 0.119145334 0.102137305 0.17213087
000080 03 01 63 3e 46 d8 bb 3d 51 34 7f 3e 87 98 97 3d
       0.22168355 0.0917211 0.24922301 0.07402139
000090 93 ca ad 3d 57 1f a3 3e 19 77 ad 3e 16 51 a1 3e
       0.084859036 0.31859848 0.33879927 0.31507176
0000a0 25 39 14 3f 78 d0 db 3e 9b 5e 6b 3e 9c 2a 4c 3d
       0.57899696 0.42932487 0.22985308 0.049845323
0000b0 f0 26 cd 3d f8 16 77 3e 16 28 20 3e a0 60 6c 3d
       0.10017192 0.24129856 0.15640292 0.057709336
0000c0 d5 27 13 3e 7b 81 96 3e 88 24 2d 3e 7b 21 40 3e
       0.14370663 0.2939566 0.16908467 0.18762772
0000d0 07 fe e1 3d 81 22 6f 3e 0d 52 12 3e d8 ab 06 3e
       0.1103478 0.23353006 0.14289112 0.1315149
0000e0 50 99 67 3e 7e be 85 3d 24 06 eb 3d f7 9c 5c 3e
       0.22617078 0.06530474 0.114757806 0.21544252
0000f0 d9 cc 08 3e 17 d6 5b 3e aa e7 26 3e bf ac 48 3e
       0.13359393 0.21468388 0.1629931 0.19597147

model.4.weight f4 [32, 64]
000000 a9 a3 b2 bb 67 f2 8c 3c 0e c2 cf bc 4f 33 e2 bd
       -0.0054516387 0.01720543 -0.025361087 -0.110449426
000010 28 09 49 bd bd 91 52 3d 01 d2 6b be 6d 5e 7a bd
       -0.049080998 0.051408518 -0.23029329 -0.061125208
000020 3c f0 d7 3d 6f 1f c4 bd 1d f5 05 bd 20 34 e5 bc
       0.10543868 -0.09576308 -0.03270446 -0.027978957
000030 c7 7f d4 bd 61 8a a7 bd b2 5f 87 bd 68 60 85 bd
       -0.10375934 -0.081806906 -0.06610049 -0.06512529
000040 18 95 bd bd 5b cc 84 3b 3a 14 f5 bd c4 2d 0f bd
       -0.09256953 0.0040526814 -0.119667485 -0.034955755
000050 c4 8e 8f be 33 f0 cd 3d ad e2 df bd 88 ea 77 bd
       -0.2803861 0.1005558 -0.10931907 -0.0605264
000060 6b 6b 00 be 03 88 88 3d d9 a7 37 bd f7 d6 a5 3c
       -0.12540977 0.06666567 -0.044837806 0.020244105
000070 60 2a 92 bd 1d e6 79 3d f7 98 84 3d 47 3e cb bd
       -0.07136989 0.06101047 0.06474488 -0.09923988
000080 7d 42 f9 bd e9 e8 a3 3c 37 24 97 bc 66 08 cb bd
       -0.12170885 0.020008521 -0.018449886 -0.09913711
000090 e0 56 ec bc 47 ed b6 ba 65 f5 88 bd 88 da a7 bd
       -0.028850019 -0.0013956212 -0.0668743 -0.081959784
0000a0 10 9f 0c 3e 15 00 b5 bd 03 4d c6 bd ca e6 53 bd
       0.13732553 -0.08837906 -0.096826576 -0.05173377
0000b0 fa 82 42 bd 23 40 b2 bd 5d 63 13 3c 5c cc d4 bd
       -0.04748819 -0.08703639 0.008995858 -0.10390541
0000c0 d2 3a cf bd f7 c0 e0 3d e6 c1 16 bd fb 6a 44 3d
       -0.10118641 0.10974305 -0.03680601 0.047953587
0000d0 f3 2e 46 3a b1 f8 03 bc 15 83 99 bd 1f 5f e6 bd
       0.00075600966 -0.008054898 -0.07495705 -0.11248612
0000e0 81 2b 73 bd a9 de 67 bc c2 28 bb bc de c2 39 bc
       -0.05936766 -0.014152207 -0.022846583 -0.011337964
0000f0 52 8c c4 bd 67 00 01 3d 05 8e dc bc 25 61 6d bd
       -0.095970765 0.031494524 -0.026923189 -0.057953972
000100 32 d7 b0 3d 59 ed c8 bb 04 83 e7 3c 95 5f 23 bd
       0.08634795 -0.0061318097 0.028260715 -0.039886076
000110 ec b7 ba bb 31 35 95 bd 1e 4e 65 3c 24 e8 ab 3d
       -0.0056981947 -0.07285536 0.013995675 0.08393887
000120 64 75 89 bd f3 99 c8 bc 74 d4 08 3d c1 0d 8e bd
       -0.067118436 -0.024487471 0.033405736 -0.06936217
000130 6e ba da 3c 2d b2 17 3d b0 29 ec bd 98 32 ac bc
       0.026700225 0.037035156 -0.11531389 -0.021020219
000140 2d d6 9e 3d 1d eb cf bc 6e cb 0f bc a5 dd cd bc
       0.077556945 -0.025380665 -0.008776529 -0.025130102
000150 70 88 8e bd 48 44 71 3d 6b 2d ef 3d 45 e9 af bc
       -0.06959617 0.05890301 0.11678585 -0.021473536
000160 1a 39 b0 3d 34 0d 97 bc 1a 9d 3e bc a0 bd 02 be
       0.08604641 -0.018438913 -0.011634136 -0.12767649
000170 98 4e 8c bc e3 49 f5 bd bd 6e de 3c 41 20 58 3d
       -0.01712732 -0.119769834 0.027152414 0.052765135
000180 be 19 37 3d 6f f0 41 bd 1c 5d 01 be 3a cb 10 bd
       0.044702284 -0.047348436 -0.12633175 -0.035350062
000190 1a f7 ce 3d b7 2e a9 bd 9d cc 6b 3d 6d ed 7d 3d
       0.10105725 -0.08260863 0.05756818 0.061994005
0001a0 43 01 be 3c 41 49 80 bc 33 15 87 3d e1 52 bc bc
       0.023193961 -0.01565993 0.0659584 -0.022988738
0001b0 b9 af 8b 3d 60 83 d5 3d 9a 95 9f bd 5e ab 27 bd
       0.06820626 0.104254484 -0.07792206 -0.040934913
0001c0 c5 b9 fb 3c 2a de 00 3d 52 0e 15 3d 9e f2 dc bd
       0.03072823 0.031461872 0.03639061 -0.10788463
0001d0 83 77 72 3e 72 a5 f1 bc 3e 89 30 be 58 64 4d be
       0.23678403 -0.029497836 -0.17239854 -0.2005781
0001e0 ca 0c 8c bd de 15 55 3d c2 c0 94 bd e8 84 a0 bc
       -0.06838377 0.052022807 -0.07263328 -0.019594625
0001f0 21 71 bc 3b 54 07 1e bd c3 c8 4b be 2d 15 ad 3c
       0.0057507907 -0.038581207 -0.19900803 0.021128261
000200 ec 50 e1 bd f5 97 a1 3d 0f 7e c6 bd 4f a9 5d 3d
       -0.11001763 0.07890312 -0.096920125 0.054116543
000210 f2 d9 91 3d 84 54 c6 3c 38 f4 ba bd d2 5d a9 3c
       0.07121648 0.024210222 -0.09128612 0.02067462
000220 2f 6a 9b 3d db e3 a8 bd 49 b7 e0 bd b3 ff a6 3d
       0.07588612 -0.08246585 -0.10972459 0.081542395
000230 4a 22 88 3d ab ab 40 3c 5f e9 c1 bd 22 3d 84 3d
       0.06647165 0.011759679 -0.0946834 0.06456973
000240 70 9e f2 bd c8 2a 95 3d eb fb 8b 3d 4b cd 96 3c
       -0.11846626 0.072835505 0.06835159 0.018408438
000250 3c 28 df bd 61 29 fe 3d 4c 26 b5 bd 31 83 8b 3d
       -0.10896346 0.12410236 -0.08845195 0.06812132
000260 e0 8f 4e 3d 40 ca 64 3c 21 5c 54 bc 6e 81 7b 3d
       0.05043018 0.013964236 -0.012961418 0.06140273
000270 fb 39 c1 3d 86 ee 8f bd 36 f9 9e bd 43 53 8e 3d
       0.09434887 -0.070279166 -0.07762377 0.06949475
000280 00 69 b0 bd 75 19 19 3e 9f 9a d2 bd a9 f8 be 3d
       -0.08613777 0.14951117 -0.10283398 0.09324772
000290 5c ac da bd 16 01 24 3d 63 23 89 3d e8 57 db 3d
       -0.10677406 0.040040098 0.066962026 0.10710126
0002a0 63 cb 96 3d 75 e6 60 3d 42 80 60 3b f1 e4 b8 3d
       0.07363012 0.05490728 0.0034256135 0.09028042
0002b0 fa 33 83 3d d6 e9 a7 3d 09 b5 ad 3d c0 25 5b 3d
       0.06406398 0.081988975 0.08481795 0.053502798
0002c0 0a 7e 1c bd d2 63 95 3d c6 cb b8 bd 23 73 79 3d
       -0.038206138 0.0729443 -0.09023242 0.06090082
0002d0 6f 95 9d 3d df d0 35 3d a1 db 97 bc f7 05 1d 3d
       0.07694518 0.044388648 -0.018537344 0.038335767
0002e0 a3 88 be bd 74 12 cd bd b2 12 ef bd 40 c8 ab 3d
       -0.09303405 -0.10013285 -0.11673488 0.08387804
0002f0 20 52 e1 bc 05 ed 9a 3d 43 31 1f 3d 14 5d 63 3c
       -0.02750498 0.07564739 0.03886534 0.013877172
000300 ad 0a 6f 3d af 0b ac bd 45 1b 29 3c 69 9b 6e 3d
       0.05835979 -0.08400666 0.010321443 0.05825368
000310 e9 ae 14 bd 3e 35 3d be 89 7d 6e bc 79 88 8b bd
       -0.03629962 -0.18477342 -0.014556297 -0.068131395
000320 e9 05 10 be cd e7 81 3c 09 b4 14 bd aa b1 26 be
       -0.14064755 0.015857602 -0.036304507 -0.16278711
000330 18 fa df bc ea a8 71 3d a0 da b8 bb cc 92 29 be
       -0.027340934 0.05899898 -0.0056412965 -0.16559905
000340 8f 20 80 3d 75 19 45 be 83 27 01 3d e0 d3 b1 bd
       0.0625621 -0.19247992 0.031531822 -0.0868299
000350 0c 72 af bc 29 40 d4 bc 1e 7c 83 3d ab 59 8f bd
       -0.021416686 -0.0259095 0.06420158 -0.06999525
000360 a4 22 dc 3a 7c f9 ee bd 4e f6 be 3c e0 63 4e bb
       0.0016794992 -0.11668679 0.023310807 -0.0031492636
000370 18 4b dd 3d f0 6e b7 bd 1b 57 43 3d b4 c1 af bd
       0.108053386 -0.089567065 0.047690492 -0.08581868
000380 88 59 c3 3c 01 4f 53 be 69 2c 11 3d 01 0f 26 bd
       0.023846403 -0.20635606 0.035442743 -0.040541653
000390 9b 6a b5 3d 40 bc 88 bd dd 76 c6 bc f9 96 59 bd
       0.08858224 -0.06676531 -0.0242266 -0.053122494
0003a0 2b 37 2b bc 63 cf f2 3c 60 4e 05 3d 1a 44 92 bd
       -0.010450165 0.029639905 0.032545447 -0.071418956
0003b0 0c e0 f9 bd 9b d5 c8 3d 73 fe b5 bc fd ec 87 bd
       -0.12200937 0.09806367 -0.022216057 -0.06636999
0003c0 53 19 3a bd 00 df 98 bd 70 e9 e1 3d 95 15 28 be
       -0.045434307 -0.07464409 0.11030853 -0.16414483
0003d0 b7 ae a4 3c 8b 39 99 bd 93 f6 df 3c a0 4d 26 3e
       0.020102842 -0.074816786 0.027339255 0.16240549
0003e0 3e cb 26 bc 6c b7 bb 3d ac ec 24 3d 38 3a 1d 3c
       -0.010180293 0.09165844 0.04026477 0.0095964
0003f0 f5 7a 2a 3d c2 45 97 bd 05 ba 35 be 34 e5 85 3d
       0.041621167 -0.07386352 -0.17746742 0.06537858

model.4.bias f4 [32]
000000 7b b6 06 3e ba 6e 1c 3d d7 30 d9 3c 53 d3 85 3c
       0.13155548 0.038191535 0.026512546 0.016336119
000010 18 d0 69 bd a2 6e 94 bc eb 79 56 bd 2d 9f c3 bd
       -0.05708322 -0.01811916 -0.052362364 -0.09551845
000020 3e 8e 29 bd 0a a2 7a 3d 29 d4 6d bd 7a d3 50 bb
       -0.04139542 0.06118969 -0.05806366 -0.003186433
000030 b1 55 b1 bd 0e f9 ed bd 27 a0 af 3d c5 24 88 bd
       -0.086589225 -0.11619769 0.085754685 -0.06647638
000040 ae c9 24 3d e1 15 e3 ba 9d d0 d7 bc ff 66 ed 3c
       0.0402314 -0.0017325246 -0.026344592 0.028979776
000050 ea 70 9f 3d a0 a6 cb 3d 9d e1 18 be 12 1b d8 3c
       0.077852085 0.099438906 -0.14929815 0.026380096
000060 cd 53 e3 bd ce 9a 9b bd 41 ed 66 bd c3 b9 17 bc
       -0.11099968 -0.07597886 -0.056378607 -0.009260598
000070 10 83 62 bd 56 9d a6 3b 44 c9 d1 3b 22 5b b0 3d
       -0.055300772 0.005084674 0.0064021666 0.08611132

model.5.weight f4 [32]
000000 a5 7b 54 3f 68 81 71 3f b4 d6 80 3f 11 1f 65 3f
       0.83001167 0.94338083 1.0065522 0.8950053
000010 42 ee 71 3f b9 ea 77 3f e1 02 78 3f 69 80 67 3f
       0.9450418 0.96842533 0.9687939 0.90430313
000020 bf 2a 78 3f f4 45 6c 3f da 3c 6a 3f 67 bf 76 3f
       0.96940225 0.9229424 0.914991 0.96385807
000030 0c 9e 6f 3f 3a 61 65 3f 1a fb 6a 3f 19 68 5a 3f
       0.93600535 0.8960148 0.917894 0.8531509
000040 6c 35 6b 3f 52 23 72 3f 42 84 62 3f 25 51 61 3f
       0.9187839 0.94585145 0.8848306 0.8801444
000050 9c 78 81 3f b5 cd 61 3f 9a d5 7f 3f 96 fa 6c 3f
       1.0114932 0.8820451 0.99935305 0.92569864
000060 23 9a 76 3f e3 0b 5c 3f db 44 80 3f ca 08 4f 3f
       0.96328944 0.8595564 1.0021013 0.80872786
000070 0a 26 88 3f 5a 4a 68 3f 02 0e 6e 3f 82 c6 79 3f
       1.0636609 0.9073845 0.92990124 0.97568524

model.5.bias f4 [32]
000000 53 27 bf be 61 a0 25 be c8 c0 f8 be 80 ed e1 bc
       -0.3733469 -0.16174461 -0.4858458 -0.02757907
000010 a7 d4 39 bd 94 fc 8d be 48 a7 3b bf fb 88 aa be
       -0.045368817 -0.27731764 -0.73302126 -0.33307633
000020 bd 38 d9 be 03 75 a0 be 30 3c e5 be a6 1a f1 be
       -0.424261 -0.31339273 -0.44772482 -0.47090644
000030 9c e6 27 bf 92 51 dd be 4c 6c e9 be d4 4d e4 be
       -0.65586257 -0.43226296 -0.45590436 -0.44590628
000040 e1 9a b0 be 7b 3b ef be 55 fe 33 be 74 83 2d be
       -0.34493163 -0.46725067 -0.17577489 -0.16944677
000050 a1 95 6d be 1a bc 83 be de 44 80 be 2b e1 8e be
       -0.2320161 -0.25729448 -0.25052541 -0.27906165
000060 44 09 4e be d1 55 1c bf 7a fc ff be 72 ea 30 be
       -0.20120722 -0.61068445 -0.49997312 -0.17276934
000070 e2 64 94 be ff 91 cd be 36 f8 98 bd 0f 26 ec be
       -0.28983217 -0.4015045 -0.074692175 -0.46122786

model.5.running_mean f4 [32]
000000 12 08 11 be 1a 93 8b bd 3f 23 9b be 16 a6 1a 3e
       -0.14163235 -0.06815167 -0.30300328 0.1510242
000010 7e b5 e1 bd c7 68 9b 3e a1 a6 cf be a2 55 a5 be
       -0.11020945 0.30353376 -0.40556815 -0.32291895
000020 ba 19 ad be 0b 31 44 be e2 75 ac bd 21 d5 af 3c
       -0.3380869 -0.19159333 -0.08420922 0.021463932
000030 7e da d9 be 8b bd 9d be 79 56 0f be da 5d 13 be
       -0.4254951 -0.30808672 -0.1399783 -0.1439127
000040 ab 86 3e be 1d 0e b5 be fb 5a 94 3e 39 17 50 3e
       -0.18606059 -0.3536233 0.28975663 0.20321359
000050 50 d2 54 be 00 4c b3 3e db cc 80 be ca d7 51 be
       -0.20783353 0.3501892 -0.25156292 -0.20492473
000060 18 0a e4 be ea 61 67 be af 9d cf be cf e9 56 be
       -0.4453895 -0.22595945 -0.4054999 -0.20987628
000070 a9 cc 55 be 3c 50 35 be b6 03 b6 3d 2f 88 71 be
       -0.20878853 -0.17706388 0.088874266 -0.23587106

model.5.running_var f4 [32]
000000 49 72 38 3e 99 0a 34 3e f1 eb a8 3e 60 68 66 3e
       0.18012346 0.17582168 0.3299251 0.22500753
000010 23 29 a3 3e eb 4a 96 3e 09 6c a3 3e 6b 50 a0 3e
       0.31867322 0.29354033 0.31918362 0.31311354
000020 d4 90 95 3e 43 3f 4c 3e 85 20 05 3e 79 e2 02 3e
       0.29212058 0.19946007 0.13000686 0.12781705
000030 1b ab 89 3e b8 15 7b 3e fb 8c b5 3e e6 88 87 3d
       0.26888356 0.24520004 0.35459122 0.06617908
000040 2e f9 a4 3e 2e 5a ae 3e 90 59 97 3e 50 75 ac 3e
       0.3222136 0.34053177 0.29560518 0.33683252
000050 fe e9 d6 3e 9f 57 b4 3e 77 30 af 3e cd 52 8e 3e
       0.41975397 0.352231 0.34216663 0.27797547
000060 ac 34 86 3e c3 40 a0 3e dd 60 a3 3e d0 d9 30 3e
       0.2621206 0.3129941 0.31909838 0.17270589
000070 16 5c 34 3e db d4 6d 3e 0f 10 39 3e a8 f5 9e 3e
       0.17613253 0.23225729 0.18072532 0.31046796

model.8.weight f4 [16, 32]
000000 3d d2 b8 bb cb 63 ba 3d 61 d0 0e 3d f8 55 ff 3b
       -0.0056402967 0.09101065 0.034866694 0.0077922307
000010 be 1a 18 3d 6e 69 52 bd df a8 f4 bd a0 0a c2 bd
       0.03713488 -0.051370077 -0.11946272 -0.09474683
000020 28 7b 1b 3d 39 fc 27 be 7f a6 b2 3d e0 02 92 3c
       0.037959248 -0.16404809 0.08723163 0.017823637
000030 95 5a 8d be 09 e7 2d 3e af ab 08 3d c3 fb 4d 3e
       -0.2760817 0.16982664 0.033366855 0.2011557
000040 8d 39 12 be a1 cf 04 3d 3f a4 92 bd 65 82 6e 3d
       -0.14279766 0.032424573 -0.07160234 0.058229823
000050 da 53 3a 3d 1c 09 99 3d 7c 2b 1a 3d 18 87 7d be
       0.045490123 0.074724406 0.037639126 -0.24758565
000060 c6 26 ba be 55 5b 29 bd 1e ae 09 3d 8a f1 15 bc
       -0.36357707 -0.041346867 0.033613317 -0.009151826
000070 2a 0e e1 bd b5 c5 81 be 71 0f 55 be 47 b0 41 3d
       -0.1098903 -0.2534615 -0.20806672 0.04728725
000080 0a f1 cb 3d 32 1b a2 bd 3e 95 3c be f1 cc 66 be
       0.09958084 -0.07915343 -0.18416306 -0.22539116
000090 31 a0 6f be 61 8e c6 3d 88 81 4c bd 41 f2 e4 3d
       -0.23400952 0.09695125 -0.049928218 0.11179019
0000a0 fb 02 6e be 4f 07 e6 3b b5 e2 a3 bd 5f 9f 8a 3d
       -0.23243324 0.007019914 -0.08002225 0.06768679
0000b0 58 04 55 3b 7e de 43 3d 5d 61 04 be 63 31 5b bd
       0.003250381 0.047819607 -0.12927766 -0.053513896
0000c0 f5 68 f0 3c cd 08 3b be 0a e3 11 bd 12 05 d8 bd
       0.029346922 -0.18265076 -0.035616912 -0.10547842
0000d0 60 fd 6f be 84 d3 18 be a9 27 75 be 0e b8 9a 3d
       -0.23436499 -0.14924437 -0.2394091 0.07554637
0000e0 a1 cb e1 3c 03 d7 b6 bb 3e aa 32 be 60 0b 1d 3e
       0.027562918 -0.0055798306 -0.17447755 0.1533637
0000f0 8c 16 73 3d 97 fd 08 bd ec 92 94 3d e9 a0 54 be
       0.059347674 -0.033444967 0.072545856 -0.20764507
000100 d6 98 63 3d d9 7a b0 bd ea 51 4e be 91 de 78 3c
       0.055565678 -0.08617181 -0.20148435 0.015189783
000110 a7 19 27 bc 5a 8b 7f bd 55 17 00 bd bf 9c d4 3d
       -0.010198987 -0.062388755 -0.03127225 0.103814594
000120 26 2f 5f be 77 83 04 3d 6e ee b7 3c 1a 62 6a be
       -0.2179533 0.032351937 0.02245256 -0.22888985
000130 b4 65 ef bc ca 3b d2 3c c8 68 21 be c5 74 3d 3d
       -0.0292233 0.025663275 -0.15762627 0.04625394
000140 fd 1e 0b bd a7 d2 4c be c1 40 9d bd 01 37 83 bd
       -0.0339651 -0.20002232 -0.076783665 -0.064069755
000150 24 f3 45 be 6e 25 01 be f5 3d 16 be 3d 48 16 3c
       -0.19331032 -0.12611935 -0.14672072 0.009172496
000160 a4 92 dc 3c 8a c6 c9 bd bb ab 3c be 4a 9a 28 3d
       0.026925392 -0.098523214 -0.18424885 0.041162767
000170 83 61 47 3d 0d 79 2d 3c 2c 9f 02 bc 68 92 39 be
       0.04867698 0.010587943 -0.00797252 -0.18122256
000180 3d 7b c0 3d 05 b7 97 3d 71 90 d7 bc 44 de ac ba
       0.09398506 0.07407955 -0.026313992 -0.0013188799
000190 11 5b 14 bd f5 fb 02 be a3 ce b4 be 0f 69 a5 3d
       -0.03621966 -0.12791426 -0.353139 0.08076679
0001a0 b0 11 7d 3c 6b b5 6c bd 7b cc c0 3d b0 58 91 3d
       0.015446112 -0.0577902 0.094140016 0.07096994
0001b0 58 fd bf be ac 3e 96 3c d4 99 c5 bd f5 de b7 3d
       -0.37497973 0.018340431 -0.09648481 0.089780726
0001c0 27 b9 13 be b6 81 6e bd 70 18 2a bd a5 b9 09 bd
       -0.14426099 -0.05822917 -0.04152721 -0.03362431
0001d0 6c 5d 89 3d f5 9c 16 bd 91 fd 47 bc 8b bb a7 3c
       0.06707272 -0.03677078 -0.012206451 0.02047517
0001e0 2b 1f 18 be d4 70 97 be bc c9 85 bd 90 b3 89 39
       -0.1485564 -0.2957827 -0.065326184 0.0002626446
0001f0 f7 70 04 3d 60 64 30 be ea 08 d7 bd 76 48 9e bb
       0.032334294 -0.1722579 -0.10499747 -0.0048304154
000200 86 5a d6 3d 64 b9 49 be 4d d9 51 be 13 72 0c bd
       0.10466485 -0.19699627 -0.2049305 -0.034288477
000210 28 fb fc bd ff e0 31 3d dd b8 ee bc 48 ff ba 3d
       -0.12352592 0.043427464 -0.029140884 0.09130722
000220 42 39 84 be 9d 38 86 3d 41 07 b5 bc 35 b4 94 bc
       -0.25824934 0.06553767 -0.022098185 -0.018152336
000230 ed 44 f2 ba a6 63 94 3c 45 1a 34 be a1 cd 0b 3c
       -0.0018483676 0.018113922 -0.17588146 0.0085329125
000240 d1 57 98 bc c9 84 5c be ad bb fe bd 21 77 fa bd
       -0.018596562 -0.21535029 -0.1243814 -0.12229753
000250 ed 3d 80 be 3a 29 0c be 5c 83 34 be fb e1 91 3d
       -0.25047246 -0.13687602 -0.17628235 0.071231805
000260 da 52 15 3d ea 59 41 bd f9 12 3b be 16 a2 d0 3d
       0.036455967 -0.04720489 -0.18268956 0.101871654
000270 db 56 9d 3d 16 8d ea bc 51 c6 fa 3c f6 d7 73 be
       0.07682582 -0.028631728 0.030612143 -0.23812851
000280 c6 c7 81 3c ca 84 45 be b8 b6 3e be 0f 27 81 3b
       0.01584233 -0.19288936 -0.18624389 0.0039414237
000290 28 3b f8 bb 09 2f d8 bd df bb 4a bd f0 8e 1d 3d
       -0.0075754113 -0.10555846 -0.049495574 0.038466394
0002a0 7f e1 31 be e7 09 01 3d 67 a5 c0 3d 4f 05 a7 be
       -0.17371176 0.031503584 0.09406548 -0.32621238
0002b0 76 81 4e bd c4 1e 97 3d ee 30 ee bd 30 1d df 3d
       -0.050416432 0.07378915 -0.11630426 0.10894239
0002c0 ba 91 ca bc 06 e1 40 be db a6 36 bd 1b 70 18 be
       -0.024727691 -0.1883584 -0.04459272 -0.14886515
0002d0 06 3c 7e be 8d 88 9d bd 0b 8b cb bd 27 eb ef 3b
       -0.24827585 -0.076920606 -0.0993863 0.0073217335
0002e0 36 0c 08 3d 37 16 e6 bd 4f e0 44 be a8 a7 c6 bc
       0.03321477 -0.11234706 -0.19226192 -0.024249867
0002f0 fc a4 4e 3d d9 6c 33 bc 8b fd 27 bb c4 00 1a be
       0.05045031 -0.010951244 -0.00256333 -0.15039355
000300 36 df c8 3d f5 82 58 be 3b c1 50 be 85 d3 71 bc
       0.09808199 -0.21143706 -0.20386212 -0.014759903
000310 c7 a9 fc bc 3b 46 68 bd 99 5e ff bc 4d 48 ee 3c
       -0.030842675 -0.056707602 -0.031173037 0.02908721
000320 89 42 7a be 1f 1b 90 3c f3 b4 17 3d 60 2f 11 bc
       -0.24439444 0.017591057 0.0370378 -0.008861393
000330 ce e9 c9 bc 4f ef a1 3d 9e 5f 29 be 7b f2 59 3d
       -0.02464762 0.079069726 -0.16540381 0.053209763
000340 99 97 48 bd 24 d1 53 be d5 09 ca bb c5 28 fe bd
       -0.0489727 -0.2068525 -0.006165723 -0.1241012
000350 fb 7b 68 be c3 1b 18 be c8 b7 b7 bd bb 88 9d 3c
       -0.22703545 -0.1485434 -0.089706 0.019230237
000360 d2 38 eb 3c 4f 29 db bd 27 9d 47 be 83 a5 02 3d
       0.028713617 -0.10701238 -0.19493543 0.031896126
000370 a0 95 9e 3d 24 8d 14 3d b7 a3 5e 3c b1 ac 4b be
       0.077433825 0.036267415 0.013588837 -0.19890095
000380 7f 89 9b 3d c6 04 3d 3d 66 db 85 be 02 8f 30 bd
       0.07594585 0.04614713 -0.2614395 -0.043105133
000390 fb 83 8b bd 93 7d f5 bd 98 75 c7 bd cf cb 0c 3e
       -0.06812283 -0.11986842 -0.09739226 0.13749622
0003a0 06 2f 7c be 4b cb 02 3d 42 b8 e7 3a 49 22 a7 3d
       -0.24627313 0.031932157 0.0017678814 0.08160836
0003b0 a6 3c 3a bd fd cd c1 3d f2 49 6f be 16 2e db 3d
       -0.045467995 0.09463117 -0.23368052 0.107021496
0003c0 fb 80 c8 bd dd 48 8a be 66 ee a0 bd 61 72 1a be
       -0.09790226 -0.27008715 -0.07857971 -0.15082695
0003d0 b0 7f c6 bd 86 6e bf bd 48 77 01 be 99 b3 82 bc
       -0.09692323 -0.093472525 -0.12643158 -0.01595478
0003e0 8c 2d 46 3c 39 06 22 be e8 31 83 be f2 ee 21 bd
       0.01209582 -0.15822686 -0.25624013 -0.039534517
0003f0 10 bb 31 3d 76 04 03 3d a5 c3 d7 ba 39 f5 83 be
       0.043391287 0.031986676 -0.0016461505 -0.25773028

model.8.bias f4 [16]
000000 ee fa 9a 3d 69 62 08 3d f8 a1 08 3e 42 0f 17 bd
       0.07567392 0.033296976 0.13343036 -0.036879785
000010 c5 6d 8a bd ab f9 6c bd 67 de b7 bd 65 0f 81 bd
       -0.06759218 -0.05785529 -0.08977967 -0.063017644
000020 36 1d 37 3e bf a7 d7 3d 90 51 e7 bd 09 a1 01 bd
       0.17882237 0.10530042 -0.11294854 -0.031647716
000030 01 9c 95 3d 45 1e 79 3d a1 6a bd bb 29 5f 51 3e
       0.07305146 0.060819883 -0.0057805334 0.20446457

model.9.weight f4 [16]
000000 db 1c 39 3f 25 99 68 3f 88 57 29 3f 72 08 f3 3e
       0.72309655 0.9085868 0.6614919 0.4746738
000010 a6 85 4c 3f d2 7d 57 3f ae 71 4b 3f c2 32 27 3f
       0.7989143 0.8417636 0.79470336 0.65311825
000020 c9 72 56 3f 84 a0 3e 3f 2d bb 10 3f 49 5e 15 3f
       0.837689 0.7446368 0.5653561 0.5834699
000030 34 ad 16 3f 6d 59 3e 3f ea 3e 29 3f 7e e0 39 3f
       0.58858037 0.743552 0.66111624 0.7260817

model.9.bias f4 [16]
000000 04 21 73 3f a4 a9 6a 3f 2f 2b 3c 3f 5f 39 52 3f
       0.9497225 0.916651 0.7350339 0.8211879
000010 93 c7 55 3f a8 21 62 3f 27 68 6f 3f 47 31 5b 3f
       0.8350765 0.88332605 0.935183 0.85622066
000020 99 ed 63 3f 4f ab 81 3f 9f e6 82 3f d3 d5 86 3f
       0.8903442 1.0130404 1.022663 1.0534004
000030 73 bb 43 3f 19 5f 4f 3f d7 2a 53 3f 31 90 3a 3f
       0.764579 0.8100448 0.82487243 0.7287627

model.9.running_mean f4 [16]
000000 72 2e 05 be dc ef 84 be 2b bb c4 bd 76 81 1d be
       -0.13005999 -0.25964248 -0.09606012 -0.15381417
000010 31 4e b4 be 81 15 a8 be 9a 0f af be b3 8d a6 be
       -0.35215905 -0.32828906 -0.3419159 -0.32529983
000020 45 67 b8 3d 5b e0 8e bb ea 22 77 be 0f 34 2d be
       0.09004072 -0.0043602413 -0.24134412 -0.1691439
000030 d0 e3 4c be 04 10 43 be 23 38 57 be 7d c8 96 bd
       -0.20008779 -0.19049078 -0.21017508 -0.07362459

model.9.running_var f4 [16]
000000 69 b1 4e 3f 81 44 99 3f 2a 6c 74 3f 22 7f 69 3f
       0.80739456 1.1974031 0.95477545 0.91209614
000010 63 44 9a 3f ff 0b 6b 3f b2 ef 83 3f 43 84 b5 3f
       1.205212 0.9181518 1.0307524 1.4180988
000020 80 39 9c 3e 03 a7 c9 3e 4c 4e 3f 3f ab 28 aa 3f
       0.3051262 0.39385232 0.74728847 1.3293661
000030 19 38 b2 3f df 99 8d 3f 29 5a 41 3f 90 79 94 3f
       1.392337 1.1062583 0.755282 1.1599598

model.12.weight f4 [1, 16]
000000 74 cd ba 3e de 51 b5 3e 86 7a ee 3e 90 50 ec 3e
       0.36484873 0.35414022 0.46577853 0.46155214
000010 dd 98 cd 3e ce 27 c2 3e 1e 33 bb 3e 1e 33 d6 3e
       0.40155688 0.37920994 0.36562437 0.41835874
000020 d6 f8 bc 3e 65 73 b5 3e bb 87 be 3e eb 2d ba 3e
       0.36908597 0.35439602 0.3721293 0.36363158
000030 83 c3 ee 3e 8e c2 d2 3e db cd db 3e e8 98 e6 3e
       0.4663354 0.41164058 0.42930493 0.45038533
