neuralnet/Hyperparameter sweeps/Hyperparameter sweep round 1/bike_volume_model_net_3layer_lr_0.00005000_batch_48_feat_20.pth (torch, 26957 bytes, 19 tensors)

model.0.weight f4 [64, 20]
00000000: 564a fc3d ca85 903d ffea 223d fe7d 3fbe
00000010: 195f 803c c325 71be efa7 5a3e 6665 e13d
00000020: 3f7a d1bd 787b 4dbe 425b f6bd 6c69 7ebc
00000030: 734d 65bd 1df4 db3d 6ec1 cf3d 324b 3bbe
00000040: 457d 2abd d937 f1bc 08cf 0f3b 4f20 71be
00000050: d8fa 12bd ff48 86bd d540 9f3d dec9 203e
00000060: 9f38 b6bd ee3d 08be dbb0 7bbe a503 053d
00000070: 4464 b83e eb59 3e3c 0261 e33d 95fb 823d
00000080: ca01 10be 7fd5 133e 2a61 5c3d 1cac 5e3d
00000090: 3013 793d 2086 cb3d 1bb6 c13b 4796 963c
000000a0: 82c2 51be 66c0 6c3d b54d 293c 742c 7e3e
000000b0: 2b0e 063e d883 8e3d edf8 6dbd 893f 28be
000000c0: 4522 c13c b81b c83c 5d88 f13d 2d3f 803d
000000d0: 4143 85be 7e34 103e 0f7b 57bd a3f6 ffbc
000000e0: f11f ebbd 9aa7 d9b8 ff67 043d f6fd 98bd
000000f0: 83de 643d 1da4 303e b6cf a3bd 3fb5 db3d
00000100: 4b8d fa3d 26aa 023d 424a e23d 2472 2fbd
00000110: 1b5c af3e ab91 ef3c f9f5 623d ba50 263c
00000120: b59a 103d 08e6 c5bd 43ca 113e fc98 84be
00000130: 44f9 34be 2b69 dfbd d572 01bd e30c 983c
00000140: c1f7 1e3c 7bfd 1c3d b046 9a3c 328f a1bd
00000150: 756d d33d 8f48 173d 7823 6dbd d1ea 10be
00000160: fa8e 383c ec5d 7f3e 8275 a03d 12d2 56be
00000170: abe2 613e b928 743e f6e1 3b3d 1dab 4ebe
00000180: e969 f53c afcd 143e 8d21 e93c 54f7 14be
00000190: 2fec 0a3e c683 dabd f4a6 ce3c c7a3 073e
000001a0: 7885 08be 7a5a 1abd 6793 8f3c bd1a 533e
000001b0: f1c5 edbd e685 aa3d 6d10 29be 72fd b13d
000001c0: 139a 09bd ecdb 3b3e fc8d ba3c a680 8abe
000001d0: 7ce9 b9bd 13b3 2cbe 6dd2 5e3e ede3 15be
000001e0: 9060 713d 9820 9dbe 7d3f 1f3e 1d2a 56bc
000001f0: 3298 0b3d 7217 a5bc def3 5abe f039 9e3d
00000200: 555f 003d 5ce7 08be 8771 d739 cecd 60bd
00000210: 0547 5dbd f20e cbbd 3ca2 51be 8ea9 c73d
00000220: 7698 113e abc5 ad3d 7897 5e3e 4acb e8bc
00000230: fa5a 5dbd 9778 c53d 1276 e73d fdcd a63d
00000240: 4789 88bd d301 13be 863c 0bbe 5d55 b5be
00000250: c31d 643a 8bec 1d3e 6199 2dbe 4b80 1c3d
00000260: 843b d8bd 81c2 5dbc 8bfb dfbd e47f 46be
00000270: e5ff 66bc 5e9f 22be e81c 3cbe 3e6f d73b
00000280: 463d b5bc 504c 29be b52e 593e 1295 e83d
00000290: 477d 5ebe f400 45be 6a00 7dbd 31d6 f7bd
000002a0: c470 883e 36fb 903d 5f4a d23d a76c 173e
000002b0: 89ac e9bd 981c 5bbe bad7 3bbe e962 163e
000002c0: f278 af3d 2cc4 baba 546a 0a3e b6c3 423e
000002d0: 61cf 943d 18f7 953d 72fe 6bbd fdd8 893d
000002e0: 9156 89bd 1a51 e8bd 6109 8b3d f616 2ebe
000002f0: c5a1 813e c82b 163d 4a4c 063e d28b dabd
00000300: afe4 bd3c b895 cdbc 1e3f ad3d 55a8 9bbe
00000310: fa5e 24be c64b 533e 988b 53be 4c31 55be
00000320: 7b55 0ebe 3c37 71bd 74ef 2a3e e81b 443e
00000330: 63ba 49be f135 7c3d a13f 23be ef64 bbbe
00000340: aac2 d73d 616f eb3d 98cd 183e e971 133e
00000350: e10b 40bc 11e5 bc3d 7cc9 c23a 7835 0fbe
00000360: a98d 0d3e 2de0 9d3d b751 413d 198d 35be
00000370: de39 2fbb b5ea fb3c 7c3c 443b cc88 3ebe
00000380: 598c f43d db76 31bd ec1a 903d fe48 33be
00000390: a3bb 06ba 04d0 1e3e ac97 653b 5073 01bc
000003a0: 7f6b 36bd 0a28 033e 04cc f1bd d19a 71bd
000003b0: 1c2c 99bd 29e0 8e3e 2cb2 913e 5a0a a7bd
000003c0: 4e1b 403d 2faa acbb ab76 82be 752e 2dbd
000003d0: ea56 363e fb0f 903d a641 80be 7735 4f3d
000003e0: e390 25bd 9ba1 2ebe 06b1 d63c 7ed8 193d
000003f0: 936a d2bd 1e05 d0bc 4807 d83d b68e 8dbc
0.12318866 0.07056768 0.03977489 -0.18700406 0.015670346 -0.23549561 0.21353124 0.11005668
-0.10228395 -0.20066631 -0.12029125 -0.015528064 -0.055982064 0.1073992 0.10144316 -0.18290403
-0.041623373 -0.029445576 0.0021943469 -0.23547481 -0.035883754 -0.06556892 0.077760376 0.15702006
-0.08897518 -0.13304874 -0.24579184 0.03247418 0.36013997 0.011618118 0.11102487 0.06395642
-0.14063182 0.14436911 0.0538036 0.054363355 0.060809314 0.09937692 0.0059116012 0.018382205
-0.20484355 0.057800673 0.010333468 0.24821645 0.13091342 0.06958741 -0.058098722 -0.16430487
0.023575911 0.02442728 0.11793587 0.0626205 -0.26027873 0.14082524 -0.052607592 -0.031245535
-0.11480702 -0.000103785846 0.03232574 -0.07470314 0.055876266 0.17250104 -0.07998602 0.10727929
0.12233981 0.031900547 0.1104932 -0.042833462 0.34249958 0.029244265 0.05541036 0.010151083
0.03530379 -0.096630156 0.14237313 -0.25897968 -0.17673212 -0.10908731 -0.031603653 0.018560832
0.009702624 0.038327675 0.018832535 -0.078886405 0.10323612 0.03693443 -0.057895154 -0.14152075
0.011264557 0.24938172 0.07834913 -0.20978573 0.22059123 0.2384366 0.04586979 -0.20182462
0.029957728 0.14531587 0.028458381 -0.14547473 0.1356666 -0.10669665 0.025226094 0.1324607
-0.13332164 -0.03768394 0.017526342 0.20615669 -0.1161002 0.0832632 -0.16510172 0.08690919
-0.033594202 0.18345612 0.022772782 -0.27051276 -0.09077737 -0.16865186 0.21759959 -0.14637728
0.05892998 -0.3068893 0.15551563 -0.013071564 0.03408069 -0.020152781 -0.2138209 0.077258945
0.031340916 -0.13369507 0.0004109258 -0.05488377 -0.054022808 -0.0991496 -0.20472044 0.09749137
0.14218315 0.08484968 0.21737468 -0.028417248 -0.05404184 0.09642141 0.11301817 0.08144758
-0.066668086 -0.14356165 -0.13597307 -0.3541669 0.00087019446 0.15422265 -0.1695304 0.038208287
-0.10558227 -0.013535143 -0.1093665 -0.19384724 -0.014099096 -0.15881106 -0.18370402 0.0065745404
-0.022123944 -0.16533017 0.21209224 0.11356558 -0.21727477 -0.19238645 -0.061767973 -0.12101401
0.26648533 0.07079165 0.102680914 0.14787541 -0.114098616 -0.21397626 -0.18344012 0.14686169
0.0856799 -0.0014249138 0.13517123 0.1901997 0.07266117 0.0732252 -0.057615705 0.0673084
-0.06705964 -0.11343594 0.06788898 -0.17000946 0.25318733 0.036662847 0.1311504 -0.106712
0.023180334 -0.025095806 0.08459304 -0.30401865 -0.16051856 0.20634374 -0.2065872 -0.20819587
-0.13899796 -0.058890566 0.16692907 0.1915127 -0.19700007 0.06157488 -0.15942241 -0.36600444
0.10535176 0.11495853 0.14922178 0.14398922 -0.011721582 0.092233784 0.0014861072 -0.1398524
0.1382357 0.07708774 0.04719707 -0.17729606 -0.0026737372 0.030751565 0.0029943278 -0.18606871
0.11940832 -0.04332624 0.07036385 -0.17508313 -0.00051396544 0.15509039 0.003503303 -0.007901028
-0.04453611 0.12808242 -0.11806491 -0.058985535 -0.07479116 0.27905396 0.28456247 -0.08156271
0.04690104 -0.005269311 -0.2548116 -0.042280633 0.17806593 0.07034298 -0.25050086 0.050588097
-0.040421378 -0.17053835 0.026207458 0.03755998 -0.10274234 -0.025393065 0.10548264 -0.017279964

model.0.bias f4 [64]
00000000: baf6 f1bd 68e1 193e f0b0 d9bd 128f 5d3e
00000010: 5369 19be 52cd 4fbe c713 5dbe f1a0 803d
00000020: 79e4 42bb 7205 dfbd 3c2e 4a3e 53d7 493e
00000030: 6e99 fb3d f085 08bd e511 c23d e0c7 103e
00000040: fa67 52be 1fa2 dbbd 3757 783d 89a4 aebc
00000050: 2091 51be 51b5 393d cd84 25be de46 5d3d
00000060: 0111 243d c7da 45bd 7aaa 43bd 6888 d6bd
00000070: 171c d73d bf3b 82bd 1684 47be cddc 0dbe
00000080: a86d af3d 089c 803d c9de f5bd f6f5 893d
00000090: 58ee 2bbe 2168 0d3e aa95 dd3d 380b 18be
000000a0: 4830 ebbd a8b9 143d b749 3cbd 05a4 edbc
000000b0: 67e0 363e 5e05 4b3e 3c6d 3b3e 862f 353e
000000c0: 2ce7 62bd 2bc4 0c3e 05a7 103e 26fc 53be
000000d0: 7efd 33be cf7d 673e 0bdf 923c 8d6c 493d
000000e0: 94f1 a0bd 670d 61be f754 4cbd b6e6 ae3d
000000f0: 2824 24be 1ea0 29be fc7d 643e b8ca 0d3e
-0.118146375 0.15027392 -0.10629451 0.21636608 -0.14981584 -0.20293167 -0.21589576 0.06280697
-0.002973823 -0.108897105 0.197442 0.19711046 0.12285124 -0.033330858 0.09476069 0.14138746
-0.20547476 -0.107242815 0.06063005 -0.02131869 -0.20465517 0.045338932 -0.1616394 0.054022662
0.04005528 -0.048304345 -0.04777 -0.10475236 0.105034046 -0.06359052 -0.1948398 -0.1385376
0.08565837 0.062797606 -0.120053835 0.067363665 -0.1679014 0.13809253 0.10819562 -0.1484803
-0.11483818 0.036309868 -0.045968737 -0.029008875 0.1785904 0.19826266 0.18303388 0.1769391
-0.055396244 0.13746707 0.14126213 -0.20701656 -0.17577168 0.22606586 0.01792862 0.049175788
-0.07858577 -0.21977769 -0.049885716 0.08540098 -0.16029418 -0.16564986 0.22313684 0.13846862

model.1.weight f4 [64]
00000000: 69ee 573f 2588 7b3f cf47 6a3f 57d6 673f
00000010: e21a 743f 520a 803f 2076 713f 5f2b 693f
00000020: bc61 833f 1d1c 6b3f 36be 6f3f 5857 7a3f
00000030: a7bb 6e3f 91c2 803f 15df 563f 0bcd 643f
00000040: 11a9 6f3f a3ee 683f ad27 603f 3ccf 823f
00000050: 2426 773f 263a 643f e230 573f a692 653f
00000060: 2114 683f cff6 473f 83fe 543f 8c49 663f
00000070: 6152 863f a213 533f 066b 733f 3add 713f
00000080: 943b 583f 4849 613f bc54 723f e9b5 713f
00000090: b240 563f 9967 5e3f 456a 683f 5723 853f
000000a0: c159 793f 13d5 7f3f 973a 633f 7369 733f
000000b0: 57d3 813f 9164 6f3f 0500 713f b043 673f
000000c0: 3c07 513f 6ff3 603f 606c 833f bff3 883f
000000d0: b520 7a3f 947e 733f 08b6 523f af05 6b3f
000000e0: 9d2d 843f f964 833f 41f6 673f c709 6e3f
000000f0: e9aa 853f ace7 4b3f de69 813f 2cf2 893f
0.8434816 0.98254615 0.9151582 0.9056143 0.9535352 1.000315 0.9432087 0.91081804
1.0264201 0.9183977 0.93649614 0.97789526 0.93255085 1.0059377 0.83934146 0.8937537
0.9361735 0.9098913 0.8756054 1.0219493 0.9654257 0.8915123 0.84058964 0.8967689
0.90655714 0.78110975 0.83200854 0.89955974 1.049389 0.8245183 0.9508518 0.9447819
0.8446591 0.88002443 0.94660544 0.944182 0.8369247 0.8687683 0.90787154 1.040141
0.9740258 0.999345 0.88761276 0.9508278 1.0142621 0.9351283 0.94140655 0.9033766
0.81651664 0.8787145 1.0267448 1.0699385 0.97706157 0.9511502 0.8230901 0.9180555
1.032642 1.026519 0.9061013 0.9298367 1.0442783 0.7965038 1.0110433 1.077703

model.1.bias f4 [64]
00000000: 359f 61be e507 d5be 7c80 18bf cb16 c8be
00000010: f7cf 61bd 7f86 f1bd eee9 d6be 87c0 46be
00000020: 0418 c3bd 21f8 f9be 6c40 b7be 10fe 8fbd
00000030: 9a99 b1be 0846 d5bd b333 0abf 17de f0be
00000040: fbbf 01bf 6c57 3cbe 0a73 e0be eb2f b1bd
00000050: b160 c6be d334 d9be befc bebe 04e9 c0be
00000060: 4645 f1be 8270 04bf f8f8 13bf a5f5 56be
00000070: d604 67be 6359 e6be daa5 25be 09d7 c8be
00000080: 1f3e dcbe 4b7b afbe 7f67 a3be 00cb d1be
00000090: c5cd 10bf 8c5c 12bf 3e9f 05bf b808 26be
000000a0: ad17 11bd db2f 5fbe 1b53 49bf 18d4 8dbe
000000b0: 1281 dabd ee43 5c3d 612b dbbe 28dd e6be
000000c0: 9dd3 d0be 7e34 00bf 02b4 b0be c128 1bbd
000000d0: b11c 28bf b9d6 efbc 5e9d 12bf 4681 53bd
000000e0: 371a 76be f9ea 9cbe 7bb4 1dbf 483b c3be
000000f0: c526 00be c8b8 0abf 60b5 dc3d 11fb 7abe
-0.22033389 -0.41607586 -0.5957105 -0.3907989 -0.05512997 -0.11793231 -0.4197535 -0.19409381
-0.09526065 -0.4882212 -0.35791337 -0.070308805 -0.346875 -0.10413748 -0.53985137 -0.4704444
-0.50683564 -0.18392724 -0.43837768 -0.08651718 -0.38745645 -0.42423114 -0.37302202 -0.37677777
-0.47123164 -0.51734173 -0.5780177 -0.20992143 -0.22560439 -0.44990072 -0.16176549 -0.3922656
-0.43016145 -0.34273753 -0.319149 -0.4097519 -0.5656398 -0.57172465 -0.5219611 -0.16214263
-0.03542297 -0.21795599 -0.78642434 -0.27700877 -0.106691495 0.05377572 -0.42806533 -0.45090604
-0.40786448 -0.50080097 -0.34512335 -0.037880663 -0.6566878 -0.029277192 -0.57271373 -0.051636957
-0.24033438 -0.3064802 -0.61603516 -0.38131166 -0.1251479 -0.54188204 0.10776782 -0.24509837

model.1.running_mean f4 [64]
00000000: 4e77 9bbd 40dd ce3e 72f6 123e 4e06 e83b
00000010: 2757 c4be 74be 93be e453 0fbf d68b a63e
00000020: 72d3 403e 620b 0bbf 0c8c a83e 348c 2abe
00000030: 3548 cb3d 44fc b0bd 1026 18bf c377 04bf
00000040: bc19 36bf 2a73 013e 9393 e5be e2fe 8d3e
00000050: 4bda acbe 2e50 4cbf 5b89 773e a0ef b0be
00000060: d088 a2be 0530 37bf 92b9 8bbf 805c 963e
00000070: 47d5 cf3c 3a62 3ebf e0e6 af3e 5ee0 5b3e
00000080: a9d1 d0be 1df0 de3e 1e1c f1be 2f56 cdbe
00000090: d6ee 68bf a2ec 4ebf a9ce 733e 3cde 2e3c
000000a0: d845 d43d 5ba7 f7be b501 a73d 5945 723e
000000b0: e625 9d3e bb81 db3e 1351 12be a7b8 bb3d
000000c0: 9f34 18bf 1690 21bf 413e e03c 0915 103e
000000d0: e31b 84bc 2cda 723e 7225 95bf 5e50 0f3f
000000e0: 96c2 f73d 4427 61be ce65 4fbf 9bcb 44bd
000000f0: 8d4b db3d e59a 79bf 82ef 1c3f 6b16 913e
-0.07591115 0.40403175 0.14351824 0.0070808297 -0.38347742 -0.28856242 -0.5598738 0.3252856
0.1883066 -0.54314244 0.32919347 -0.16655046 0.09925882 -0.08641866 -0.5943308 -0.5174524
-0.7113302 0.12641588 -0.44839153 0.27733523 -0.33760294 -0.79809844 0.2417349 -0.3455782
-0.31745005 -0.71557647 -1.0916007 0.29367447 0.025370253 -0.7436863 0.3435583 0.21472308
-0.40784958 0.43542567 -0.47091764 -0.40104815 -0.90989435 -0.80829823 0.23809303 0.010673102
0.10364884 -0.4836987 0.081546225 0.23659267 0.30692977 0.42872414 -0.1428874 0.09166079
-0.59455293 -0.6311048 0.027373435 0.14070524 -0.016126579 0.23716038 -1.1652052 0.55982006
0.12097661 -0.21987635 -0.81014717 -0.048045736 0.107077695 -0.97501975 0.6130296 0.28337416

model.1.running_var f4 [64]
00000000: 1283 a13d c0db ec3d f9d0 0a3e a289 783e
00000010: 9ffa 8b3e 061b 5c3e 18b0 703e 5ef4 d83e
00000020: ba57 e63d 7471 0c3e 6603 d83e cbc8 383e
00000030: dc54 223d 9239 5f3d 886b ea3e 505a e43e
00000040: 4a90 6c3e 0f82 a03d 1ff1 d53e 0f54 2a3d
00000050: f2ec fe3c 35d5 2f3f c8b1 6c3e b154 9e3e
00000060: c933 633e 8f0c 353f 7405 563f d37f b13e
00000070: b731 4b3d 2178 073f 7dd5 c13e 371f e13d
00000080: 9be5 c63e 720c 493e b090 613e 9277 dd3e
00000090: f8df 3b3f 9c69 1d3f 05d5 163e fc59 373d
000000a0: fb1d a23d 68c8 973e 496e 193d 2ab2 0f3f
000000b0: 03e2 db3d cb71 1f3e 791b a63e 84b3 d73d
000000c0: 2706 b53e 538c b53e e416 793d 197a e03d
000000d0: b491 383e 0379 3d3e 298b aa3f 3516 5f3e
000000e0: ce9b 2f3e 20f2 253d bc04 c33e 89c0 ac3e
000000f0: efbc 193e d64d 283f d4eb 363e 0dcf 083e
0.07886328 0.115653515 0.13556279 0.24271253 0.27339646 0.21494684 0.23504674 0.42373937
0.11247201 0.13715154 0.42190093 0.18045346 0.03963171 0.054498263 0.45785165 0.44600153
0.23101917 0.07837307 0.41785523 0.04158407 0.031118844 0.68684703 0.23114693 0.3092399
0.22187723 0.7072229 0.8360207 0.34667835 0.04960796 0.5291768 0.3785819 0.10992282
0.3884705 0.19633654 0.2202785 0.43255287 0.73388624 0.6148927 0.14729698 0.04476355
0.079158746 0.29645085 0.03745869 0.5613123 0.10736468 0.15570752 0.32442835 0.10532287
0.35356256 0.3545862 0.060812846 0.10960788 0.18024331 0.18503194 1.3323718 0.21785815
0.17149279 0.04051411 0.3808955 0.33740643 0.15013479 0.6574377 0.17863399 0.13360234

model.4.weight f4 [32, 64]
00000000: c402 8f3c 5eb0 883d 73aa bd3d 16e5 f23a
00000010: 0a6d 7fbd 9694 f4bc 1408 683d 9cc9 6fbc
00000020: d882 73bd 01f4 3d3b 7378 b9bd ed01 49bd
00000030: 41b6 74bb 24e0 033c 23c4 d63d ab40 153e
00000040: 2656 883c c8eb 97bb 626d e83d 6a2b 0a3e
00000050: 8d11 8dbc a92e 953d 435a 80bd 7308 0e3e
00000060: bf55 033e d1db e23d 8615 623d 204d bcbd
00000070: 43fe 86bd 2d22 6e3d 7298 92ba a156 e6bd
00000080: 30ed 453e f2cb 673d 00ad 943d cc5a 3e3d
00000090: 8889 093e 710b a93d 44e3 acbd 730a eabd
000000a0: 2248 ebbd 6fc3 8cbb 7a36 28bd 28cb 913d
000000b0: 78d6 12bd f14c c23c 3a30 9b3b 5169 6d3d
000000c0: d1b7 4cbb 0461 393d c7ba dabd 6971 d1bd
000000d0: 96c7 f33c 06f5 bbbc e0ea ec3d 4eb7 b53d
000000e0: 9b9d ad3d b0b9 e6bd 45d4 253d 9474 9b3d
000000f0: c4fc 00be 9210 153e 124c d53d 8a30 56bd
00000100: 6a04 51bd 1511 febd ed24 77bd 4ce4 1c3b
00000110: df8c 85bd c994 08bd 7d9a 6b3d b3f7 64bd
00000120: 6027 30be 8ad5 78bd 2bc3 f2bd 2528 23bc
00000130: d8b7 5a3c b929 b33c 65a9 0f3e bb97 013e
00000140: 17ad 3d3d 3438 6cbd 8207 103e 7f02 a63c
00000150: 32c7 d5bd 3331 ac3d 8f30 5ebb 2fc8 433e
00000160: 847e e83d c60c b03c 6f59 e23d 635f c7bb
00000170: 134f 2b3d 4420 fd3d 52a3 be3c 4145 8abd
00000180: 5491 df3d a34d 143b 68fe 723c 6303 3dbd
00000190: 9059 ab3d e84d 993d b941 67be c0f3 6d3d
000001a0: e15f 76bd 20d1 d4bb c4c7 8fbd ee32 c33d
000001b0: af91 603c a392 29bd bb81 553d 13fe 733b
000001c0: ebbb 08bc dedc 963c 14f9 18be 173c c3bd
000001d0: bf0c 08bc 118f 9bbd 2b38 0a3d 7a1b 08bc
000001e0: 1fb6 013e 957e d9bd 605b 11bd 6fc1 b53d
000001f0: 613c 99bd 4cf2 b73d af4f c93d b71d 9c3d
00000200: d886 28bd e5a2 893d 611c 993d ac1d 1e3c
00000210: 446c 94bd 5ccc eabd 07d8 b5bc eee9 243d
00000220: f8e0 563c 9115 8c3d 21da a13d feb2 39bd
00000230: df62 a93c ac02 13be d28f 853d 8a8d ff3c
00000240: 8e77 13bc a0b4 bfbc 9633 723d 29c8 c3bd
00000250: 2108 253d c570 07bd ef33 acbc 572b 613d
00000260: c81f 3d3d 5b3e 883d e00c 293d 6b74 133d
00000270: 0260 00be fff7 5a3d 51df 033d 0740 423d
00000280: b7ea 973d c5e3 e53c 87a4 54bd e24b 323c
00000290: b3d3 693d 3de4 273d 965d fc3d 8ac5 f7bd
000002a0: b570 cf3c 97db acbc 61d6 4c3e 50b4 dcbd
000002b0: b493 93bd 232d 9abc 9cb1 ce3c 100e cc3b
000002c0: 9dd7 d13c f3c3 3abc 597f ecbd f055 ecbd
000002d0: f1ef 8a3d 4901 9ebd e552 d83d 066f 133d
000002e0: ae10 84bd 0c60 21be ac2e a13d 69f3 fcbc
000002f0: 1016 acbd f9b0 d33d 5090 4c3d b3e3 f4bd
00000300: e398 3ebd 1376 27bd 842e cabd 6925 593c
00000310: b04e 36bc cdeb c6bc 11b9 69bd bebc 3dbd
00000320: 7943 063e a6e2 023e 174d 2f3d 2317 f4bc
00000330: e2c8 f43d b026 dabc 673d 053e 3db3 3ebc
00000340: 8e47 323e 6708 74bd 209b 71bc 5928 533d
00000350: d492 6b3d 03e7 363e 2004 88bd 74ab 93bc
00000360: 845c 6b3d f330 5f3d 1950 073e 797a 863b
00000370: e7fd 97bd 001d d13c 90e2 9d3d 19ec ddbc
00000380: badb d6bc 7b93 063c c2dc 5d3d db45 abbb
00000390: feb7 a53d 631c 303a 28bf 1d3c c779 74bd
000003a0: 53e8 453d b5bd 9fbb 63c9 283e 47f1 633b
000003b0: 655e 96bd 6761 8f3d a25a 0bbc 6fbf 573d
000003c0: ed93 8f3c 06f7 1c3e 084d 753d 4b8d babc
000003d0: eafc ca3c 9ff8 d23d 1fc5 873d b9db 85bd
000003e0: e1c4 a2bd 62e0 d53d 4115 9d3c 1edb 9e3d
000003f0: 982a c0bc 4e0a bc3c 6844 f5bc 1b0e a1bd
0.017457373 0.06674264 0.09261026 0.0018531408 -0.062359847 -0.029856008 0.05664833 -0.01463547
-0.059450954 0.002898455 -0.09056177 -0.049074102 -0.0037340077 0.008049045 0.10486629 0.1457545
0.016642641 -0.0046362616 0.11348988 0.13493124 -0.017220283 0.0728429 -0.06267216 0.1387041
0.12825678 0.11077083 0.055196308 -0.09194398 -0.06591465 0.05813806 -0.0011184348 -0.11246992
0.19328761 0.05659098 0.0725956 0.04647331 0.1343137 0.082541354 -0.08441785 -0.11427774
-0.114883676 -0.0042957584 -0.041067578 0.07118827 -0.035849065 0.02371833 0.0047359737 0.057961766
-0.0031237493 0.045258537 -0.10680156 -0.102267094 0.029758256 -0.022943985 0.11568236 0.08872853
0.084773265 -0.11265886 0.04048564 0.07590595 -0.12596422 0.14557102 0.104149 -0.052292384
-0.0510296 -0.12405602 -0.06033795 0.0023939786 -0.0652101 -0.033345018 0.05752038 -0.055900287
-0.1720252 -0.06075052 -0.118536316 -0.009958302 0.013349496 0.02187048 0.14029463 0.12655537
0.04630765 -0.057670787 0.14065364 0.020264862 -0.10438384 0.084078215 -0.0033903455 0.19119333
0.11352256 0.021490466 0.11052214 -0.006084369 0.041823458 0.1235967 0.023271237 -0.067514904
0.10916391 0.0022629283 0.014831163 -0.046145808 0.08366692 0.074855626 -0.22583665 0.058093786
-0.06015003 -0.006494656 -0.07020524 0.095311984 0.013706609 -0.04139961 0.052125674 0.0037230297
-0.008345584 0.018415865 -0.14938766 -0.095329456 -0.00830382 -0.07595647 0.033744972 -0.008307332
0.1266713 -0.10619847 -0.035487533 0.08874785 -0.074822195 0.08981761 0.098296516 0.07622855
-0.041144222 0.06720523 0.07476116 0.009650629 -0.072472125 -0.1146476 -0.022197736 0.040262155
0.01311516 0.06840051 0.07902933 -0.045336716 0.020677028 -0.14356488 0.06521572 0.03119542
-0.009000672 -0.023401558 0.059131227 -0.09559662 0.040290955 -0.03306653 -0.021020858 0.054972973
0.046172887 0.06652518 0.041272044 0.035999697 -0.12536624 0.053459164 0.032195393 0.047424342
0.07417815 0.02806271 -0.051914718 0.01088235 0.057086658 0.04098915 0.123225376 -0.120982245
0.025322298 -0.021100802 0.20003654 -0.107765794 -0.072059065 -0.018820351 0.025231175 0.0062272623
0.025615508 -0.011399257 -0.11547727 -0.11539829 0.067840464 -0.07715089 0.10562686 0.035994552
-0.06448494 -0.15759295 0.0787023 -0.030877786 -0.084026456 0.10336489 0.049942315 -0.11957493
-0.046532523 -0.04088409 -0.098721534 0.013253548 -0.011127159 -0.02428236 -0.05706126 -0.046322577
0.13111676 0.12781772 0.042798128 -0.029796189 0.11952378 -0.026629776 0.13011704 -0.011639413
0.17410108 -0.059578326 -0.014746457 0.05155215 0.057513073 0.17861561 -0.06641412 -0.018026091
0.057461277 0.05449004 0.13214149 0.0041039553 -0.07421475 0.025526524 0.07709229 -0.02709012
-0.02622782 0.008213873 0.05416561 -0.0052268333 0.08091734 0.0006718097 0.009628095 -0.05968645
0.048317265 -0.0048749098 0.16483073 0.0034781264 -0.07342223 0.07001 -0.008505495 0.0526728
0.017526591 0.15328607 0.059887916 -0.022772452 0.024778802 0.10301327 0.06629395 -0.065360494
-0.07947708 0.10443188 0.019175174 0.07756637 -0.02345781 0.022954132 -0.029939845 -0.078640185

model.4.bias f4 [32]
00000000: 9398 b13d e74f 16bd fc44 99bd c86b e83d
00000010: 4400 e23d 37dd 1a3d e5a3 8c3d 95d9 64bd
00000020: 4934 5abd 9142 c03d 43ff 9a3d 8e26 283c
00000030: 0e2d 883d fc10 183d fff3 fbbd bd1a a23d
00000040: 027a 35bd 4a13 e0bd f7fe aa3c 0968 1ebe
00000050: 79ee cebd 43de ddbd a9fe 99bb 1f6f 14bd
00000060: a02b 0b3e 7a64 6f3d b111 8a3d f35a 89bd
00000070: 513a df3c 8f25 3dbb 8df2 6cbd 7c5e 6abd
0.08671679 -0.036697295 -0.07483861 0.11348683 0.11035207 0.037808623 0.06867198 -0.055871565
-0.05327252 0.093876965 0.075682186 0.010263098 0.066492185 0.037125573 -0.12302398 0.07915256
-0.04430581 -0.10941179 0.02087353 -0.15469374 -0.10104079 -0.10833409 -0.0046995473 -0.036238786
0.1359086 0.05844543 0.067416556 -0.067068 0.027249487 -0.0028861498 -0.057848502 -0.057219014

model.5.weight f4 [32]
00000000: 658d 673f 99c2 793f 02fd 7a3f b183 803f
00000010: 8b4f 783f fd52 823f 1369 623f 81f1 823f
00000020: 56e8 5d3f fd26 853f ea48 713f 3e13 743f
00000030: 2750 7c3f 26f7 833f 93e6 803f 9c3d 7c3f
00000040: 952a 713f 5da1 6c3f 06f6 873f 59c7 743f
00000050: b42f 723f dddf 7d3f 1666 7d3f 1524 753f
00000060: 52b2 803f 2617 7d3f c792 643f 33c5 813f
00000070: f51f 7b3f ee6c 7b3f ec2f 683f 0d25 8b3f
0.90450126 0.9756256 0.9804231 1.0040189 0.9699637 1.0181576 0.8844158 1.0229951
0.8668264 1.0402523 0.94251883 0.9534186 0.985598 1.0309799 1.0070366 0.9853151
0.942056 0.9243372 1.0621955 0.9561668 0.9460404 0.99169713 0.98983896 0.9575818
1.0054419 0.98863447 0.89286464 1.0138305 0.9809564 0.9821309 0.9069812 1.0870682

model.5.bias f4 [32]
00000000: ab73 44be 7855 863c ab8f 05bf b8d1 23be
00000010: 37d4 52be d380 8fbe 8932 2abe 1096 8bbc
00000020: 2eba 21bf 6c26 1dbd 1525 81bd 12c1 e1bd
00000030: 1bc8 c4be 3d95 a43c 4fc3 b5bd 6677 f93c
00000040: b541 bfbd 914d d4bd 5a4d acbe 986c 2dbe
00000050: c817 afbe 069c 84bd 72cc 11ba e459 aebe
00000060: b5dc e7bd 75d9 233d 2a16 58bd 8b8a 00be
00000070: 4538 cebe 33d3 c1be 79f0 b6bd bc64 c2be
-0.19184749 0.016398177 -0.52172345 -0.1599797 -0.20588766 -0.28027973 -0.1662084 -0.017039329
-0.6317471 -0.03836672 -0.06305901 -0.11023153 -0.38433918 0.020090694 -0.08875143 0.030452441
-0.093387045 -0.10366357 -0.33652765 -0.16935956 -0.3419783 -0.064750716 -0.0005561776 -0.34052956
-0.113213934 0.040002305 -0.052755512 -0.1255285 -0.40277305 -0.37856445 -0.08932585 -0.3796748

model.5.running_mean f4 [32]
00000000: c053 82bd 0bc1 0fbe f44b bdbe 61c5 173e
00000010: b772 3b3e fe4f 98bd bfad 25bc 4c41 89be
00000020: 856d 9dbe c858 92be 0ef2 de3b 8610 acbe
00000030: aec8 0fbe d70b 443e f547 3c3d f046 123e
00000040: e29d 45be 510b 2a3e 6db6 6d3d 58dd 11bf
00000050: ca8a abbe 7055 c13c 7524 c23d fea1 b2bd
00000060: b674 2fbe 09aa 183e a43b 1cbe 2e43 c8be
00000070: 34ac 54be 93bb 2fbe 242e 6dbd 7b68 aebe
-0.0636363 -0.14038484 -0.3697201 0.14821388 0.18305479 -0.07437132 -0.010112225 -0.2680763
-0.3074762 -0.2858336 0.0068037575 -0.33606356 -0.14041397 0.19145142 0.04596706 0.14284873
-0.19298509 0.1660588 0.058035303 -0.5697837 -0.33504325 0.02360031 0.0947961 -0.08722304
-0.17134365 0.14908613 -0.15257126 -0.39113754 -0.20768815 -0.17161398 -0.05790533 -0.34064087

model.5.running_var f4 [32]
00000000: 171b 173f e34a 463f 869e 303e ecfd b63e
00000010: 36a5 963e 0af2 b33e aaa5 a03e 152f 0e3f
00000020: 5c1d 4b3e 3235 1e3f 4a00 283e df14 8e3e
00000030: d0ae 8e3e e9c2 183e 84c8 c13e bf18 403e
00000040: 4a76 ef3e 5748 1c3e e3d8 e73e d042 553e
00000050: a4f0 a13e 2466 b43e 2dc0 2b3e 8259 083f
00000060: db65 173e 16ac 833e d0c4 3a3e 15d0 8f3e
00000070: 624c a83e ac6e 723e 8264 d53e cd28 2e3e
0.5902571 0.7745802 0.17247972 0.35740602 0.2942292 0.351456 0.31376392 0.5554059
0.19835418 0.6179992 0.1640636 0.27750298 0.27867746 0.14918102 0.37848294 0.1875944
0.46769935 0.1526197 0.4528266 0.20826268 0.31628907 0.35234177 0.16772528 0.5326158
0.14784949 0.2571723 0.1823914 0.28088441 0.32870775 0.2367503 0.41678244 0.17007752

model.8.weight f4 [16, 32]
00000000: c888 fd3c f29e 343d 9810 a03d 16fa 293d
00000010: 7dbb 4e3d ffe0 90bc 6fad 723c 36f0 2b3c
00000020: 9287 8cbe 780a 00be 2b45 cdbc 12dc 353a
00000030: 1803 233d 6329 e2bd cf43 0cbd 4568 51be
00000040: 4fbe 3dbc ed1d d4bd 0bc7 0dbe 0ffb 203d
00000050: a4db eabc 5f09 8dbd 4190 953d 2a1c 07be
00000060: e9a5 55be 4849 6b3d 109e a7bd 43d9 55be
00000070: 3685 723d f3f3 d7bc df26 babe 92e8 ccb8
00000080: eec5 87be e217 84bd 89a6 48be e399 0cbd
00000090: cdec 5fbe effa 81be a7d7 003d 2f19 0ebe
000000a0: 5f1e 8fbd 72db 153d 1eaf 973d 7cbe ca3d
000000b0: ef7b fabd ece6 553d d4de 003e 5fc8 d53d
000000c0: 2508 a2bd facc 323b 680f 563d a97c bd3d
000000d0: 522c 04bd f462 613d 9123 b1bd 9948 b63c
000000e0: 0e78 8f3d 1bd4 ffbd fad9 663d 19f9 9e3d
000000f0: 8953 e7bd 74ea f1b8 bf6d b0bc 88b9 a9be
00000100: 4620 c7bd c216 d1bc 8683 87be 64ee 44be
00000110: 35e0 87be 8186 7fbe e2e0 413d 7d0e 32be
00000120: 5866 c5bd bbb2 943c 31c5 903d b77d f8bb
00000130: 7b16 40be c36c 853c bc6a 7fbd c26b c13d
00000140: e13d 283d 7e7d 9f3a f64b e1bc eb58 303d
00000150: 7962 d1bd a036 fd3d 7118 51be 3186 bf3d
00000160: 4ad6 f23d 7345 e3bc 67cf 843d e9f5 143d
00000170: e9b1 6ebe 317d 5e3c 3f32 8f3d 58b4 12be
00000180: 39c6 383d ca3b e63c a628 cdbd 9794 793d
00000190: 36be 633d 8f6c b33d c4e4 4fbe c8f2 d53d
000001a0: d8c4 6bbd 9da8 5f3c cfb9 8f3d 55f6 673d
000001b0: 1655 15be 1a02 22be 558b 8abe 389d 67be
000001c0: e55b 033d 2a49 b7bc 6b91 71bc 88a4 de3c
000001d0: 1189 50be 6c02 62be 0d4c bfbc b384 a93d
000001e0: 477d 483d b41d 423d 91d0 0ebd c1a8 2a3d
000001f0: 17ff 08be fd85 77be f9bf f5bc 259f 83bd
00000200: 83b6 07be c57d 65be e420 1ebe 5c0f a1bb
00000210: ca43 ccbd 3c4b 803a 2603 043c 11e0 33be
00000220: a6d3 b4bc d940 463d 8830 ef3d 2e87 4abe
00000230: d4d7 87bb a52b e63d 4c30 ca3d 0d41 db3d
00000240: 7175 0d3e 9f94 693d a734 253d 5458 85bd
00000250: 1a7a f43d e2c2 66bd 14cd c2bd 6b2f 76bc
00000260: bafd 093d ba63 f6bd 805c 9cbd 6f2e 683d
00000270: 6566 4bbd c709 7a3d 32eb c53c 404f 91be
00000280: f64a ab3d 3643 193d 506d 64ba 4420 39bd
00000290: 8fb8 043d 3ba0 8abd 785e 883d 8ab9 d13d
000002a0: 12cf 7cbd d1cd 60be 4ac4 bdbe 6eac 9abd
000002b0: 0e7e 993d fee6 07bd b5f0 9bbd 836e 85bb
000002c0: deb9 503d 2468 7bbd 028b 533d 67ef 34be
000002d0: a7e0 0bbc 05bf dc3d 3c67 5b3d 0cdc a8bd
000002e0: 3346 1bbd 9392 debb 507f 0b3e dbee c2be
000002f0: 4b0a 633c deb5 443a 0f49 f23c 34eb ca3d
00000300: 12bd 2f3d 49fb 34bd b93f 0e3b 9c9c 96bd
00000310: 6ad4 f83c 498f 943d 5401 65bc c6cb 923d
00000320: 1715 9dbd 750e c8be c49f ee3d 3895 2abd
00000330: 6c03 1c3c 6b79 dbbd ee74 a93d 8ce1 45be
00000340: 1a35 47bc 399e 38be 5cbb 44be 648a a3bd
00000350: 3a65 f13d 0c45 a2bd e685 0d3e 68ec a6be
00000360: 1026 38be e4db 463d afcf f33d f0b6 50be
00000370: e508 b53d f7e4 98bc 7134 27bc 7bee 0a3e
00000380: d9ef 67be 7512 a7be 1520 88be 1d24 fa3d
00000390: 7685 94bb 463f 54be 0e87 1dbd 8cdf 42be
000003a0: 401a 86bd 9d0d b13d 2126 d03b a093 10be
000003b0: 9635 b53c 7686 e93d a73e af3d acf7 873d
000003c0: e628 123e d791 a83d 887c a9bc 32c0 1bbe
000003d0: a871 fcbd 3587 b23d a3fa f0bd 3f98 25bd
000003e0: 2c87 dd3d 6a7a 45be fc22 17bc bc29 fb3d
000003f0: 8826 08bd f78e b9bd 94fb 3a3b 6dc3 24be
0.030949011 0.044096895 0.07815665 0.041498266 0.05047177 -0.017685411 0.014811858 0.0104942825
-0.27447182 -0.12503994 -0.025057396 0.0006937395 0.039797872 -0.1104305 -0.034244355 -0.20449932
-0.011581018 -0.103572704 -0.1384546 0.039301928 -0.028669186 -0.06886553 0.07302905 -0.13194337
-0.20864071 0.057442933 -0.08184445 -0.2088366 0.05920907 -0.026361441 -0.3635778 -9.7707976e-05
-0.26518196 -0.06449868 -0.19594778 -0.034326445 -0.21867676 -0.2538676 0.031455662 -0.13876794
-0.06988215 0.036586232 0.07406448 0.09899613 -0.1223067 0.052222177 0.12585002 0.104386084
-0.0791171 0.002728282 0.052260786 0.09252293 -0.03226883 0.05502601 -0.08649362 0.022251414
0.070053205 -0.12491628 0.056360222 0.07762355 -0.1129523 -0.00011535446 -0.021536706 -0.33149362
-0.097229525 -0.025523547 -0.26467532 -0.19231564 -0.26538244 -0.24953653 0.047333606 -0.1738834
-0.09638661 0.018151632 0.07068861 -0.0075833458 -0.18758576 0.016287213 -0.06235765 0.09444381
0.041074637 0.0012168137 -0.027502041 0.04305355 -0.1022386 0.123639345 -0.2041948 0.09351767
0.11857279 -0.027743077 0.06484871 0.03636733 -0.23310055 0.013579653 0.069920056 -0.14326608
0.045110915 0.028104682 -0.10017519 0.060932722 0.05560132 0.0876094 -0.20302111 0.104466975
-0.05756077 0.01365104 0.07017862 0.056631405 -0.14583239 -0.15821114 -0.27059427 -0.22618568
0.03207006 -0.022373755 -0.014744143 0.027178064 -0.20364787 -0.22071236 -0.023351694 0.082772635
0.0489476 0.04739161 -0.034866873 0.041664843 -0.13378559 -0.24172206 -0.029998766 -0.06426839
-0.13253216 -0.22411259 -0.15442234 -0.004915161 -0.09973867 0.0009788047 0.008057391 -0.17565943
-0.022073578 0.048401687 0.116791785 -0.1977813 -0.0041456018 0.11238793 0.09872493 0.10705767
0.13814332 0.0570265 0.040333416 -0.06510988 0.119373515 -0.0563382 -0.09511772 -0.015025954
0.033689238 -0.1203074 -0.076348305 0.056684908 -0.049658198 0.06104448 0.024160001 -0.28380775
0.08363907 0.037417613 -0.00087137986 -0.045196787 0.03240257 -0.06768843 0.066586435 0.10240467
-0.061720915 -0.21953513 -0.3706382 -0.075524196 0.07494746 -0.033179276 -0.076142706 -0.004072012
0.050958507 -0.061378613 0.05164624 -0.1766945 -0.008537448 0.107786216 0.05356525 -0.082450956
-0.037908744 -0.0067923754 0.13622785 -0.38072857 0.0138574345 0.0007503907 0.029575853 0.09908143
0.04290492 -0.044184957 0.0021705462 -0.073540896 0.030374724 0.07253892 -0.013977367 0.07167773
-0.07670038 -0.3907353 0.116515666 -0.041646212 0.0095223 -0.10716518 0.08274256 -0.1932432
-0.0121586565 -0.18029107 -0.19212097 -0.0798538 0.117868856 -0.07923326 0.1382061 -0.3260224
-0.1798327 0.048549548 0.11904847 -0.20382285 0.08839587 -0.018663866 -0.010205374 0.13567536
-0.22650088 -0.3263127 -0.26586977 0.12213919 -0.0045325113 -0.20727262 -0.038458876 -0.19030589
-0.065479755 0.08645175 0.0063522016 -0.14118814 0.022120278 0.114025995 0.08556872 0.066390365
0.14273414 0.08230942 -0.020689264 -0.15210035 -0.12326366 0.08717195 -0.11766555 -0.040428396
0.108167976 -0.19284979 -0.0092246495 0.122638196 -0.03323987 -0.090604715 0.00285313 -0.16090174

model.8.bias f4 [16]
00000000: ee26 fd3d 9896 8f3c caf8 e83d caab 22bd
00000010: 082f 8f3d 2d5e 093e 3817 2f3e 2d2a d7bd
00000020: f3c2 333e 1e35 c4bd ebe3 1dbd d417 a43c
00000030: 1218 21be 0b14 92bd 03a6 20be 31f7 643d
0.12360941 0.017527863 0.11375578 -0.039714612 0.069913924 0.13414831 0.17098701 -0.10506091
0.17554836 -0.09580444 -0.038547438 0.020030893 -0.15731838 -0.07132729 -0.15688328 0.055899803

model.9.weight f4 [16]
00000000: b20a 4f3f b571 563f c9f1 6a3f 7d8b 823f
00000010: 38e4 833f 1923 5a3f f04d 523f 908c 6b3f
00000020: 28f8 413f 1974 5d3f 88ec 673f 3f5b 583f
00000030: 1d5f 6d3f 2846 7c3f 60f8 4b3f 8f8d 5b3f
0.80875695 0.83767253 0.91775185 1.0198818 1.0304022 0.85209805 0.82150173 0.92011356
0.7576928 0.86505276 0.90595293 0.8451423 0.92723256 0.9854455 0.79675865 0.85762876

model.9.bias f4 [16]
00000000: 411c 5d3f 2718 4c3f 1dd5 713f 33f9 743f
00000010: 7ca6 593f 21b3 5f3f 0034 5b3f 217f 4f3f
00000020: 01c2 753f 62af 583f b960 4a3f ce02 5c3f
00000030: 2224 393f 1ee3 593f f83c 843f 4b86 453f
0.8637124 0.79724354 0.9446581 0.9569275 0.8501966 0.87382704 0.8562622 0.8105336
0.9599915 0.8464261 0.7905384 0.8594178 0.7232076 0.8511218 1.0331106 0.7715804

model.9.running_mean f4 [16]
00000000: 7e8f 96be 55ab 5bbd 81ca 1cbc c99f 88be
00000010: d89e cc3c e81b 16be c706 14be 0149 77be
00000020: 12b8 3ebe 823b 95be 746e 64be 2f20 c0bd
00000030: 801d 63be 06ed c8bd cd47 dcbe 6c16 5dbe
-0.2940635 -0.05363019 -0.009569765 -0.26684406 0.024978086 -0.14659083 -0.1445571 -0.24148943
-0.18624905 -0.29146963 -0.2230776 -0.093811385 -0.22179222 -0.09810834 -0.4302353 -0.21590585

model.9.running_var f4 [16]
00000000: 7860 7e3f 9eb2 113f 586b 263f 2911 403f
00000010: 7f38 db3e 6b20 2f3f 2a1d 823f e036 203f
00000020: 9f6e 863f ea15 fc3e c697 253f 7eab ca3e
00000030: 037d 5e3f 2531 1e3f e73b 8a3e 818b 823f
0.9936595 0.56913173 0.65007544 0.75026184 0.4281654 0.6840884 1.016515 0.6258373
1.0502509 0.4923547 0.6468471 0.39583963 0.869095 0.6179374 0.26998827 1.0198823

model.12.weight f4 [1, 16]
00000000: 20ff d53e 99ed 003f 26f8 de3e 13a6 db3e
00000010: 3433 df3e d859 c73e 2a79 d43e d56d f43e
00000020: e892 d13e d5f8 ff3e ad87 033f b677 f43e
00000030: ac70 cf3e 84f4 e73e d393 d63e fece 073f
0.41796207 0.50362545 0.43548697 0.42900142 0.43593752 0.38935733 0.4149869 0.47740045
0.40932393 0.4999453 0.513789 0.47747582 0.4051565 0.45303738 0.41909656 0.5305022
