neuralnet/Hyperparameter sweeps/Hyperparameter sweep round 1/bike_volume_model_net_2layer_lr_0.00005000_batch_64_feat_30.pth (torch, 13942 bytes, 13 tensors)

model.0.weight f4 [32, 30]
00000000: 055b 0ebe d797 6dbd e759 fabd a32c 15bd
00000010: 43c3 203e ae47 2d3d c019 22bb fa66 f53c
00000020: 26ba 0bbd bd0a 13bd 8871 133c e49b 243d
00000030: 672f 15be 83d8 b2bd 0ba3 32bd e9ff dc3d
00000040: f4a3 76be 124c 9c3d 5d76 5e3c 098b 75bd
00000050: a928 55be 4cc6 90be 5b6c 4a3e f9f7 0d3e
00000060: 765f 003e c769 47bb ef91 2ebd 289f 80bd
00000070: e8d3 9a3c eef6 0b3d cbd7 30bb 697f 1c3d
00000080: fa9d 85be f950 043d fb45 b63d 9a1a ca3d
00000090: c73f 5cbe 90c3 f5bc 6c1a 41bb 5e38 803c
000000a0: 88c4 373d e9f1 6a3c c542 fcbd d82f eabd
000000b0: bf5a f43d 9709 513b 7fd0 91bc c3b5 783c
000000c0: 25b7 c93c 7838 8b3d 1698 073d a1e3 ffbd
000000d0: c52c 643c a387 8ebc fb27 3fbd 7d50 193d
000000e0: fa50 403e 84df 0e3e 2e7f 1b3e b491 623d
000000f0: c4b4 98ba 8cf3 273d 224d 29be 3acd a83d
00000100: a2c9 d53d 1d56 c7bc 7a6d 023d 6811 cbbb
00000110: 9d4f af3d 6403 a9bd d7fb a03b 6c33 a53d
00000120: 898a 39bb be4e 42be 9042 b1bd 980e 4c3c
00000130: 1785 313d 98d5 a9bd fde9 0fbe 9c0b e4bd
00000140: 9043 313d 2932 d7bd 6bb3 29be d12f 11be
00000150: 26dd 2e3e c65d 45bd 2f20 003d 12c2 12bd
00000160: 4499 f3bc c127 fabc 62d3 56be ae91 99bd
00000170: c1c8 cf3c e79d 76be 7af2 323b faf5 1b3e
00000180: 8d58 c6bd 7f96 fdbd 12d1 853d 5ccc 793d
00000190: d56c 913d 8657 003e 2708 55bd 696b 9abd
000001a0: e6e6 0fbc fab3 953e 38ec 82bd 6550 963c
000001b0: 1d19 1b3d 49a2 163c 6493 d8bd 08c6 3bbe
000001c0: 91fb 1abd 24df 6ebd c898 af3d 55c0 983d
000001d0: 0192 04bd 2696 b13d 0f5a 3dbb 6c96 bcbd
000001e0: dd23 86be bf5f a1bd 3392 5b3e 53d5 633d
000001f0: 9db7 073e 7a4b 7ebe 9aa8 38be b896 633d
00000200: c584 3d3c 078e 62bd 8ccc 1b3d e59b ee3d
00000210: da20 cebd 75d0 6e3d dc65 b7bd 5bce fcbd
00000220: 9403 8b3c 5220 c5bd 2306 a03d eb57 1fbe
00000230: 0c53 58bc de24 e6bc f78e db3d 9fa8 893c
00000240: 6659 133d 730a 29bd c3de fcbd 6b17 023c
00000250: e620 403e eac5 073d 318d f4bd c84d bf3c
00000260: 3aa0 34bd e0dc df3c 11c6 ca3c c11f 483e
00000270: 164a 2dbe 0e2a c83d 6169 d73d 86af 373d
00000280: 8962 48bc f9c6 0e3e 7ec6 77bd f579 9bbd
00000290: ab0d 413d 20f3 58be 5d0a 4dbd 9954 5c3c
000002a0: 49e2 ff3c 6a65 0a3d 77fc 5cbd e3e9 fe3b
000002b0: 52ca 2c3e 5bc4 793c 5dd6 9a3c bd17 8e3d
000002c0: 7557 c83c 498c 82be 81db 9b3d 61e5 a1bd
000002d0: 7e4e febc f8a1 dabd 1c60 823d 8e8a 99be
000002e0: f15e 983d 96ae 33be e7f8 143e dc84 853d
000002f0: 4bf7 d63c 18b2 c03c 804b 0bbe d50c 6ebd
00000300: b2c9 a13d 662c 36bd de7c 693c 4eb6 3cbd
00000310: 7d03 36bd e94f 6ebd 5bb0 49bd 6279 93bd
00000320: 0f51 39bd 1e03 c73d 106d 1dbe 3dd5 f33b
00000330: 6809 3a3e f17c 1fbc 40b3 053e 1720 9fbc
00000340: c5ec 1bbd 6d88 803c 6dc4 1a3c 5c82 1c3e
00000350: d34a 293d 80da ebbb 9c6f 4e3d d942 80bd
00000360: 2d49 403e b89a 10bd 10e0 393e ac68 163e
00000370: 6378 c2bc 7ea3 01be cb95 c63d a47f 9e3d
00000380: 4599 e3bc 8e83 563e 5b45 a63d a8c0 963c
00000390: dddb f23b ec14 023d 33ef ecbc b0bf d13c
000003a0: 8e6a 0cbe 31b3 b3bd 2be9 a73d 8dd3 d9bd
000003b0: 29bb 54bc 92fb 4a3d 5038 eabd a9f8 a0bd
000003c0: 7664 3d3e 67a9 ed3c a197 8cbd 7d03 063d
000003d0: 2e69 993d 186a 0e3e a15b 1cbd 821b acbd
000003e0: feb3 bd3d d794 f0bd bfce 25be faa9 1c3e
000003f0: fa06 babd ce39 153d 2a3b c13b 2637 8a3d
-0.13901909 -0.058006134 -0.12224179 -0.036419522 0.15699486 0.042304687 -0.0024734586 0.02995633
-0.03411307 -0.035898913 0.008999236 0.04018773 -0.14568864 -0.087327026 -0.04361252 0.107909985
-0.2408598 0.07631697 0.013578025 -0.059947047 -0.20816292 -0.28276289 0.19767897 0.13864125
0.12536415 -0.0030428038 -0.042619642 -0.06280357 0.018899873 0.034171037 -0.0026984091 0.038207445
-0.2609709 0.032303784 0.089000665 0.09868355 -0.21508704 -0.030000478 -0.0029465212 0.015651878
0.04486516 0.014339902 -0.12317423 -0.11434907 0.11931371 0.0031896585 -0.017799614 0.015180054
0.024623463 0.0679788 0.033104025 -0.12494589 0.0139266895 -0.017398661 -0.046668988 0.037430275
0.1878089 0.13952452 0.15185234 0.055314735 -0.0011650552 0.04100375 -0.1653333 0.08242269
0.10438849 -0.024333054 0.031842686 -0.0061971433 0.08560107 -0.082526 0.004912834 0.080664486
-0.0028311333 -0.1897535 -0.08655274 0.012454651 0.043339815 -0.08292693 -0.14054103 -0.11135027
0.043277323 -0.10507614 -0.16572349 -0.14178397 0.17076549 -0.048185132 0.031280693 -0.03582961
-0.029736169 -0.030536534 -0.20979074 -0.07498489 0.025364282 -0.24083672 0.0027305172 0.15230551
-0.096848585 -0.123822205 0.065340176 0.060985908 0.07100836 0.12533388 -0.052009728 -0.07540018
-0.008783078 0.29238874 -0.063927114 0.018348882 0.037865747 0.009193965 -0.105749875 -0.18337262
-0.03783757 -0.058318272 0.085740626 0.074585594 -0.032365803 0.08671217 -0.002889279 -0.09208378
-0.26199237 -0.0787959 0.2144249 0.055623364 0.13253637 -0.2483348 -0.18033066 0.05556366
0.011567299 -0.05531123 0.038036868 0.11650828 -0.1006486 0.05830427 -0.08954975 -0.12344047
0.01696948 -0.09625305 0.078136705 -0.15560882 -0.013203394 -0.028093752 0.10720628 0.016804038
0.03597393 -0.04126973 -0.12347176 0.007940154 0.1876255 0.03314773 -0.119409926 0.023352519
-0.044098116 0.027327001 0.024752649 0.19543363 -0.16922793 0.09773646 0.10518146 0.044845127
-0.012230524 0.1394309 -0.06049203 -0.07591621 0.047132175 -0.21186495 -0.05005871 0.013447904
0.03123583 0.033788122 -0.053951707 0.0077793463 0.16874054 0.015244569 0.018901045 0.069381215
0.024455765 -0.25497654 0.076102264 -0.07905079 -0.031043287 -0.10675424 0.06365988 -0.2998852
0.07439984 -0.17547068 0.14548074 0.065194815 0.026240965 0.023522422 -0.1360302 -0.058117706
0.078997985 -0.044475935 0.014250962 -0.046072297 -0.04443692 -0.058181677 -0.04924045 -0.07200886
-0.04524332 0.097173914 -0.15373635 0.0074411915 0.1816765 -0.009734378 0.1305666 -0.019424481
-0.038067598 0.015690053 0.009446246 0.15284103 0.041331124 -0.007197678 0.050399408 -0.0626275
0.18777914 -0.0353038 0.1815188 0.14688367 -0.023739045 -0.12660024 0.096965395 0.07739189
-0.027783046 0.20948622 0.08118697 0.018402413 0.0074114637 0.031758234 -0.028922653 0.025604099
-0.13712522 -0.087744124 0.0819877 -0.10636053 -0.012984076 0.049556322 -0.11436522 -0.07859928
0.18495354 0.029011441 -0.068648584 0.03271817 0.074907646 0.13907659 -0.03817332 -0.08403684
0.092628464 -0.11747139 -0.16192149 0.15299216 -0.09083362 0.03643208 0.0058969455 0.067488

model.0.bias f4 [32]
00000000: 2516 9f3c e059 f53d 293d 91bd ae09 15be
00000010: 6d5a a0bc cec0 47bd d99c 3cbe cce0 40be
00000020: 6a63 953d 5852 bdbd b2f4 b1ba 64ee 8fbd
00000030: 2820 f23d fcd9 133e 1828 743c c146 093e
00000040: bdc9 00be a292 ddbd 45d2 ddbc 997f 22be
00000050: 01ec 3cbe 3e04 213e d42a 1abd 4acf 25be
00000060: f628 a9ba 56e3 4abd b8f3 923d a808 433e
00000070: 9b1d 623d d43e 7a3d 44f4 0bbd 20fd 23bd
0.019419739 0.11980033 -0.070917435 -0.14554474 -0.019574368 -0.048767857 -0.18419208 -0.18835753
0.07294352 -0.092442214 -0.0013576953 -0.07027891 0.118225396 0.14438623 0.014902137 0.13405897
-0.12576957 -0.108189836 -0.027077803 -0.15868987 -0.18449403 0.15724275 -0.0376385 -0.16192356
-0.0012905884 -0.04953321 0.07175392 0.19046271 0.055204015 0.061095074 -0.034168497 -0.04003632

model.1.weight f4 [32]
00000000: 5285 463f 8c73 653f 97d1 5f3f b65a 583f
00000010: e7b7 6f3f 446c 4d3f ec3f 4f3f 7c6f 503f
00000020: bc63 703f e4d5 463f 49f7 483f cfcb 603f
00000030: ce5d 553f 542e 533f 886d 413f 98eb 6b3f
00000040: 3af8 703f d68a 413f 2d46 583f 6b0f 623f
00000050: 4fd6 683f 0966 4e3f 0eeb 723f d3e2 613f
00000060: e111 783f 5df9 5d3f 8e92 4d3f 4bb1 5e3f
00000070: 424f 5d3f 8dc7 4c3f bece 493f 1384 793f
0.7754718 0.89629436 0.87429184 0.84513414 0.9363999 0.80243325 0.8095691 0.8142011
0.9390218 0.7767012 0.7850233 0.8781099 0.8334626 0.82492566 0.75557756 0.9215636
0.94128764 0.7560247 0.8448208 0.88304776 0.9095201 0.80624443 0.94889915 0.8823673
0.9690228 0.86708623 0.8030175 0.8698928 0.8644906 0.7999199 0.7883109 0.97467154

model.1.bias f4 [32]
00000000: d78e 21be a541 72be d2f8 89be 87a0 29bf
00000010: a391 49bd 514f d2be 2f9f 05bf 07e3 2cbf
00000020: cd1d 08bf 51ae 14be 39ba 0fbf 17f6 b4be
00000030: 0f42 7dbe e18b 35bf 3f18 13bd 78cf f3be
00000040: 454a 6cbe 7d3c 24bf d789 43bf 3269 18bf
00000050: 5e15 e8be fcc0 78be 3be8 c7be ef09 a8bd
00000060: a2f2 f7be d8b6 59be b338 d43d 5d53 1bbf
00000070: d335 d9be 2300 b23d d29e e9be c8da bbbe
-0.15777145 -0.23657854 -0.26947647 -0.6626057 -0.049211156 -0.4107614 -0.5219602 -0.67533916
-0.5317047 -0.14519621 -0.5614353 -0.35344002 -0.2473223 -0.70916563 -0.035911795 -0.47619224
-0.23075207 -0.641548 -0.763822 -0.59535515 -0.45328802 -0.24292368 -0.39044365 -0.0820502
-0.48427302 -0.21261156 0.10362377 -0.6067408 -0.42423877 0.08691432 -0.45628983 -0.36690354

model.1.running_mean f4 [32]
00000000: d2a3 ec3e b5a1 3dbe 76d6 95be 4df5 5cbe
00000010: b349 ba3e 4a53 e43d 7c82 17bf aa48 fdbe
00000020: 70ce b6be 82f1 de3d b621 f4be 3dd8 74be
00000030: 2643 8abd e4e7 ccbe 9cf0 30be 556d babe
00000040: 96ee d4be 2502 01bf bb7b 303d e50b edbd
00000050: a641 13bf 5b49 94be 4ad3 9cbe 1a3c 3a3e
00000060: 26d6 f43d a510 b1bd 328c 083f d38d dfbe
00000070: 0826 babe 7038 fd3e 51c3 6f3d a4e1 b6be
0.46218735 -0.18518718 -0.29265183 -0.2157795 0.36384353 0.11148699 -0.5918348 -0.494695
-0.35704374 0.10885908 -0.4768197 -0.23910613 -0.06751089 -0.40020669 -0.17279285 -0.3641154
-0.41588277 -0.503939 0.04308675 -0.11574534 -0.57522047 -0.28962216 -0.3062995 0.1818699
0.11954908 -0.08645753 0.5333892 -0.4366289 -0.3635714 0.4945712 0.058535878 -0.35719025

model.1.running_var f4 [32]
00000000: e42e ec3e 2d40 513e 9dce 073e 2c91 0d3e
00000010: 508e 973e 143b f23d eadc 0e3e 1f93 3e3e
00000020: b54a b13e baca bb3e 2e77 973e 396a c83d
00000030: 6882 f23d 373c a93e 089e 7e3e eace 6a3e
00000040: cee0 923e 9d38 a63e 3250 ec3d 952f 073e
00000050: a774 143e 49a6 c63e 7587 613e f809 de3e
00000060: 7032 313e 1bec 283e b4b6 ef3e 836d bc3e
00000070: 8229 5a3e c52d 113f 44b0 853e 7629 013e
0.46129525 0.20434637 0.1326241 0.1382491 0.29600763 0.118276745 0.1395146 0.1861081
0.3462731 0.36678106 0.29583114 0.09785885 0.11841279 0.33053753 0.24864972 0.22930494
0.28687137 0.32465068 0.115387335 0.13201745 0.14497624 0.3879874 0.22024329 0.4336698
0.17304397 0.16496317 0.4681908 0.368023 0.21304896 0.56710464 0.26111042 0.12613472

model.4.weight f4 [16, 32]
00000000: a6ad 6ebe 4b2b 6e3d 9f84 1c3d badd 443d
00000010: b71d 0cbc d283 353d 29c0 1bbd 2e3c b6be
00000020: 0a6b 993a 74eb 66bc a321 2f3d 9020 e5bd
00000030: f753 8dbc e1dc 1cbe ee86 753b a319 65bc
00000040: eeab 3f3d 4536 55bd 6a1f 0b3d 7d36 a93d
00000050: 4ee6 a73c 2b5d 9dbc 0eff b13c 2a17 82be
00000060: 6b73 bdbe 3ccc b53d 8e50 8b3d b54c cebd
00000070: 16fc c93b 2f95 3fbd 715c eb3c 4bb1 d03b
00000080: 39d0 433c fc6a e6bd d2dd 903d 59e6 a4be
00000090: 4e2c 153d 5fb0 c9bc a438 c63d 09c6 413d
000000a0: 8770 cabe 50c2 0b3d 1edc 54be 1277 923c
000000b0: 5e68 4c3d a086 06be 53ab a3bd afda 12be
000000c0: eede 5c3c 287d a3bd 1701 a3be 2bcc 69bd
000000d0: 832e 263e 4dea 363d f468 80bd fb70 253c
000000e0: 91c2 963c af24 d9bc 56d3 903c b8e0 0cbe
000000f0: b7c9 4ebe 4d48 1b3d 4049 6abd 8700 773d
00000100: f479 353c fd72 e03d fb11 44bd f53e 87bc
00000110: dd34 063d 8ac5 f03d 438c 8ebe c81a 1cbd
00000120: 6ed1 793c e3b2 873c b04f 41bd dc91 2ebb
00000130: 24cc 0c3c 2db6 52bd c9ac bfbc fae0 fabc
00000140: 6079 983c 090c 74bd 1a46 73be 2f10 c0be
00000150: 3213 92be 3c71 afbc 1cc6 513d 10a6 f63c
00000160: 90ad 703d 0ca4 0c3d 2c26 293c 48b5 5d3b
00000170: 69c0 35bc 6e01 11bc 8116 9538 6733 6dbe
00000180: d439 8a3c 34c1 acbd f7a1 5cbe b37e aebe
00000190: e8d6 023d 44f4 933d f05e 6a3d 4d55 c53c
000001a0: 5a6a a9be c86c c43c a8d1 fdbd 0029 933c
000001b0: d580 fd3c dd26 59bd fb1f 27bd ad04 06be
000001c0: 55dc 103d 821a 97bd 6af9 95be d176 83bd
000001d0: c63e 153e d930 0f3d d889 c3bc 7632 0cbb
000001e0: 94d3 c33c b9b2 3dbd 92e0 373a 5fa4 68bc
000001f0: d599 cebd 76bb cb3c 22d2 4dbd 0714 4c3d
00000200: f914 ad3c 37cd 843d 0d43 1e3d e8fc 56bd
00000210: 8b92 113d f124 ebbc f6f6 bb3c b38a 9bbd
00000220: a38a a3be 1e20 1a3d 3939 4ebe eee2 e03b
00000230: d5d1 24bd 226d 83be f074 b1bd 620a acbd
00000240: c51c 183d 18c4 2b3d f671 82bd 4844 70bd
00000250: 1b11 2f3e 9cec 873c 1f4b d0be f5e1 4d3c
00000260: 5098 733c 9266 5cbc 6cfd aebc a296 38be
00000270: 602a 40bb 2805 05bc 829d 88bc bb4e 7f3b
00000280: bcbf 063d 57d0 88bd a490 b9bd dde3 06be
00000290: 342b 443d d3a8 d8bc f0c7 08bd 5e01 543d
000002a0: 76e0 bd3d 2a14 b93c 4c8e 063d ee31 bdbc
000002b0: ebaa 913d 88b1 3c3d d787 293d 564f 55bc
000002c0: 58b6 2fbc 7247 39be 72f4 e8bd 382b bcbe
000002d0: 5303 1cbe f2fa 05be 1442 3b3d 8128 263d
000002e0: 0d6f 393d 049d edbc 34e7 0d3d cb27 943d
000002f0: 395b adbc cc17 173d b1bb 4bbe 615f d6bd
00000300: a835 1a3d 4c6b 3dbc 45c9 35be 8376 d0be
00000310: 9401 393d c12e 933c 9304 ebbc 41a5 fe3d
00000320: 277b 00be 1e7b 073d de95 eebd 2939 90ba
00000330: 92b7 9b3d bcd1 8c3c 2590 453d 5256 25be
00000340: d230 083d b368 16be cb59 b0be dbe2 9bbd
00000350: 2855 743d e35e 6fbc 54b4 35bd 70a2 cb3b
00000360: 2eda 213d c19a 32bd e823 be3c 3c4d 38bc
00000370: a909 c9bd bea3 283d 643c 0bbe 1c56 31bc
00000380: 2000 173d 7d54 3abc adb2 6d3d cc7e 633d
00000390: 6964 fcbd 268f 9c3c 6d0f d1bd ba7a ddbe
000003a0: e3b1 bb3b fc9c 76be 21f2 28bd 90a8 1f3c
000003b0: 8f7d f6bc 2e36 29be f96c 4d3d db3b 2f3c
000003c0: dab2 ac3d e307 a6bc 90a6 4c3d b858 bb3d
000003d0: 18a8 4a3b 0ff6 ad3c 83f3 08bc 7525 023d
000003e0: f5eb ebbe 2ea4 e53d ac08 d5bd cd62 cdbd
000003f0: a4ea 883d 348b 86bd 943e b23b c9e9 84bd
-0.23308429 0.058146756 0.038212415 0.048063017 -0.008552006 0.044315167 -0.038025055 -0.35592788
0.0011704874 -0.014094222 0.042756688 -0.111878514 -0.017251952 -0.15318634 0.0037464458 -0.013983163
0.046794824 -0.05205371 0.033965506 0.08262346 0.02049556 -0.019209465 0.021728065 -0.25408298
-0.3700212 0.08876845 0.06802474 -0.100732245 0.006164084 -0.046773132 0.028730603 0.006368791
0.0119515 -0.112508744 0.07073559 -0.3220699 0.036419205 -0.024620233 0.09678772 0.047308
-0.39538977 0.034120858 -0.20787093 0.017879043 0.04990422 -0.13137293 -0.07991662 -0.14341234
0.013480885 -0.07982856 -0.3183677 -0.057079475 0.1622868 0.04465704 -0.06270018 0.010097737
0.018403323 -0.02650675 0.017678898 -0.13757598 -0.20194136 0.03791075 -0.057198763 0.060303237
0.011076439 0.10959432 -0.04786871 -0.016509512 0.032765258 0.117564276 -0.27841386 -0.038111478
0.015247686 0.016564792 -0.047195137 -0.0026637232 0.008593593 -0.051443268 -0.02339782 -0.030624855
0.018612564 -0.05958179 -0.2375721 -0.37512347 -0.2853027 -0.021416299 0.051214322 0.030108482
0.058759272 0.034336135 0.010324042 0.0033829976 -0.011093237 -0.0088504385 7.109065e-05 -0.2316414
0.016873278 -0.08435288 -0.2154616 -0.3408104 0.03194323 0.07224324 0.057219446 0.024088526
-0.33088952 0.023977652 -0.123935044 0.017963886 0.030945221 -0.05301558 -0.040801983 -0.13087721
0.035366375 -0.07378103 -0.2929185 -0.06419147 0.14574727 0.034958694 -0.02386944 -0.0021392382
0.0239046 -0.04631302 0.00070143596 -0.014199345 -0.10087935 0.024869662 -0.050249226 0.049823787
0.021128165 0.06484454 0.038638163 -0.052487284 0.035540145 -0.028704138 0.022944909 -0.07594814
-0.3194171 0.037628286 -0.20139016 0.0068629896 -0.040239174 -0.256692 -0.08664882 -0.08400418
0.03713681 0.041935056 -0.063693926 -0.058658868 0.17096369 0.016592316 -0.40682313 0.012566079
0.014867857 -0.013452189 -0.021361075 -0.18026212 -0.0029322132 -0.008118905 -0.016676668 0.003895684
0.032897696 -0.06680363 -0.09060791 -0.1317286 0.047892764 -0.02644769 -0.0333938 0.051759116
0.09271328 0.022592623 0.03285055 -0.023095097 0.07112678 0.046067744 0.041389313 -0.013019403
-0.0107246265 -0.1809366 -0.11374749 -0.36751723 -0.15235643 -0.1308401 0.045717314 0.04056597
0.045271922 -0.029005535 0.03464432 0.072341524 -0.021161662 0.03688793 -0.19895817 -0.10467411
0.037648827 -0.011561226 -0.1775256 -0.40715417 0.04516752 0.01796663 -0.028688705 0.124338634
-0.12546979 0.033076398 -0.11649679 -0.0011003363 0.07603373 0.017189853 0.04823317 -0.1614621
0.033249684 -0.14688377 -0.34443507 -0.076116286 0.059651524 -0.014610025 -0.044361427 0.0062144324
0.039514713 -0.043604616 0.02321048 -0.011248883 -0.09816296 0.04117178 -0.13597256 -0.010823753
0.036865354 -0.011372683 0.058031727 0.055540845 -0.12323839 0.019111227 -0.1020802 -0.43257695
0.005727993 -0.24083322 -0.041246537 0.009744778 -0.030089168 -0.16524574 0.050152753 0.010695423
0.08432551 -0.020267433 0.049963534 0.09147781 0.0030922946 0.021235494 -0.008358839 0.031774003
-0.46078458 0.112129554 -0.10402045 -0.100286104 0.06685379 -0.0656952 0.005439589 -0.064899035

model.4.bias f4 [16]
00000000: 1f56 013e 867c cf3d 3239 0bbe b7d7 0c3e
00000010: d808 bbbd 7384 febd fe88 48be 5ab4 3a3e
00000020: df90 46be 25c8 7c3c 6178 37bc 0e57 5bbd
00000030: ca36 0cbc de26 863d ba0a 30bd a75e 2bbe
0.12630509 0.10131173 -0.13596037 0.13754164 -0.09132546 -0.124276064 -0.19583508 0.18232861
-0.19391201 0.015428578 -0.011198134 -0.05354982 -0.008557985 0.06550382 -0.04297898 -0.16735326

model.5.weight f4 [16]
00000000: bb0d b53f 2a07 ac3f 0086 a73f 5287 ae3f
00000010: 19f3 b33f 2fe8 b33f e14d bc3f 7729 a93f
00000020: 57db a73f 062b af3f 62f8 b13f a03d ac3f
00000030: 523c b93f d1bf ac3f 8347 b13f 7ac4 a93f
1.4144815 1.3439686 1.3087769 1.3635046 1.4058563 1.4055232 1.4711267 1.3215779
1.3113812 1.3685005 1.3903925 1.3456306 1.4471533 1.3496038 1.3849949 1.3263085

model.5.bias f4 [16]
00000000: 0a13 253f 8176 063f 0580 1d3f 9474 0e3f
00000010: b090 2c3f 4d33 e33e ac2d 1a3f 806f 133f
00000020: 54f8 123f 5bb9 153f 7947 393f 4289 363f
00000030: 3fa6 223f b17b 263f cd4f c23e 20fd 183f
0.64482176 0.5252457 0.6152347 0.55646634 0.67408276 0.44375077 0.6022594 0.5759201
0.5741017 0.58485955 0.72374684 0.7130319 0.6353492 0.6503249 0.37951508 0.5976124

model.5.running_mean f4 [16]
00000000: 3aa5 99bd 228c d7bd f125 8cbe b96d 7ebd
00000010: 4aaa a4be 4e29 73be 3a57 b4be 2344 15bd
00000020: d0dc 89be 7c5e 30be 26f5 7cbe 44cb b3be
00000030: 5796 85be 375f 1abe ec59 a3be acdc d2be
-0.075022176 -0.10524775 -0.27372697 -0.06211636 -0.3216117 -0.23746225 -0.352228 -0.036441933
-0.2692628 -0.17223543 -0.24702892 -0.35116017 -0.26091263 -0.15075384 -0.31904542 -0.41183984

model.5.running_var f4 [16]
00000000: ad97 d53d 3824 873e 5b05 e83d 9a8d 263e
00000010: ccf9 393e 8d70 c43d 1170 1e3e 6b79 063e
00000020: 04ec ba3d f530 233e 829b 583e 871c 063e
00000030: a0c6 9b3e 2ab9 0d3e 9227 263e 3c3b 1b3e
0.104293205 0.2639482 0.113291465 0.16264954 0.18161696 0.0959178 0.15472437 0.13132255
0.09127048 0.15936644 0.21153072 0.1309682 0.30424976 0.13840166 0.16226032 0.15159315

model.8.weight f4 [1, 16]
00000000: 9a0b de3e a5be 0d3f 3956 ff3e 3c7e 063f
00000010: e053 013f 43d1 073f 5e06 f23e 1199 ed3e
00000020: 4a99 0a3f 0957 043f 96c3 e93e 4de0 e13e
00000030: c842 f03e cddb fc3e ebbf 003f f53f fa3e
0.43368226 0.55369025 0.4987047 0.5253637 0.5051861 0.53053683 0.47270483 0.46405843
0.5414015 0.51695305 0.45657033 0.4411644 0.4692595 0.49386445 0.50292844 0.4887692
