neuralnet/Hyperparameter sweeps/Hyperparameter sweep round 1/bike_volume_model_net_2layer_lr_0.00005000_batch_48_feat_25.pth (torch, 13302 bytes, 13 tensors)

model.0.weight f4 [32, 25]
000000 ae 7e 69 3d 71 a5 b2 3d 8f 4e 48 be 0a 39 9c bd
       0.057005577 0.08722962 -0.19561218 -0.07628067
000010 fe da 8b bd f5 c6 90 3d 52 a5 26 3d fd c5 6d be
       -0.06828879 0.07069198 0.040685005 -0.23220058
000020 79 a2 1d 3e ab 2e 3c 3e f0 ca 2e 3e 46 34 97 3d
       0.1539401 0.18377177 0.17069602 0.07383017
000030 86 ac a9 3c ab 95 14 bd 7d d0 83 bd 16 12 e3 3c
       0.020712148 -0.036275547 -0.0643625 0.027718585
000040 0f 30 1d 3d 43 69 b7 bd 62 00 ac bd dc b2 04 be
       0.03837591 -0.08955624 -0.083985105 -0.12958854
000050 98 10 45 3d c8 25 fd bb 1b e4 0c 3e 62 aa 29 be
       0.04811153 -0.007725451 0.1375889 -0.16568902
000060 33 2c 22 bb a2 48 c5 be fd 6a f0 bd 9c 76 03 3e
       -0.0024745583 -0.38531977 -0.117391564 0.12838215
000070 0e 30 af 3d de 19 ad 3d 7d c3 63 3d 53 c1 af 3c
       0.085540876 0.084521994 0.055606354 0.021454489
000080 a1 05 3f 3e 07 d5 88 be 2f ec b2 bd d1 64 b4 3d
       0.18654491 -0.26725027 -0.08736455 0.08808292
000090 9b 64 7b 3c 9c cd 1a bc a8 69 b3 bc b1 e4 9e 3d
       0.01534381 -0.009448435 -0.021900967 0.07758463
0000a0 af 5a 0e 3e fd 4b e8 3d 5d 9b a7 bd 87 03 33 3e
       0.1390178 0.113426186 -0.0818393 0.17481814
0000b0 d5 f7 0d 3e 14 bc 1f bd 35 be ac 3d d1 80 d6 bd
       0.13864072 -0.038997725 0.084347166 -0.104737885
0000c0 e2 64 56 3d ae 71 da 3d 1e c7 d5 3a 11 ef a2 3c
       0.052342303 0.10666214 0.0016309952 0.019889386
0000d0 a2 51 87 bd a6 68 59 3c 6c 18 fe bd ab 18 28 bd
       -0.06607367 0.013269579 -0.12407002 -0.04103915
0000e0 17 86 9f 3d 59 25 90 3e 1f 5d 7e bd 32 b7 80 be
       0.077892475 0.28153494 -0.062100526 -0.25139767
0000f0 80 e0 fa 3d 4e 51 22 3e 93 82 08 3e a8 a6 80 3d
       0.12249851 0.15851328 0.1333106 0.06281787
000100 17 1d c1 3d 0f fa 5b bd 7a 17 92 3b 25 bc 9d 3d
       0.094293766 -0.05370527 0.004458365 0.07701901
000110 ed 47 47 be 45 75 34 3d ef 0b 05 be 82 d9 39 3e
       -0.19461031 0.04405715 -0.12992834 0.18149379
000120 f9 2a 1c 3e f0 6e 02 bd 89 f4 39 bd fb ad bb bd
       0.15250768 -0.03184408 -0.045399223 -0.091640435
000130 c8 68 0e be 9e 8c 67 3d d3 17 05 3e 38 e4 9e 3d
       -0.13907158 0.056530587 0.1299737 0.07758373
000140 e0 6b 36 3d ab 75 31 be bc b4 0a 3d c4 9a 07 3d
       0.04453647 -0.17330043 0.033863768 0.03310658
000150 cf d9 89 be 53 c1 b1 3d 1d 17 9d bd a1 e9 49 be
       -0.26923987 0.08679452 -0.07670424 -0.19718029
000160 58 ec 5e bd 94 5b 06 bd fe c5 89 bd 02 7f 89 be
       -0.054424614 -0.03280218 -0.06727217 -0.26854712
000170 42 2c ea bd 88 bd bc bd ea 4e ad 3c 8a af 2a bd
       -0.11434223 -0.09215838 0.021155793 -0.041671313
000180 48 41 36 3e 1b 02 01 3e 01 ca d5 bc 51 2d cd 3c
       0.1779834 0.1259846 -0.0260973 0.025046023
000190 90 c8 b2 bd 6f 8c cf bd 73 ce 1c bd 90 06 64 3e
       -0.087296605 -0.101342075 -0.038282823 0.22268128
0001a0 0c 65 eb bd 52 f9 16 3d fe 90 1f 3e 05 49 ad bd
       -0.114938825 0.036858864 0.15582654 -0.08461193
0001b0 48 ac dc bd ea e7 be 3d 47 99 92 3e 6a d8 1b be
       -0.107750475 0.09321578 0.28632566 -0.15219274
0001c0 f8 d4 1c 3d ba 6b b3 be f3 6d 0f 3d 2e 48 50 3d
       0.03828904 -0.35043126 0.035016965 0.050850086
0001d0 e6 5b 25 be 91 a7 82 3c e6 e9 6b 3d 2e 93 41 3d
       -0.16148338 0.015949043 0.05759611 0.047259502
0001e0 09 0a 14 3b ab 12 4d 3d 85 a7 e5 3c 7c 22 26 be
       0.002258899 0.05006663 0.028033981 -0.16224092
0001f0 d7 15 3c 3e d3 91 ac bd 70 bc 50 be 53 23 90 bd
       0.18367706 -0.08426251 -0.20384383 -0.070379876
000200 58 fc 93 3c 67 4b 87 bd 69 4e 1b be 31 b1 15 bd
       0.018064663 -0.06606179 -0.1516663 -0.036545936
000210 bb 01 1c 3e fd ae 51 be e2 84 95 bd fe d7 2e be
       0.15235035 -0.20476909 -0.07300736 -0.17074582
000220 17 43 b2 3d 3a a2 26 bd fc e0 4e 3d dc a0 cc bc
       0.087042026 -0.040682055 0.05050753 -0.024979047
000230 98 1f 9d 3d e7 34 a4 3b 91 19 14 3e 22 ba d1 3c
       0.07672042 0.0050111893 0.14462878 0.02560145
000240 32 e4 93 bd 81 de e9 bc f2 19 11 bd d7 9b c7 3c
       -0.07221259 -0.028548481 -0.035425134 0.024366302
000250 68 d3 6b 3e c4 f1 19 3e 0e bc 36 bd e4 9d 07 be
       0.23029864 0.15033633 -0.044612937 -0.13243824
000260 50 58 af bc 5d 14 0b 3d 65 df 00 3c b1 94 45 be
       -0.021404415 0.033954967 0.007865761 -0.19295003
000270 96 c2 55 be fb 84 ca 3d 25 f9 93 3d c3 f6 66 3d
       -0.2087501 0.09888645 0.07225255 0.056387674
000280 fb f6 05 bc 2a ee 33 bd e2 e2 a6 3c 5f 79 b2 3d
       -0.0081765605 -0.043928303 0.020371858 0.08714556
000290 b2 aa 17 3b d7 6a 41 be 7b b5 e9 bd 8a 8d 76 bd
       0.0023142514 -0.18888412 -0.11411568 -0.060193576
0002a0 e1 17 d6 bd 89 77 4c 3e d5 5d b8 3c c5 8f 3a bd
       -0.10453773 0.19967474 0.02250568 -0.045547266
0002b0 de 77 3e 3d 5e 26 c3 3d d6 92 20 3e c9 7d 50 be
       0.046501033 0.09528802 0.15681013 -0.20360483
0002c0 38 ac f9 bc 5b 8b 05 bc 8b 51 4d 3e 57 2a e1 3d
       -0.030477628 -0.008150901 0.20050637 0.10994404
0002d0 7f e6 cd 3c 8c 58 41 be 64 ee 52 be e6 91 5d bd
       0.025134323 -0.18881434 -0.20598751 -0.054094218
0002e0 ae cd 6f 3e b1 f9 03 3e d0 03 fa bd 10 8e 6f 3d
       0.23418304 0.12888218 -0.122077584 0.05848509
0002f0 a6 9d 74 3c 1b df 06 bd 5f 05 56 bc f6 52 0a be
       0.014930164 -0.032927614 -0.013062804 -0.1350821
000300 c6 80 a7 3d ed 3c 4a 3c ee fe 1b 3c 7e 5a b1 3d
       0.081788585 0.012343627 0.009521229 0.08659838
000310 15 24 14 3e cd ac cf 3d df b5 de bd 47 f2 3b 39
       0.14466889 0.10140381 -0.10874533 0.00017923965
000320 fc aa 4f be d7 0b 45 bc ee 32 65 bc 4d 58 04 3e
       -0.20280069 -0.012026749 -0.013989193 0.12924309
000330 fe 15 22 3d 3a 2c 45 bd 51 fa 84 bd 3d 18 7d 3e
       0.039571755 -0.04813788 -0.064930566 0.24716277
000340 d6 cd ba bd f6 92 7b 3c 18 12 20 be 80 67 b3 bd
       -0.09121291 0.015354862 -0.15631902 -0.087599754
000350 fd a5 1e bd a4 e4 8e bd 12 7c 82 be 8b b0 36 be
       -0.038732518 -0.069772035 -0.25485283 -0.17840783
000360 90 1a 3d bd ef 15 8b 3d 7c 29 f4 3c ad b2 0f bd
       -0.04616791 0.06791293 0.029804938 -0.035082508
000370 59 d9 11 3e e1 2a 4b be ff 09 92 bd 2d 02 f0 3d
       0.14243068 -0.19840576 -0.07130813 0.11719165
000380 0a e4 6b bd 39 4c 25 3d 82 f2 d9 bb 93 dc 66 bd
       -0.057590522 0.040355895 -0.0066512236 -0.0563627
000390 45 be 8a 3d 2d c4 0b 3e d6 f8 39 3e fb bf d9 bd
       0.06774572 0.13649054 0.1816133 -0.106323205
0003a0 df b1 30 be 7f 9b 1c 3e 65 a9 1b 3d 75 b9 e6 bc
       -0.17255352 0.15293692 0.038003344 -0.028164605
0003b0 35 5a 16 be 82 9a b1 3d c8 b8 07 be 90 3d 97 3c
       -0.14682849 0.08672048 -0.13254082 0.018461972
0003c0 08 ee 94 3e 0b 92 24 bc 9a 3a 11 3e 26 de 52 be
       0.29087853 -0.010044585 0.14182511 -0.20592555
0003d0 b6 d9 ca 3d 2f 08 dc 3d 30 b3 97 3d 32 8a f7 bd
       0.09904806 0.107437484 0.07407224 -0.120869055
0003e0 5a c5 30 3c 52 e6 7b 3e cb 3d d8 bc 64 fb 7f bd
       0.01078924 0.24599579 -0.026396653 -0.062495604
0003f0 1d cd c7 bd 19 e3 ba 3c 20 45 1b be 79 ff b5 bc
       -0.09755919 0.022813367 -0.15163088 -0.022216545

model.0.bias f4 [32]
000000 5f 83 a3 bd 68 31 4e be 82 02 33 3e 30 64 b4 ba
       -0.079840414 -0.20136034 0.17481425 -0.0013762768
000010 d3 e1 c0 bb 76 a6 b3 3d 66 55 10 be e2 c7 f7 3d
       -0.0058862953 0.08771984 -0.14095077 0.120986715
000020 aa 8d b4 bc 37 3f 47 be 6e e7 22 bd a1 c8 66 3d
       -0.022040207 -0.19457708 -0.03977149 0.05634368
000030 ef 0a f7 b9 89 58 d1 3d 69 e0 0f bc 60 5c a8 3d
       -0.00047119657 0.10221965 -0.008781531 0.08220744
000040 f1 57 0c be a7 64 16 bd c5 af 92 3d 73 83 8d bd
       -0.13705422 -0.036717083 0.07162432 -0.069098376
000050 db 0d fa bd 7c 73 22 3e d5 79 4f bd 33 72 0a be
       -0.12209674 0.15864366 -0.050653297 -0.13520126
000060 62 3c 2e 3e 51 25 02 be 5e 07 80 bd e9 29 93 bd
       0.17015222 -0.12709548 -0.06251405 -0.07185728
000070 27 9a 37 3e cb e7 41 3d ec 27 84 bb 52 e6 7e bd
       0.17929898 0.047340196 -0.0040330794 -0.06223137

model.1.weight f4 [32]
000000 91 1d 80 3f 68 e0 4e 3f e6 5d 65 3f 41 af 77 3f
       1.0009023 0.80811167 0.895964 0.9675179
000010 03 42 6e 3f 32 55 5f 3f 7d ec 42 3f a5 db 67 3f
       0.93069476 0.8723937 0.761421 0.90569526
000020 8c 39 50 3f 34 bc 77 3f d0 93 66 3f 4b 2c 52 3f
       0.8133781 0.9677155 0.90069294 0.82098836
000030 31 97 3e 3f c8 3c 8f 3f 91 5f 5f 3f f3 39 61 3f
       0.7444945 1.1190424 0.872552 0.8797905
000040 03 2c 55 3f 88 93 67 3f c1 2e 85 3f bf a4 64 3f
       0.8327028 0.9045949 1.0404893 0.8931388
000050 5a 3b 7e 3f 4d 11 54 3f 3b 13 62 3f dc 18 6c 3f
       0.99309313 0.828389 0.88310593 0.9222543
000060 80 22 5e 3f c8 bd 6e 3f e5 06 5d 3f f7 15 70 3f
       0.8677139 0.93258333 0.86338645 0.93783516
000070 80 05 5e 3f cd 4e 4b 3f 5b 8c 6e 3f 42 70 63 3f
       0.8672714 0.79417115 0.93182915 0.88843167

model.1.bias f4 [32]
000000 51 c0 0b bf a4 af 82 be c5 cb 04 bf 22 63 f3 bd
       -0.54590327 -0.25524628 -0.5187343 -0.118841425
000010 7a ab a6 bd d3 8b 2a be 3e f5 e0 be 90 80 41 bf
       -0.08138175 -0.16654901 -0.43937105 -0.75586796
000020 73 9a 84 be 3c c8 6c be fa 50 ea be 3d 5e ca be
       -0.25899085 -0.23123258 -0.45764905 -0.39525023
000030 ab 8e 17 bf ef 96 03 be 14 64 7b be 33 bc 1e bf
       -0.5920207 -0.12850545 -0.24549896 -0.6200592
000040 65 f3 bb be dd 27 c0 be af 3b 83 be 6f 83 1c bb
       -0.36709133 -0.37530413 -0.25631472 -0.0023882051
000050 70 c1 c1 be 8e 80 2e bf df 90 be be 35 c7 08 bf
       -0.37842894 -0.6816491 -0.37219903 -0.53428966
000060 f2 da a5 be a0 c9 7e be 45 7f 9f be 48 e8 ff be
       -0.32393605 -0.24881601 -0.31151786 -0.49981904
000070 55 3b 27 bf a1 a0 7b be df c4 cc be ff b0 79 be
       -0.6532491 -0.24572994 -0.3999395 -0.24383925

model.1.running_mean f4 [32]
000000 47 b7 22 bf 6c 82 49 3e ab b4 9e be 3b c1 3c be
       -0.6356091 0.19678658 -0.30997214 -0.18433087
000010 17 64 a3 3e c1 ea e6 3e 0f eb b8 3d 21 bf f7 3d
       0.319123 0.45100978 0.09029209 0.12097002
000020 d3 0c dd 3e 06 78 af bd 90 83 06 bd 11 bd ad be
       0.43173847 -0.085678145 -0.03284031 -0.3393331
000030 5f d0 45 be bc 99 35 3f e2 e9 23 3e 3b 1c 06 bf
       -0.19317769 0.70937705 0.16007188 -0.52386826
000040 75 f0 40 3e 26 ec 80 be 19 ef 7d 3e 5b 8e 96 be
       0.18841727 -0.25180167 0.2479824 -0.29405484
000050 a1 eb 70 be dc e8 b6 be 1a 42 8a 3d 68 12 d2 bc
       -0.23527385 -0.35724533 0.06750889 -0.025643542
000060 4b 0e d8 3e 67 c2 0a bf 80 f4 1d be be 6d 45 bf
       0.42198405 -0.54202884 -0.154253 -0.7712058
000070 06 af 0d be c9 eb 88 3d 66 44 83 3d d2 c5 ea 3e
       -0.13836297 0.066855974 0.0640953 0.4585405

model.1.running_var f4 [32]
000000 fb 03 91 3e 44 9e 70 3e 21 df 5b 3e 63 97 f4 3d
       0.2832335 0.23497874 0.21471836 0.11942937
000010 8d 60 e4 3e a5 89 a8 3e 24 b0 fd 3d 32 23 e7 3d
       0.44604912 0.32917514 0.12387112 0.1128601
000020 8d 8c bc 3e bf e8 1e 3f eb 57 cb 3d fc e8 80 3e
       0.36825982 0.6207389 0.099288784 0.25177753
000030 03 99 cc 3d cb 60 89 3e 1d a6 41 3d b1 eb a3 3e
       0.09990122 0.2683166 0.04727756 0.32015756
000040 86 70 94 3d 82 2d fb 3d 22 71 97 3e b4 82 14 3e
       0.07248025 0.12264539 0.295785 0.14502984
000050 c6 80 4b 3d 9b b8 2e 3e 5f 4d ca 3e e9 9b 10 3e
       0.049683355 0.17062609 0.39512154 0.14121975
000060 eb 6d 67 3d 83 c9 bf 3e 24 e9 1e 3e 71 ca 9a 3e
       0.05650131 0.3745843 0.15518624 0.30232576
000070 d1 f6 64 3e 38 aa 78 3e b4 cb a3 3e de 98 80 3e
       0.22359778 0.24283683 0.3199135 0.25116628

model.4.weight f4 [16, 32]
000000 cb 6c 6f be b7 3c 09 bd 96 83 3c 3d dc 32 49 3d
       -0.23381345 -0.033505168 0.046023928 0.04912077
000010 eb 7c 48 3d 94 94 e6 bc b7 25 bd bb e8 b1 35 be
       0.048947256 -0.02814702 -0.005772318 -0.17743647
000020 a4 60 87 3d 83 45 67 bd 0b 0b e9 bc 61 41 39 bc
       0.066102296 -0.056462776 -0.028447649 -0.011307091
000030 24 01 3a 3d 98 13 bb 3c a6 42 89 bc c4 58 a9 be
       0.045411244 0.022836491 -0.016755413 -0.33075535
000040 c9 a1 ab bc 85 16 23 bd 3e 6c 1f 3d b6 90 85 be
       -0.020951169 -0.0398164 0.038921587 -0.26086968
000050 48 c7 96 3c 53 65 2c 3d b1 cb 1c 3d ce 0b c8 bd
       0.018405572 0.042088818 0.038280193 -0.097678766
000060 c0 42 4c 3b cd 1c 22 3d 47 aa a6 3d 06 32 1d bd
       0.0031167716 0.039578248 0.081379466 -0.038377784
000070 17 3f ea bd 55 ad 80 bd 5d 64 bf bd c2 5c e8 bb
       -0.11437815 -0.062830605 -0.09345315 -0.0070911357
000080 c1 8c c0 be f1 40 75 bd 6f 18 94 3d c8 a4 b1 3d
       -0.37607387 -0.059876386 0.07231223 0.08674008
000090 1b 4c 3a ba 37 27 b7 3c af 97 1c bd fd e2 7f be
       -0.00071066775 0.022357566 -0.038230594 -0.24988933
0000a0 9e 6c 34 3d 7c 19 f1 3c 68 85 6d bd 7a a3 85 bd
       0.044048898 0.029431097 -0.057988554 -0.06525321
0000b0 13 3c 70 bc d1 3f e4 3c 3a 32 34 3c 84 eb b8 be
       -0.01466276 0.027862461 0.010998303 -0.36117184
0000c0 58 12 4e 3c f6 7d eb bd bc 3c be 3d 80 17 45 bb
       0.012577616 -0.114986345 0.09288928 -0.0030073822
0000d0 ea a2 82 bd 89 08 5f 3d bd 2e fd 3c 82 ef 8c ba
       -0.0637873 0.0544515 0.030906076 -0.0010752531
0000e0 cf 2d 01 3d 6a a4 8c 3d c3 86 33 3d 61 32 f0 bd
       0.031537827 0.06867297 0.04382969 -0.11728359
0000f0 ed 65 9e be 19 7f 75 3c 16 47 cd bd b0 0c 27 bc
       -0.30937138 0.014983916 -0.10023324 -0.010195896
000100 b1 7e 65 bd b5 03 bf 3d 12 e6 46 bd a0 37 46 3b
       -0.056029025 0.09326879 -0.048559256 0.0030245557
000110 c6 a4 32 3c ec 89 64 bc f7 6a 0a be 9d c3 0f 3d
       0.010903543 -0.013948899 -0.13517366 0.03509866
000120 3a 15 67 bd 57 b2 16 bf cd f4 2a 3d 10 f0 5b 3d
       -0.056416728 -0.58865875 0.041737366 0.05369574
000130 bd 1c 9a bd 5e 49 46 3c 96 0f 2a bc 9c e4 6c bd
       -0.07525013 0.012102453 -0.010379693 -0.057835206
000140 ac 21 9b 3d 05 73 48 3d 79 30 0d bc 65 d9 b9 bc
       0.07574782 0.048937816 -0.008617514 -0.02268667
000150 4d d2 cf 3a 47 ff 14 bd 10 fa 51 be d3 72 22 be
       0.0015855521 -0.036376264 -0.20505548 -0.15864114
000160 35 b3 aa 3d ac 0a 92 3c 66 f6 ae 3d 94 34 4d bc
       0.08334962 0.017827354 0.085430905 -0.012524743
000170 2d f8 d9 bd 32 af d3 bb 0e a5 f8 3d a8 e6 02 3d
       -0.10643039 -0.006460094 0.12140857 0.031958252
000180 a4 d5 9a bc 85 8a bf bd 80 4c d4 bd 04 0f 30 bc
       -0.0189007 -0.093525924 -0.10366154 -0.0107457675
000190 1a cd 31 3d 85 13 ad 3d 4a 1c 02 bd aa 59 f4 be
       0.04340849 0.08450989 -0.03176526 -0.47724658
0001a0 20 57 2c 3d aa a4 74 3c 27 14 69 bd 5d 7c 74 be
       0.042075276 0.014931837 -0.056903984 -0.23875566
0001b0 55 2d 8c 3c c5 8e 35 3d 56 5a ed 3c e0 26 e3 3c
       0.01711146 0.04432561 0.02897374 0.027728498
0001c0 db 4c 42 bc e6 35 34 bd f0 e6 0d 3e 3e c2 ba 3c
       -0.011859144 -0.043996714 0.13857627 0.0227977
0001d0 ae 17 09 be f2 a1 a4 be 9e dc 0c 3d 30 c5 4f 3d
       -0.1338794 -0.32154804 0.034390084 0.050725162
0001e0 98 f8 d0 bd 9c 8d 87 bd 66 c9 15 bd 00 2c 95 be
       -0.102036655 -0.06618807 -0.03656902 -0.29135132
0001f0 00 af ba bd 10 4f ce 3c 80 53 d1 bd 37 0c 94 3a
       -0.0911541 0.025184184 -0.102210045 0.0011295144
000200 c6 c1 6c 3d b6 84 10 3d 3f 1f a0 be 9b 05 a8 bc
       0.057801984 0.035282813 -0.3127384 -0.020510485
000210 3b d4 85 bc a0 85 5d 3d d5 c1 42 bd 4c bc 08 be
       -0.016336551 0.054082513 -0.047548134 -0.1335308
000220 6c 58 83 39 47 48 aa bc b2 02 97 bc d1 ea 72 bd
       0.00025052147 -0.020786418 -0.018433902 -0.05930597
000230 2f 86 79 be 85 09 1f 3d bf 51 9e 3b bd 21 82 3d
       -0.24367593 0.038827438 0.0048315222 0.06354091
000240 37 61 02 be cc 3b 38 be f9 c8 9e bc 1c 1c f2 3d
       -0.12732397 -0.1799156 -0.01938294 0.11821768
000250 5e cf 10 bd ed 2a 01 bf 1d 9c 02 3d 31 c2 02 3b
       -0.03535401 -0.50456125 0.031887162 0.0019952173
000260 fd bd a4 bd d0 1f 92 be 62 bb da 3c fc 44 67 3d
       -0.0804405 -0.28539896 0.02670068 0.056462273
000270 7e 2e 2c 3d 78 ca 3c 3d be 2a 84 bd 7c f8 76 3d
       0.042036526 0.046091527 -0.06453465 0.060295567
000280 c9 54 88 3d d5 75 d0 bd 12 de f2 bd 66 fa a9 bd
       0.066567965 -0.10178725 -0.11858763 -0.08299713
000290 20 79 b4 bc e3 65 76 3d 45 6a cf 3c 3c 62 36 be
       -0.022030413 0.06015576 0.025319228 -0.17810911
0002a0 5a 95 8c 3d df f3 a7 3c d4 24 1d be f0 55 7d be
       0.06864424 0.020502029 -0.1534608 -0.24739814
0002b0 41 5b f5 bd 18 03 ee 3c b5 64 8d bd 73 14 22 3d
       -0.11980296 0.02905421 -0.06903974 0.039570283
0002c0 c5 87 d0 bc 76 ff 34 be 78 22 e0 3c 78 65 6e 3d
       -0.025455365 -0.17675576 0.027360186 0.058202237
0002d0 79 75 4b be 06 e0 8c be 94 b2 d8 3c 4f f2 98 bb
       -0.19869031 -0.27514666 0.02645234 -0.0046675573
0002e0 77 2c 5d 3d ad a5 3b be ad fd 92 3d 5e 2b 91 3c
       0.053997483 -0.18324919 0.07177291 0.017720874
0002f0 ae 9c a3 3c b2 c6 67 3d dd e7 f4 bc 75 9d c8 3c
       0.019972172 0.056585975 -0.029895717 0.024489144
000300 1f b8 a5 bd c6 4d fe 3d 87 42 a5 3c 8a 08 bb bb
       -0.08091759 0.12417178 0.020173324 -0.005707805
000310 52 13 cd be e6 a3 39 bc 16 c8 e4 bd 37 a0 b4 3d
       -0.40053803 -0.01133058 -0.11170976 0.08819621
000320 a1 4a 93 bc c2 e6 f2 3c d2 c2 d6 3b c7 ce 0e bc
       -0.017979922 0.02965105 0.006553986 -0.008716292
000330 eb 7d 77 bd 63 3d 0c be 7d ce 6f 3d 46 30 01 be
       -0.06042282 -0.13695292 0.058546532 -0.12616071
000340 99 c3 13 3e 8e b9 6f 3d e3 2d 31 3d c0 60 60 bd
       0.14430083 0.058526568 0.04325665 -0.054779768
000350 0b cc 78 3a d3 46 34 bd 44 a9 6a bd 29 d2 91 be
       0.0009490854 -0.044012856 -0.05729033 -0.28480652
000360 82 95 56 bd 22 d1 db bc 89 cc 9f 3d 66 5b 2f bc
       -0.052388676 -0.02683312 0.07802684 -0.010702943
000370 39 35 a3 bd 27 ce ac bd 92 60 58 3e 5b 8b f9 bc
       -0.07969136 -0.08437758 0.21130589 -0.030461958
000380 08 25 a8 be ca cc 1f bd e3 aa ae 3c c7 83 b0 3c
       -0.32840753 -0.03901366 0.02132172 0.021547211
000390 c4 62 3d 3d b4 70 dc bc 07 62 35 3b 49 1d 0d be
       0.04623677 -0.02690921 0.0027676837 -0.13780703
0003a0 fc c9 08 bb 0e 28 8f bc 40 9f 7d be 85 40 79 3c
       -0.0020872345 -0.017475154 -0.2476778 0.015213137
0003b0 c7 d2 bc 3d 57 60 86 3d ca d9 e7 3d 0a 06 9a be
       0.0921989 0.06561344 0.11320837 -0.30082732
0003c0 0f 25 82 3d b5 7c aa ba 41 3a b4 3d 40 0d 1b be
       0.063547246 -0.0013007136 0.088001736 -0.15141773
0003d0 87 87 6e 3c fc ac e7 3c f0 56 01 3b 43 a3 b7 bd
       0.014558679 0.028280728 0.0019735657 -0.089666866
0003e0 77 e3 f7 3c 47 b0 d0 3c be 8b 60 3d 71 43 cb bc
       0.03025983 0.02547468 0.05482077 -0.024812432
0003f0 99 d0 c0 be 40 73 48 3d fe 9a f5 bc 3c 79 23 3d
       -0.37659147 0.048938036 -0.029981133 0.03991054

model.4.bias f4 [16]
000000 52 16 6d bd 7f 7d 32 be 8e a3 24 bc e8 30 76 bc
       -0.057882614 -0.17430685 -0.01004876 -0.015026309
000010 1d 78 2b bd a1 f9 cb 3d a7 f0 31 be a8 3d aa bd
       -0.041862596 0.09959722 -0.17376958 -0.08312541
000020 5b 73 28 be 50 87 23 be 66 0a 01 3e 6a 3b 81 3d
       -0.16450255 -0.15969586 0.12601623 0.063101605
000030 93 38 2a bc 4b 42 0d 3e 6c 74 20 3e 29 10 25 3e
       -0.010389465 0.1379482 0.15669411 0.16119446

model.5.weight f4 [16]
000000 e1 4e b8 3f 9a b2 a9 3f 64 e9 a8 3f c0 fa a2 3f
       1.4399072 1.325763 1.3196225 1.2732773
000010 82 6b a5 3f 0d 41 b2 3f 5f 37 a2 3f 8a e3 a0 3f
       1.2923434 1.3926102 1.2673148 1.256944
000020 f8 f4 ab 3f 93 66 9a 3f f2 f9 9f 3f 66 d6 9b 3f
       1.3434134 1.2062553 1.2498152 1.2174804
000030 c8 d2 ae 3f 4a 25 a0 3f e6 e2 a0 3f 89 82 90 3f
       1.3658075 1.251138 1.2569244 1.1289836

model.5.bias f4 [16]
000000 ab b7 2a 3f 2a a9 41 3f cd 29 0e 3f 8c c6 1c 3f
       0.66686505 0.7564875 0.5553253 0.6124046
000010 d8 0a 1a 3f e8 0f 2b 3f 14 05 17 3f 04 65 36 3f
       0.60172796 0.66821146 0.58992124 0.7124789
000020 8e 7d fd 3e c9 09 11 3f 2d ea 2f 3f 49 e4 08 3f
       0.49509853 0.56655556 0.687167 0.53473336
000030 7d 46 df 3e 7f ad 41 3f ff 1c 17 3f 62 d0 39 3f
       0.43608466 0.7565536 0.5902862 0.7258359

model.5.running_mean f4 [16]
000000 83 33 84 be 09 5c 9b be 25 ef 6a be 23 e7 72 be
       -0.2582055 -0.30343655 -0.22942789 -0.23720984
000010 d3 28 70 be e7 7c 12 be b6 5e cd be d8 b0 3a be
       -0.23453073 -0.14305459 -0.4011132 -0.18231523
000020 e6 a3 ca be 55 31 cc be d4 49 a2 bd 53 44 f4 bd
       -0.3957817 -0.39881387 -0.07924238 -0.11927094
000030 35 35 75 be c8 28 d9 bd 3a 6d 68 bd d0 87 c6 bd
       -0.23946078 -0.106034815 -0.05674479 -0.09693873

model.5.running_var f4 [16]
000000 d8 d4 1e 3e 9c 2c 26 3e fe 15 8b 3e 65 cc 70 3e
       0.15510881 0.16227955 0.27165216 0.2351547
000010 b8 ee 16 3e 17 2a 40 3e e8 fb af 3e df 93 52 3e
       0.14739501 0.18766056 0.34371877 0.20564221
000020 85 3c 6b 3e 7e 28 35 3e 54 fc c4 3e 44 85 70 3e
       0.22972305 0.17691228 0.3847376 0.23488337
000030 e9 d4 67 3e a0 32 ac 3d fa f1 46 3e f9 05 4f 3e
       0.22639813 0.084080935 0.19428244 0.20217122

model.8.weight f4 [1, 16]
000000 eb 5a f1 3e 75 f1 f4 3e 18 37 fa 3e c8 e0 04 3f
       0.47139677 0.47840467 0.48870158 0.5190549
000010 3c aa 06 3f 12 c9 e8 3e aa 87 e2 3e 8e fc fa 3e
       0.5260351 0.45465904 0.44244128 0.4902081
000020 bc 66 05 3f 5f 8f 12 3f a0 ec dc 3e 57 92 e1 3e
       0.52109885 0.57250017 0.4314928 0.4405696
000030 55 89 06 3f f6 57 db 3e d9 df e0 3e 09 58 f5 3e
       0.525533 0.42840546 0.43920782 0.47918728
