neuralnet/Hyperparameter sweeps/Hyperparameter sweep round 1/bike_volume_model_net_2layer_lr_0.00010000_batch_48_feat_30.pth (torch, 13942 bytes, 13 tensors)

model.0.weight f4 [32, 30]
000000 94 39 90 ba 71 fb 0f bc f4 2d c6 bc cd 55 51 3d
       -0.0011003488 -0.008787976 -0.024191834 0.051107217
000010 88 92 8e 3d 6e 28 3f 3e d0 d9 93 be 57 1e 1d be
       0.06961542 0.18667766 -0.28877115 -0.15343605
000020 f7 90 7f bd eb de b4 3d bb 2a 79 3e 4c 75 e3 bd
       -0.06239411 0.08831581 0.24332707 -0.11106357
000030 3f ce f3 bc 7f c7 02 bc 97 23 8f 3d 94 8d a1 bd
       -0.029761432 -0.007982134 0.0698921 -0.07888332
000040 4b 3b a3 bb f6 c3 cd bd 66 4e dc bd da d7 77 bc
       -0.0049814335 -0.10047142 -0.10757141 -0.015127147
000050 73 f3 04 3e 03 fd 0a 3d f7 33 4d bb c5 06 67 bc
       0.12983494 0.033932697 -0.003131149 -0.014100735
000060 77 a1 1f 3d 48 c6 ec bb 48 d3 b6 3c 21 53 3d be
       0.038972344 -0.0072257854 0.022317544 -0.18488742
000070 5c e4 71 3d 66 92 0f 3e a8 84 ea bc 65 89 16 3e
       0.05905567 0.1402069 -0.028627709 0.1470085
000080 14 30 9b bc 1f d1 d7 3d b9 78 0a bc 50 73 66 3c
       -0.018943824 0.105379336 -0.008451634 0.014065579
000090 f2 0b d3 3c 21 9a 7a bd 5f bd 09 3e cb bd dd bc
       0.025762532 -0.061182145 0.13451146 -0.02706804
0000a0 9b 5b ab bd 3d 8d 91 3d 51 16 32 3d 64 64 6d 3d
       -0.08367082 0.07107017 0.043478314 0.057957068
0000b0 9f c6 8c bd 5f af 97 3e d4 e0 b6 3d 96 82 c7 3d
       -0.068738215 0.29625985 0.08929601 0.09741704
0000c0 2f 4d d2 bd 6c 18 cb 3b 53 dd af bc 01 a0 08 be
       -0.10268628 0.0061979797 -0.02146784 -0.13342287
0000d0 51 64 8f be 1e b3 e0 bd 5e 2a a4 3d 87 3c ff bb
       -0.28006223 -0.10971664 0.080158934 -0.007789198
0000e0 24 d4 4a 3d 6f 31 0c 3d d1 31 16 be ab 2c 50 3c
       0.04951872 0.03422683 -0.14667441 0.012705962
0000f0 05 f1 9a bd 25 e9 f5 bd cf 21 04 be a3 33 cd bd
       -0.07565502 -0.120073594 -0.12903522 -0.100196145
000100 43 c2 07 3d b9 25 2d be 81 d4 82 3d c9 13 7f 3c
       0.033144247 -0.16908921 0.06388188 0.015568682
000110 a1 a4 e9 3d f3 9d d0 bd 03 7d b4 3b 7b 0b 51 3c
       0.114083536 -0.101863764 0.0055080666 0.012759085
000120 c6 9a a9 bb f2 20 9b be 12 76 c1 3d 0b d4 81 3e
       -0.005175921 -0.30298573 0.09446348 0.25357088
000130 b1 53 af 3c 90 2d 7d 3c 7a ea 1c 3e 39 7c 8e bd
       0.021402212 0.0154527575 0.1532382 -0.06957287
000140 6e de bc 3d 4e 53 af bd bd 7b 97 bd 0c d3 e6 bd
       0.092221126 -0.08560811 -0.07396648 -0.11270723
000150 24 2c 66 3e 3d 56 85 3d 7d a2 20 3e 88 0c 29 bd
       0.22477776 0.06510589 0.15686984 -0.041271716
000160 bb 9a fc bc a8 cf ee bd 6d f1 18 3b 19 86 03 3c
       -0.0308355 -0.11660701 0.002333726 0.008027577
000170 13 ed 1f 3d 78 85 cd be 26 7b 37 bc c3 5e 0e be
       0.03904445 -0.4014089 -0.0111987945 -0.13903336
000180 18 fc 64 3c a9 18 27 bd 03 5a e0 bd 7b 78 dd bd
       0.013976119 -0.040795002 -0.109546684 -0.108139955
000190 b8 67 ee bc c6 00 2e 3a 5d 4f 88 3b 08 75 68 3b
       -0.029102191 0.00066376885 0.0041598515 0.0035470147
0001a0 dd ab 7c 3d c4 e3 1f 3e 6c 23 7c 3d 47 9a b7 3d
       0.06168734 0.1561423 0.06155722 0.08964973
0001b0 c3 00 95 bd 92 39 14 bd 0a cd 42 3d 1c 08 bf 3c
       -0.07275536 -0.036187716 0.04755882 0.023319297
0001c0 86 d1 0d be c4 40 e5 bd 84 74 ea 3d 4e b0 2b bc
       -0.13849458 -0.11193994 0.11448005 -0.010479046
0001d0 ff c5 a3 bd 15 8a b2 3d 2c e4 40 be 0d be 5e be
       -0.07996749 0.08717743 -0.1883704 -0.21752186
0001e0 90 be 0f be 1c cf 4a bd d3 8a 5e 3c a8 f6 42 be
       -0.14037538 -0.04951392 0.013582903 -0.19039404
0001f0 e2 8e 5a 3d 77 3f 18 3d 6b 18 b3 bd e8 e3 2c be
       0.05335892 0.0371699 -0.08744892 -0.16883814
000200 9f 9a 9e bd e0 39 e6 3d 3f 3d e3 3d 61 69 39 3e
       -0.077443354 0.112415075 0.11095666 0.18106605
000210 cf 31 ed bc 6b d4 a2 3d 55 72 cd bd 24 8d b4 3d
       -0.028954415 0.07950672 -0.10031573 0.08815983
000220 5d c6 fd bd 98 a1 cc bd 10 00 92 bc 1e ed 70 bd
       -0.123913504 -0.09991759 -0.017822295 -0.058819883
000230 84 76 79 bd ce 97 e5 bd 5d 2e 7b bd 9a 3c c6 bc
       -0.06090404 -0.11210595 -0.061323512 -0.024198819
000240 c5 77 b5 3d 46 8a 9b bc f4 ff 40 3e 32 c1 24 3d
       0.08860735 -0.018986832 0.18847638 0.040223308
000250 87 f1 bd 3d 1b 34 40 3d 3e 2e d9 bd 49 68 7b bd
       0.09274583 0.04692469 -0.10604523 -0.06137875
000260 98 e5 81 3d 2f 74 f5 3d c3 75 67 bc 1d 47 15 bb
       0.0634262 0.11985051 -0.014127198 -0.0022777983
000270 1e f1 0f be ff 01 25 3c 7f 12 56 3d ed 63 55 bd
       -0.14056823 0.010071277 0.052263733 -0.05209725
000280 55 78 35 3e cd 02 a6 bd 23 24 e1 3b ca 65 1c bd
       0.17721684 -0.08106003 0.006870763 -0.03818301
000290 56 78 a0 bd 51 53 ec bd 0a 3e d6 bd d9 6b 53 3c
       -0.07835452 -0.11539329 -0.10461052 0.012904131
0002a0 95 67 b8 bd 7b 02 b3 be 63 b0 87 be 5e f5 0e bd
       -0.09004132 -0.3496283 -0.2650176 -0.03490197
0002b0 72 70 6f 3c a9 a4 e2 bc d8 fa 4a bb 0e d8 b5 3b
       0.014614211 -0.027666407 -0.0030972268 0.0055494374
0002c0 03 6c d6 bd c4 f6 ae 3d 50 7f 99 3d fa d9 e7 bd
       -0.1046982 0.085431606 0.07494986 -0.113208726
0002d0 7d a0 a6 3d 72 f1 ec 3c 77 37 5d 3e c5 a3 1e be
       0.081360795 0.028923724 0.2160319 -0.1549216
0002e0 0e 2d a2 3d 1c 78 b0 3d c3 35 a3 3c f6 06 31 bd
       0.0791875 0.08616659 0.019923097 -0.04321953
0002f0 c9 ad 81 3c e2 31 c4 3d 38 dd 65 bd f5 00 84 3e
       0.015829938 0.09579827 -0.056119174 0.2578198
000300 e2 33 d0 3c 68 ab ec 3d d5 36 2d bd de 7e bd 3c
       0.025415365 0.11556131 -0.04228862 0.023131784
000310 e2 74 d9 bc c8 de 08 bc 1d b7 a6 bd a5 aa 53 3d
       -0.026544992 -0.008353896 -0.08140395 0.05167641
000320 16 f7 e6 3d 5d ee 2a be 52 43 dd 3d 33 f5 1d 3e
       0.11277597 -0.16692491 0.10803856 0.15425567
000330 18 6a 5a 3d ce 10 64 bd 9a b6 47 bd 61 db ed 3b
       0.053323835 -0.05568009 -0.048758127 0.007258818
000340 02 42 8d 3d 0c df 07 be ef 37 36 3e 72 60 6b 3d
       0.068973556 -0.1326868 0.17794774 0.057465024
000350 e5 54 b5 3d 0d 9e 91 be f0 6b c2 bc 5f b5 e7 bd
       0.08854083 -0.28440896 -0.02373311 -0.11313891
000360 bd 84 15 3d 00 47 32 3e ef 09 f4 3c c9 7b af 3c
       0.036503542 0.17409897 0.029789893 0.02142133
000370 d1 83 eb bd 62 82 03 bd 1c ec 06 3e 87 2e 1b 3c
       -0.11499751 -0.032106765 0.13176006 0.009471542
000380 7c ae 9d bd 7f 6f 2f 3e f3 f6 11 3d c9 9c 6d 3d
       -0.07699296 0.17132376 0.0356359 0.05801085
000390 1f 68 fb bc 9f d9 d2 bc eb 55 10 3d ad b2 bf ba
       -0.030689297 -0.025738535 0.035238188 -0.0014625393
0003a0 5d 09 3c bd 0b 94 fb 3c b7 53 c9 3d 91 10 24 3c
       -0.045907367 0.03071024 0.098304205 0.010013715
0003b0 dc aa 51 3c 29 03 be 3d 56 1d 2d be a0 71 95 be
       0.012797084 0.092779465 -0.16905722 -0.29188251
0003c0 ff 1f a5 3d a3 3a e8 bd 12 75 c1 bd c6 8e 45 be
       0.080627434 -0.11339309 -0.094461575 -0.19292745
0003d0 8f f0 bc bd 54 ca 26 3e 1a c4 18 3e e6 27 ba bc
       -0.092255704 0.1628812 0.14918557 -0.022724103
0003e0 85 7b 62 bd 84 aa e8 bd 71 03 93 3d 0f d3 dd 3c
       -0.05529358 -0.11360648 0.07178391 0.02707818
0003f0 34 31 24 be f0 d3 0e 3d c0 a7 84 bd 81 de 21 be
       -0.16034395 0.034870088 -0.06477308 -0.15807535

model.0.bias f4 [32]
000000 ed 4a a9 3d 67 a7 90 bd d1 9a 14 be ca 86 6a bd
       0.08266244 -0.070631795 -0.14512183 -0.05725745
000010 b1 02 42 3e f1 43 e2 3d a8 9f 1b 3e 7e bb 09 3e
       0.18946339 0.11048115 0.15197623 0.13450429
000020 5f a2 1e 3e 12 49 15 be 41 b5 8c bd 40 a9 37 3d
       0.15491627 -0.14578655 -0.06870509 0.044839144
000030 e4 e3 b5 bd ee 79 25 be bf b3 b1 bd 60 c7 d6 bd
       -0.08881357 -0.16159794 -0.08676862 -0.104872465
000040 b6 0e 0a be ad c8 64 be ca 5d 12 be 49 bc 46 bc
       -0.13482174 -0.22342177 -0.1429359 -0.012129852
000050 a5 c7 b8 bd 2c 7b 1c bc ff 3b bb bd 6b fd c7 3d
       -0.09022454 -0.009550851 -0.09142303 0.097651325
000060 f1 0d 0f be 39 92 ae bd 92 8d de 3d 98 04 0d be
       -0.13970162 -0.085239835 0.10866846 -0.13771284
000070 45 ca 2f be 0c ea 6e bd b8 b8 76 bc 4a df c3 3a
       -0.17167003 -0.058328673 -0.015058689 0.0014943865

model.1.weight f4 [32]
000000 f0 be 4a 3f 03 08 50 3f 1b 3c 54 3f 92 f4 4c 3f
       0.791976 0.81262225 0.82904214 0.80060685
000010 cf 99 58 3f 1e f6 6e 3f 8c 64 26 3f 41 09 38 3f
       0.84609693 0.93344295 0.6499717 0.7188912
000020 e5 4a 5d 3f ff 67 6e 3f 8a 7b 40 3f d6 47 45 3f
       0.86442405 0.93127435 0.75188506 0.7706274
000030 60 76 4d 3f a5 79 49 3f 2b 7c 47 3f 10 8d 45 3f
       0.8025875 0.7870124 0.7792384 0.7716837
000040 bb 2f 4e 3f 58 84 58 3f b2 a7 83 3f ab 96 55 3f
       0.8054158 0.8457694 1.0285552 0.83433026
000050 3a 64 70 3f a1 34 54 3f 82 55 55 3f 0e b6 4d 3f
       0.93902934 0.82892805 0.833336 0.8035592
000060 c7 79 39 3f 4b 23 4a 3f 5a 29 29 3f 23 9d 66 3f
       0.7245144 0.789601 0.6607872 0.9008352
000070 a5 a9 58 3f e9 85 65 3f bd 52 50 3f 20 d6 51 3f
       0.84633857 0.89657456 0.8137625 0.81967354

model.1.bias f4 [32]
000000 df 21 8c bd 95 08 34 bf 06 a4 10 bf 0e 71 26 bf
       -0.06842398 -0.70325595 -0.5650028 -0.6501626
000010 9b c6 83 be a7 2e 94 be 88 b8 66 be 69 1b 3e bf
       -0.2573746 -0.28941843 -0.2253133 -0.74260575
000020 84 04 64 be 58 cb c5 be 81 10 d5 be 93 b3 ad be
       -0.22267348 -0.386317 -0.41614154 -0.33926067
000030 cc 70 5b bf 27 65 80 bf a0 ca 90 be 56 14 fc be
       -0.8571899 -1.0030869 -0.2827959 -0.49234265
000040 18 51 25 bf 54 ad 3e be 54 9f e1 be 4f 4f 08 bf
       -0.64576864 -0.18620807 -0.4406687 -0.53246015
000050 03 ed 0c be 3d c8 31 bf 10 bf 27 bf 17 fa dd be
       -0.13762288 -0.69446164 -0.65525913 -0.43354866
000060 d8 c1 2c bf 6a 2b bb be e7 f6 e8 bd 7a 4f c6 be
       -0.6748328 -0.3655656 -0.11375218 -0.3873251
000070 69 bc 6b be cf 2f 01 bf cc 0c 28 bf c5 b9 16 bf
       -0.23021092 -0.50463575 -0.65644526 -0.5887721

model.1.running_mean f4 [32]
000000 db fb b0 3e fa 7e 9f 3c 63 23 0a bf 4a d9 d1 be
       0.3456715 0.019469727 -0.53960246 -0.4098609
000010 76 4f 1c 3e ee 0a c8 3e a8 1c 60 3e 19 bb 3a be
       0.15264687 0.3907084 0.21885931 -0.18235435
000020 13 b3 3f 3d 20 19 56 be f4 a3 9c be 63 8b 15 3e
       0.046801638 -0.20908022 -0.30593836 0.14603953
000030 0d 1a 9f be a0 f1 5e 3e e6 2d ab 3c 1f f9 95 be
       -0.31074563 0.2177186 0.02089591 -0.29291627
000040 ce 24 6b 3d 17 f6 69 be e0 f7 b0 3e 3c a1 68 3d
       0.057408147 -0.22847782 0.34564114 0.05679439
000050 02 19 fc bd 46 e1 4f be 16 71 07 bd c8 7f 99 bd
       -0.12309457 -0.20300779 -0.03306683 -0.074950755
000060 3d 77 f0 3d f7 04 2d 3d 2c 13 06 bd b8 ac 21 3c
       0.11741493 0.042241063 -0.032733127 0.0098678395
000070 8f 5d b7 bd c5 ce dd be 90 d6 f3 bd 3e 25 89 be
       -0.08953392 -0.43321815 -0.11906159 -0.26786226

model.1.running_var f4 [32]
000000 94 52 47 3e bb f8 1f 3e fd 46 92 3e c0 65 09 3f
       0.19465095 0.15622227 0.28569785 0.53670883
000010 b5 57 9d 3d cb a6 57 3e a9 97 a3 3d 45 67 9d 3e
       0.076827444 0.2105972 0.07987911 0.3074285
000020 7b 9a bf 3d 2e b3 12 3e 34 77 a4 3e 26 c1 07 3e
       0.09355637 0.14326164 0.32122195 0.13257274
000030 d5 30 7a 3e ed 0f 0f 3e dc b0 4b 3e 55 6d c3 3e
       0.2443269 0.13970919 0.19891685 0.3816935
000040 32 18 49 3e 08 d3 75 3e ae b0 10 3e 90 d9 cf 3d
       0.19638136 0.24006283 0.14129898 0.10148919
000050 f0 7e 12 3e d6 2b 3b 3e 91 aa 95 3e f6 0c a1 3d
       0.14306235 0.18278441 0.29231694 0.078638
000060 c3 8e 33 3e b6 90 19 3d 13 d3 ee 3d 0c ab e3 3d
       0.17534928 0.037491523 0.11661353 0.11116609
000070 1b 5c 89 3e 6c 40 56 3e 03 d9 66 3e ee e6 c8 3d
       0.26828083 0.20923012 0.22543721 0.09809671

model.4.weight f4 [16, 32]
000000 1f 5d 29 bd d8 ca a2 be a7 82 b5 be 18 0c 03 3e
       -0.041348573 -0.31795382 -0.35451242 0.12797582
000010 48 7c 79 bd a7 9c 1e bc 4c 96 b5 3b 96 90 62 be
       -0.06090954 -0.0096809035 0.0055415984 -0.22125468
000020 ae 2f 97 3c 78 68 03 3d ff b9 1b 3d 86 81 b8 3c
       0.018455353 0.03208205 0.038019177 0.0225227
000030 08 67 95 bd 7e 49 d4 be 2d be 05 bc fd c4 e8 3b
       -0.07295042 -0.4146232 -0.008163017 0.007103561
000040 b3 d4 01 bd ad ec 28 bd 64 74 03 3a 2c b5 0f 3d
       -0.031696986 -0.041241337 0.0005014597 0.03508489
000050 60 2e 36 be a8 3c 7b be 0c 6d 86 3c d1 81 17 3d
       -0.17791128 -0.24534857 0.01640942 0.036989037
000060 0e a6 9e bd cf 2b 2e 3e fe b2 b1 3b a8 43 87 bb
       -0.07746516 0.17008899 0.005422949 -0.0041279383
000070 48 00 c1 3a fc 69 a2 3c d4 5f bc 3c 73 89 ac 3c
       0.0014724815 0.019825928 0.022994913 0.021061635
000080 dd f9 b0 3d 3a 39 3c be 62 36 49 be 1a 0a 14 be
       0.08641408 -0.18381205 -0.19649652 -0.14456978
000090 b9 42 52 be 8a af 7f 3d df 13 48 3d a2 1e da bd
       -0.20533265 0.062423266 0.048847076 -0.10650374
0000a0 53 a3 f3 3b 24 80 02 bd 55 3c a8 3d 4a 2a 96 3d
       0.0074352412 -0.031860486 0.082146324 0.07332285
0000b0 21 29 94 3c 0f 9e 0f bf 00 46 43 3d f0 b5 f7 bc
       0.018086018 -0.56100553 0.04767418 -0.030238122
0000c0 87 a3 46 bc dc 86 45 be ed f0 3b 3d 13 a1 19 3e
       -0.012123949 -0.19289726 0.04588406 0.15002851
0000d0 2c 0e 15 be 42 b8 54 be 81 5a 4d bd 15 80 80 bd
       -0.14556187 -0.20773414 -0.05013514 -0.0627443
0000e0 69 5c 06 bc 55 65 de bc 1c 6a a0 3d f1 7f 70 bd
       -0.008200743 -0.027147928 0.07832739 -0.058715764
0000f0 d8 01 06 3d 08 13 09 3d 82 f8 da 3d c7 f8 0a 3e
       0.032716602 0.033465415 0.1069193 0.13571464
000100 7d b8 43 bd 10 f9 0f bb 0a 44 56 bc 4e cf 88 bd
       -0.047783364 -0.0021968521 -0.013077745 -0.06680165
000110 f2 b2 30 3d 18 47 10 3c dd 01 a8 3c b8 e2 72 be
       0.043139406 0.008806013 0.020508701 -0.23719299
000120 62 16 61 be 7a 8f 06 3d e3 db 1e be ba 7c c3 be
       -0.21981195 0.032851674 -0.15513568 -0.38181096
000130 e0 45 89 be 2b f7 11 bd 9e 8d 69 be 9f 6c b0 3d
       -0.26811123 -0.03563611 -0.22807929 0.08614468
000140 b1 1e a6 bc d1 ae 59 3d a9 b6 6f 3c 52 8f b9 3c
       -0.020278307 0.053145234 0.014630952 0.022651348
000150 4d 3e 5a bc b6 f2 e8 bc 24 45 14 3c 38 73 71 3d
       -0.013320518 -0.028436046 0.009049688 0.05894777
000160 2a 32 77 be 80 2e dc 3d 63 85 0c bd 7c 94 91 bc
       -0.2414023 0.10751057 -0.034306895 -0.017770998
000170 33 76 2f 3d 9b 2a 01 bd 1a 5f 1f be 68 d6 e4 bc
       0.042837333 -0.031534772 -0.15563622 -0.027934268
000180 9b 92 a3 bd 77 d9 90 3a f3 1e 9d 3d e3 65 23 be
       -0.07986947 0.0011051138 0.07671919 -0.15956835
000190 02 9c 8d 3d 99 3f 4b 3d bd 4d 0b bc 55 c0 82 be
       0.06914522 0.0496212 -0.008502421 -0.25537363
0001a0 93 59 17 3d de da f6 bd 8e 77 29 bd cb 66 dd ba
       0.03695066 -0.12053464 -0.04137378 -0.0016891597
0001b0 07 1e 21 be a9 56 8d bc e8 6f 57 bd 57 c8 aa 3d
       -0.15734111 -0.017253237 -0.052596956 0.08338993
0001c0 98 6d a7 be 46 3f 23 bc d7 cc 3e 3d 23 43 9e bd
       -0.327008 -0.009963816 0.04658207 -0.07727649
0001d0 f2 f1 02 3d 77 8a 53 ba 25 c7 d8 be 74 58 b6 bb
       0.03196902 -0.0008069644 -0.42339435 -0.0055647437
0001e0 80 2b cb 3d e3 49 18 3c cf 3a b4 bd 3c 85 4a bd
       0.09920406 0.00929496 -0.08800279 -0.04944347
0001f0 a8 11 0e 3d bf d5 d2 bd a4 93 7b bd ed 5d 80 be
       0.034684807 -0.10294675 -0.061420098 -0.2507166
000200 93 bc 0c bd 93 40 a5 3c f5 b3 a7 3d a2 2c 54 be
       -0.034359526 0.020172393 0.08188621 -0.20720151
000210 c4 ba 3c 3d e9 d8 07 3d 31 37 f6 3c 9b dc 08 bf
       0.04607655 0.033165846 0.030055614 -0.5346162
000220 b4 d5 b3 3c b6 33 35 be da e6 8b bd 3b 13 ec bb
       0.021952488 -0.17695507 -0.06831141 -0.007204441
000230 14 c9 eb bd 4f 21 01 be 8a 47 07 3c d3 a3 53 bc
       -0.11512962 -0.12610362 0.008256802 -0.012917477
000240 d9 99 e1 be eb 92 04 3d 9a 21 0b 3d 23 e6 26 bd
       -0.4406269 0.032366674 0.03396759 -0.04074682
000250 26 32 0c 3d 2b b5 bc 3c b4 a8 47 be 12 49 54 bd
       0.034227513 0.023035606 -0.19497949 -0.051827498
000260 f5 d7 8c 3d c6 6a b2 bc c2 70 51 bd f0 c2 6c 3c
       0.06877128 -0.02177943 -0.051132925 0.014450774
000270 cb 5c a3 3c 85 51 36 be c4 b3 39 bc 0c 4a 1e be
       0.019941708 -0.17804535 -0.011334363 -0.15457934
000280 78 fc 22 3d f8 1c 30 be 0e 10 80 bd 6d 6b 32 be
       0.039791554 -0.1719855 -0.06253062 -0.17423792
000290 96 77 1b be 4e dc 13 3d b7 2e 85 3d 1c 4c d6 bd
       -0.15182337 0.03609877 0.06503051 -0.104637355
0002a0 2c a7 d0 3c b1 e6 80 be a9 cc 8e 3d 26 47 7b 3d
       0.025470339 -0.25176004 0.069726296 0.06134715
0002b0 eb 0e 8d bc 48 51 ee be 51 76 2e 3d db ed 1d 3e
       -0.017219028 -0.46546388 0.042593304 0.15422766
0002c0 1f 5c e1 bc 1c d9 83 be 97 d3 46 3d af f7 03 3e
       -0.027509747 -0.2575158 0.04854163 0.12887453
0002d0 a6 99 df bd 5b 63 57 be 09 d3 36 be 23 24 b2 bc
       -0.10917978 -0.21033995 -0.17853941 -0.021745747
0002e0 63 d5 13 3d 90 e4 4a 3c 27 b0 be 3c a9 da 44 3d
       0.036092173 0.012383595 0.023277355 0.048060093
0002f0 c9 fb 34 3d 92 33 a9 3c e7 10 b5 3d 41 a4 bd 3d
       0.044185434 0.020654473 0.088411145 0.092598446
000300 03 c3 1a 3c 06 69 f9 3c bb 7a 26 3d 88 84 42 3c
       0.0094459085 0.030445587 0.04064439 0.011872418
000310 25 d4 5d bc 2c c1 d0 3c 41 81 61 bc f2 34 10 be
       -0.013539349 0.025482737 -0.013763727 -0.14082697
000320 f1 1e bf bc 2e 30 c6 3c 8c da 2c be 45 06 32 3d
       -0.023330184 0.024192896 -0.16880244 0.04346301
000330 a6 0f d6 be 02 df 29 bc c3 ce f6 bc 46 24 8f 3c
       -0.41808814 -0.010368111 -0.030127889 0.017473351
000340 23 57 1d 3c f3 0f d0 3c 15 7b c1 be f3 bf 7e bd
       0.009603295 0.02539823 -0.37789217 -0.062194776
000350 02 fa 45 3c ef e8 bd 3b 84 0f a4 3d fb 6d 90 3d
       0.012083532 0.00579559 0.08010772 0.07052227
000360 20 39 50 be da ac 81 3d 7c 38 11 3c 6e 8d 8a 3d
       -0.20334291 0.06331797 0.008863565 0.06765257
000370 3f f3 b5 bc e8 ec 2b bc bb bb c8 be 80 c4 8b bd
       -0.022210715 -0.010493495 -0.39205727 -0.06824589
000380 ad 7b 6d bd c7 d8 50 bd 7d 9b 1d 3c 72 37 12 bd
       -0.057979275 -0.050987985 0.009619591 -0.035697408
000390 89 bc 3e 3c 8b d5 f3 be 46 55 6c bd 94 dd b6 bd
       0.01164163 -0.47623858 -0.05769851 -0.089289814
0003a0 d2 6f 3a 3d df e5 84 bb 22 cc 4a bd 2a 65 ed bc
       0.045516796 -0.004055723 -0.049511082 -0.028978903
0003b0 da e2 0c be 49 0b 75 bd cd 17 12 3c 0d 7d 11 3e
       -0.13758412 -0.059825215 0.008916807 0.1420786
0003c0 d3 78 1a bd f0 0c 05 bb 4a 90 84 bc ae 04 f7 bd
       -0.037712883 -0.00203019 -0.016182084 -0.120614395
0003d0 6d 3b fd bb 0b 68 52 bd ff 88 fc 3d e8 52 d1 3d
       -0.0077280314 -0.051368754 0.123308174 0.10220891
0003e0 5b 62 70 bd 0c 5e be 3d fa 29 c3 bd 09 8c 7c b9
       -0.05868755 0.09295282 -0.09529491 -0.0002408476
0003f0 bd 49 43 3d 52 c2 06 3b 57 57 b0 bd c9 f5 ab bd
       0.047677744 0.0020562601 -0.08610409 -0.08396489

model.4.bias f4 [16]
000000 61 8a c9 bd ac 81 2e 3e 30 9d cb bd 82 53 40 3e
       -0.09840847 0.17041653 -0.099420905 0.18781856
000010 9d 9c 03 bd af ba 32 bd bd 42 f7 bd fe 89 8b 3c
       -0.03213178 -0.043635067 -0.12073276 0.017033573
000020 15 2f b6 bd dd 73 fa bd 6c 3e 36 bd 6f 08 42 bd
       -0.08895699 -0.122291304 -0.044493124 -0.047371324
000030 e6 3c f3 3c 30 a3 b2 bc c1 3c e9 3c ce 27 28 3e
       0.029692125 -0.02180633 0.028471353 0.16421434

model.5.weight f4 [16]
000000 fb 31 8d 3f 9e ec a0 3f 0a a6 9b 3f 1d 93 95 3f
       1.1030878 1.257221 1.2160046 1.168552
000010 93 28 99 3f 89 90 ac 3f fd f7 96 3f ef 4f 9e 3f
       1.1965507 1.3481609 1.179443 1.2368144
000020 d0 d2 8e 3f b5 b1 a7 3f 19 19 99 3f 06 1d 9e 3f
       1.1158085 1.3101107 1.1960784 1.2352607
000030 65 26 a2 3f b9 a0 97 3f 3a 5d 94 3f 75 db 8e 3f
       1.2667967 1.1845924 1.159095 1.1160723

model.5.bias f4 [16]
000000 a1 e9 55 3f 9d b3 09 3f 78 5d 04 3f 2d 38 5c 3f
       0.83559614 0.53789693 0.5170512 0.8602322
000010 b1 5d 46 3f f3 76 1e 3f 9d 99 01 3f be c6 3e 3f
       0.7748671 0.6190025 0.5062502 0.74522007
000020 8d a8 62 3f 98 13 44 3f d5 d1 17 3f 87 80 ed 3e
       0.8853844 0.765924 0.59304553 0.4638712
000030 e6 2a 07 3f 3b c6 23 3f 27 83 17 3f 4e e0 24 3f
       0.5279983 0.6397435 0.591845 0.6440476

model.5.running_mean f4 [16]
000000 ce 6c 63 be a6 a6 9f 3d 82 c9 a4 be f0 f0 47 3b
       -0.22209474 0.077954575 -0.32184988 0.00305086
000010 73 b6 37 be 81 c7 29 be ff 25 64 be b9 b6 f4 bd
       -0.17940693 -0.16580011 -0.2228012 -0.11948914
000020 7e 60 4a be 22 96 6c be 23 cf 1b be 4d 20 1f be
       -0.19763371 -0.23104146 -0.15215735 -0.15539666
000030 f9 a2 b6 bd 60 d8 0c be 50 db de bd bc a5 03 3c
       -0.08917803 -0.13754416 -0.10881674 0.00803512

model.5.running_var f4 [16]
000000 e2 6b 57 3d 57 ca d7 3d 99 23 af 3d e7 f2 cb 3d
       0.05259312 0.1053664 0.085517116 0.09958439
000010 0f d1 7a 3d 4e 3a b6 3d 9a 9f 81 3d 22 34 b8 3d
       0.06123453 0.088978395 0.0632927 0.089943185
000020 89 5e 6f 3d 8a d3 75 3d 7a a7 75 3d 18 d9 37 3d
       0.058439765 0.060016192 0.05997417 0.04488477
000030 13 9a 77 3d fb 5a 85 3d fb 07 fb 3d 49 fc 8b 3d
       0.06044967 0.06511494 0.122573815 0.06835229

model.8.weight f4 [1, 16]
000000 c8 99 cb 3e 74 4e df 3e 41 e9 eb 3e 85 3b d1 3e
       0.39765763 0.43614542 0.46076396 0.40865722
000010 f2 ca da 3e 2c 2e c6 3e ea 6d e3 3e ca af c4 3e
       0.4273296 0.387071 0.44419795 0.38415366
000020 a8 7c d1 3e 04 52 c0 3e 51 3e e7 3e 23 5a db 3e
       0.40915418 0.37562573 0.4516473 0.42842206
000030 91 f3 e5 3e a8 50 dd 3e 31 63 de 3e 7c 02 e4 3e
       0.4491239 0.43225598 0.43435052 0.44533145
