neuralnet/Hyperparameter sweeps/Hyperparameter sweep round 1/bike_volume_model_net_3layer_lr_0.00005000_batch_64_feat_20.pth (torch, 26957 bytes, 19 tensors)

model.0.weight f4 [64, 20]
000000 f3 27 71 3d d2 f8 3b be 1a 39 9c be ba e1 ba bd
       0.05887599 -0.18356636 -0.30512315 -0.09125085
000010 ae fd b4 3a aa 1c 72 3e 17 d2 42 be 32 7c 99 3d
       0.0013808513 0.23643747 -0.19025455 0.074943915
000020 27 18 54 bd 83 ef e8 bd 73 d1 c3 3d f0 fd 94 bd
       -0.051780846 -0.11373808 0.09561434 -0.07274997
000030 1d 2a b8 bd 08 7a db bd c0 17 ca bd 98 9a f0 3c
       -0.089924075 -0.10716635 -0.09867811 0.029370591
000040 fa b4 da bc 77 76 2c 3e 2f 4f 9f 3c bc e5 0e be
       -0.026697624 0.16842066 0.019446937 -0.13954824
000050 b5 ee 94 3d 61 f3 0c 3e 2c 51 53 bd d2 3f 01 3e
       0.07272092 0.13764717 -0.051591083 0.12622002
000060 5c b8 3c 3e 7c 03 31 3e 66 8b f2 3c 41 0c 65 be
       0.18429703 0.17286485 0.029607486 -0.22367956
000070 83 35 f3 3b 73 11 25 3c c4 37 8c 3d 21 7b d7 bb
       0.0074221506 0.010074961 0.06846574 -0.0065759574
000080 0e c9 62 3c 76 c9 5b 3d b3 b2 16 3e 9a b4 b7 bd
       0.0138418805 0.053658925 0.14716606 -0.08969994
000090 4d ce 3f be 06 86 cc bc 27 25 48 be 44 ba 11 be
       -0.18731041 -0.024966251 -0.19545422 -0.14231211
0000a0 06 06 5f bc 03 0f 9c bd 85 61 d3 bd 7f 12 a4 3d
       -0.013612276 -0.07620051 -0.10321335 0.0801134
0000b0 d2 32 1a be b9 bb f7 bd c5 00 41 be a7 c5 99 3d
       -0.15058449 -0.12096352 -0.1884795 0.07508402
0000c0 e4 a0 eb 3d a6 fe 6a 3e 29 4d fc 3d 5d 09 25 3d
       0.11505297 0.22948703 0.12319405 0.040292133
0000d0 8e 9a 36 be 0d 2d bf bc 9f 1d 0b bd bf c3 5b 3e
       -0.17832395 -0.023336912 -0.033963796 0.2146139
0000e0 a6 fb a5 3d db 64 a9 bd c9 f3 a4 3d 3d cc ac 3d
       0.08104639 -0.0827119 0.08054311 0.08437393
0000f0 87 9b 65 bd 92 1b bc 3d 31 63 99 bd 5e db 8c bd
       -0.056056526 0.09184946 -0.074896224 -0.068777785
000100 f1 2e b4 3d 57 1c dd 3d eb 89 24 be 00 c4 e8 3d
       0.08798016 0.10796421 -0.16068237 0.11365509
000110 af 0f 6f be 66 94 40 ba f0 44 40 be c3 25 16 3d
       -0.23345827 -0.0007346332 -0.18776298 0.036657106
000120 d9 6e 25 3e fc 74 b4 3d 28 60 9e bd 0a 11 29 3c
       0.16155566 0.088113755 -0.07733184 0.010319004
000130 4c d1 18 3e ce 45 92 3c 1d 2a 93 bd 24 fd 56 3e
       0.1492359 0.017855551 -0.07185767 0.20995003
000140 6c f4 52 bd 6f 52 95 3e 36 bb 50 be b2 b4 d5 bd
       -0.05150263 0.29164454 -0.20383915 -0.104348555
000150 61 eb aa 3d e5 46 c7 bd ab 0a d1 bc f2 7a 91 3d
       0.08345676 -0.09730319 -0.025517782 0.07103528
000160 c1 b1 68 3e ef 4c 21 3d 13 41 66 3e 1a a6 e5 3b
       0.22724058 0.03938001 0.22485761 0.0070083262
000170 ef 60 82 bb cf b7 c0 3d f5 16 e0 3d 52 d0 de bd
       -0.0039788405 0.09410059 0.10941879 -0.10879578
000180 3b b5 44 3c 09 d6 41 3c d3 af 58 be 9f 26 e4 bd
       0.012006099 0.011830815 -0.21160822 -0.11140179
000190 4c 27 18 bc 54 0f c7 3d 02 fa d1 bd c3 86 c4 bd
       -0.009286713 0.097197205 -0.10252763 -0.09596016
0001a0 0c 61 76 3e 92 5b 44 3d cc 07 4e be 1b fc a2 3d
       0.24060458 0.04793889 -0.20120162 0.079582416
0001b0 f8 bf 0b 3e ba d3 e7 bc 9c ea 41 3e bb c6 16 bc
       0.13647449 -0.028299201 0.18937153 -0.0092026545
0001c0 d6 77 dd 3d e7 24 3c be cb c0 df 3d b4 a1 e1 bd
       0.108138725 -0.18373452 0.10925444 -0.110171705
0001d0 5e 90 36 bb 29 ab 8a 3c c7 03 bd bd 19 72 c7 3c
       -0.0027857046 0.016927319 -0.09229236 0.024346398
0001e0 47 66 ca 3c 76 cf 36 3d 72 dc 5c be d8 df 42 be
       0.024706973 0.044631444 -0.21568468 -0.19030702
0001f0 a4 5f 1e be b2 b5 f4 3b 76 aa 20 3e 13 32 38 be
       -0.15466172 0.007467949 0.15690026 -0.17987852
000200 58 f8 50 bb 7d e8 54 3d 84 08 8e bd c8 3a 31 3d
       -0.0031886306 0.05197953 -0.06935218 0.04326895
000210 08 38 2d 3e 33 15 21 3d 61 52 7b 3d 16 fb 45 be
       0.16915905 0.039326858 0.06135786 -0.19334063
000220 b4 d7 a6 3c 28 a1 1e 3e 7d 6d 1b be 1b c1 02 be
       0.020366527 0.15491164 -0.15178485 -0.12768976
000230 58 08 91 3c 2b 40 83 3d 50 ec 29 be 46 ba bb bd
       0.017704174 0.064087234 -0.16594052 -0.09166388
000240 c1 ef 48 3e f2 ba 2f 3d 1f ef 30 be 1c 07 0b be
       0.19622709 0.042902894 -0.17278717 -0.13576931
000250 7b 03 b1 3c d4 4b 87 3d 39 0c 85 3e 8d 4b 8e bd
       0.021608105 0.0660626 0.25985888 -0.06948004
000260 9c 60 0d 3d 0e f0 4d be bc 8c 06 3e 2d 89 07 be
       0.034515962 -0.20111105 0.13139623 -0.13235922
000270 0c f0 b9 bd 9f c6 34 3d 0a d7 62 be 4a 95 1c be
       -0.090789884 0.044134732 -0.22152343 -0.15291324
000280 d4 1c fb bb 94 08 20 3d 4f c2 72 be 10 ca d9 3d
       -0.0076633487 0.03907068 -0.23706935 0.106342435
000290 00 2b 9a bd b0 3c a9 bd 4b 01 eb bd d0 7c 11 bd
       -0.07527733 -0.08263528 -0.11474856 -0.03551942
0002a0 4a 27 84 3d b8 d1 28 3e f8 54 3a 3e d6 27 52 bd
       0.06452806 0.16486251 0.18196476 -0.05130752
0002b0 35 55 de bd 7b 44 92 bd b7 fd 21 3e 8e 7c 1f be
       -0.10856096 -0.07141968 0.15819441 -0.15574858
0002c0 3a c3 8f bd 0d a8 17 3e bb f1 45 bd 80 17 54 bd
       -0.070196584 0.148102 -0.048326235 -0.051780224
0002d0 41 63 1d be 9a 3f 87 3c ed 72 32 bb 61 7b 21 bc
       -0.15369894 0.01650982 -0.0027229146 -0.009856076
0002e0 2b b1 ea bd 22 34 9b bc c9 dd b4 bd 70 e5 9e be
       -0.11459573 -0.018945757 -0.08831365 -0.31034422
0002f0 92 a0 69 3e d0 94 05 3e 95 ef 9b bd d6 35 13 bd
       0.22815159 0.13045049 -0.07614056 -0.035940014
000300 4b 0f 83 bd 10 07 10 3e d7 37 26 3e 74 9c 45 bd
       -0.06399401 0.14065194 0.16232239 -0.04824491
000310 36 8a 40 be 90 6a 70 be ac cd 8d bc 12 1c 48 be
       -0.18802723 -0.2347815 -0.017309986 -0.19541958
000320 98 2b 21 3e c2 6a 77 be 9e df 2f 3e 32 14 8e 3d
       0.15739286 -0.24161819 0.17175147 0.06937446
000330 3e 30 ba bd 35 ce 3b 3e 9c 73 d1 bc 95 82 69 3d
       -0.09091233 0.1834038 -0.025567822 0.0570093
000340 13 10 55 bd d8 ac fb bd 5e 5e 27 be d1 f8 16 be
       -0.052017283 -0.12288827 -0.16344592 -0.14743353
000350 25 61 9d bd 6a e7 8a bd eb 31 6b be 31 8f 8d bd
       -0.076845445 -0.0678242 -0.22968261 -0.06912077
000360 7c af 81 3e 06 6a 7b 3e 1f eb a7 bd 5d fd 82 3d
       0.25329196 0.24552163 -0.08199143 0.063959815
000370 ca 84 91 bd 9f 54 a3 3d 31 9e d5 3c a9 41 10 bc
       -0.07105406 0.079751246 0.026076408 -0.008804717
000380 bb 17 6c 3e 24 df 10 3e 98 f1 d0 bd 77 b8 36 be
       0.23055927 0.14147621 -0.1020233 -0.17843805
000390 25 01 2d 3d c3 c1 97 bd 44 93 85 3e a1 f8 25 bd
       0.04223742 -0.07410004 0.26088917 -0.040520314
0003a0 78 34 d3 bc 40 03 3d be 6d d7 b0 bd 26 76 b1 bd
       -0.025781855 -0.18458271 -0.08634839 -0.08665113
0003b0 60 f9 32 be d4 b2 35 3d 81 bf 86 be b1 ee d2 bd
       -0.17477942 0.044359997 -0.2631798 -0.10299433
0003c0 2c 0e 1a 3e a0 c9 00 3e 8f aa 8c be 4b d3 7a bd
       0.15044469 0.12576914 -0.27473876 -0.06123666
0003d0 05 fa 4f 3e 93 2f 9a bc 9e c4 0f bc 0c 8c c6 bc
       0.20310219 -0.018821513 -0.0087749045 -0.024236701
0003e0 3f bf b0 3e f0 77 ef 3d be 6b 57 3e 43 47 2b 3c
       0.3452091 0.11692798 0.21037194 0.010454002
0003f0 2d 84 8d 3d 60 cd 36 be 8c de e0 3d ad 94 81 3c
       0.06909976 -0.17851782 0.109799474 0.015817964

model.0.bias f4 [64]
000000 41 79 50 be 46 3a 3f 3e 92 97 b7 bd 25 34 37 be
       -0.20358755 0.18674573 -0.089644566 -0.17890985
000010 74 83 4d bd e9 35 3c be b2 f7 41 3d 09 85 1f 3e
       -0.05017419 -0.1837994 0.04735536 0.15578093
000020 67 e8 5a 3e 8c eb 8e 3d ac fe 64 bd 16 79 a3 3d
       0.21377717 0.06978521 -0.055906937 0.0798208
000030 aa 4f 2a be d9 61 f1 3d 33 60 23 be ed 1c 4b be
       -0.16631952 0.11786241 -0.15954666 -0.19835253
000040 ed f0 14 be ca 89 bf 3d 7c be 2d 3e 99 d0 32 3e
       -0.14545031 0.09352453 0.16967195 0.17462386
000050 97 d4 02 3e 3b 3f d4 bd b4 6b 92 3d f1 24 80 3d
       0.12776409 -0.10363623 0.07149449 0.06257046
000060 d2 5f 03 be 6b 3f 56 bc 19 61 03 3e a9 9a 0e be
       -0.12829521 -0.013076643 0.12830009 -0.13926186
000070 6a 71 d2 bd b5 c0 22 be 7f 39 a7 3d 19 7b 27 be
       -0.10275538 -0.15893824 0.081652634 -0.16355552
000080 77 3a 98 bc f2 65 88 3c c4 e5 ab bd 69 a0 25 be
       -0.018582566 0.016650174 -0.08393434 -0.16174473
000090 a3 01 c3 bd fe 80 92 3d 53 1f 87 bd c8 b7 28 3e
       -0.095217966 0.071535096 -0.065977715 0.16476357
0000a0 d9 15 28 3e 94 7a 33 3e 4e b9 39 3e 7c 86 1a bd
       0.16414584 0.17527229 0.18137094 -0.03772591
0000b0 81 c4 e0 bd eb de 1b be 5a e3 23 3c 69 06 a9 bc
       -0.1097498 -0.15221755 0.010002935 -0.02063294
0000c0 0e 70 d3 3a 1a 7f 43 3d 0b df b6 bd 7f 57 2a 3e
       0.0016131417 0.047728635 -0.08929261 0.1663494
0000d0 3c be 33 bd 37 32 55 be b0 da 33 be 3f 6f 61 be
       -0.043882594 -0.20819937 -0.17563891 -0.22015093
0000e0 1f c7 03 be 2f d0 2c 3e 4a bd 3b be fc a3 28 3e
       -0.12868927 0.1687629 -0.18333927 0.16468805
0000f0 83 83 0b 3e c2 19 29 be 42 50 42 3d 51 13 08 3e
       0.13624386 -0.16513732 0.04743982 0.13288619

model.1.weight f4 [64]
000000 d2 b2 51 3f 18 e0 73 3f 74 52 78 3f 7d a7 78 3f
       0.81913483 0.95263815 0.97000813 0.97130567
000010 0a e7 6f 3f 23 6c 75 3f 76 64 66 3f e2 a6 76 3f
       0.9371191 0.9586813 0.8999704 0.9634839
000020 16 6f 73 3f 3b ec 7b 3f 22 6f 62 3f 69 2d 62 3f
       0.9509138 0.98407334 0.88450825 0.8835054
000030 fb 42 62 3f 8f f1 81 3f 8f 2d 88 3f 0f 9d 6a 3f
       0.88383454 1.0151843 1.0638903 0.916459
000040 83 82 69 3f 0f 35 82 3f 3f fa 54 3f 9b c4 80 3f
       0.9121477 1.0172442 0.83194345 1.0059999
000050 49 47 78 3f c7 01 76 3f 17 fa 74 3f be 6b 72 3f
       0.9698377 0.9609646 0.95694107 0.9469565
000060 79 89 64 3f b7 7e 69 3f 07 0e 7f 3f 69 f1 78 3f
       0.89272267 0.91208977 0.9963078 0.9724336
000070 f8 fe 62 3f d6 88 6e 3f 71 ac 6d 3f 4f c0 75 3f
       0.886703 0.93177545 0.9284125 0.95996565
000080 df e6 70 3f 8d a3 70 3f 44 c1 82 3f 61 da 70 3f
       0.9410228 0.9399956 1.021523 0.9408322
000090 94 0f 70 3f 0d 6e 6e 3f 80 e5 89 3f 09 7a 79 3f
       0.9377377 0.93136674 1.0773163 0.97451836
0000a0 12 3e 6a 3f d8 34 5c 3f b5 5e 7c 3f ba 64 83 3f
       0.9150096 0.86018133 0.9858201 1.0265114
0000b0 51 0a 67 3f 83 8d 4c 3f 09 3b 5c 3f 3f c3 6a 3f
       0.90250117 0.7990343 0.8602758 0.9170417
0000c0 e9 55 5d 3f a4 a3 77 3f aa f1 69 3f a3 62 7a 3f
       0.86459213 0.9673407 0.91384375 0.9780676
0000d0 4d cc 81 3f dc 5a 60 3f c1 82 74 3f 1c 2f 50 3f
       1.0140473 0.8763864 0.95512015 0.81321883
0000e0 74 9b 5e 3f c5 04 76 3f 42 5c 6d 3f 64 ae 8c 3f
       0.8695595 0.9610103 0.927189 1.099072
0000f0 e8 32 68 3f 43 92 68 3f 16 2b 76 3f 56 f3 83 3f
       0.90702677 0.9084818 0.96159494 1.0308635

model.1.bias f4 [64]
000000 72 13 fe be 8e 8d 00 bf db 7b 92 be cd e8 a5 be
       -0.4962421 -0.50215995 -0.2861012 -0.32404175
000010 63 48 f2 be c0 45 c3 be 3b 71 09 bf 9d 9c e8 be
       -0.47320852 -0.38139153 -0.536884 -0.45431986
000020 d5 d2 c3 be 29 a1 95 be c7 dd c7 be a0 3b 38 bf
       -0.3824679 -0.29224518 -0.3903639 -0.7196598
000030 fa 7d f6 be 27 99 58 bd 12 de ee 3c d8 62 78 be
       -0.48142987 -0.052880432 0.029158626 -0.24256456
000040 27 de a9 be 11 0a 8c be d1 57 fe be 08 df 5d be
       -0.331773 -0.2735143 -0.49676374 -0.21667111
000050 72 ef 9a be 63 3a 89 be 49 ae b3 be 5d 0d c0 be
       -0.30260807 -0.26802358 -0.35093907 -0.37510195
000060 a1 7c 14 bf 19 fc 27 be eb 38 58 be ef 77 cc be
       -0.5800267 -0.16404761 -0.21115462 -0.39935252
000070 a2 6a e7 be dd 04 9e be 9d 12 29 be f6 d4 ac be
       -0.45198542 -0.30863085 -0.16511007 -0.33756226
000080 6b bb e6 bd 1a 06 c2 be df 71 30 be 90 6d ce be
       -0.11266216 -0.3789528 -0.17230938 -0.40317965
000090 86 92 1c bf 68 3b 64 3d 81 a9 44 3e 73 55 b3 be
       -0.6116108 0.055720717 0.19205286 -0.3502613
0000a0 69 e3 80 bc 7c 5e 0f bf fc d7 59 bd 91 ed cd bd
       -0.015733438 -0.56003547 -0.053184494 -0.10055078
0000b0 d4 a2 e3 be 61 04 2c bf b7 2a 0d bf 28 40 11 bf
       -0.44460166 -0.6719418 -0.551433 -0.5673852
0000c0 ff 0f 0a bf 97 0d da be f0 33 b8 3c 1a 25 e5 be
       -0.5393066 -0.42588493 0.022485703 -0.4475487
0000d0 7f a0 6d be f0 0a 0e bf 5d 17 a4 be 71 e8 91 bd
       -0.23205756 -0.5548544 -0.32049075 -0.07124413
0000e0 d8 75 c6 be ef ce ac be 44 c1 3a be 8b 01 54 be
       -0.38761783 -0.33751628 -0.18237787 -0.20703714
0000f0 6b ea f0 bd 49 9f 16 be 70 43 a7 be f1 f6 aa bc
       -0.11763462 -0.147092 -0.32668638 -0.020869704

model.1.running_mean f4 [64]
000000 c4 d2 90 bf ce 91 8e 3e c5 4a 2d 3d 29 db 91 be
       -1.131432 0.27845615 0.042307634 -0.28487518
000010 23 7b 55 be 37 fe e5 be 0c 5c 20 bf 07 c9 74 be
       -0.20847754 -0.44920513 -0.6264045 -0.23904811
000020 dc 92 e4 3b ac 2a 19 3f 3f f0 8c bf ab 0d 55 be
       0.006975515 0.5983074 -1.1010817 -0.20805995
000030 b1 fe 2e bf 74 49 ab 3e 13 8a 03 3d d3 93 8e be
       -0.6835738 0.33454478 0.0321141 -0.27847156
000040 fe 29 dd be a2 ff 86 3e 54 40 0a bf df 4d cd 3e
       -0.431961 0.26366907 -0.54004407 0.40098473
000050 43 da 7e bd 36 f9 07 3e 72 b3 41 3e c4 f1 6d 3d
       -0.06221987 0.1327866 0.18916109 0.058091894
000060 5d 88 bf bd f2 3c 30 bd ff 98 b8 3e 24 fa 10 be
       -0.09352181 -0.043026872 0.36054227 -0.14157921
000070 d1 9c 42 bf 7d ae ee 3c 40 cc e1 bc bd 8b 16 bf
       -0.7602053 0.029135937 -0.027563214 -0.58806974
000080 f9 ae 86 3d b7 32 45 be 4d 0a ae bd 25 93 47 be
       0.06576342 -0.19257627 -0.084980585 -0.19489725
000090 cd 39 83 bd d9 69 0f 3f 2a 71 14 3e 70 f3 c3 be
       -0.06407509 0.56020886 0.14496294 -0.38271666
0000a0 1d b2 0b 3f 0a b8 8a bf 8a 53 22 3e 27 ca b5 bb
       0.54568654 -1.0837414 0.1585218 -0.00554778
0000b0 1a 9c 51 bf 04 8a 50 bf 8b c8 3a bf ca 34 45 3e
       -0.8187882 -0.81460595 -0.72962254 0.19258419
0000c0 52 4b 11 bf dd f3 bf be ab a4 34 3f f2 0c 6f 3e
       -0.56755555 -0.3749074 0.70563763 0.23344782
0000d0 7c 79 37 3d 2d f8 5a bf 35 13 37 bd 78 4c 46 3f
       0.04479359 -0.85534936 -0.04469605 0.7746043
0000e0 ae 0b 21 bf 23 57 16 3f c8 c2 d3 3e 6e 9c ed 3e
       -0.62908447 0.5872671 0.41359544 0.4640841
0000f0 15 8e 4c 3e 35 3a ac bc be 19 13 be dc 17 15 3f
       0.19976075 -0.021023849 -0.14365289 0.5823953

model.1.running_var f4 [64]
000000 25 e9 ee 3e 81 f5 1d 3d ee 7d 6e 3d be b5 69 3d
       0.4666225 0.03856421 0.058225565 0.05705809
000010 1b c4 de 3d 46 0d af 3d b5 46 32 3e 3f a4 c7 3d
       0.10877248 0.085474536 0.17409785 0.09748124
000020 8c 2e 0d 3e 30 ff 2b 3e a7 3e 06 3f 20 9d 9a 3d
       0.13787287 0.16796565 0.5243935 0.075495005
000030 10 a2 e0 3e 22 7e b1 3d 73 20 96 3d 84 6a 9e 3d
       0.43873644 0.08666636 0.07330408 0.0773516
000040 b0 e5 56 3d dd d4 40 3d dd 39 11 3f 0f 05 86 3e
       0.05246514 0.047078002 0.5672892 0.26175734
000050 83 c6 49 3e 66 55 92 3d 1c 73 2b 3e 06 bf 18 3e
       0.19704632 0.07145195 0.1674313 0.1491662
000060 e9 3a 42 3e 04 7f a5 3d b8 99 91 3d 00 3b 72 3e
       0.18967785 0.08080867 0.07109398 0.23655319
000070 e3 b4 52 3e 1b 57 c4 3d 78 41 73 3e 94 3c 25 3e
       0.20576815 0.095869265 0.23755443 0.1613639
000080 ba 67 a5 3d 3a 9d 6e 3d c3 74 3d 3e ad dd 0d 3d
       0.08076425 0.05825541 0.18501572 0.034635235
000090 46 c1 9d 3d 46 36 83 3e b0 fb 85 3d 58 ad 9e 3e
       0.077028796 0.25627345 0.06542146 0.30991626
0000a0 92 bc 51 3e f3 4c 88 3f 6e 1c 11 3e 21 70 96 3d
       0.2048209 1.0648483 0.14171001 0.07345606
0000b0 78 44 b3 3e 9f ec 7b 3e 08 c2 96 3e 8a 1a f0 3d
       0.35013175 0.24601983 0.2944491 0.11723812
0000c0 0b 6e 5b 3e 27 c0 aa 3d ac e1 10 3e 11 3a d1 3d
       0.21428697 0.083374314 0.14148587 0.102161534
0000d0 d0 89 6e 3d e3 ec 6c 3e e7 e8 52 3d f5 cb af 3f
       0.058236897 0.2313724 0.051491644 1.3734118
0000e0 b3 0c 1e 3e ab 3c f3 3d 3a 80 90 3e 34 4b fa 3d
       0.15434532 0.11876806 0.2822283 0.12221375
0000f0 9d c8 09 3e 64 f1 28 3e 56 08 7f 3e 7a dc 30 3e
       0.13455434 0.16498333 0.24905524 0.17271605

model.4.weight f4 [32, 64]
000000 bd 9f c3 3d 87 80 9c 3d 01 ed 88 bc 04 79 1f 3d
       0.09551952 0.07641702 -0.016714575 0.03893377
000010 d5 cd a2 3d ae 73 17 bb f3 37 d5 3d 66 a8 78 3d
       0.079494156 -0.0023109722 0.10411062 0.060707472
000020 9c 27 44 3d 20 08 cd bc eb 12 4d 3d a8 81 b7 3d
       0.047889337 -0.025028288 0.05006687 0.08960277
000030 e9 de 73 3d 13 33 aa bd ba d4 2f 3e 8a b5 ad 3c
       0.059538756 -0.08310523 0.17170992 0.021204729
000040 9e 7b 4e 3d d1 fe e7 bd 77 cd b6 3d ff ae ba bb
       0.05041086 -0.11327899 0.08925908 -0.0056971307
000050 ec a1 aa 3d f3 be 54 bd eb cc 8a 3c 8b b3 ac bc
       0.083316654 -0.051939916 0.016943416 -0.021081707
000060 c1 df 23 3b ee 19 b8 3c de d1 81 bc ad 9c c1 3d
       0.0025005194 0.022473302 -0.015847143 0.09453712
000070 8b fe 86 bc cc 38 d0 bd fc 2d 9d bc e3 33 26 3d
       -0.016478797 -0.10167083 -0.019186966 0.040576827
000080 a6 4a 9e 3d 40 f2 06 3d 6e b2 03 be 98 73 cb bd
       0.07729082 0.03294587 -0.12861034 -0.09934157
000090 35 1a c4 bc c0 81 07 bd ff db 29 3e 10 63 19 bd
       -0.023938278 -0.033082724 0.16587828 -0.03744799
0000a0 15 6d a7 bd 2b 8f b2 3d bb 71 8c bd be 75 ab bd
       -0.081751026 0.087187134 -0.0685763 -0.08372067
0000b0 6d 73 9f 3d 21 f7 f0 3d 92 75 d4 3d 77 21 20 bd
       0.077856876 0.11765886 0.10373987 -0.039094415
0000c0 2c ac 1e 3d 90 45 ef 3d c1 f1 20 3d d2 77 d2 bd
       0.038738415 0.1168319 0.039293054 -0.1027676
0000d0 cb 77 b8 bd 7c f2 07 3d fb 51 13 bd 29 40 44 3c
       -0.09007224 0.033190235 -0.035966855 0.011978188
0000e0 ff b8 69 3d a0 bc 77 34 92 fe 0c 3d 7b e2 0a be
       0.05706119 2.3072289e-07 0.034422465 -0.13562958
0000f0 56 e0 39 bc 25 8f 8b bd 6e 9f 66 3d 53 df 62 bd
       -0.01134499 -0.06814412 0.056304388 -0.05538876
000100 78 77 c1 bc a4 5e ad 3d 87 73 09 3e 43 56 8b bd
       -0.023616537 0.08465317 0.13422976 -0.068035625
000110 a3 03 0a 3e 4a 1e 07 3e 3e ca 9f bd e7 f9 ec bc
       0.1347795 0.13195148 -0.078022465 -0.028927756
000120 43 1c eb 3c d1 95 a5 3d b8 bc 6e b8 1a a7 a2 bc
       0.0287 0.08085216 -5.691938e-05 -0.01985507
000130 00 8f 88 3d c7 97 0c be 50 6c 7d 3d f1 75 36 3d
       0.066679 -0.13729773 0.061870873 0.04454607
000140 ef 24 a4 3c f0 4a cf bd 6a fd 83 3d 45 ed fa bc
       0.020037143 -0.10121715 0.06444819 -0.030630717
000150 d9 fa 21 bc cd 55 eb bd 74 cc 39 3d e4 a7 85 3d
       -0.009886467 -0.114909746 0.045360997 0.06526163
000160 8c 4e 99 3d e1 0c bb bd 12 02 6e bc f0 77 de 3d
       0.07485685 -0.09133316 -0.014526861 0.1086272
000170 4e fa b4 3b f8 f8 33 be 44 2d b0 3d 8f e3 d0 3d
       0.0055230027 -0.17575443 0.08602384 0.10199653
000180 88 f9 06 3d 88 c3 46 be 6a 95 bb bd f7 75 fd bd
       0.032952815 -0.19410527 -0.09159358 -0.12376016
000190 c5 a7 b4 3d f3 29 cf 3c 1e 12 4f bd ec c5 d3 bd
       0.08821062 0.025288558 -0.050554387 -0.10340485
0001a0 43 6e 92 3d 59 e9 5e 3d 6d bb 02 be f3 1d f8 bd
       0.07149937 0.054421756 -0.1276681 -0.12115087
0001b0 b5 7e 01 3a c4 36 c2 3d b6 99 e4 3c ae 53 ac 3d
       0.00049398403 0.09483102 0.027905326 0.08414398
0001c0 c3 c4 78 bd d7 61 3a 3d 67 45 db 3c 12 2f b9 ba
       -0.06073452 0.045503464 0.026766492 -0.0014128408
0001d0 a8 3b 4a 3c 3c 6d 7f 3c 0d ce af 3d 5d 0c aa 3d
       0.012343325 0.015590008 0.08584223 0.08303139
0001e0 7f 36 6b 3d 0b 10 c9 3d ec 5c 04 3e f7 64 fb bd
       0.05742502 0.09817513 0.12926072 -0.12275117
0001f0 64 11 2b bd 0b 7e 4d bd db 36 e7 3d 0f cf 00 3d
       -0.041764632 -0.050169032 0.1128976 0.031447466
000200 c5 ba 20 bd 8b 3e 2c 3c c6 d7 ec 3d 21 12 c8 bd
       -0.039240617 0.010512958 0.11564593 -0.09769083
000210 53 7e aa 3d c1 78 3f bb be 84 d1 3c cc 56 0e be
       0.08324876 -0.0029216262 0.025575992 -0.13900298
000220 27 88 63 bd f4 2c 9f bd ee bd b5 3c c3 f4 52 bc
       -0.055549767 -0.07772246 0.022185292 -0.012875739
000230 fd fd e1 bc 34 00 b1 bb 54 c5 9d bc 8a 78 a8 bd
       -0.027586931 -0.0054016355 -0.019259132 -0.08226116
000240 2c 8f 32 bd 2d 8a 91 3d 49 13 ad bc 56 31 b3 bd
       -0.04359357 0.07106433 -0.02112736 -0.087496445
000250 35 f4 c2 ba 87 0d 5c 3d 2f d7 26 be 5f 11 19 3d
       -0.0014873805 0.05372384 -0.16293024 0.037370082
000260 02 c0 f4 bd 6c 5d 01 be 7b a8 79 bd 51 43 b3 3b
       -0.11950685 -0.12633294 -0.06095169 0.005470671
000270 82 3d ee 3d 9e 7f a7 3d 68 a3 a2 bd c1 b8 c2 3c
       0.116328254 0.08178638 -0.079413235 0.023769738
000280 f6 cc bd bd 9b d7 87 3d 93 69 07 bd 09 35 42 bd
       -0.09267609 0.0663292 -0.033059668 -0.04741386
000290 ed a4 fb bd 14 39 cf bd b9 10 f2 bd 50 25 39 3d
       -0.122873165 -0.10118309 -0.11819596 0.0452016
0002a0 b4 c2 f1 bb ce 11 22 be b3 de fb bd 3f ed 00 bd
       -0.0073779467 -0.15827104 -0.12298336 -0.031476256
0002b0 65 9a e7 bd bb 19 e4 ba ab 2c dc bd 9a 5f a3 bc
       -0.11308745 -0.0017402688 -0.10750707 -0.019943047
0002c0 f2 44 c4 bb 32 1c 9f bd 2d be a6 bb 9e 42 8e bd
       -0.0059896642 -0.0776905 -0.0050885887 -0.069463
0002d0 47 70 27 bd ae bc 2f bd 6c a7 5d bd 95 ce b5 bd
       -0.04087856 -0.04290455 -0.054114744 -0.08877293
0002e0 b4 a5 55 bd 6f ac e2 bd 35 92 9c bc 95 55 b8 3d
       -0.05215998 -0.11068045 -0.019112686 0.090006985
0002f0 cc 07 23 bd e9 61 47 bc bc c6 a6 bc e0 99 bb bd
       -0.039802358 -0.01216934 -0.020358436 -0.09160209
000300 e0 f1 8f bd e1 49 c2 3d 8d 7e 76 3d 1a be ba 3d
       -0.07028556 0.094867475 0.060179282 0.0911829
000310 8f 7a a9 3d ba 23 2d 3d 08 91 2b 3d 38 81 7d 3d
       0.08275329 0.0422704 0.04188636 0.06189081
000320 5a 3b 36 3d a8 14 a9 bd 48 ba 2f 3c 90 7b 0d 3d
       0.044490196 -0.08255893 0.010725565 0.034541667
000330 33 65 80 3e 36 5e f0 3c 33 f8 64 3d 34 fe f8 bb
       0.2507721 0.029341798 0.055900764 -0.0075986627
000340 11 db 06 3c 1c 14 bc 3b cd cd f7 3d 00 d9 1c 3e
       0.00823094 0.005739702 0.120998 0.15317154
000350 7f 63 90 3e bc b0 c7 bd 4e 29 13 3e 5b 71 a1 bd
       0.2820091 -0.09750506 0.14371225 -0.07882949
000360 36 b0 34 bd 20 d1 a2 3d 3a 32 33 bd 96 d5 12 3e
       -0.04411336 0.07950044 -0.04374907 0.14339289
000370 e9 4b 31 bc e3 28 51 3d 40 ee d1 3b e4 86 43 bc
       -0.010821321 0.051064383 0.0064065754 -0.011934016
000380 f5 7d 8d 3d 6d 6e 0a 3d ee fc d0 bd 0c 0b b3 bb
       0.0690879 0.033796716 -0.102044925 -0.0054639634
000390 ca 09 59 bc c9 e1 e8 bd 8b a8 a9 3d a6 28 4b 3b
       -0.013246963 -0.1137119 0.082841 0.003099957
0003a0 28 36 ae bd fa d4 af bb 94 fa 4a 3c 4b 9c 08 bb
       -0.08506423 -0.005365965 0.012388844 -0.002084511
0003b0 bc 3a 6d bc 45 eb c2 3d 18 6e 19 3a 2c 81 64 bc
       -0.014479335 0.0951753 0.0005852892 -0.013946813
0003c0 2a 3c bf bd 1c d4 a8 3d c1 fd 4a bd eb 2e 47 bd
       -0.09337647 0.08243582 -0.049558405 -0.04862873
0003d0 34 1b 00 be 4b 87 c4 3c 0c 98 dc bd c7 dc 27 3d
       -0.12510377 0.023990294 -0.10771188 0.040982034
0003e0 a1 e9 c5 3d 93 01 3d bd 39 87 e8 ba 47 1d cb bd
       0.09663702 -0.04614408 -0.0017740495 -0.099176936
0003f0 23 e0 e1 3c 06 78 63 bc 7e 24 ea 3d fe 14 52 bd
       0.027572697 -0.013883596 0.114327416 -0.05128955

model.4.bias f4 [32]
000000 a7 01 0c 3d f0 e4 6e bd 62 dc 02 3e 1b e1 e8 bd
       0.034181263 -0.0583238 0.12779382 -0.113710605
000010 34 66 68 3d 73 53 f6 bd 30 0c 52 3d df 3d b5 bc
       0.056738093 -0.120276354 0.051281154 -0.022124229
000020 0d 16 8c 3d 7e 0c ff bd 5a 91 96 3d 82 f2 d4 3d
       0.06840143 -0.124535546 0.07351942 0.10397817
000030 ff c1 87 3c 48 50 c1 3d e7 dc 45 3d 20 fb b1 3d
       0.016571997 0.094391406 0.048306372 0.086904764
000040 1c 8d ae bc fe ef 5d bd d8 eb 84 3d 03 91 01 3d
       -0.02130752 -0.054183953 0.06490296 0.031632435
000050 49 7d a1 bd 59 69 4f bd d3 5d 0a be ce 38 04 3e
       -0.07885224 -0.050637577 -0.13512354 0.12912294
000060 b7 b5 8d bd 82 1d e6 3c 5c dd 7c bb 23 77 da bd
       -0.06919425 0.028090242 -0.003858409 -0.10667255
000070 60 cb dd 3d 07 8c fd bc 41 4a 05 bd f2 57 60 bb
       0.10829806 -0.03095056 -0.032541517 -0.0034232107

model.5.weight f4 [32]
000000 db 2e 71 3f 26 a0 6a 3f 4e 96 76 3f 8d bc 94 3f
       0.9421212 0.9165062 0.96323097 1.1620041
000010 e3 d2 65 3f 63 d4 74 3f 8a 60 71 3f 61 4c 8d 3f
       0.8977491 0.95636576 0.9428793 1.1038934
000020 bb ea 5c 3f 68 69 86 3f 0b 16 70 3f c6 f5 82 3f
       0.8629567 1.0500917 0.93783635 1.0231254
000030 5a 14 8f 3f 56 de 70 3f 1d d0 88 3f 06 d8 7b 3f
       1.1178086 0.9408926 1.0688511 0.983765
000040 90 b3 63 3f 00 fc 52 3f f8 f9 68 3f 2c 2d 81 3f
       0.88945866 0.8241577 0.9100642 1.009191
000050 df 48 86 3f c1 4d 79 3f 30 3e 84 3f 3e 0c 5d 3f
       1.0490988 0.9738427 1.0331478 0.86346805
000060 a6 f1 75 3f a3 ee 8c 3f 20 9b 60 3f 3e 0a 77 3f
       0.9607185 1.1010326 0.877367 0.96500003
000070 08 fd 73 3f f9 1b 6c 3f 69 7a 70 3f d2 e4 7c 3f
       0.9530797 0.9223018 0.93936783 0.9878665

model.5.bias f4 [32]
000000 c2 b9 d1 be 14 92 df be f2 55 86 bd f6 92 0d be
       -0.40962034 -0.43666136 -0.065593615 -0.13825592
000010 e4 43 6b be 32 2e ba be d7 61 09 be f9 14 b9 bd
       -0.22975117 -0.3636337 -0.13416229 -0.09037203
000020 c2 7e ae bd 00 41 84 be 7a 31 07 3c aa 8e ad bb
       -0.08520271 -0.2583084 0.008251542 -0.005296548
000030 f7 55 ca be 4a 6d c6 be 18 f6 2b be c4 48 0d be
       -0.3951871 -0.38755256 -0.16793096 -0.13797289
000040 32 4c 94 be 84 de 0a 3d a0 0e ac be 21 1b 9a be
       -0.28964382 0.033903614 -0.33604908 -0.30098823
000050 60 4b 94 be 1b 21 dc be f7 a0 b4 be 51 f4 ca bd
       -0.28963757 -0.42994007 -0.35279056 -0.09909881
000060 24 f6 de bc 87 ce 2b bd 83 97 fd bd 78 65 b9 be
       -0.027216978 -0.041945007 -0.12382414 -0.36210227
000070 31 46 09 be da 61 4e bd 74 19 76 3d 0d 36 9c bd
       -0.13405682 -0.050386287 0.060082868 -0.07627497

model.5.running_mean f4 [32]
000000 6e f1 c5 3c 2d 22 9c bd 72 72 86 be f2 6a 03 bb
       0.024162974 -0.07623706 -0.2625919 -0.0020052758
000010 c5 59 96 be 05 c4 1f bf ea b8 b1 bc dc fb 00 be
       -0.29365364 -0.6240848 -0.02169462 -0.12596077
000020 a4 5f 39 3d 15 22 02 bf 60 d6 1e 3c 32 b8 0f bd
       0.045257226 -0.50833255 0.009694666 -0.03508777
000030 d4 5f cd 3c 85 73 82 bd 38 ac fb be af 6f 17 3e
       0.025070108 -0.0636969 -0.4915483 0.14788698
000040 d3 38 79 bd 18 bb 70 be e7 09 94 3d 67 6a b2 3d
       -0.060845207 -0.2350887 0.07228451 0.08711701
000050 c2 19 90 be b2 a3 57 be be ec e3 bc 22 b8 b2 bc
       -0.28144652 -0.21058539 -0.027822848 -0.021816317
000060 f9 de da bd 2c e9 20 be da 1a a1 bd bc 35 a8 be
       -0.1068706 -0.15713948 -0.0786645 -0.32853496
000070 85 28 03 3c c2 05 ab be d8 39 9d be e0 16 16 be
       0.008005266 -0.3340283 -0.30708194 -0.14657164

model.5.running_var f4 [32]
000000 5e 34 b5 3e ec f8 a1 3e 37 84 c6 3d 44 48 2f 3f
       0.35391515 0.31635225 0.09693187 0.68469644
000010 4b d8 34 3e 5a c2 30 3e 59 a6 c9 3e 58 9e 81 3e
       0.17660634 0.17261639 0.39384726 0.2531612
000020 97 5f c0 3e 70 cb 77 3e 1d cf 82 3e f9 49 39 3e
       0.3757293 0.24198699 0.2554864 0.18094625
000030 58 d9 9d 3e cd a4 87 3e d9 a5 38 3e 22 85 2c 3e
       0.30829883 0.2649292 0.18032016 0.16847661
000040 9a cf 63 3e 5b a7 c2 3e 64 ba 10 3e 4b 80 92 3e
       0.22247162 0.38018307 0.14133602 0.28613505
000050 e0 0e a6 3e ea dc 84 3e ee d3 c7 3e ac be bc 3d
       0.32433224 0.25949794 0.39028877 0.09216055
000060 77 fe 97 3e 75 ae 94 3e 83 21 6c 3e 01 c6 a2 3e
       0.2968633 0.2903935 0.23059659 0.3179169
000070 6d ea 0b 3f 00 d2 82 3e ff 26 80 3e 25 5c 98 3e
       0.5465458 0.25550842 0.25029752 0.297578

model.8.weight f4 [16, 32]
000000 5b 06 9b bd a7 9d 82 3d 60 cc a0 3d 60 e7 19 3c
       -0.075695716 0.06377726 0.078514814 0.009393543
000010 7d cb 4b 3d 07 6a 42 3e da 4b 28 be 0c 66 0d bc
       0.04975461 0.18985759 -0.16435185 -0.008630287
000020 7c 3c 18 be 11 46 ab 3d b5 95 af 3c 6b d3 55 be
       -0.14866823 0.083629735 0.02143369 -0.20881431
000030 47 78 19 3d a1 de 6e be dd 3a 8a bb f9 8c c1 bd
       0.03746822 -0.23327114 -0.004218443 -0.094507165
000040 32 7a 26 be a3 79 0c be ea bc 83 3c ce 09 43 3d
       -0.16257551 -0.13718276 0.016081292 0.047616772
000050 d9 07 17 be dd 44 42 be 70 50 63 3d f1 2f 94 3c
       -0.14749087 -0.18971582 0.055496633 0.018089266
000060 06 3d 31 be 9f 83 50 be 05 1a 15 bd 6c 01 21 be
       -0.17308435 -0.2036271 -0.036401767 -0.15723199
000070 c8 49 32 3d 00 e5 29 be 8f c0 91 3d aa 11 5d 3d
       0.043527395 -0.16591263 0.07116806 0.053971924
000080 10 32 7d be 66 18 35 be 34 dc 13 be cc 50 b7 bd
       -0.24726129 -0.17685089 -0.1443947 -0.08950958
000090 8c cf d2 3c 3f 59 6c 3d 55 c1 b6 3d 19 fe 29 3d
       0.025733732 0.0577023 0.08923594 0.041502092
0000a0 d2 99 8a bc b9 d6 1a 3e 16 9b ee bc c4 49 66 bd
       -0.01691905 0.15120973 -0.029126685 -0.056222692
0000b0 05 92 a2 be ea 99 a5 bd a1 6b 31 bc 44 fb 04 3b
       -0.3175203 -0.080859974 -0.010828883 0.0020291368
0000c0 8e ab be bd ab 07 9f 3d da 33 e1 3c a2 80 b3 3d
       -0.09310065 0.077651344 0.027490545 0.08764769
0000d0 68 5a 75 3d d3 8d 00 bd 45 05 84 be 6d f5 4f 3d
       0.05990067 -0.031385254 -0.2578527 0.050771166
0000e0 4e 51 12 bd 9e 26 0e bd 66 eb 5e bc 8c d1 6a 3d
       -0.03572207 -0.034704797 -0.013605928 0.057328746
0000f0 54 c0 d2 3c af 27 e5 bb 8c 0c 44 bd fa 49 e5 bd
       0.025726475 -0.006993256 -0.047863528 -0.111957505
000100 e7 93 a0 3c b8 43 09 be 2d 5c 98 bc 04 a6 a6 3d
       0.019601775 -0.13404739 -0.01859864 0.08137134
000110 33 d6 94 3d 56 1b c9 bd 8b ef 87 3d 07 72 a0 bd
       0.07267418 -0.09819667 0.06637486 -0.07834249
000120 0a 46 d5 3c 56 f4 04 3d 24 48 35 3e d8 2b 25 3e
       0.026034374 0.03245958 0.177033 0.16130006
000130 1d aa 89 3d 45 9d 69 3d d9 0e a5 be 98 a9 15 3e
       0.067219 0.05703475 -0.3223789 0.14615476
000140 c6 d6 e6 3b 76 2f 2e 3d 46 6a a2 3d e9 4b 0c be
       0.007044646 0.04252573 0.07930426 -0.13700832
000150 c8 7b 95 3d a7 86 2d 3d 39 f7 ec bc a1 e5 a6 bd
       0.07299 0.042364743 -0.028926479 -0.08149267
000160 c6 19 29 3e 53 0d 6a 3c a1 6b d8 3b 75 ae 22 3d
       0.16513738 0.014285403 0.0066046272 0.039717156
000170 d7 38 ee bc 7e eb 72 3d 53 16 86 be 6c f9 cf bb
       -0.029079838 0.059306614 -0.26188907 -0.006346872
000180 5b 59 7d 3d 00 07 9b bd 05 77 2c 3d 36 a2 93 3d
       0.061852794 -0.075696945 0.042105693 0.07208674
000190 f5 f8 20 3e 44 bf 88 3d 23 b6 29 bd 7b fa b5 3d
       0.1571997 0.06677106 -0.041433465 0.08885666
0001a0 c4 69 33 3d 4d 9e 3c 3e ed 0f 1e 3e 99 4e ca 3d
       0.043802038 0.18419762 0.15435763 0.098782726
0001b0 01 26 73 3d c4 1a a1 3d ff 3d 8f 3d bf bc 6f 3e
       0.059362415 0.07866433 0.06994247 0.23411845
0001c0 56 05 3b 3d 6f 0d ec 3c f3 f4 a4 3d e9 6c cb bd
       0.045659386 0.028815 0.08054533 -0.09932882
0001d0 c8 57 b9 3c 4e 2b 3d 3d fe 4f 62 3b 57 e5 b3 bd
       0.022624865 0.046183877 0.0034532542 -0.087839775
0001e0 91 a6 48 3e 8c e4 78 3d 7a 32 f1 3d d4 50 8e 3d
       0.1959479 0.060764834 0.11777206 0.069490105
0001f0 4b 5f df 3c 85 78 10 3e 0b a1 2d bb 30 34 44 3d
       0.027267119 0.14108475 -0.0026493694 0.047901332
000200 8f ba 0e bd b9 d0 dc 3d ca 1f bb 3c 01 9b 6e bc
       -0.034845885 0.10781998 0.022842307 -0.014563323
000210 57 47 be 3d 45 d2 5a 3d 0d 7f bd 3a 3b eb 5a 3c
       0.09290951 0.053423185 0.001445742 0.013361747
000220 e6 9f 44 bc c0 08 a6 3d 82 2d 3f bd 06 07 15 3e
       -0.012001013 0.08107138 -0.04667426 0.1455346
000230 c4 97 d9 bc 07 df 82 be da df 51 3d 4e ed 37 be
       -0.026561625 -0.2556078 0.051238872 -0.17961618
000240 ca 0d 14 be 5d 06 ca bd f9 68 3c be 94 3d f5 bc
       -0.14458385 -0.09864495 -0.18399419 -0.02993659
000250 2b 34 29 be 24 ce 10 be 27 bb da 3c 46 af 6d 3d
       -0.16523807 -0.14141136 0.02670057 0.058028482
000260 1c 90 56 be 92 e9 6b be c9 99 4b be 99 f5 ab bd
       -0.20953411 -0.23038319 -0.19882883 -0.083964534
000270 dc 74 88 bd 09 8c 08 3d 04 2d b7 3b 8d 82 c9 bc
       -0.06662914 0.033336673 0.005590083 -0.024598384
000280 cf 16 0b be f3 6a 47 be 79 c6 fd bd 10 56 99 be
       -0.1358292 -0.19474392 -0.12391371 -0.29948473
000290 66 ae 75 3d 9e b9 18 3e d0 e1 4a 3d 8b 37 9b bd
       0.059980772 0.14914557 0.049531758 -0.07578953
0002a0 cc 83 01 3c 45 c3 ab 3d 90 d9 1f 3d 71 e1 e9 ba
       0.007904958 0.08386854 0.039025843 -0.0017843676
0002b0 f0 7d 4f be b3 15 8e ba 5e b7 0f 3c b3 44 77 3c
       -0.20262885 -0.0010840207 0.0087717455 0.015092063
0002c0 a7 a1 83 3d 18 23 de 3c c2 78 b3 3c cb 4f a8 3c
       0.06427317 0.027116343 0.021908168 0.02054586
0002d0 f3 14 d1 3d ca 48 6c bd 80 6c 6a be 38 92 0b 3e
       0.10209074 -0.057686605 -0.22892952 0.13629997
0002e0 52 eb 10 bd b1 c9 09 3d c8 27 18 3d 02 82 4a bd
       -0.03538067 0.033639614 0.037147313 -0.04944039
0002f0 a6 da ce bc 61 d9 df 3c 13 37 fd 3b 86 19 82 be
       -0.025250744 0.027325334 0.0077275126 -0.25410098
000300 6b 28 1a 3d ac 0b 33 3d f1 d3 12 3d cd bc cc 3c
       0.0376362 0.043712303 0.035846654 0.024992371
000310 03 46 cb bd d2 93 09 be 02 3f 25 be ae f3 8a bc
       -0.09925463 -0.13435295 -0.16137317 -0.016961899
000320 af fa c0 bd b1 94 d6 bd 6c f0 56 be 5b a3 a9 bd
       -0.09422814 -0.104775794 -0.20990151 -0.08283111
000330 79 9f f4 3c 70 aa 1a be 7a 60 a2 3d 3c ec 72 bd
       0.029861199 -0.15104079 0.07928558 -0.059307322
000340 00 74 1c bd 8d d5 00 be 82 30 d7 bc 34 e4 ea ba
       -0.038196564 -0.12581463 -0.026268248 -0.0017920793
000350 82 f4 2d be ac 5d 09 be 09 20 7a 3c 06 b8 d6 3d
       -0.16987804 -0.13414639 0.015266427 0.104843184
000360 61 11 ce 3c ba f0 eb ba ff 43 54 bd 33 b8 13 be
       0.025154771 -0.0018000819 -0.05182266 -0.14425735
000370 c8 ed 2d be 88 91 b3 bd 38 4a 8d 3d 6e 39 fd 3b
       -0.16985238 -0.08767992 0.06898922 0.0077277934
000380 ee a3 dd 3c 7d 92 be bd c4 d9 36 be 93 f5 17 bd
       0.027055707 -0.09305284 -0.17856508 -0.037099432
000390 e3 8d 41 3e 87 b7 95 3d 09 92 02 3d 40 ef 5c be
       0.18901782 0.07310396 0.03187755 -0.21575642
0003a0 4e ea a7 3b a7 20 b3 3d 67 2f 0c 3e 4a be f9 3c
       0.005124367 0.08746462 0.13689958 0.030486245
0003b0 4f 98 50 be 28 e9 c4 3d ed a6 22 be b2 56 0e 3d
       -0.20370601 0.096147835 -0.1588399 0.034750648
0003c0 ee 0c d1 3c a1 c3 6d bd 3e a6 42 3e e2 21 0d be
       0.02551886 -0.058047894 0.19008729 -0.13782457
0003d0 25 91 cd 3a 03 b5 1e 3d 45 53 f1 bd 2f c1 60 be
       0.0015683515 0.038746845 -0.117834605 -0.21948694
0003e0 ca 29 05 bc b4 f4 af 3d 9d b4 25 bd a2 15 b4 3d
       -0.008127639 0.08591595 -0.04045545 0.08793189
0003f0 b9 73 75 bc 67 55 20 3e 40 5b 56 3d 24 e2 b5 bc
       -0.014981204 0.15657578 0.052333117 -0.022202559

model.8.bias f4 [16]
000000 df 5f 07 3e ad a4 8e bd 43 5f 02 be 0c 64 18 3e
       0.13220166 -0.06965003 -0.12731652 0.14881915
000010 40 eb 5b 3c e6 51 9a 3d b1 88 0c be 99 32 95 3d
       0.013422787 0.07535152 -0.13724019 0.07285041
000020 c9 2d 4b bd 03 ca 0a be b0 f7 2f 3e 2a 4d 0f be
       -0.04960421 -0.13553624 0.17184329 -0.1399428
000030 12 7e c4 bd 05 45 a0 3d a2 ee dd bd 87 5d ba 3d
       -0.095943585 0.078256644 -0.10836531 0.0909987

model.9.weight f4 [16]
000000 22 94 84 3f e7 cb 40 3f f2 76 66 3f ff 72 6a 3f
       1.0357707 0.7531113 0.90025246 0.9158172
000010 ca 88 8c 3f f2 a1 69 3f b2 32 81 3f 16 5a 66 3f
       1.0979245 0.91262734 1.0093596 0.8998121
000020 d3 fe 81 3f ec 9f 75 3f 36 d4 89 3f f0 0b 51 3f
       1.0155891 0.95947146 1.0767887 0.8165884
000030 b4 79 78 3f 10 ba 43 3f 48 36 70 3f 3b 5c 9b 3f
       0.97060704 0.76455784 0.93832827 1.2137522

model.9.bias f4 [16]
000000 5c 9e 55 3f fb 47 66 3f bd 1a 64 3f 92 42 50 3f
       0.8344476 0.89953583 0.891033 0.8135158
000010 cf 56 71 3f 62 e0 73 3f 66 f7 31 3f 6f a4 55 3f
       0.94273084 0.95264256 0.69518125 0.8345403
000020 b0 df 35 3f d3 3f 3b 3f a4 67 55 3f 98 48 86 3f
       0.71044445 0.73144263 0.8336127 1.0490904
000030 c3 bb 50 3f 58 bf 4d 3f 7c cb 45 3f 94 3e 5c 3f
       0.815365 0.8037009 0.7726362 0.86032987

model.9.running_mean f4 [16]
000000 e0 9c 32 be 86 c2 85 be 82 b9 b6 bd 69 3b 07 3f
       -0.17442656 -0.26124972 -0.089221016 0.5282503
000010 17 1f 87 be 4b f0 f2 bd 55 f3 bf be 59 31 dd bc
       -0.26390907 -0.118622385 -0.37490335 -0.02700107
000020 43 bc 96 be 25 78 c2 be 73 0b af bd 68 7e ac be
       -0.29440507 -0.37982288 -0.08547106 -0.3369019
000030 72 96 b3 be 42 5d 65 be a2 fb 8c be bb 94 16 be
       -0.35075718 -0.22398856 -0.2753573 -0.14705174

model.9.running_var f4 [16]
000000 db 59 57 3f e8 74 17 3f 82 e5 32 3e d7 44 08 3e
       0.84121484 0.5916276 0.17470363 0.1330751
000010 e8 59 2b 3f 95 fa 2f 3f ca d2 e0 3e 91 48 db 3e
       0.6693406 0.6874173 0.4391082 0.428288
000020 1f 32 0a 3f d1 20 0e 3f 49 60 8e 3f 63 39 10 3f
       0.5398273 0.55518824 1.1123134 0.56337565
000030 f9 9b 22 3f 6c 95 73 3f f2 91 df 3e 26 9b 12 3f
       0.63519245 0.95149875 0.43666035 0.5726799

model.12.weight f4 [1, 16]
000000 8d b3 ec 3e b1 9f ff 3e 2d 94 cc 3e 92 1f d2 3e
       0.46230736 0.49926522 0.399568 0.4103971
000010 68 af da 3e 85 3b e1 3e 4e 50 05 3f 5b 06 e0 3e
       0.4271195 0.43990722 0.5207566 0.4375485
000020 05 59 02 3f 61 bf 05 3f d4 c8 e6 3e 00 bd d7 3e
       0.50917083 0.52245146 0.45075095 0.42136383
000030 de 1c f9 3e 5b 76 06 3f 44 ec e3 3e b4 d4 d6 3e
       0.48654836 0.52524346 0.44516194 0.41959155
