neuralnet/Hyperparameter sweeps/hp sweep pca 2/pca_bike_volume_model_net_3layers_lr_0.00005000_batch_64_pca_29.pth (torch, 29753 bytes, 19 tensors)

model.0.weight f4 [64, 29]
0	0x3da3889c	0.079850405
1	0xbd8ac400	-0.06775665
2	0x3def739c	0.116919726
3	0xbe30a68f	-0.17251037
4	0xb8833a28	-6.257399e-05
5	0x3dcc0eb5	0.09963743
6	0x3dc993f4	0.09842673
7	0x3d69c692	0.057074137
8	0x3cd905fb	0.02649211
9	0xbd24c6d2	-0.040228672
10	0x3d898cef	0.06716334
11	0x3e3e995d	0.18613191
12	0xbd49b1e5	-0.04924192
13	0xbe760694	-0.24025947
14	0x3d18b67e	0.037283413
15	0x3db6125c	0.088902205
16	0x3e0f4623	0.13991599
17	0xbd6dcc40	-0.058056116
18	0xbd354b0f	-0.044261035
19	0x3e3dba2d	0.18528052
20	0x3cb24e9a	0.021765996
21	0xbdff0c3b	-0.12453505
22	0xbe10ffff	-0.14160155
23	0xbc1d33ed	-0.0095949
24	0x3db4c7d3	0.08827176
25	0xbc1004b0	-0.00879018
26	0x3d79dba9	0.0610005
27	0x3e053e12	0.13011959
28	0x3d66f98a	0.056390323
29	0xbd3b86be	-0.045782797
30	0xbd4bf4eb	-0.04979412
31	0x3c54ce26	0.012988603
32	0x3e3287b8	0.17434585
33	0xbbe84f73	-0.007089549
34	0x3ce4536f	0.027871815
35	0xbe25bc7d	-0.16185184
36	0xbe00ea64	-0.12589413
37	0xbd076968	-0.033059508
38	0x3ccc8e91	0.024970325
39	0xbdb0b3e2	-0.0862806
40	0xbe09c9d4	-0.13455898
41	0x3dc69e6e	0.09698187
42	0xbdda1e90	-0.106503606
43	0xbd8adcbc	-0.06780383
44	0x3e1a9c65	0.15098722
45	0xbe4918dc	-0.1963839
46	0xbd829d2e	-0.06377636
47	0x3e15d83a	0.14633265
48	0x3e01b2ee	0.12665913
49	0x3d9535ab	0.07285627
50	0x3e64fbb6	0.22361645
51	0x3c4e64ad	0.012597245
52	0x3da3335f	0.07968783
53	0x3e20262e	0.15639564
54	0xbd767a93	-0.06017549
55	0xbe2139ae	-0.1574466
56	0x3d043c6e	0.032284193
57	0xbe533e7f	-0.20629309
58	0x3b8033fd	0.0039124475
59	0xbdeaba2f	-0.11461293
60	0xbdcf1cbd	-0.10112903
61	0xbcdf129b	-0.027230551
62	0x3d838f57	0.06423824
63	0x3dd34730	0.10316312
64	0xbb8eb6b8	-0.004355278
65	0xbe118baf	-0.14213441
66	0x3bc8c27e	0.006126701
67	0xbd4fc03a	-0.05072043
68	0xbe06fbb2	-0.13181952
69	0xbd6b0b6e	-0.057383947
70	0xbd4e86b0	-0.050421417
71	0xbcde49d0	-0.027134806
72	0x3d893173	0.06698885
73	0x3c997bf7	0.018735869
74	0x3d76d161	0.060258273
75	0xbdd240b3	-0.10266247
76	0xbdd0cf4a	-0.10195787
77	0xbe1b52bb	-0.15168278
78	0xbe027bb9	-0.12742509
79	0xbd251168	-0.040299803
80	0x3e3d9c2c	0.18516606
81	0xbdf520ff	-0.11969184
82	0xbcb946ef	-0.022616832
83	0xbe4e965d	-0.20174547
84	0xbd8ed723	-0.06974628
85	0xbd85febd	-0.06542728
86	0x3e8c797d	0.27436438
87	0xbce3e684	-0.02781988
88	0xbd3f0e51	-0.046644513
89	0xbd9af570	-0.07566345
90	0x3df1e472	0.118111506
91	0xbde2ddc7	-0.11077457
92	0x3e2be7d4	0.16787654
93	0x3c677506	0.014127022
94	0xbd9d4cb6	-0.07680647
95	0x3bef5440	0.0073037446
96	0x3d3707c3	0.044685137
97	0x3d990344	0.07471326
98	0xbd07a38d	-0.03311496
99	0x3e0430da	0.1290926
100	0x3dffb6f9	0.12486071
101	0x3c36d399	0.011158847
102	0x3df731fe	0.12070082
103	0xbe5d5399	-0.21613921
104	0xbbdf661d	-0.006817593
105	0xbdba8edd	-0.0910928
106	0xbcf34136	-0.029694181
107	0xbd98d7bc	-0.07463023
108	0x3d87f24a	0.0663801
109	0xbe4ae43c	-0.19813627
110	0xbd6d830d	-0.057986308
111	0xbcbeee3b	-0.023306957
112	0x3c6b8114	0.014374036
113	0xbe3a3aea	-0.18186536
114	0x3de04de3	0.10952356
115	0xbdd65476	-0.104653284
116	0xbcf9792f	-0.030453293
117	0xbcce36aa	-0.02517255
118	0xbc731796	-0.014837166
119	0x3d6bc17e	0.057557575
120	0xbdff8436	-0.12476389
121	0x3e2806bf	0.16408823
122	0xbe223c6f	-0.15843366
123	0x3c48dd94	0.01225986
124	0x3d2fd800	0.042930603
125	0x3dc2c9cf	0.09511148
126	0x3d976793	0.07392802
127	0xbc120585	-0.008912449
128	0xbc810434	-0.015749075
129	0x3e062dcd	0.13103409
130	0x3e00a96e	0.12564632
131	0xbd83e2af	-0.06439721
132	0xbe2a5c1d	-0.16636701
133	0x3d89237b	0.066962205
134	0xbe219516	-0.15779528
135	0xbde2fd64	-0.11083487
136	0xbd0316b7	-0.032004084
137	0xbd4f01e0	-0.050538898
138	0xbe747e6d	-0.23876353
139	0x3d88c23d	0.06677673
140	0x3dedd9b5	0.1161379
141	0x3d9e8a65	0.077412404
142	0xbd94dcf5	-0.07268707
143	0xbe3a9e33	-0.1822441
144	0xbe05dd79	-0.13072766
145	0xbc835db4	-0.016035892
146	0x3dceffd1	0.10107387
147	0xbd59ca7f	-0.05317163
148	0xbcc83738	-0.024440393
149	0x3d665444	0.056232706
150	0xbd825a0e	-0.06364833
151	0xbe248a2f	-0.16068338
152	0xbbcb290b	-0.006199961
153	0x3d7e7c67	0.062130358
154	0x3d1d7033	0.03843708
155	0xbd58e63d	-0.052953947
156	0xbe23b2dd	-0.159862
157	0x3b995b7d	0.0046800957
158	0xbdef940a	-0.11698158
159	0xbbceabe9	-0.0063071144
160	0xbd61e69f	-0.055151578
161	0x3e0e3016	0.13885531
162	0x3d4d2520	0.050084233
163	0xbd62f9ab	-0.055413883
164	0xbdc75c5d	-0.09734414
165	0x3ac810b3	0.0015263766
166	0x3d73bbed	0.059505392
167	0xbcf763c4	-0.03019894
168	0x3e1627ac	0.14663571
169	0xbda2cb98	-0.07948989
170	0x3e22631b	0.15858118
171	0xbdf478d3	-0.11937108
172	0xbd2cb99b	-0.042169195
173	0x3cfad306	0.030618202
174	0xbd86059f	-0.06544041
175	0x3df8dc5b	0.121514045
176	0x3c9dcbc2	0.019262198
177	0x3cb7c41d	0.022432381
178	0x3e17b45a	0.14814892
179	0x3e651102	0.22369769
180	0xbd491de0	-0.049100757
181	0xbcf8e7bb	-0.030383935
182	0x3dc27d06	0.094965026
183	0x3e2fb31b	0.17158167
184	0x3c55ce3d	0.013049659
185	0xbdb8d842	-0.09025623
186	0xbc91be77	-0.017791016
187	0xbdf557db	-0.11979648
188	0x3d69e3ea	0.05710212
189	0x3db653ec	0.089027256
190	0x3d37e4b2	0.044895835
191	0x3db6fd03	0.08934977
192	0x3c45b941	0.012068094
193	0xbe0783df	-0.13233899
194	0xbca04010	-0.019561797
195	0xbc8dfe7b	-0.01733326
196	0xbcbe293a	-0.023213018
197	0xbd4acae5	-0.0495099
198	0xbe057368	-0.13032305
199	0x3e18107b	0.14850037
200	0xbde286cd	-0.110608675
201	0x3d2a6dca	0.04160861
202	0x3cdf5c54	0.027265705
203	0x3b2cd43d	0.002637162
204	0xbd7d8729	-0.061896477
205	0x3a9b9abc	0.0011871676
206	0x3d1ee141	0.038789038
207	0xbc6cc856	-0.014452061
208	0x3ca93d23	0.020659035
209	0xbdf9c348	-0.1219545
210	0xbdf2a2a9	-0.11847431
211	0xbde1a5e1	-0.11017967
212	0xbd4fc22d	-0.05072229
213	0xbe2e18a5	-0.17001589
214	0xbe2055c1	-0.15657713
215	0x3dcd772c	0.10032496
216	0x3d4c9b3c	0.04995273
217	0xbd46fc97	-0.048580732
218	0x3e84bc9f	0.25925156
219	0xbcfd0cc4	-0.030889876
220	0x3d1fe556	0.03903707
221	0x3e76ae4b	0.24089925
222	0x3d7c7b2a	0.061640896
223	0x3d2b8183	0.04187156
224	0xbd0c89d7	-0.03431114
225	0x3dfd397f	0.12364482
226	0x3dae1956	0.08500926
227	0x3dee8370	0.116461635
228	0xbe15565a	-0.14583722
229	0x3deec67a	0.1165895
230	0x3d93a908	0.072099745
231	0xbd62cee1	-0.055373076
232	0xbc8fb1fb	-0.017540922
233	0x3de316d9	0.11088342
234	0xbd6f6292	-0.058443613
235	0xbd171b4b	-0.036891263
236	0x3db00f0e	0.085966215
237	0xbdb340b5	-0.08752576
238	0xbe4dde33	-0.20104294
239	0xbd1d53cd	-0.038409997
240	0x3cccf426	0.025018763
241	0x39d33699	0.00040285735
242	0xbcdfa7e4	-0.027301736
243	0xbe6da5ae	-0.23207733
244	0x3da04adf	0.078267805
245	0xbe334ea8	-0.17510474
246	0xbcd782f4	-0.02630756
247	0xbc865f0b	-0.016402742
248	0x3de8172d	0.113325454
249	0x3d3e1aa0	0.04641211
250	0xbcac882a	-0.021061022
251	0xbbe33f3d	-0.006935029
252	0x3ccb916b	0.024849614
253	0x3c69ab05	0.014261966
254	0xbdb57cad	-0.08861671
255	0x3e4355db	0.1907572

model.0.bias f4 [64]
0	0x37465507	1.1821517e-05
1	0xb708ee30	-8.161689e-06
2	0x36a39020	4.874557e-06
3	0x35d32c28	1.5733576e-06
4	0x36a75ce7	4.987803e-06
5	0xb514abf0	-5.53845e-07
6	0xb697dec2	-4.526083e-06
7	0x3757c27b	1.286028e-05
8	0xb704f006	-7.923698e-06
9	0x37af8cda	2.0927215e-05
10	0xb71f6b4b	-9.50212e-06
11	0xb6d0863b	-6.2145095e-06
12	0x35e039df	1.6706143e-06
13	0xb72733bc	-9.966021e-06
14	0xb7054a50	-7.94472e-06
15	0xb72e7736	-1.0398964e-05
16	0x36bdd5e8	5.657541e-06
17	0x366288f9	3.3756353e-06
18	0x37d5467e	2.5424404e-05
19	0x365e5416	3.3129522e-06
20	0x36bfb3b6	5.7131647e-06
21	0xb70676c4	-8.014675e-06
22	0x36a657ce	4.9574073e-06
23	0x36066c8a	2.0030734e-06
24	0x36e35ba2	6.7757946e-06
25	0xb66647c4	-3.4314444e-06
26	0xb5eb47ac	-1.7529724e-06
27	0xb74d06be	-1.2220522e-05
28	0x377c33f0	1.5032463e-05
29	0xb74ac02a	-1.208488e-05
30	0xb6dea6f8	-6.6355533e-06
31	0xb783bb89	-1.5703745e-05
32	0x37dcc962	2.631982e-05
33	0x379059a6	1.7207884e-05
34	0x33c9b8f8	9.3934375e-08
35	0xb605cb80	-1.9936997e-06
36	0x373158f6	1.0570735e-05
37	0x37641faf	1.3597236e-05
38	0xb5ffd348	-1.9060471e-06
39	0xb57f831a	-9.518568e-07
40	0xb7119908	-8.678304e-06
41	0xb79e616b	-1.8880432e-05
42	0x377d2b74	1.5090092e-05
43	0xb705d785	-7.977597e-06
44	0x37549f0f	1.2673218e-05
45	0xb7224825	-9.67275e-06
46	0x341f6f20	1.4848456e-07
47	0x3661122e	3.3538195e-06
48	0xb7192a7f	-9.129405e-06
49	0xb7090b8e	-8.168527e-06
50	0xb61e0bb1	-2.355064e-06
51	0xb6e3727a	-6.778454e-06
52	0x372e8a4b	1.0403407e-05
53	0x371c5f9c	9.320585e-06
54	0xb31f29b0	-3.7057987e-08
55	0x33fcd8e0	1.1774114e-07
56	0x369654f6	4.480239e-06
57	0x36cd794d	6.1235974e-06
58	0x367c7cc4	3.762355e-06
59	0x356f366e	8.9113644e-07
60	0x35b6aee4	1.3610957e-06
61	0x37200105	9.5369805e-06
62	0xb70ba436	-8.323279e-06
63	0xb63c07ac	-2.8018649e-06

model.1.weight f4 [64]
0	0x3f4819c6	0.7816433
1	0x3f7690ee	0.96314895
2	0x3f3dd6be	0.74155796
3	0x3f5c62f5	0.86088496
4	0x3f5fa6c8	0.87363863
5	0x3f4f4a2f	0.8097257
6	0x3f3eb6ac	0.74497485
7	0x3f666d48	0.900105
8	0x3f64402b	0.8916041
9	0x3f5a21fb	0.852081
10	0x3f447942	0.76747525
11	0x3f517536	0.81819475
12	0x3f38307e	0.71948993
13	0x3f62f757	0.8865866
14	0x3f4e9f49	0.807118
15	0x3f63eaf1	0.8903037
16	0x3f491be4	0.7855818
17	0x3f3c047e	0.73444355
18	0x3f5bf971	0.8592749
19	0x3f406250	0.7515001
20	0x3f4a0def	0.7892751
21	0x3f3f087d	0.7462233
22	0x3f4d7380	0.80254364
23	0x3f540f99	0.828363
24	0x3f6a23fd	0.91461164
25	0x3f5aef50	0.8552141
26	0x3f5202b8	0.820354
27	0x3f4d64fe	0.80232227
28	0x3f4c4f26	0.7980827
29	0x3f3fe47f	0.7495803
30	0x3f43d6b4	0.76499486
31	0x3f554b0d	0.83317643
32	0x3f3ba57c	0.73299384
33	0x3f41cd79	0.7570415
34	0x3f37ca49	0.7179304
35	0x3f53bb25	0.82707435
36	0x3f3d612e	0.7397641
37	0x3f4c993f	0.79921335
38	0x3f610566	0.8789886
39	0x3f6be514	0.9214642
40	0x3f511f1c	0.81688094
41	0x3f433675	0.7625497
42	0x3f465a5e	0.7748164
43	0x3f530279	0.8242565
44	0x3f6401aa	0.8906504
45	0x3f2dc7a4	0.6788275
46	0x3f50394e	0.8133744
47	0x3f521bb8	0.82073545
48	0x3f3b98ff	0.7328033
49	0x3f588024	0.8457053
50	0x3f47b76e	0.78014266
51	0x3f3afc7e	0.7304152
52	0x3f494eba	0.7863575
53	0x3f349aad	0.70548517
54	0x3f4cbe18	0.7997756
55	0x3f3ff721	0.74986464
56	0x3f451872	0.76990426
57	0x3f34f2d8	0.7068305
58	0x3f4ea80f	0.8072519
59	0x3f3a9c33	0.7289459
60	0x3f389d25	0.72114784
61	0x3f49ea44	0.78873086
62	0x3f4ea103	0.80714434
63	0x3f4ce074	0.8002999

model.1.bias f4 [64]
0	0xbe13fe96	-0.14452586
1	0xbeb60a87	-0.35554907
2	0xbe289917	-0.16464649
3	0xbe08a946	-0.13345823
4	0xbe118fd1	-0.14215018
5	0xbec87172	-0.39149052
6	0xbebe5989	-0.37177685
7	0xbe942dbe	-0.2894115
8	0xbf08a8de	-0.5338267
9	0xbe256897	-0.16153179
10	0xbe82d09e	-0.25549787
11	0xbf031c91	-0.51215464
12	0xbe1cb007	-0.15301524
13	0xbe8d95a6	-0.27653235
14	0xbf057fe6	-0.5214828
15	0xbe61e3d8	-0.22059572
16	0xbf142d3d	-0.5788153
17	0xbe51f00e	-0.2050173
18	0xbe44d117	-0.19220386
19	0xbe9d7e8a	-0.30760604
20	0xbeed12fc	-0.46303546
21	0xbe787839	-0.24264611
22	0xbf0dfb7c	-0.5546186
23	0xbe208abe	-0.15677926
24	0xbe9e65f3	-0.30937156
25	0xbe23cbd1	-0.15995719
26	0xbef49daa	-0.47776538
27	0xbe4475e1	-0.19185592
28	0xbec38701	-0.38188937
29	0xbe48e705	-0.19619377
30	0xbf05ff24	-0.5234244
31	0xbe2e81ba	-0.17041674
32	0xbefa9fd7	-0.48950073
33	0xbe1a069a	-0.15041581
34	0xbec96521	-0.39334968
35	0xbebdf850	-0.3710351
36	0xbe957525	-0.29190937
37	0x3d4ee7a3	0.050513875
38	0xbe606ab1	-0.219157
39	0xbe224bce	-0.1584923
40	0xbeea6d9c	-0.4578675
41	0xbde6c130	-0.11267316
42	0xbed3c95d	-0.41364565
43	0xbf00bc9d	-0.502878
44	0xbdb1645f	-0.086617224
45	0xbf0216fd	-0.5081633
46	0xbddd98c4	-0.10820153
47	0xbe1c8e18	-0.1528858
48	0xbec6a179	-0.3879507
49	0xbdfc317a	-0.123141244
50	0xbece9c96	-0.4035384
51	0xbede08f3	-0.43366203
52	0xbe7bda38	-0.24594963
53	0xbead5c19	-0.33859327
54	0xbeaba2ca	-0.33522636
55	0xbe9cc7f6	-0.30621308
56	0xbe748363	-0.23878245
57	0xbe7a16de	-0.24422786
58	0xbecea639	-0.40361193
59	0xbe1d7218	-0.15375555
60	0xbe81bb14	-0.25338042
61	0xbe2e992a	-0.17050615
62	0xbefe017e	-0.49610513
63	0xbefa6316	-0.48903722

model.1.running_mean f4 [64]
0	0x3dc69666	0.09696655
1	0x3c69e8c5	0.014276688
2	0xbdddbed5	-0.10827414
3	0xbd83e205	-0.06439594
4	0xbd08689f	-0.0333029
5	0x3a5395c0	0.0008071326
6	0x3ab6f2d4	0.0013957866
7	0x3cc67bc0	0.02422893
8	0x3ca2be3f	0.019866107
9	0xbc83cbfe	-0.016088482
10	0x3dc91e7b	0.09820267
11	0x3d2047f4	0.03913112
12	0x3d2e7b31	0.042597953
13	0xbc95625e	-0.018235382
14	0xbd0415fb	-0.032247525
15	0xbdc4ee17	-0.096157245
16	0x3a76b1d4	0.0009410654
17	0x3d8c49e3	0.0685003
18	0xbe24f06b	-0.16107337
19	0xbd970bca	-0.073752955
20	0x3da969c2	0.08272125
21	0xbd656dea	-0.056013025
22	0x3d9032af	0.07040917
23	0xbe1c1a0c	-0.15244311
24	0x3d36c98c	0.044625804
25	0x3d8484e1	0.06470657
26	0x3cdf35f3	0.027247405
27	0x3d278489	0.04089788
28	0x3da89c2c	0.082329124
29	0x3ca74290	0.020417482
30	0x3d059103	0.032608997
31	0xbbcfba78	-0.0063393675
32	0xbd3f34ff	-0.0466814
33	0x3d7fb754	0.062430695
34	0xbc171a0b	-0.009222518
35	0x3d052300	0.03250408
36	0xbd0150d0	-0.03157121
37	0xbd22ceac	-0.03974788
38	0xbd029ce7	-0.031887915
39	0xbe037b21	-0.12839939
40	0x3d3199e9	0.04335967
41	0xbc8c19b4	-0.0171021
42	0x3d4f67d7	0.05063614
43	0x3d35966c	0.044332907
44	0xbdee605c	-0.11639473
45	0x3bcaa3ad	0.0061840625
46	0xbdd7f549	-0.10544831
47	0x3d5373e3	0.05162419
48	0xbda6f3e4	-0.08151987
49	0xbdb4eb4c	-0.08833942
50	0x3dce642d	0.10077701
51	0x3d225bc4	0.039638296
52	0x3d40c120	0.04705918
53	0xbe0ed52c	-0.13948506
54	0xbd6ab572	-0.057301946
55	0x3c69427e	0.014237044
56	0x3e39f1f2	0.18158701
57	0x3cff0139	0.031128513
58	0x3d983b0f	0.074331395
59	0xbe08de98	-0.13366163
60	0xbdcb06a4	-0.09913376
61	0x3d829e1a	0.06377812
62	0x3d2c581c	0.042076215
63	0x3d06caf4	0.032908395

model.1.running_var f4 [64]
0	0x3ee941a1	0.45557883
1	0x3ec34d5d	0.3814496
2	0x3f0acb19	0.5421615
3	0x3e86cea1	0.2632952
4	0x3e5b7818	0.21432531
5	0x3e99df35	0.30053106
6	0x3f1895f9	0.5960384
7	0x3e6bb4d8	0.23018205
8	0x3edf1c41	0.43576244
9	0x3e30b825	0.17257746
10	0x3f1ffca4	0.62494874
11	0x3f0a5e79	0.54050404
12	0x3f53a4c7	0.82673305
13	0x3e42fe07	0.19042216
14	0x3e89d276	0.2691838
15	0x3e6d17dc	0.23153633
16	0x3f63c84b	0.889775
17	0x3f01cb6f	0.5070104
18	0x3e85cbce	0.26132053
19	0x3f06cbc6	0.52654684
20	0x3f5b262b	0.85605115
21	0x3e93a1b8	0.2883432
22	0x3f5970cb	0.84937733
23	0x3f0277ea	0.50964224
24	0x3eec8b57	0.46200058
25	0x3f2b162b	0.668307
26	0x3ecc7ac8	0.39937425
27	0x3f0ccc70	0.54999447
28	0x3f337a7f	0.7010879
29	0x3f20540a	0.62628233
30	0x3f8ca02a	1.0986378
31	0x3e71d3cc	0.2361595
32	0x3f5c65da	0.86092913
33	0x3e7d4499	0.24733199
34	0x3ee40acb	0.44539484
35	0x3e9f180e	0.3107304
36	0x3e73787b	0.23776428
37	0x3ea21a3d	0.31660643
38	0x3e254e06	0.16143045
39	0x3ea6a4aa	0.32547504
40	0x3ea051c8	0.31312394
41	0x3ea409c4	0.320387
42	0x3ec87a60	0.39155865
43	0x3f30e6c3	0.69102114
44	0x3f016362	0.5054227
45	0x3e6d57dd	0.23178048
46	0x3e6df470	0.23237777
47	0x3e913654	0.28361762
48	0x3e748aff	0.23881148
49	0x3e587aa2	0.2114053
50	0x3f5e19c4	0.86758065
51	0x3f15df62	0.5854398
52	0x3f122f54	0.57103467
53	0x3ebc30df	0.36756036
54	0x3f1de395	0.6167539
55	0x3f1f5dee	0.622527
56	0x3ef4b9ad	0.4779791
57	0x3ed42a76	0.41438645
58	0x3f8056fc	1.0026546
59	0x3f341078	0.7033763
60	0x3f1a592e	0.6029233
61	0x3e4cf00c	0.20013446
62	0x3f82e9a7	1.0227555
63	0x3ed5f4f7	0.41788456

model.4.weight f4 [32, 64]
0	0xbc1bb58c	-0.009503733
1	0xbcb1dd1f	-0.021711884
2	0xbd854e55	-0.06509081
3	0xbd9a8261	-0.07544399
4	0xbd8ffdf6	-0.07030861
5	0x3d336b53	0.043803524
6	0xbd8a877b	-0.06764122
7	0xbc5c0b1c	-0.013430383
8	0x3d9da7dc	0.07698032
9	0xbd0cf3f9	-0.034412358
10	0xbc0143ef	-0.007889732
11	0x3d8d8b69	0.06911356
12	0xbd25c610	-0.04047209
13	0xbd190b64	-0.03736438
14	0x3ae66806	0.0017578609
15	0xbe03a9ce	-0.12857744
16	0x3d8c123c	0.068394154
17	0xba5e0f4d	-0.0008470908
18	0xbd87cda2	-0.06631018
19	0x3cd78ebf	0.026313184
20	0xbccb7cb2	-0.024839733
21	0x3be5e3d9	0.007015687
22	0x3e00ab7c	0.12565416
23	0xbdcd616a	-0.10028346
24	0x3aa485bb	0.0012552062
25	0x3d16459e	0.036687486
26	0x3dc25b62	0.09490086
27	0xbd289a1b	-0.04116259
28	0x3db79c1f	0.089653246
29	0x3d0c77c5	0.03429391
30	0x3d14d3e2	0.03633488
31	0xbddd99b3	-0.108203314
32	0xbd9c8705	-0.076429404
33	0xbd8a1bce	-0.067435846
34	0xbdcca7cb	-0.099929415
35	0x3c7db6f5	0.015485515
36	0xb95a35fc	-0.00020810211
37	0xbdd60169	-0.10449488
38	0xbcd3b8ee	-0.025845017
39	0xbda49dcd	-0.080379106
40	0x3d6c6f6b	0.057723444
41	0x3c4954a5	0.012288247
42	0x3c977a46	0.018490922
43	0x3df1cf21	0.11807085
44	0xbdb8079b	-0.08985826
45	0x3d4379ad	0.04772346
46	0xbda7a32b	-0.08185419
47	0x3c83b6d2	0.016078386
48	0x3bd3dc65	0.006465482
49	0xbd21bc82	-0.039486416
50	0x3d8e150b	0.069376074
51	0x3c6b8f8c	0.014377486
52	0x3d5e881f	0.054329034
53	0xbae0531a	-0.001711461
54	0xbd85737d	-0.06516168
55	0x3cb63a4f	0.0222446
56	0xbb6109a2	-0.0034338017
57	0xbda9ce20	-0.08291268
58	0x3d38afc6	0.045089506
59	0x3ce5e815	0.028064767
60	0xbd550cd1	-0.052014176
61	0xbc469efd	-0.012122867
62	0x3dc6f6fd	0.09715078
63	0x3df476d5	0.11936728
64	0xbd938a30	-0.072040915
65	0xbe1f8fbc	-0.15582174
66	0x3d00763f	0.03136277
67	0xbd795e3f	-0.060880896
68	0xbdcec0c4	-0.10095361
69	0x3c900db1	0.017584654
70	0x3d2a6078	0.041595906
71	0xbdf4845f	-0.1193931
72	0x3c2b5edc	0.010459628
73	0xbe159488	-0.14607441
74	0xbdae0a33	-0.08498039
75	0x3d026afd	0.031840313
76	0x3cefe24f	0.029282717
77	0xbdc26798	-0.09492415
78	0x3d342506	0.04398062
79	0xbdd7af43	-0.105314754
80	0x3da90bee	0.082542285
81	0xbd8f5e8d	-0.07000456
82	0xbdd9952e	-0.10624157
83	0x3d27ab80	0.04093504
84	0x3d131658	0.03590998
85	0x3cc863dc	0.02446168
86	0x3cdabcb0	0.026701301
87	0xbdab018b	-0.08349904
88	0xbe156a1d	-0.1459126
89	0x3bccd5b8	0.006251063
90	0x3ce879bc	0.02837836
91	0xbd996326	-0.07489614
92	0x3cca708c	0.02471187
93	0xbce3621b	-0.027756741
94	0x3d4800c9	0.048828874
95	0xbddeea5b	-0.108845435
96	0x3d87bc6d	0.06627736
97	0xbd35ffc7	-0.04443338
98	0x3d5e8b5d	0.054332126
99	0xbe0b1758	-0.13583124
100	0x3d391152	0.045182534
101	0xbd09527f	-0.03352594
102	0xbdfdd7a4	-0.12394646
103	0xbdbb12d3	-0.0913445
104	0x3cc26c01	0.02373314
105	0xbdccd9cc	-0.10002479
106	0x3d09f1c9	0.03367785
107	0x3c626aa6	0.013819372
108	0xbdbdd364	-0.09268835
109	0x3d9585a3	0.0730088
110	0xbdb23ba5	-0.087027825
111	0xbda4b03b	-0.08041426
112	0x3d5e7e8e	0.05431991
113	0xbdbb0721	-0.09132219
114	0x3cb77efe	0.022399422
115	0x3d68370f	0.056693133
116	0x3c16a199	0.009193801
117	0x3d616167	0.05502453
118	0x3d0ec9ba	0.03486035
119	0xba8b45c3	-0.0010625649
120	0xbdb494b6	-0.08817427
121	0x3d36da7a	0.04464195
122	0x3d00d0ce	0.03144913
123	0xbdd4fdb3	-0.10399952
124	0x3d52031e	0.051272504
125	0xbdb51b32	-0.08843078
126	0x3cd5d0ac	0.026100479
127	0x3ce4838e	0.027894761
128	0xbd78e59d	-0.06076585
129	0xbdfc9fd6	-0.12335174
130	0x3d0e5cbb	0.034756403
131	0xbd2502c4	-0.04028584
132	0xbe048c28	-0.1294409
133	0x3c2d6972	0.010584222
134	0x3ce29ad7	0.027661724
135	0xbde1c1da	-0.110233024
136	0x3ce64243	0.028107768
137	0xbd7948ee	-0.060860567
138	0xbdeae26b	-0.11468967
139	0x3d3b09ec	0.04566376
140	0x3ca7d57d	0.020487541
141	0xbe05da3c	-0.13071531
142	0x3d671fc1	0.056426767
143	0xbe0cd43f	-0.1375284
144	0x3d914fb9	0.07095284
145	0xbd98a59a	-0.07453461
146	0xbd553f68	-0.052062422
147	0x3d3b20e0	0.04568565
148	0x3d600b04	0.054698005
149	0x3ca5c6d5	0.020236412
150	0x3bd14465	0.006386327
151	0xbda3d16f	-0.07998931
152	0xbdeda8a6	-0.11604433
153	0x3cc71a49	0.024304526
154	0x3cb6880d	0.022281671
155	0xbd64653d	-0.05576061
156	0x3d114eb6	0.035475455
157	0xbc94cc7b	-0.01816391
158	0x3d2a4e86	0.041578792
159	0xbdf24310	-0.118291974
160	0x3d6fb5a5	0.05852284
161	0xbd8b292a	-0.06794961
162	0x3d8bd58a	0.06827839
163	0xbe0eb520	-0.13936281
164	0x3d0126b3	0.031531047
165	0xbcd0bdb6	-0.025481086
166	0xbde87bd2	-0.11351742
167	0xbdaff61b	-0.08591863
168	0x3d4adf75	0.04952951
169	0xbd462314	-0.048373297
170	0x3cf27dc5	0.029600987
171	0x3cd299ed	0.025708163
172	0xbdbd1c6a	-0.09233935
173	0x3d7bb38d	0.06145053
174	0xbdb75d50	-0.08953345
175	0xbda71e97	-0.081601314
176	0x3d67b3ff	0.056568142
177	0xbdb58bcb	-0.08864554
178	0x3d03266a	0.032019056
179	0x3d60222c	0.05472009
180	0x3c20fd47	0.009826011
181	0x3d21b0a6	0.039475106
182	0x3ce14998	0.027500913
183	0x3c082903	0.008310559
184	0xbd9e4507	-0.0772801
185	0x3d131015	0.03590401
186	0x3cb3d90a	0.021954078
187	0xbd53f225	-0.0517446
188	0x3d3f63fd	0.046726216
189	0xbd975ce8	-0.07390767
190	0x3cd20d07	0.025640978
191	0x3d22c24e	0.039736085
192	0x3c813adf	0.015775142
193	0x3cd96572	0.02653763
194	0x3d245db2	0.040128417
195	0x3c3b1b74	0.01142012
196	0x3bc86199	0.00611515
197	0xbd606a12	-0.054788657
198	0xbda87bae	-0.08226715
199	0x3d3913e9	0.045185003
200	0xbddfd40e	-0.10929118
201	0xbd184eb9	-0.03718445
202	0x3bb7679d	0.0055970685
203	0xbdc85814	-0.097824246
204	0xbe00d33f	-0.12580584
205	0xbc2548d3	-0.010088163
206	0xbd9d1e0f	-0.07671749
207	0x3bdaf498	0.00668199
208	0xbd97bf38	-0.07409519
209	0x3c982495	0.018572131
210	0x39bdafcb	0.00036179865
211	0x3d46abed	0.048503805
212	0xbd3f39ff	-0.04668617
213	0xbd4f24cd	-0.050572205
214	0xbd281d9d	-0.041043866
215	0x3c838e1f	0.01605898
216	0x3c8a1318	0.016854808
217	0xbe41f580	-0.18941307
218	0xbdd90c69	-0.1059807
219	0x3d08321a	0.033250906
220	0xbdc1c5d3	-0.0946156
221	0xbdc70ad2	-0.09718861
222	0x3d34e417	0.044162836
223	0xbd2943e5	-0.041324515
224	0xbcc57378	-0.024102911
225	0x3d08a87c	0.033363804
226	0xbad7262a	-0.0016414572
227	0xbbdbee01	-0.006711722
228	0x3d72bea2	0.059263833
229	0x3c589c8c	0.013220917
230	0xbd0bb2f0	-0.034106195
231	0xbb00d96d	-0.0019660846
232	0xbdb869ae	-0.09004532
233	0x3d13844f	0.03601485
234	0xbd9a5584	-0.07535842
235	0xbdeb586a	-0.11491473
236	0x3c9cea1f	0.019154606
237	0x3cd01fa9	0.025405722
238	0x3c7bf944	0.015379254
239	0xbc822dd3	-0.015890991
240	0x3d2cc90a	0.042183913
241	0x3a4ce315	0.000781582
242	0xbe16bd17	-0.1472057
243	0xbd03dbd3	-0.032192063
244	0xbdfcbe75	-0.12341014
245	0x3cca0e27	0.024664951
246	0xbdd5bd7d	-0.10436533
247	0xbde4c13b	-0.11169668
248	0xbd43b78c	-0.047782466
249	0xbd919780	-0.071089745
250	0xbe073a20	-0.13205767
251	0x3b4341d8	0.0029793885
252	0x3bb334d1	0.0054689427
253	0xbc1834f9	-0.009289973
254	0xbdc24e2a	-0.09487565
255	0xbdf2943c	-0.1184468

model.4.bias f4 [32]
0	0x36a930ea	5.042287e-06
1	0x37cbaa6e	2.4278848e-05
2	0x3784c7cd	1.5828666e-05
3	0xb2c1b600	-2.2550921e-08
4	0x3700ae64	7.669998e-06
5	0xb71ed530	-9.4671705e-06
6	0x369e34cf	4.7149147e-06
7	0xb78b29ce	-1.6589558e-05
8	0x371e0781	9.419281e-06
9	0xb794fcbe	-1.7760667e-05
10	0x36bc7b11	5.6171634e-06
11	0x363c68fc	2.8075292e-06
12	0x34a7cc28	3.1254717e-07
13	0xb3c23170	-9.0428216e-08
14	0xb6862bc0	-3.9986044e-06
15	0xb69dc6de	-4.702116e-06
16	0xb7945bfe	-1.7685812e-05
17	0xb74213b3	-1.1567888e-05
18	0xb72a4911	-1.0149802e-05
19	0xb58e4e0f	-1.0602542e-06
20	0xb566bf48	-8.596003e-07
21	0x3647ecef	2.9791224e-06
22	0x38aea172	8.327038e-05
23	0x362b79ee	2.5551958e-06
24	0xb842fceb	-4.6488753e-05
25	0xb7395d82	-1.1048631e-05
26	0xb70c731f	-8.371454e-06
27	0xb766d276	-1.375807e-05
28	0xb58134e0	-9.626638e-07
29	0xb6eab65c	-6.994973e-06
30	0x372862f0	1.0036616e-05
31	0x37318dc4	1.05830295e-05

model.5.weight f4 [32]
0	0x3f515e97	0.8178496
1	0x3f527a94	0.8221829
2	0x3f472195	0.7778562
3	0x3f247885	0.642464
4	0x3f31e3f3	0.6948845
5	0x3f46c9d8	0.7765174
6	0x3f394cda	0.7238289
7	0x3f285482	0.6575395
8	0x3f37c0e8	0.71778727
9	0x3f3c7a03	0.73623675
10	0x3f76b733	0.9637329
11	0x3f2526c1	0.6451226
12	0x3f1f6413	0.62262076
13	0x3f1cd1fa	0.612579
14	0x3f43fd03	0.7655794
15	0x3f19058b	0.5977408
16	0x3f40d4ce	0.75324714
17	0x3f54a310	0.83061314
18	0x3f18149e	0.5940646
19	0x3f32348e	0.6961144
20	0x3f5f1e5c	0.871557
21	0x3f226675	0.6343759
22	0x3f66c73b	0.9014775
23	0x3f1dde60	0.6166744
24	0x3f5d7a0c	0.86514354
25	0x3f42f330	0.76152325
26	0x3f3734e6	0.7156509
27	0x3f1ff987	0.62490124
28	0x3f4e6532	0.8062316
29	0x3f4e57d8	0.8060279
30	0x3f5fd7d6	0.87438715
31	0x3f1a9e83	0.6039812

model.5.bias f4 [32]
0	0xbe188cef	-0.14897512
1	0xbf2eaabe	-0.6822928
2	0xbf0678bf	-0.52527994
3	0xbe107e5b	-0.14110701
4	0xbe85c6ff	-0.26128384
5	0xbe880903	-0.26569375
6	0xbe985c09	-0.29757717
7	0xbe12e927	-0.14346753
8	0xbe0dc3a7	-0.13844167
9	0xbe47175e	-0.19442508
10	0xbe99f7c4	-0.30071843
11	0xbdc4acbc	-0.09603259
12	0xbe987abe	-0.29781145
13	0xbdd70640	-0.10499239
14	0xbed9e65f	-0.42558572
15	0xbe373e1b	-0.17894785
16	0xbedf5efd	-0.43627158
17	0xbf1b02fe	-0.6055144
18	0xbe384413	-0.17994718
19	0xbdebb005	-0.115081824
20	0xbe9a3038	-0.30114913
21	0xbe155ac3	-0.14585404
22	0xbf4127c0	-0.7545128
23	0xbe25b83c	-0.16183561
24	0xbf3aaf79	-0.72924
25	0xbee552f2	-0.44789845
26	0xbe511cfc	-0.20421213
27	0xbe184555	-0.14870198
28	0xbf221439	-0.6331211
29	0xbeeb0e41	-0.45909312
30	0xbe5e1e61	-0.21691276
31	0xbe49ceed	-0.19707842

model.5.running_mean f4 [32]
0	0xbde9429c	-0.11389658
1	0xbefb7ffa	-0.49121076
2	0xbed1ec14	-0.41000426
3	0xbeb0f962	-0.34565264
4	0x3c711286	0.014713889
5	0xbdaab3da	-0.08335085
6	0xbec40a7a	-0.38289243
7	0xbea0a243	-0.31373796
8	0xbdce6741	-0.10078288
9	0xbebf1a25	-0.37324634
10	0xbdcb4838	-0.09925884
11	0xbe956e75	-0.29185835
12	0xbeb7ef48	-0.35924745
13	0xbeca4275	-0.39503828
14	0xbec08bdf	-0.37606713
15	0xbed0d544	-0.4078771
16	0xbec8dd0b	-0.39231142
17	0xbef9beee	-0.4877848
18	0xbec598a5	-0.3859302
19	0xbe6dc8d4	-0.23221141
20	0xbe38de0d	-0.18053456
21	0xbebce019	-0.36889723
22	0xbed9dcfa	-0.42551404
23	0xbed44bde	-0.41464132
24	0xbefac42f	-0.489778
25	0xbed80462	-0.42190844
26	0xbea8106c	-0.3282503
27	0xbee9a6ca	-0.45635062
28	0xbef56792	-0.4793058
29	0xbeba4717	-0.36382362
30	0xbdc5afd2	-0.09652676
31	0xbedd814d	-0.4326271

model.5.running_var f4 [32]
0	0x3e8fef4c	0.28112257
1	0x3ec665c1	0.38749507
2	0x3eb53d35	0.3539826
3	0x3ece7d83	0.40330133
4	0x3dfa08dd	0.12208722
5	0x3e9016e9	0.2814248
6	0x3ebbd432	0.3668533
7	0x3eb0bc66	0.34518737
8	0x3e37f313	0.17963819
9	0x3ec89878	0.39178824
10	0x3e9cb628	0.30607724
11	0x3e7da2b4	0.24769098
12	0x3eac5082	0.33655173
13	0x3ed03f46	0.40673274
14	0x3eae66d0	0.34062815
15	0x3eca55ac	0.39518487
16	0x3ec8cb66	0.3921768
17	0x3ef557d4	0.4791857
18	0x3eb72970	0.35773802
19	0x3eb62282	0.35573202
20	0x3ebb2282	0.36549765
21	0x3ecb6233	0.39723358
22	0x3e8d40e3	0.27588567
23	0x3ea27027	0.3172619
24	0x3ebc4f1c	0.36779106
25	0x3eb2744a	0.34854347
26	0x3ea0b675	0.31389204
27	0x3eca6afa	0.39534742
28	0x3ed1f480	0.4100685
29	0x3ed97044	0.42468464
30	0x3eb52e0c	0.35386693
31	0x3eb7b523	0.35880384

model.8.weight f4 [16, 32]
0	0x3d4eed79	0.05051944
1	0xbe544989	-0.20731176
2	0xbdf31397	-0.11868971
3	0x3ca55373	0.020181393
4	0xbcef7227	-0.029229237
5	0x3bd21e12	0.006412276
6	0xbd25d6cd	-0.040488053
7	0xbcc06c84	-0.023489244
8	0x3cbffa60	0.023434818
9	0xbd4e8ec1	-0.05042911
10	0xbbda5f39	-0.0066641835
11	0x3d17887f	0.036995407
12	0xbe209bad	-0.15684386
13	0x3d07232a	0.03299252
14	0xbd1a7d2d	-0.037717033
15	0x3d89adf3	0.06722631
16	0xbe378d3a	-0.17924967
17	0xbdc1b903	-0.09459116
18	0x3cc9eda8	0.024649456
19	0xbccf20d2	-0.025284205
20	0xbd0e253d	-0.034703482
21	0x3bb69140	0.0055715144
22	0xbe37d06f	-0.17950605
23	0xbc5b1ec3	-0.013374033
24	0xbe57b201	-0.21063997
25	0xbdaf030e	-0.085455045
26	0xbc8fc16c	-0.017548285
27	0x3d1592a7	0.03651681
28	0xbe481292	-0.19538334
29	0xbe1eaf0f	-0.15496467
30	0x3d0c7c11	0.034298006
31	0x3d295bb9	0.04134724
32	0x3d480b2a	0.048838772
33	0xbe915c65	-0.28390804
34	0xbe136de8	-0.14397395
35	0x3d75360f	0.059866007
36	0x3cdde1b7	0.027085168
37	0x3ca78b84	0.020452268
38	0xbe0bc769	-0.13650288
39	0xbe0c3c4f	-0.13694881
40	0x3ce28652	0.02765194
41	0x39aa7af2	0.00032516528
42	0x3d2654e1	0.04060829
43	0x3bb53e94	0.0055311415
44	0xbd6488d9	-0.05579457
45	0x3bdca627	0.006733674
46	0xbd4a7606	-0.049428962
47	0x3d51fd3a	0.051266886
48	0xbe54b83f	-0.2077341
49	0xbe172723	-0.14761023
50	0xbc879a9b	-0.016553214
51	0xbc7bb0b5	-0.015361954
52	0x3d331333	0.04371948
53	0x3daa0ba2	0.08303
54	0xbe873f54	-0.26415503
55	0x3d9eab6a	0.077475384
56	0xbe67e659	-0.22646464
57	0xbe58d53a	-0.2117509
58	0xbddbcb84	-0.10732177
59	0x3d40c107	0.047059085
60	0xbe90de19	-0.28294447
61	0xbd18339a	-0.037158586
62	0x3bcf267f	0.0063217278
63	0x3bfc526d	0.0077002556
64	0xbe00b649	-0.12569536
65	0xbe552568	-0.2081505
66	0xbe198d08	-0.14995205
67	0x3d3b02eb	0.04565708
68	0xbd16f049	-0.036850248
69	0x3c0a645d	0.00844678
70	0xbde32e41	-0.110928066
71	0xbda52627	-0.080639176
72	0xbca09415	-0.019601861
73	0xbc72ef05	-0.0148274945
74	0xbcbeb3e3	-0.023279136
75	0xbadb4d88	-0.001673148
76	0xbd2e04c9	-0.042485032
77	0x3ceef85c	0.029171161
78	0xbe1329b9	-0.14371385
79	0x3ca318bb	0.019909253
80	0xbd23221e	-0.03982746
81	0xbe5bee39	-0.21477593
82	0x3d421291	0.047380988
83	0x3cedcfd2	0.02902976
84	0xbdfbca06	-0.12294392
85	0x3c8d4e2e	0.017249193
86	0xbea5ceac	-0.3238424
87	0x3cd690b4	0.026192047
88	0xbe84e89e	-0.25958723
89	0xbdd73816	-0.105087444
90	0xbde3cc7a	-0.11122985
91	0x3c862144	0.016373284
92	0xbe7cea5b	-0.24698775
93	0xbd08a3ed	-0.033359457
94	0x3d58face	0.05297356
95	0x3d9d86ce	0.076917276
96	0xbd15c2e1	-0.036562804
97	0xbeaaed5d	-0.3338422
98	0xbe2d05b3	-0.16896705
99	0x3d160d2f	0.036633667
100	0xbcbf7843	-0.023372775
101	0x3c599ac2	0.013281526
102	0xbc4f8a71	-0.012667284
103	0xbd16e41b	-0.036838632
104	0x3d37968d	0.04482131
105	0xbbc88fd4	-0.0061206613
106	0xbcfeef8b	-0.031120082
107	0x3ccb507f	0.024818657
108	0xbd5d8936	-0.054085933
109	0x3c81cf8f	0.015846042
110	0xbd9aede5	-0.07564906
111	0x3d8c21c8	0.06842381
112	0xbda9f215	-0.082981266
113	0xbe2d68e7	-0.16934548
114	0x3b061eb3	0.0020465076
115	0xbcf8d078	-0.030372843
116	0x3ddb6dc3	0.10714295
117	0x3cb393e9	0.021921115
118	0xbe7b5095	-0.24542458
119	0x3ca97b29	0.02068861
120	0xbe9e098d	-0.30866662
121	0xbde4c3ca	-0.11170156
122	0xbd8ca9a3	-0.06868293
123	0x3ce5ad4f	0.028036742
124	0xbe839c66	-0.2570526
125	0xbdfaadcd	-0.12240181
126	0x3d1756ae	0.0369479
127	0x3c97b8c1	0.018520715
128	0xbe778505	-0.24171837
129	0xbe31c251	-0.17359282
130	0xbdc14581	-0.09437085
131	0x3cf4d9d9	0.029889034
132	0xbdd63e7f	-0.10461139
133	0x3b542efb	0.0032376635
134	0xbdce18ed	-0.10063348
135	0xbd405957	-0.0469602
136	0xbbd46e54	-0.0064828787
137	0xbd247948	-0.040154725
138	0xbdada112	-0.08477987
139	0x3cac4be9	0.02103229
140	0xbd947363	-0.07248571
141	0x3cadeb6d	0.021230424
142	0xbd2b939d	-0.041888822
143	0x3cf7270f	0.030169992
144	0xbde6a357	-0.11261623
145	0xbe03a81d	-0.12857099
146	0x3d5cd0a5	0.053909916
147	0xbe379529	-0.17927994
148	0xbe409341	-0.18806173
149	0x3ce6bb52	0.028165493
150	0xbe1bceba	-0.15215579
151	0x3c2a4165	0.010391568
152	0xbe23e15a	-0.16003934
153	0xbd9a54a6	-0.07535677
154	0xbd3574b0	-0.044300735
155	0x3ca9a864	0.020710178
156	0xbdfeaaac	-0.12434897
157	0xbd9a37da	-0.07530184
158	0x3a2b969d	0.00065455755
159	0x3d8182ba	0.06323762
160	0xbe43769d	-0.19088216
161	0xbe487bc1	-0.19578458
162	0xbe5e87d3	-0.217315
163	0x3ccf46a7	0.025302244
164	0x3cc87fe3	0.024475044
165	0x3c3ab677	0.011396042
166	0xbdd1dd60	-0.10247302
167	0xbc67fc54	-0.014159281
168	0xbe332f55	-0.17498524
169	0xbceae4b1	-0.028673502
170	0x3c8b8d03	0.017035013
171	0x3c42f6ed	0.011899692
172	0xbd824fd7	-0.063628845
173	0x3d04ec89	0.03245214
174	0xbe71f985	-0.2363034
175	0x3d12cfb1	0.0358426
176	0xbce4625e	-0.027878936
177	0xbe082ea6	-0.13299045
178	0x3d3655e8	0.04451552
179	0xbca36434	-0.019945242
180	0xbdee1f7c	-0.11627099
181	0x3d39df44	0.04537894
182	0xbe82b57e	-0.25529093
183	0x3cf07fcd	0.029357815
184	0xbe452f2d	-0.19256277
185	0xbde0bca2	-0.10973479
186	0xbd82598e	-0.063647375
187	0x3d36f27b	0.04466484
188	0xbe13b911	-0.14426066
189	0xbe464032	-0.19360426
190	0x3c904aa2	0.017613713
191	0x3cfc0c31	0.030767532
192	0x3d16fce1	0.036862258
193	0xbe390872	-0.18069628
194	0xbdd7f219	-0.10544223
195	0x3d699c97	0.0570341
196	0xbd072548	-0.03299454
197	0x3c8c21e9	0.017106013
198	0xbd4d15cd	-0.05006962
199	0xbdacd699	-0.08439369
200	0xbe632236	-0.22181019
201	0xbd03cffe	-0.03218078
202	0xbe06ed8c	-0.13176554
203	0xbc8d34bb	-0.017237058
204	0xbe1c9808	-0.1529237
205	0x3d504a0e	0.050851874
206	0xbddf828a	-0.1091357
207	0x3c0858cf	0.008321955
208	0xbd7dda23	-0.06197561
209	0xbe231b00	-0.15928268
210	0x3d3b49e3	0.04572476
211	0xbd0977b7	-0.033561435
212	0x3c2f01c4	0.010681573
213	0x3d19c2aa	0.03753916
214	0xbe522116	-0.20520434
215	0x3d289a97	0.041163053
216	0xbe2e39e3	-0.1701427
217	0xbdc06640	-0.09394503
218	0xbdffdd9c	-0.124934405
219	0x3d818d52	0.06325783
220	0xbe0ff768	-0.14059222
221	0xbdc21a84	-0.09477714
222	0xbeaf454f	-0.34232566
223	0x3d9b1a35	0.07573358
224	0x3d36a18c	0.044587657
225	0xbe0051bd	-0.1253118
226	0xbdf25c88	-0.11834055
227	0x3d1c111e	0.03810226
228	0xba5ef948	-0.0008505774
229	0x3c990c5a	0.018682647
230	0xbd8d82e8	-0.06909734
231	0xbc22a9e0	-0.009928197
232	0xbd3d2c40	-0.04618478
233	0xbd622a62	-0.0552162
234	0xbebb6165	-0.36597744
235	0x3d4614e2	0.04835976
236	0xbd994349	-0.07483537
237	0x3d25ebe5	0.04050817
238	0xbdca9e44	-0.09893468
239	0x3cc0f38f	0.023553638
240	0xbd8ac8ff	-0.06776618
241	0xbdf84ea1	-0.12124372
242	0x3c1a5324	0.009419236
243	0xbdf4b86c	-0.11949238
244	0xbe0ca552	-0.1373494
245	0x3d4e58f1	0.05037779
246	0xbe0f43fc	-0.13990778
247	0x3d696b41	0.05698705
248	0xbe31ea5e	-0.1737456
249	0xbe0088e0	-0.12552214
250	0xbcac75df	-0.021052299
251	0x3b985c37	0.0046496647
252	0xbe0375ff	-0.1283798
253	0xbda4069b	-0.080090724
254	0xbd63b679	-0.05559394
255	0x3cfe6c36	0.031057458

model.8.bias f4 [16]
0	0x380fbf93	3.4272274e-05
1	0x36e21482	6.7377123e-06
2	0xb4f2a400	-4.5195338e-07
3	0xb7394961	-1.1043944e-05
4	0xb782e6cf	-1.5604686e-05
5	0xb7c58549	-2.3546296e-05
6	0x36cc5d0a	6.090505e-06
7	0xb75c4b95	-1.313062e-05
8	0x375e1292	1.3236555e-05
9	0x369da7de	4.698507e-06
10	0x353de8d0	7.0746773e-07
11	0xb733a5bc	-1.07078195e-05
12	0xb79d1dd2	-1.8729745e-05
13	0x375d51e7	1.3191696e-05
14	0xb5563d90	-7.98108e-07
15	0x37431418	1.1627584e-05

model.9.weight f4 [16]
0	0x3f53f626	0.8279747
1	0x3f41d7a3	0.7571966
2	0x3f674796	0.90343606
3	0x3f49fffa	0.78906214
4	0x3f6e301d	0.93042165
5	0x3f54c7a0	0.83117104
6	0x3f62da4e	0.88614357
7	0x3f766831	0.96252733
8	0x3f5aa289	0.8540426
9	0x3f61a05a	0.881353
10	0x3f411adb	0.75431603
11	0x3f35fbd2	0.7108737
12	0x3f5b34c3	0.85627383
13	0x3f57616a	0.8413302
14	0x3f56b916	0.8387617
15	0x3f4cb50b	0.7996375

model.9.bias f4 [16]
0	0x3f422aa4	0.75846314
1	0x3f64f92d	0.8944271
2	0x3f49ce3e	0.78830326
3	0x3f246fcf	0.64233106
4	0x3f3ca34a	0.7368666
5	0x3f27fb91	0.65618235
6	0x3f36e0b8	0.71436644
7	0x3f433a65	0.7626098
8	0x3f270bbf	0.652523
9	0x3f434294	0.76273465
10	0x3f364f45	0.71214706
11	0x3f522581	0.82088476
12	0x3f12c404	0.57330346
13	0x3f36b7b3	0.7137405
14	0x3f54a0eb	0.8305804
15	0x3f4d5db0	0.8022108

model.9.running_mean f4 [16]
0	0xbe820cd1	-0.25400403
1	0xbe93690b	-0.2879108
2	0xbeb1c02e	-0.34716934
3	0xbe8c3ff4	-0.27392542
4	0xbeba20ec	-0.36353242
5	0xbec32dc1	-0.38120845
6	0xbecfb998	-0.40571284
7	0xbeaf5e7a	-0.34251767
8	0xbe999263	-0.29994497
9	0xbe8fd62f	-0.28093097
10	0xbe89c8ef	-0.26911113
11	0xbe79fbf0	-0.24412513
12	0xbec6486a	-0.38727123
13	0xbedb62e3	-0.42848882
14	0xbe8efc5f	-0.2792692
15	0xbe743e3d	-0.23851867

model.9.running_var f4 [16]
0	0x3f112f0d	0.5671242
1	0x3f46bbdd	0.77630407
2	0x3f4cb3f9	0.79962116
3	0x3f23612a	0.63820136
4	0x3f65bfb7	0.8974566
5	0x3f7fab27	0.9987053
6	0x3f82d44b	1.0221037
7	0x3f352258	0.7075553
8	0x3f35ff24	0.7109244
9	0x3f2695c5	0.6507228
10	0x3f2a08c0	0.664196
11	0x3f679ddd	0.90475255
12	0x3f62eae6	0.88639677
13	0x3f922f66	1.1420715
14	0x3f58842e	0.8457669
15	0x3f07b3f4	0.5300896

model.12.weight f4 [1, 16]
0	0x3ece4325	0.40285602
1	0x3eb92716	0.36162633
2	0x3ec0f1d5	0.37684503
3	0x3eec79b9	0.46186617
4	0x3ec622de	0.38698477
5	0x3edf95a4	0.43668854
6	0x3eced980	0.40400314
7	0x3ec25a01	0.37959293
8	0x3ede00a0	0.43359852
9	0x3ec63eb3	0.3871971
10	0x3edd6327	0.4323971
11	0x3ec0bbe4	0.3764335
12	0x3ef2d596	0.47428578
13	0x3ed3270c	0.41240728
14	0x3ebc7e7a	0.36815244
15	0x3ec7290a	0.38898498
