neuralnet/Hyperparameter sweeps/hp sweep pca 3/bike_volume_model_net_3layers_lr_0.00005000_batch_64_feat_0.pth (torch, 44749 bytes, 19 tensors)

model.0.weight f4 [64, 89]
0	0xbc4d7fe3	-0.012542698
1	0x3e15388e	0.14572355
2	0x3d91a022	0.07110621
3	0xbc970398	-0.01843433
4	0xbc1be9d7	-0.009516201
5	0xbda3197f	-0.07963847
6	0x3ddc1022	0.107452646
7	0x3cd65e33	0.026167965
8	0xbd4a77dd	-0.049430717
9	0x3d20f58b	0.039296668
10	0xbde69411	-0.1125871
11	0x3cb40ddb	0.021979263
12	0x3c2c14d4	0.010503013
13	0x3cf15de9	0.029463725
14	0xbc2c935b	-0.010533179
15	0xbd602101	-0.054718975
16	0x3ccf4240	0.025300145
17	0x3d38ab27	0.0450851
18	0x3dbd716e	0.092501506
19	0x3d6e4971	0.058175508
20	0xbd3868a7	-0.04502168
21	0xbdba4205	-0.090946235
22	0xbd689439	-0.05678198
23	0x3dd18013	0.10229506
24	0xbe05efa8	-0.13079703
25	0xbd30681b	-0.043068033
26	0x3d6cea43	0.057840597
27	0xbd9a5049	-0.075348444
28	0xbd27cd0d	-0.040967036
29	0xbdb30912	-0.087419644
30	0xbd9aa21a	-0.0755045
31	0x3e08eea6	0.13372287
32	0x3d59194a	0.053002633
33	0xbd3d7271	-0.046251718
34	0x3d09c28f	0.03363281
35	0x3cfb75c1	0.030695798
36	0x3d6a1a98	0.057154268
37	0xbda9c17f	-0.082888596
38	0x3d8c89a7	0.068621926
39	0xbc172b38	-0.009226613
40	0x3d30f062	0.043197997
41	0xbc65112d	-0.013981146
42	0x3d58d7bf	0.052940127
43	0xbd2d5bcb	-0.04232387
44	0x3e2448c1	0.16043378
45	0x3d3f0ca0	0.0466429
46	0xbb3cc175	-0.0028801833
47	0x3d4934ba	0.04912255
48	0x3dba2b0a	0.0909024
49	0x3ce3abef	0.027791945
50	0xbcabd4b4	-0.020975448
51	0xbd5944e7	-0.053044226
52	0xbd5f1117	-0.054459658
53	0xbc281ac1	-0.010260285
54	0xbd777f7c	-0.060424313
55	0xbdcb5b2c	-0.09929499
56	0x3d3cee41	0.046125654
57	0x3ce021e8	0.027359918
58	0xbd44f6c8	-0.04808691
59	0xbd57f4a4	-0.05272354
60	0xbd16f7f1	-0.03685755
61	0xbd6e6ccb	-0.05820922
62	0x3d2a877e	0.04163312
63	0x3d689b9c	0.056789026
64	0x3d488810	0.048957884
65	0xbcdd6c8b	-0.027029296
66	0xbd89465a	-0.067028716
67	0xbdbc32ca	-0.09189375
68	0xbd8dbaab	-0.0692037
69	0x3d88dc56	0.06682651
70	0x3d8f47f7	0.06996148
71	0xbd1f879d	-0.03894769
72	0x3b05e3b0	0.0020429902
73	0xbcdb7019	-0.02678685
74	0x3b33be91	0.002742682
75	0xbd29fb46	-0.0414994
76	0xbde31f9a	-0.11090012
77	0x3bbf4d70	0.0058380887
78	0xbc23ca2d	-0.009996933
79	0x3d5c74a6	0.053822182
80	0xbd15b365	-0.036548037
81	0xbdc8e4a7	-0.09809237
82	0x3daf471c	0.08558485
83	0xbd934087	-0.07190042
84	0x3c24e221	0.010063679
85	0xbd2b024f	-0.04175025
86	0x3d906fb5	0.070525564
87	0x3e1a43cf	0.1506493
88	0xbab8cdc5	-0.001409941
89	0x3bab4524	0.005226748
90	0x3d727ed3	0.05920298
91	0xbca3637f	-0.019944904
92	0x3d8ffb09	0.07030303
93	0xbd687c1d	-0.05675899
94	0xbccfdb46	-0.025373112
95	0x3d8c8469	0.06861193
96	0x3d13e182	0.036103733
97	0xbd93e9fe	-0.07222365
98	0x3d791558	0.06081137
99	0xbd11cbbb	-0.035594683
100	0x3ce084c4	0.027407058
101	0x3dc08b4b	0.09401568
102	0x3cffff04	0.03124953
103	0xbe000018	-0.12500036
104	0x3bd55ec5	0.0065115415
105	0x3ce15934	0.027508356
106	0xbbb3248d	-0.0054670037
107	0x3be0edca	0.006864284
108	0x3dc73ac7	0.09728008
109	0x3d1d2b1d	0.038371194
110	0xbd7f6179	-0.062348817
111	0xbd8215cc	-0.06351814
112	0xbd502c06	-0.050823234
113	0xbda4b138	-0.08041614
114	0x3d6ba43a	0.057529666
115	0xbdadd8ea	-0.08488639
116	0xbd9ca308	-0.07648283
117	0xbd9a3772	-0.075301066
118	0x3d9b2e2e	0.075771675
119	0xbc12ddcb	-0.008964012
120	0xbce7dd9a	-0.02830391
121	0x3df02e1f	0.11727547
122	0x3cce3ff6	0.025176983
123	0x3cac0fb9	0.02100359
124	0xbb1524f0	-0.0022757612
125	0x3d8cfa47	0.06883674
126	0xbc708193	-0.01467933
127	0x3c8e4a57	0.017369432
128	0xbd4b9ab2	-0.049708076
129	0x3de0e5d6	0.10981338
130	0x3cc25d8f	0.023726253
131	0xbb80aeb8	-0.003927078
132	0xbc174b18	-0.009234212
133	0xbbbd5de8	-0.0057790168
134	0xbc8287a9	-0.015933828
135	0x3d9e652c	0.07734141
136	0x3cb66487	0.022264732
137	0x3d093d0a	0.033505477
138	0x3dadb281	0.084813125
139	0xbd194abe	-0.037424795
140	0x3cfd70bf	0.03093755
141	0xbd415dd6	-0.04720863
142	0xbcbad6e6	-0.02280755
143	0x3bcfed97	0.0063454616
144	0x3dbcf7d7	0.09226959
145	0xbdc1d783	-0.09464934
146	0x3d571950	0.052514374
147	0x3d0a858b	0.033818763
148	0xbc2e4980	-0.010637641
149	0x3d1732be	0.036913626
150	0x3e2d8357	0.16944633
151	0x3b882e29	0.0041558933
152	0x3d058282	0.032595165
153	0x3d97aaaf	0.07405602
154	0x3d8c9e65	0.06866149
155	0xbd25534f	-0.040362652
156	0xbdb60970	-0.08888519
157	0xbd20ef7d	-0.039290894
158	0x3c9765cd	0.01848116
159	0x3d858da6	0.06521158
160	0x3c3748b8	0.011186771
161	0xbd87584f	-0.066086404
162	0x3d0bcb8a	0.034129657
163	0xbd07f971	-0.03319687
164	0xbaa0bec6	-0.0012263886
165	0xbc65612c	-0.014000218
166	0x3badb233	0.005300784
167	0xbdc32bdc	-0.0952985
168	0x3d3bdb00	0.04586315
169	0xbd3a47d0	-0.045478642
170	0x3d12aa7d	0.03580712
171	0xbd05000c	-0.032470748
172	0x3da28889	0.07936198
173	0xbc1c0bcc	-0.009524297
174	0x3d4c323c	0.049852595
175	0xbc14a5d8	-0.009072743
176	0x3db5d601	0.08878709
177	0x3c60d097	0.013721607
178	0x3ca96256	0.020676773
179	0xbce319ab	-0.0277222
180	0x3d61dda7	0.055143025
181	0x3d04134f	0.032244977
182	0xbd913d03	-0.07091715
183	0xbc586282	-0.01320708
184	0xbd5ba7bd	-0.053626765
185	0x3acfd8d4	0.0015857466
186	0xbc0232ad	-0.007946652
187	0x3d814d68	0.06313592
188	0xbd4bf93b	-0.04979823
189	0xbd354ed7	-0.04426464
190	0xbcca7f37	-0.024718864
191	0xbd91fda8	-0.07128459
192	0x3da7ba5f	0.08189844
193	0x3c835866	0.016033363
194	0x3cda7f00	0.026671886
195	0x3d4ba76b	0.04972021
196	0xbd75d45a	-0.060016967
197	0x3d107528	0.03526798
198	0xbd0a864a	-0.033819474
199	0xbd91e101	-0.07122994
200	0x3dc2f75d	0.09519837
201	0xbdc0e63a	-0.09418912
202	0xbdd9e54d	-0.10639439
203	0x3c441866	0.011968708
204	0xbd373ba3	-0.04473461
205	0x3d7681bd	0.06018232
206	0x3de8a28f	0.113591306
207	0xbcaaec22	-0.02086455
208	0xbcb7aa4d	-0.022420073
209	0x3d112e68	0.035444647
210	0x3d8b27be	0.067946896
211	0xbc1e1ed0	-0.009650901
212	0xbd5a0500	-0.053227425
213	0xbbab9514	-0.0052362774
214	0x3c59344b	0.0132570965
215	0x3dc7b657	0.097515754
216	0xbdc31d32	-0.09527053
217	0xbde6d0db	-0.11270305
218	0x3dbb1580	0.0913496
219	0xbd90d4a9	-0.07071812
220	0xbd950d3d	-0.072779156
221	0xbdf8e76f	-0.121535175
222	0x3cf9787c	0.03045296
223	0x3d69f0ce	0.057114415
224	0x3d92b0a5	0.071625985
225	0xbdb3f525	-0.08786992
226	0x3c13d542	0.009023013
227	0x3c3bff7f	0.011474489
228	0x3d10a23d	0.035310972
229	0xbb23b2be	-0.0024978365
230	0x3ceef22c	0.02916821
231	0xbc9cc729	-0.019137936
232	0xbd71b1b7	-0.059007373
233	0xbd5e56d7	-0.054282036
234	0x3d7b961d	0.061422456
235	0xbd5202b5	-0.051272113
236	0xbd852524	-0.06501225
237	0x3d859e8c	0.06524381
238	0xbd323494	-0.043507174
239	0x3d894976	0.06703465
240	0x3c3189ad	0.010836047
241	0x3cfea7ab	0.03108581
242	0xbd26eaae	-0.04075115
243	0xbd3344b1	-0.04376668
244	0x3d4df9e7	0.050287154
245	0x3a23c457	0.00062472135
246	0xbd73ba87	-0.05950406
247	0xbda6401b	-0.08117696
248	0xbc887d01	-0.016661169
249	0xbc3645d5	-0.011125048
250	0xbd66b318	-0.05632314
251	0x3d8469cd	0.064654924
252	0x3b503a28	0.0031772945
253	0xbd60c86e	-0.054878645
254	0x3d22fb11	0.039790217
255	0x3c0a55e9	0.008443334

model.0.bias f4 [64]
0	0xb655afb6	-3.184175e-06
1	0xb6832c36	-3.909251e-06
2	0xb70ab353	-8.267193e-06
3	0x346035f4	2.0881254e-07
4	0xb6286030	-2.508994e-06
5	0x3642b120	2.9011353e-06
6	0x36c01564	5.724536e-06
7	0x37d44649	2.5305098e-05
8	0x36c832e2	5.966388e-06
9	0x36f38741	7.25771e-06
10	0xb6d18ec8	-6.2453073e-06
11	0xb741a3f6	-1.1541872e-05
12	0x375d244c	1.31810775e-05
13	0x37892ec0	1.6353442e-05
14	0x34f4974c	4.5558625e-07
15	0x35a2fe4c	1.2143951e-06
16	0xb7116072	-8.665129e-06
17	0xb73f4464	-1.1400411e-05
18	0x362bf447	2.5623174e-06
19	0x35ab71dd	1.2773631e-06
20	0x36a8e92a	5.033934e-06
21	0x35f8e080	1.8542778e-06
22	0x37663c5e	1.3723124e-05
23	0x381c5913	3.7276255e-05
24	0x370d8fb6	8.437715e-06
25	0xb5b87574	-1.3743252e-06
26	0x373ca133	1.1243205e-05
27	0x379e6c96	1.8885632e-05
28	0x361e9791	2.3632058e-06
29	0x36a45e5c	4.8985657e-06
30	0xb6e1d7d9	-6.7306505e-06
31	0xb69e6872	-4.720926e-06
32	0x371b9d8c	9.275402e-06
33	0xb5a570a4	-1.2326241e-06
34	0xb52da77a	-6.469123e-07
35	0x36b0d03c	5.2694504e-06
36	0x36751d37	3.652485e-06
37	0xb6d0f46b	-6.227337e-06
38	0x36fcd996	7.5355156e-06
39	0x36719150	3.5996381e-06
40	0x35ed8d48	1.7698994e-06
41	0x356f2c54	8.9098944e-07
42	0xb534d451	-6.7364186e-07
43	0xb7833298	-1.5639976e-05
44	0x36732f73	3.623744e-06
45	0x3550adf0	7.773915e-07
46	0xb5d319bc	-1.5728215e-06
47	0x3614f8dc	2.2198574e-06
48	0x36d491a0	6.3350453e-06
49	0x3539fd45	6.9286426e-07
50	0xb687efae	-4.051216e-06
51	0xb73f7e5a	-1.1413906e-05
52	0xb681a9e0	-3.8642756e-06
53	0x36e08ae4	6.691889e-06
54	0xb7badb5d	-2.2275077e-05
55	0x36b62ea4	5.4294524e-06
56	0x358ed4ce	1.0641759e-06
57	0x33c66820	9.239034e-08
58	0x36326999	2.6585533e-06
59	0xb68822ec	-4.0571813e-06
60	0xb6064c0c	-2.001182e-06
61	0xb72f7e87	-1.0460272e-05
62	0x37a0e2de	1.917913e-05
63	0xb5b1fa80	-1.3260433e-06

model.1.weight f4 [64]
0	0x3f70c779	0.9405437
1	0x3f4f2cb0	0.8092756
2	0x3f654c4e	0.89569557
3	0x3f51311c	0.8171556
4	0x3f766dcf	0.96261305
5	0x3f5d77ba	0.86510813
6	0x3f568d35	0.83809215
7	0x3f5611cc	0.83620906
8	0x3f6a16ef	0.91441244
9	0x3f550a0d	0.8321846
10	0x3f533c23	0.82513636
11	0x3f717741	0.9432259
12	0x3f6c5f5d	0.9233301
13	0x3f56a63f	0.8384742
14	0x3f5320c2	0.8247186
15	0x3f5af464	0.8552916
16	0x3f5c6be2	0.86102116
17	0x3f613ec2	0.87986386
18	0x3f5ec71b	0.8702256
19	0x3f58a35d	0.8462427
20	0x3f5cb799	0.8621765
21	0x3f5c0f96	0.8596128
22	0x3f566b96	0.83757913
23	0x3f5f03f5	0.8711541
24	0x3f4f5087	0.8098225
25	0x3f4ee42a	0.808169
26	0x3f6ac080	0.9169998
27	0x3f55f575	0.8357766
28	0x3f538f02	0.8264009
29	0x3f51b678	0.8191905
30	0x3f7e2c6d	0.9928654
31	0x3f5b5dc1	0.8568993
32	0x3f56961e	0.8382281
33	0x3f5dd3c4	0.86651254
34	0x3f66a3f3	0.90093917
35	0x3f6670ec	0.90016055
36	0x3f4f3e22	0.8095418
37	0x3f627ad3	0.88468665
38	0x3f52a346	0.82280385
39	0x3f4c0e3f	0.7970924
40	0x3f50c5f1	0.81552035
41	0x3f58a5d9	0.84628063
42	0x3f4f6d87	0.810265
43	0x3f5fed43	0.8747141
44	0x3f45f18e	0.7732171
45	0x3f4f5148	0.809834
46	0x3f56e962	0.83949864
47	0x3f454916	0.77064645
48	0x3f71a01d	0.9438494
49	0x3f4e9476	0.80695283
50	0x3f65e6e3	0.8980543
51	0x3f4d63a7	0.8023018
52	0x3f66d9e8	0.9017625
53	0x3f5754f4	0.84114003
54	0x3f55ccf7	0.83515877
55	0x3f610ef0	0.8791342
56	0x3f617aca	0.88077986
57	0x3f5c8c55	0.8615163
58	0x3f6c0b97	0.92205185
59	0x3f579ec8	0.84226656
60	0x3f56da7c	0.8392713
61	0x3f5ba6cf	0.85801405
62	0x3f558f24	0.8342154
63	0x3f62f9a9	0.886622

model.1.bias f4 [64]
0	0xbd9367d3	-0.07197537
1	0xbdd45031	-0.10366858
2	0xbe48ace4	-0.19597203
3	0xbea41638	-0.32048202
4	0xbe330e0a	-0.17485824
5	0xbf00aae6	-0.5026077
6	0xbe1e2f58	-0.15447748
7	0xbe0adf28	-0.1356169
8	0xbe2910da	-0.16510335
9	0xbd26b128	-0.040696293
10	0xbeac88a8	-0.3369801
11	0xbdb87894	-0.090073735
12	0xbe502270	-0.20325637
13	0xbe27c0ca	-0.16382137
14	0xbe15bd0f	-0.14622901
15	0xbe3e1726	-0.18563518
16	0xbed43f08	-0.4145434
17	0xbda37caf	-0.07982766
18	0xbf0866aa	-0.5328165
19	0xbe99e3fa	-0.30056745
20	0xbda700d1	-0.081544526
21	0xbf27bf65	-0.6552642
22	0xbea82b83	-0.32845697
23	0xbf1937bd	-0.59850675
24	0xbdffa525	-0.12482671
25	0xbe098d2c	-0.13432759
26	0xbe40b9e2	-0.18820909
27	0xbedb503b	-0.42834648
28	0xbebd9b75	-0.37032667
29	0xbefbab36	-0.4915406
30	0xbd17ed11	-0.03709132
31	0xbe206e93	-0.1566718
32	0xbe41b1f7	-0.18915544
33	0xbf2f8a82	-0.6857072
34	0xbdf44fa4	-0.11929253
35	0xbd5a722b	-0.053331535
36	0xbe65e999	-0.22452392
37	0xbe034555	-0.12819417
38	0xbda7c9a5	-0.081927575
39	0xbf13f99b	-0.5780274
40	0xbe724549	-0.23659243
41	0xbdca7409	-0.09885413
42	0xbe68e5b4	-0.22743875
43	0xbe6515e7	-0.22371636
44	0xbe558b77	-0.20853983
45	0xbe07fa18	-0.13278997
46	0xbdf6010c	-0.120119184
47	0xbea59700	-0.32341766
48	0xbd853164	-0.06503561
49	0xbed8756c	-0.42277086
50	0xbe072ecd	-0.13201447
51	0xbe72290e	-0.23648474
52	0xbf18fe4b	-0.5976302
53	0xbdf09cb3	-0.11748638
54	0xbe86fb81	-0.26363757
55	0xbee5cf96	-0.44884938
56	0xbd306e8d	-0.04307418
57	0xbdce11e4	-0.10062006
58	0xbdb79129	-0.08963234
59	0xbf20cb5b	-0.62810296
60	0xbda08761	-0.078383215
61	0xbe1dc133	-0.15405731
62	0xbefd131b	-0.4942864
63	0xbe471d79	-0.19444837

model.1.running_mean f4 [64]
0	0x3ee37052	0.4442163
1	0x3e753b48	0.23948395
2	0x3c29113b	0.0103190495
3	0xbede799e	-0.43452162
4	0x3d1e541f	0.038654443
5	0xbec74a63	-0.3892394
6	0xbcb34b0b	-0.02188637
7	0x3df3c9db	0.11903735
8	0x3deb0869	0.114762135
9	0x3e07675d	0.13223024
10	0x3daa9ef7	0.083311014
11	0x3dc8a1d0	0.09796488
12	0x3e8bebaa	0.27328235
13	0xbd669fb0	-0.056304634
14	0x3e5b2584	0.2140103
15	0x3e02b320	0.12763643
16	0xbea40f4b	-0.32042918
17	0x3f37e6e9	0.71836716
18	0xbea11467	-0.31460878
19	0xbf057def	-0.52145284
20	0x3de11ab9	0.10991425
21	0xbe635a24	-0.22202355
22	0xbee5668c	-0.448048
23	0xbe8bcd68	-0.2730515
24	0x3daf577e	0.0856161
25	0x3e8583f4	0.26077235
26	0xbdff8d17	-0.124780826
27	0xbec2d7a8	-0.38055158
28	0xbf00d6e2	-0.50327885
29	0xbe6e4bc0	-0.23271084
30	0xbd10e02d	-0.03537004
31	0x3e25f5fd	0.16207118
32	0xbe0c075b	-0.13674681
33	0xbe1e9734	-0.15487367
34	0x3eaf56aa	0.34245807
35	0x3db2d5e1	0.087322004
36	0xbd1975e4	-0.037465945
37	0x3db5221d	0.08844397
38	0x3e95d3ef	0.29263255
39	0xbe4e559e	-0.20149848
40	0xbe7bd8f0	-0.24594474
41	0x3dd1002b	0.1020511
42	0xbdb25814	-0.08708206
43	0x3dab0bf0	0.08351886
44	0x3dcbc559	0.099497505
45	0x3ec029ff	0.3753204
46	0x3e1576f7	0.14596163
47	0xbe99a7d0	-0.30010843
48	0x3ec05139	0.37561968
49	0xbe230c9c	-0.15922779
50	0x3e28ee5c	0.16497177
51	0xbf342d4b	-0.7038161
52	0xbdfa73f8	-0.122291505
53	0x3ea5671b	0.32305226
54	0xbef3352e	-0.4750151
55	0xbecdd774	-0.4020344
56	0x3f029c2d	0.51019555
57	0x3e0165c7	0.12636481
58	0x3eb3dfe7	0.3513176
59	0xbe577c82	-0.2104359
60	0x3ea0c32e	0.3139891
61	0x3d061951	0.032738987
62	0xbf175878	-0.5911937
63	0xbd824b71	-0.063620456

model.1.running_var f4 [64]
0	0x3e504e96	0.20342478
1	0x3d8439c0	0.064563274
2	0x3df1beb4	0.11803952
3	0x3e7e5085	0.24835403
4	0x3e69ee21	0.22844745
5	0x3dbe9719	0.09306163
6	0x3e434317	0.19068561
7	0x3dc06442	0.09394123
8	0x3df27b87	0.11839967
9	0x3df86fb4	0.12130681
10	0x3d9343da	0.07190676
11	0x3e2568bb	0.16153233
12	0x3e89e017	0.2692878
13	0x3e0da188	0.1383115
14	0x3e9b5de6	0.30345076
15	0x3e27fe5a	0.16405621
16	0x3e01b09e	0.1266503
17	0x3eb2e6d6	0.3494174
18	0x3e249d62	0.16075662
19	0x3e53f7e2	0.20700029
20	0x3e441281	0.19147684
21	0x3d9be05b	0.07611152
22	0x3e2308c8	0.15921319
23	0x3dbf7dd7	0.09350174
24	0x3de3b0ac	0.11117682
25	0x3e3d1a5c	0.18467087
26	0x3e08c21a	0.13355294
27	0x3e2e12df	0.16999386
28	0x3e917326	0.28408164
29	0x3d881ab3	0.066457175
30	0x3e50dc7f	0.20396613
31	0x3e044015	0.1291507
32	0x3e20ad69	0.1569115
33	0x3d732cc4	0.059368864
34	0x3df7b437	0.1209492
35	0x3e7026c0	0.23452282
36	0x3e8e1cb6	0.2775628
37	0x3e5e9576	0.21736702
38	0x3e0ee258	0.13953531
39	0x3de70957	0.11281078
40	0x3e2e86b1	0.17043568
41	0x3d912eb2	0.070889845
42	0x3e0fe0d2	0.14050606
43	0x3dc2d8f5	0.095140375
44	0x3ea6e12a	0.32593662
45	0x3ec35595	0.3815123
46	0x3e1cd563	0.15315776
47	0x3ecc2d8f	0.39878508
48	0x3e2270a1	0.15863277
49	0x3e489804	0.1958924
50	0x3e0f2579	0.13979138
51	0x3eaab9a9	0.33344772
52	0x3d9c3da2	0.07628943
53	0x3eb4d80f	0.3532109
54	0x3e96e5c3	0.2947217
55	0x3deb7f67	0.114989094
56	0x3e4e27f8	0.20132434
57	0x3e689415	0.22712739
58	0x3ea60469	0.3242524
59	0x3d8a4e46	0.06753211
60	0x3e87feb0	0.265615
61	0x3e7e17ec	0.24813813
62	0x3e41cdb9	0.18926133
63	0x3e0134b7	0.12617765

model.4.weight f4 [32, 64]
0	0xbccc158f	-0.024912624
1	0xbc186e54	-0.009303648
2	0x3d932a91	0.07185853
3	0xbdda17c0	-0.10649061
4	0x3cb34f68	0.02188845
5	0x3da8025f	0.08203577
6	0x3c65cd26	0.014025962
7	0xbd87e4ed	-0.06635461
8	0xbdcab23a	-0.09897275
9	0x3c71dc1e	0.014761953
10	0xbe1f163d	-0.15535827
11	0xbd018844	-0.031624094
12	0xbcd651a8	-0.026161984
13	0x3d1e00c1	0.038574938
14	0xbd165030	-0.036697567
15	0x3d0de7aa	0.03464476
16	0x3e291c36	0.16514668
17	0xbd36c46b	-0.044620913
18	0x3dbb50c5	0.09146265
19	0x3cce01bf	0.025147317
20	0x3ca6e141	0.020371081
21	0x3d1ea936	0.03873559
22	0x3dc61f19	0.096739
23	0x3b8cdbaf	0.0042986493
24	0xbcda9621	-0.026682915
25	0xbd0bb2aa	-0.034105934
26	0xbc1407a3	-0.009035024
27	0x3e021eef	0.12707113
28	0x3dd40e6b	0.103543125
29	0x3d4bb395	0.04973181
30	0xbdcc1c07	-0.09966283
31	0xbd0a796d	-0.033807207
32	0xbd23d4da	-0.039997913
33	0xbd1b7918	-0.03795728
34	0x3b4207db	0.0029606733
35	0xbdbfcd18	-0.093652904
36	0xbe1297a9	-0.14315666
37	0xbd5e88c8	-0.054329664
38	0xbd954d74	-0.07290164
39	0x3d7bb6df	0.061453696
40	0x3d88ce08	0.06679922
41	0x3aab5f4f	0.0013074669
42	0x3d0964a5	0.033543248
43	0xbdd0755e	-0.10178636
44	0xbdae5a0c	-0.08513269
45	0x3b029bdc	0.0019929325
46	0xbd4aa9e0	-0.04947841
47	0xbd45088d	-0.048103858
48	0xbd78de72	-0.060759015
49	0xbd22085c	-0.039558753
50	0x3d2ccc73	0.042187165
51	0x3c5c390d	0.013441336
52	0x3db913b8	0.09036964
53	0x3ba03a30	0.004889749
54	0x3dd7a700	0.105298996
55	0x3de9dd94	0.11419216
56	0xbd5ff778	-0.054679364
57	0x3c139594	0.00900783
58	0xbdbeeaf5	-0.09322158
59	0x3d699f50	0.057036698
60	0xbd91eeaa	-0.071256
61	0xbd16a7d2	-0.03678114
62	0x3dcf5cf0	0.10125148
63	0x3dce4aae	0.10072838
64	0xbdd4051e	-0.103525385
65	0xbd82757d	-0.06370065
66	0x3d8023a0	0.06256795
67	0x3c7b6c67	0.015345669
68	0xbcf204e2	-0.029543344
69	0x3dc677ce	0.0969082
70	0x3b6a066b	0.0035709392
71	0xbc77a300	-0.015114546
72	0xbd58406f	-0.052795824
73	0xbe1dde1e	-0.15416762
74	0x3c7389cc	0.014864396
75	0xbd98b19c	-0.07455751
76	0xbd478407	-0.048709895
77	0x3cdc18f9	0.026867377
78	0xbda2828c	-0.07935056
79	0xbbba5276	-0.0056860996
80	0x3d86399d	0.065539576
81	0xbb9b10ac	-0.004732212
82	0x3c0c2f27	0.008556164
83	0x3dc0c894	0.09413257
84	0xbda18121	-0.078859575
85	0xbbfc1646	-0.007693085
86	0x3d0c6fce	0.034286313
87	0x3c2616ae	0.010137243
88	0xbd1e29b3	-0.038613986
89	0xbda94cd3	-0.08266606
90	0x3d7edbcc	0.062221333
91	0x3cffd944	0.03123153
92	0x3db89029	0.09011871
93	0x3dd931ee	0.106052265
94	0xbc3cd61d	-0.011525658
95	0xbd8e1b06	-0.06938748
96	0x3cbbd275	0.022927502
97	0x3dec5c4a	0.1154104
98	0xbe1c4734	-0.15261537
99	0xbd9af023	-0.07565334
100	0x3cb24fb7	0.021766527
101	0x3cf0bee9	0.029387908
102	0xbda692a1	-0.08133436
103	0x3cb5dd5b	0.022200277
104	0xba495494	-0.00076801446
105	0x3be16190	0.0068780854
106	0xbda0a765	-0.07844428
107	0x3d1f6997	0.038919058
108	0x3d57cf01	0.05268765
109	0xbc57ef91	-0.013179676
110	0xbdfb8db0	-0.12282884
111	0x3dba9bae	0.09111725
112	0xbd6ef835	-0.058342177
113	0x3d0f5230	0.03499049
114	0xbd574209	-0.05255321
115	0xbd7ef911	-0.062249247
116	0x3d5e06f6	0.054205857
117	0xbcfb17c4	-0.03065098
118	0x3dd2bb4d	0.10289631
119	0xbd623090	-0.055222094
120	0xbc9bdeb7	-0.019027097
121	0xbd65a32b	-0.056063812
122	0xbcd2758b	-0.025690814
123	0x3d9a01e8	0.07519895
124	0xbdb2b6ea	-0.08726294
125	0xbdd9a088	-0.10626322
126	0x3dfbaca6	0.122887895
127	0xbe0dfc05	-0.13865669
128	0xbcda4c6b	-0.026647767
129	0xbd369b98	-0.04458198
130	0xbdf6cf25	-0.120512284
131	0x3d47c48d	0.04877143
132	0xbdd483c4	-0.10376695
133	0x3d1408b4	0.036141112
134	0xbe10d72e	-0.14144585
135	0xbd5cd897	-0.053917494
136	0xbdb62729	-0.08894188
137	0xbcf1c614	-0.029513396
138	0x3d938379	0.07202811
139	0xbccd4347	-0.025056494
140	0xbd8609a8	-0.065448105
141	0xbd942400	-0.07233429
142	0xbd3ccc6f	-0.0460934
143	0xbd647c2f	-0.055782493
144	0x3d63004d	0.05542021
145	0x3c553599	0.013013267
146	0x3d93ad1f	0.072107546
147	0xbb0f7004	-0.0021886835
148	0xbd1191a5	-0.035539288
149	0x3da13649	0.07871682
150	0x3c1b1487	0.009465343
151	0x3e021a7b	0.12705414
152	0xbd4b0d8f	-0.049573477
153	0xbd825cea	-0.06365378
154	0xbe065793	-0.13119344
155	0x3d5595b8	0.052144736
156	0x3d907397	0.07053297
157	0x3d57c4e5	0.052678008
158	0x3afa6144	0.0019102474
159	0xbde5a741	-0.11213542
160	0xbcc89342	-0.02448428
161	0x3e16ef3b	0.14739697
162	0x3cc86717	0.02446322
163	0xbca1aeb1	-0.01973662
164	0x3d0c2d7a	0.034223057
165	0x3d40ac62	0.047039397
166	0xbda782f1	-0.08179272
167	0x3e047c2a	0.1293799
168	0xbddb0044	-0.1069341
169	0xbd149047	-0.036270406
170	0xbdaec9db	-0.085345946
171	0x3d0de95e	0.034646384
172	0x3d603b5f	0.05474412
173	0xbc7bf63b	-0.01537853
174	0xbcf10195	-0.0294197
175	0x3d0aadd1	0.03385717
176	0x3cffffdc	0.031249933
177	0x3d2a603e	0.04159569
178	0xbd81c25d	-0.063359
179	0x3bc5a623	0.006031768
180	0x3dcd21fe	0.10016249
181	0xbd04972d	-0.032370735
182	0x3cb4d542	0.022074345
183	0x3ca32902	0.019917015
184	0x3ca01a18	0.019543692
185	0xbcce9a58	-0.025220081
186	0xbd60d217	-0.054887857
187	0x3dda7e2e	0.10668598
188	0xbca90592	-0.020632539
189	0xbd461501	-0.048359875
190	0x3d082835	0.03324147
191	0xbdc80d63	-0.09768178
192	0xbd2d5e00	-0.042325974
193	0xbd86279b	-0.06550523
194	0xbce33c12	-0.027738605
195	0x3ca87034	0.020561315
196	0xbdc36710	-0.09541142
197	0x3d7ad148	0.061234742
198	0xbd39d8ed	-0.045372892
199	0xbddeca85	-0.10878471
200	0xbde2417c	-0.110476464
201	0xbd6fed03	-0.05857564
202	0x3cc15f39	0.023604976
203	0xbdaa9938	-0.083300054
204	0xbdaffbca	-0.08592947
205	0xbd99b297	-0.075047664
206	0xbd8efede	-0.06982206
207	0xbd994af3	-0.074849986
208	0x3c666bf4	0.014063824
209	0x3cc48728	0.023990229
210	0x3dbb1330	0.09134519
211	0x3c8fe371	0.017564507
212	0xbd4e52d7	-0.05037197
213	0x3e0e83bb	0.13917439
214	0x3c1b3c09	0.009474763
215	0x3dddb38c	0.108252615
216	0xbd19433d	-0.03741764
217	0xbd093886	-0.03350117
218	0x3ab96b47	0.0014146351
219	0x3da7340a	0.081642225
220	0x3b636f01	0.0034703615
221	0x3d15d819	0.03658304
222	0x39550437	0.00020314833
223	0xbd987f6c	-0.07446179
224	0xbddd22ec	-0.107976764
225	0x3dfbcec6	0.12295298
226	0x3c9fd122	0.019508902
227	0xbd2e000d	-0.042480517
228	0x3bd077b1	0.0063619246
229	0x3d080840	0.033210993
230	0xbd4ea546	-0.050450586
231	0x3ddb4bf5	0.10707847
232	0x3c71d32f	0.014759823
233	0xbd94a10b	-0.07257279
234	0xbd786173	-0.06063981
235	0x3d36e9f4	0.04465671
236	0x3d0ad844	0.033897653
237	0xbd510ad2	-0.05103571
238	0xbd075900	-0.03304386
239	0x3ce0ec4d	0.027456427
240	0x3cd49543	0.02595008
241	0x3d2713a8	0.04079023
242	0xbdb69649	-0.08915383
243	0xbaf6f5bf	-0.0018841549
244	0x3e04ffa7	0.12988149
245	0xbd8ae71d	-0.067823626
246	0x3d342510	0.043980658
247	0x3d4e2a19	0.050333116
248	0x3c06373d	0.008191881
249	0xbd9a2ef5	-0.075284876
250	0xbd80bf40	-0.06286478
251	0x3e02761a	0.12740365
252	0xbd3b2816	-0.045692526
253	0xbd26ba28	-0.040704876
254	0x3d9390bf	0.072053425
255	0x3cbfa185	0.023392448

model.4.bias f4 [32]
0	0x374330a3	1.163423e-05
1	0xb653adf8	-3.1542713e-06
2	0x36adb6e8	5.177095e-06
3	0xb7a28b1f	-1.9376688e-05
4	0x36fa40f7	7.4581435e-06
5	0xb6d0a270	-6.2177933e-06
6	0x37b571c6	2.1629861e-05
7	0xb70aff38	-8.284864e-06
8	0x32f43440	2.8429099e-08
9	0x33548a00	4.9485607e-08
10	0x36641a19	3.3989838e-06
11	0x37211da6	9.603251e-06
12	0xb74baed4	-1.2140448e-05
13	0x368cedc7	4.200006e-06
14	0xb74fd2a4	-1.2387205e-05
15	0xb742a79d	-1.1602327e-05
16	0x379b52b4	1.8515952e-05
17	0xb5252c10	-6.153141e-07
18	0x35c0a354	1.435265e-06
19	0xb5ff679c	-1.9029135e-06
20	0xb3d40de0	-9.874543e-08
21	0xb6ec5006	-7.042664e-06
22	0x35fdd9aa	1.8913317e-06
23	0xb7237442	-9.7426255e-06
24	0xb6da74d8	-6.5105087e-06
25	0xb7156ccc	-8.906423e-06
26	0xb6f4be4a	-7.293919e-06
27	0x37262795	9.903587e-06
28	0x36db51be	6.5362246e-06
29	0x362265ae	2.4199067e-06
30	0x36971058	4.5020533e-06
31	0xb730775d	-1.0518209e-05

model.5.weight f4 [32]
0	0x3f652092	0.89502823
1	0x3f4b44f9	0.7940212
2	0x3f6559ac	0.89589953
3	0x3f727b13	0.94719046
4	0x3f525ea4	0.8217566
5	0x3f3e1540	0.74251175
6	0x3f5679b8	0.8377948
7	0x3f3039e9	0.68838364
8	0x3f8d2181	1.102585
9	0x3f732053	0.949712
10	0x3f60b287	0.8777241
11	0x3f227998	0.6346679
12	0x3f619eb7	0.88132805
13	0x3f6e1e37	0.93014854
14	0x3f5dec7b	0.86688966
15	0x3f41f648	0.7576642
16	0x3f6cc067	0.9248108
17	0x3f55b73b	0.8348271
18	0x3f675624	0.90365815
19	0x3f29df57	0.66356415
20	0x3f4c2c36	0.7975496
21	0x3f3b3f9f	0.73143953
22	0x3f516075	0.81787807
23	0x3f4ce585	0.8003772
24	0x3f551554	0.8323567
25	0x3f5df8a8	0.86707544
26	0x3f50e727	0.8160271
27	0x3f5d4fab	0.8644969
28	0x3f3c4569	0.7354341
29	0x3f548dc0	0.83028793
30	0x3f6449de	0.8917521
31	0x3f6d80e5	0.927748

model.5.bias f4 [32]
0	0xbdbadd6c	-0.09124264
1	0xbe0fe809	-0.14053358
2	0xbeecc065	-0.46240535
3	0xbed3b651	-0.41350034
4	0xbeda6165	-0.4265243
5	0xbd38c569	-0.04511014
6	0xbdda77e1	-0.10667396
7	0xbe16fd99	-0.14745177
8	0xbe56ed52	-0.20988968
9	0xbcf252aa	-0.029580433
10	0xbd828499	-0.06372947
11	0xbe2a4321	-0.1662717
12	0xbed5c069	-0.4174836
13	0xbda6ea11	-0.081501134
14	0xbe6862ca	-0.22693935
15	0xbd6daab9	-0.058024142
16	0xbf07e619	-0.53085476
17	0xbec5c9ea	-0.3863061
18	0xbf1378d2	-0.5760623
19	0xbdf1b68e	-0.11802398
20	0xbe5822be	-0.21107003
21	0xbdc93966	-0.09825401
22	0xbe4aa355	-0.19788869
23	0xbdb6712c	-0.089083046
24	0xbdca3d8a	-0.09875019
25	0xbf1222c3	-0.5708429
26	0xbe00e247	-0.12586318
27	0xbef4f7d5	-0.4784533
28	0xbd39a500	-0.045323372
29	0xbdee90a6	-0.11648683
30	0xbe084c1d	-0.13310285
31	0xbf02f2ac	-0.5115154

model.5.running_mean f4 [32]
0	0xbe406aaf	-0.18790697
1	0xbeb14433	-0.34622344
2	0xbec13ccd	-0.377417
3	0xbeb2bf31	-0.34911492
4	0xbedf4184	-0.43604672
5	0xbed92cc2	-0.4241696
6	0xbea76aae	-0.32698578
7	0xbea7cdbc	-0.3277415
8	0xbd040426	-0.03223052
9	0x3d9a233a	0.0752625
10	0xbea68ed6	-0.3253085
11	0xbed0bc4c	-0.4076866
12	0xbecd1f27	-0.4006283
13	0xbe4c654b	-0.19960515
14	0xbe93e896	-0.28888386
15	0xbedde80b	-0.43341097
16	0xbeca26d2	-0.39482743
17	0xbeb4542a	-0.35220462
18	0xbed99b76	-0.4250142
19	0xbf1269d6	-0.5719274
20	0xbec8ac8a	-0.39194137
21	0xbefad68c	-0.4899181
22	0xbedd3476	-0.43204087
23	0xbeff2352	-0.49831635
24	0xbeb4eae3	-0.35335454
25	0xbee32227	-0.44361994
26	0xbea563d0	-0.32302713
27	0xbecfd0e9	-0.40589073
28	0xbeca2b27	-0.39486048
29	0xbe92a284	-0.28639615
30	0xbe7314e7	-0.23738442
31	0xbedbee4b	-0.4295524

model.5.running_var f4 [32]
0	0x3ee6b595	0.4506041
1	0x3ef74364	0.48293602
2	0x3ebe37cb	0.37151942
3	0x3ef4ed94	0.47837508
4	0x3f1a9f4b	0.6039931
5	0x3f2660fe	0.6499175
6	0x3f2106af	0.62900823
7	0x3eb1ffd5	0.34765497
8	0x3e8e49fb	0.27790818
9	0x3ece1ea9	0.40257767
10	0x3f0140ee	0.504897
11	0x3edaec61	0.42758468
12	0x3f1208f3	0.57044905
13	0x3ef6a3aa	0.4817174
14	0x3f0dc4ce	0.55378425
15	0x3f1e2934	0.6178162
16	0x3eeccda5	0.46250644
17	0x3ed08ce6	0.40732497
18	0x3ee24443	0.44192705
19	0x3f41a1c5	0.75637466
20	0x3eedfc9d	0.4648179
21	0x3f874828	1.0568895
22	0x3f2610bb	0.6486928
23	0x3f7a1ae6	0.97697294
24	0x3f504f44	0.8137095
25	0x3ef43834	0.4769913
26	0x3f16fdb4	0.5898087
27	0x3ee6e8d5	0.45099512
28	0x3f23fb44	0.64055276
29	0x3f1eeac1	0.62076956
30	0x3f14eff5	0.58178645
31	0x3ef9fa35	0.48823705

model.8.weight f4 [16, 32]
0	0x3d2e4803	0.042549144
1	0x3d6ce5c5	0.057836313
2	0xbe186043	-0.14880471
3	0xbe85d43d	-0.26138487
4	0xbe4331c4	-0.19061953
5	0xbca407d6	-0.020023268
6	0x3d66f57a	0.05638645
7	0x3c2d6dfc	0.010585304
8	0x3d4aaede	0.049483173
9	0x3c9cedca	0.019156355
10	0xbe2e1ff0	-0.1700437
11	0xbcdf71d3	-0.027275955
12	0xbe7951ac	-0.24347562
13	0xbd6a603f	-0.057220694
14	0xbb8d5c5b	-0.004313988
15	0x3c302d9e	0.0107530635
16	0xbe676b7f	-0.225996
17	0xbe4f4dc2	-0.20244506
18	0xbe87c201	-0.265152
19	0xbc3e2952	-0.011606531
20	0xbc8bd1ec	-0.017067872
21	0xbddd2236	-0.10797541
22	0x3bb3f597	0.005491923
23	0xbca8c5c3	-0.020602113
24	0x3b2fdc53	0.0026834204
25	0xbe30659b	-0.1722626
26	0xbd63314b	-0.05546693
27	0xbd5f504d	-0.05451994
28	0xbd5776fc	-0.052603707
29	0xbe35a2df	-0.17737912
30	0xbd951e69	-0.07281191
31	0xbe385e1c	-0.1800465
32	0xbdab5724	-0.0836623
33	0xbc0bf231	-0.00854163
34	0xbdf28b9e	-0.11843036
35	0xbd19bb4a	-0.03753213
36	0xbe35419c	-0.17700809
37	0xbe1870ea	-0.14886823
38	0xbe5b7bc7	-0.21433936
39	0xbca9bb5e	-0.020719226
40	0x3d21c5fc	0.039495453
41	0x3d6664b2	0.056248374
42	0x3bc44a49	0.005990301
43	0xbe14eebf	-0.145442
44	0xbd82f7fc	-0.063949555
45	0xbe86412a	-0.2622159
46	0xbd4999d4	-0.049218968
47	0xbc0b1dc8	-0.008490987
48	0xbdbf4f03	-0.09341242
49	0xbcfca716	-0.030841392
50	0xbe0bfbdd	-0.13670297
51	0x3d46bb69	0.048518572
52	0xbb2e3ee8	-0.0026587788
53	0xbddb92ea	-0.10721381
54	0xbe2f0b99	-0.17094268
55	0xbeb6c329	-0.3569577
56	0xbe33011f	-0.17480896
57	0xbdd462e6	-0.10370426
58	0xbe0bfdaa	-0.13670984
59	0xbdcecb0f	-0.10097324
60	0xbd91a6ee	-0.071119174
61	0xbac09197	-0.0014691827
62	0x3da374f9	0.07981295
63	0xbd9a3437	-0.075294904
64	0x3dc799de	0.09746145
65	0x3d44ed7a	0.048078038
66	0xbe31d063	-0.1736465
67	0xbd1f33b8	-0.038867682
68	0xbe032201	-0.1280594
69	0xbcd5ebe0	-0.02611345
70	0x3c9bcb3a	0.019017804
71	0x3a2e498f	0.00066485343
72	0x3d231fb6	0.039825164
73	0x3d020307	0.03174117
74	0x3d17b86b	0.03704111
75	0xbb694f74	-0.0035600336
76	0xbdfbd2e1	-0.12296081
77	0xbe19f60c	-0.15035266
78	0xbd0e45be	-0.03473448
79	0xbcbd2cec	-0.02309271
80	0xbe4b0248	-0.19825089
81	0xbdb9f50c	-0.09079942
82	0xbe5b4924	-0.2141462
83	0xbd86d2bb	-0.065831624
84	0xbc1c93e0	-0.0095567405
85	0xbdbbc9a9	-0.09169323
86	0xbd7fd9da	-0.06246362
87	0x3c8e3ef3	0.017364
88	0x3ce46d73	0.02788422
89	0xbe4596e0	-0.19295835
90	0xbd0ca285	-0.03433468
91	0xbe844b1b	-0.2583855
92	0xbdd66c7b	-0.1046991
93	0x3d580e7c	0.05274819
94	0xbe120be1	-0.14262344
95	0xbe629e58	-0.22130716
96	0xbe0d3f68	-0.13793719
97	0xbe546d21	-0.20744754
98	0xbdc335d7	-0.095317535
99	0xbd3c0a61	-0.045908336
100	0xbd57e478	-0.05270812
101	0xbd372344	-0.044711366
102	0xbd5d29d6	-0.053994976
103	0xbd2f6b58	-0.04282698
104	0x3c2029fb	0.009775634
105	0xbe5be628	-0.21474516
106	0xbd9c146e	-0.07621084
107	0xbe158762	-0.14602426
108	0xbdffaf29	-0.12484581
109	0x3bfda291	0.0077403267
110	0xbc5e1b44	-0.013556305
111	0xbe3f4391	-0.18678118
112	0xbe231f77	-0.15929972
113	0xbe013ed9	-0.1262163
114	0xbd267f76	-0.0406489
115	0xbd3c28ff	-0.045937534
116	0x3a5d7a33	0.000844869
117	0xbe3409ce	-0.17581865
118	0xbdb27c8b	-0.08715161
119	0xbdebf4c5	-0.115212955
120	0xbdf0c61c	-0.11756536
121	0xbe37a6b7	-0.1793469
122	0xbe4a21a6	-0.19739398
123	0xbd269628	-0.040670544
124	0xbcc4dcd7	-0.024031086
125	0x3d96808f	0.07348739
126	0xbea5909f	-0.323369
127	0xbe1bbe9c	-0.1520943
128	0xbe157af1	-0.1459768
129	0xbded8cf1	-0.11599148
130	0xbc1d2c66	-0.009593105
131	0xbe30a4b2	-0.17250326
132	0xbe35359d	-0.17696233
133	0xbd3edf8f	-0.04659992
134	0xbe0c252a	-0.13686052
135	0xbd9a5945	-0.07536558
136	0x3d2bbcfc	0.041928276
137	0x3d65a780	0.056067944
138	0xbd186e0e	-0.03721433
139	0xbba12b5f	-0.0049185003
140	0xbe2e74d8	-0.1703676
141	0xbe00c9f0	-0.12577033
142	0xbe7d079e	-0.24709937
143	0xbd57e705	-0.05271055
144	0xbdb08bc2	-0.08620407
145	0xbde8d94a	-0.113695696
146	0xbd237a37	-0.039911475
147	0xbcb38803	-0.021915441
148	0xbb3383d1	-0.00273918
149	0xbdcb0ad3	-0.09914174
150	0xbc7706f8	-0.015077345
151	0xbcd1bdbb	-0.025603166
152	0xbc6ca478	-0.014443509
153	0xbddf60b0	-0.109071136
154	0xbc0ee7bd	-0.008722243
155	0xbc540fbc	-0.0129432045
156	0xbd1b6c8a	-0.037945308
157	0xbe521fb0	-0.205199
158	0xbe333d9b	-0.1750397
159	0xbe0ba1e3	-0.13635974
160	0xbd67e715	-0.05661686
161	0x3c56b846	0.013105458
162	0xbe88ee01	-0.26744083
163	0x3d066548	0.032811433
164	0xbd6a3143	-0.057175886
165	0xbcc2af56	-0.023765247
166	0xbcdd8399	-0.02704029
167	0xbd10a885	-0.035316963
168	0x3ce1527d	0.027505154
169	0x3d247162	0.040147193
170	0x3bf0e34b	0.007351314
171	0xbdc07dd5	-0.093990006
172	0xbd5205dd	-0.051275123
173	0x3d9a7cee	0.0754336
174	0xbd077937	-0.033074584
175	0xbb8ddc38	-0.0043292306
176	0xbe116822	-0.1419988
177	0xbe1f9a4d	-0.15586205
178	0xbeacb1ac	-0.33729303
179	0xbcf6b61a	-0.03011613
180	0xbd0da858	-0.034584373
181	0x3b26a25b	0.0025426361
182	0xbdb8dfd3	-0.09027066
183	0xbd6e89ae	-0.05823677
184	0x3c3c7522	0.011502536
185	0xbe9a1f49	-0.30101994
186	0xbda0c10d	-0.078493215
187	0xbe5396a7	-0.20662938
188	0x3c74304c	0.014904093
189	0xbc2eaaa6	-0.010660803
190	0x3d8acc2e	0.067772254
191	0xbe144deb	-0.14482848
192	0x3d1bac0d	0.038005877
193	0xbc037092	-0.008022444
194	0xbdfd684b	-0.12373408
195	0xbe60ac39	-0.21940698
196	0xbe545ea4	-0.20739228
197	0xbc7694d7	-0.015050135
198	0xbe037b34	-0.12839967
199	0x3c47187b	0.012151833
200	0x3d0a3aa0	0.033747315
201	0x3c8b012f	0.016968338
202	0xbcd89e41	-0.026442649
203	0xbcaff087	-0.021476997
204	0xbe4e2359	-0.20130672
205	0x3daa6158	0.08319348
206	0xbcf72a6c	-0.030171596
207	0xbd37e168	-0.0448927
208	0xbe278ce6	-0.16362342
209	0xbd4288bf	-0.047493692
210	0xbe19eb64	-0.150312
211	0xbd786026	-0.06063857
212	0x3b698a6e	0.003563549
213	0xbd69e476	-0.057102643
214	0xbdc68433	-0.09693184
215	0xbb4d1281	-0.0031291547
216	0xbd8fa1e9	-0.07013304
217	0xbe51dbd3	-0.20494013
218	0x3c121e9c	0.008918431
219	0xbe1b823a	-0.15186396
220	0x3ae16534	0.0017196299
221	0x3d07ffce	0.03320294
222	0x3caa8ecb	0.020820042
223	0xbe8abe79	-0.27098444
224	0x3ce8ad95	0.028403083
225	0xbdffa3de	-0.12482427
226	0xbdb82409	-0.08991248
227	0xbd82fad3	-0.06395497
228	0xbe0b81e7	-0.13623773
229	0xbc349e4a	-0.011024067
230	0xbe440dbe	-0.19145867
231	0xbd9dc396	-0.07703321
232	0x3d4e1c9b	0.05032025
233	0xbeba63e3	-0.36404333
234	0xbe165ac7	-0.14683066
235	0xbd61f7b4	-0.05516787
236	0xbd376948	-0.04477814
237	0xbe5ea536	-0.2174271
238	0xbe134b2b	-0.14384143
239	0xbd32cf31	-0.043654624
240	0xbd9b971c	-0.07597181
241	0xbd8975d3	-0.06711926
242	0xbdb6f04a	-0.0893255
243	0x3b381e70	0.0028094314
244	0x3b956072	0.0045586163
245	0x3bf90f74	0.007600719
246	0xbd494c21	-0.049144868
247	0xbc1efe5a	-0.009704197
248	0xbb7b0bbe	-0.003830656
249	0xbe10f17a	-0.14154616
250	0xbbd61cc7	-0.0065341922
251	0xbd998fb3	-0.074981116
252	0xbdabfc79	-0.08397765
253	0x3d108482	0.03528262
254	0x3cfa0568	0.030520156
255	0xbdebe2ae	-0.11517845

model.8.bias f4 [16]
0	0xb681802b	-3.8594203e-06
1	0x36d9c694	6.4902215e-06
2	0xb6849c9e	-3.952139e-06
3	0x36bffc64	5.7216257e-06
4	0xb6bfee5e	-5.719993e-06
5	0x36ccba12	6.101335e-06
6	0xb6186675	-2.2709403e-06
7	0x37e1e78c	2.6929913e-05
8	0x36f876e4	7.4048166e-06
9	0x37786b42	1.4806925e-05
10	0x3739c448	1.107256e-05
11	0x3667cd5d	3.454122e-06
12	0xb747071f	-1.1862982e-05
13	0xb72bac70	-1.0232543e-05
14	0xb70b07a2	-8.286823e-06
15	0x35d60078	1.5944379e-06

model.9.weight f4 [16]
0	0x3f83437f	1.0254973
1	0x3f74227a	0.9536511
2	0x3f7e8715	0.9942487
3	0x3f731fff	0.949707
4	0x3f950754	1.1642861
5	0x3f610592	0.87899125
6	0x3f7fb268	0.998816
7	0x3f7df7c3	0.9920618
8	0x3f7c3a3a	0.98526347
9	0x3f5dc124	0.86622834
10	0x3f9653fa	1.1744378
11	0x3f603af8	0.8758998
12	0x3f826c86	1.0189369
13	0x3f872aaa	1.0559895
14	0x3f590cac	0.8478496
15	0x3f8679b7	1.0505894

model.9.bias f4 [16]
0	0x3f194e75	0.5988534
1	0x3f2e98da	0.6820198
2	0x3f3b67ef	0.73205465
3	0x3f295f65	0.66161186
4	0x3f1fe0ec	0.6245258
5	0x3f1ebd4c	0.62007594
6	0x3f1d6a5d	0.6149042
7	0x3f3831c8	0.7195096
8	0x3f16985f	0.5882625
9	0x3f47d320	0.78056526
10	0x3f2570d9	0.64625317
11	0x3f481623	0.7815878
12	0x3f06fbc9	0.52727944
13	0x3f1bb12c	0.6081722
14	0x3f51608e	0.81787956
15	0x3f21de15	0.63229495

model.9.running_mean f4 [16]
0	0xbed434c4	-0.41446507
1	0xbf0d1f12	-0.55125535
2	0xbe938b93	-0.28817424
3	0xbf2db59d	-0.67855245
4	0xbf062125	-0.52394325
5	0xbe85a899	-0.26105192
6	0xbea491ca	-0.32142478
7	0xbefdc6bc	-0.49565685
8	0xbec6a6e2	-0.38799196
9	0xbec661f6	-0.38746613
10	0xbf1340ac	-0.57520556
11	0xbe78d0a9	-0.24298348
12	0xbebf4a74	-0.3736149
13	0xbebf22e0	-0.37331295
14	0xbe8d4d89	-0.27598217
15	0xbed51ee6	-0.41625136

model.9.running_var f4 [16]
0	0x3f9cb95b	1.2244066
1	0x3f991bd5	1.1961619
2	0x3f4724a0	0.7779026
3	0x3fe1cb5f	1.7640189
4	0x3f95d140	1.1704483
5	0x3f40a1e0	0.75247
6	0x3f39cfc2	0.7258264
7	0x3fa4cc8d	1.2874924
8	0x3f95a572	1.1691115
9	0x3f4c90bd	0.79908353
10	0x3fb6b97c	1.4275355
11	0x3ef5d41f	0.48013398
12	0x3f445fc3	0.7670862
13	0x3f86392e	1.04862
14	0x3f09559e	0.53646266
15	0x3f519187	0.8186268

model.12.weight f4 [1, 16]
0	0x3efce423	0.49392805
1	0x3ee5a506	0.44852465
2	0x3ee17139	0.44031695
3	0x3eead659	0.4586666
4	0x3edf63f8	0.43630958
5	0x3f05e723	0.5230581
6	0x3eff19db	0.49824414
7	0x3edd3493	0.43204173
8	0x3f039348	0.5139661
9	0x3edc10cd	0.42981568
10	0x3eda1115	0.42591158
11	0x3ecd2b62	0.4007216
12	0x3f056845	0.5211223
13	0x3efa18c0	0.48847008
14	0x3ec9eb8f	0.3943753
15	0x3eedb5ca	0.46427757
