neuralnet/Hyperparameter sweeps/hp sweep pca 3/pca3_bike_volume_model_net_3layers_lr_0.00005000_batch_64_pca_29.pth (torch, 29844 bytes, 19 tensors)

model.0.weight f4 [64, 29]
0	0x3b9ebd86	0.0048443703
1	0x3b27f804	0.0025630007
2	0xbdc13f39	-0.09435887
3	0xbd9be2f1	-0.07611645
4	0xbdd53b06	-0.104116485
5	0xbc94d7bf	-0.018169282
6	0x3d876760	0.06611514
7	0x3e391116	0.18072924
8	0x3e1ef0b7	0.15521513
9	0x3d587e99	0.052855108
10	0x3dca54db	0.09879466
11	0x3c940e02	0.018073086
12	0x3d33e2b2	0.043917365
13	0xbdc9017c	-0.09814736
14	0xbd198889	-0.037483726
15	0xbe49047f	-0.19630621
16	0x3dbaa788	0.09113985
17	0x3b5727de	0.003283016
18	0xbc8c1e1d	-0.017104203
19	0x3ca2f7f0	0.019893616
20	0x3d321020	0.04347241
21	0xbd304208	-0.043031722
22	0xbdb8c3a7	-0.09021693
23	0x3cac30aa	0.021019299
24	0xbcde22cc	-0.027116202
25	0x3d3f0e98	0.046644777
26	0xbc7256b6	-0.014791181
27	0xbde458ee	-0.111497745
28	0x3e771d6a	0.24132314
29	0xbdc05717	-0.09391611
30	0x3cb3c897	0.021946235
31	0xbca43379	-0.020044075
32	0x3d40f9a6	0.047113083
33	0xbe2bed58	-0.16789758
34	0xbd19af7f	-0.03752088
35	0x3d75efba	0.060043074
36	0x3cb26c5a	0.021780182
37	0xbd86a6bf	-0.06574773
38	0x3cfad7a3	0.030620402
39	0x3dd0dab0	0.10197961
40	0x3e104321	0.14088108
41	0xbcd63d10	-0.026152164
42	0x3dbb0762	0.091322675
43	0x3e1bfee8	0.15233958
44	0xbe787ee7	-0.2426716
45	0x3d83c90c	0.06434831
46	0x3d2ef077	0.042709794
47	0xbc0d7cd2	-0.0086357165
48	0xbe8f9fbf	-0.28051564
49	0xbdff097b	-0.1245298
50	0x3d14da2f	0.03634089
51	0xbd5f90e0	-0.054581523
52	0xbddf7de8	-0.109126866
53	0xbd910191	-0.07080377
54	0xbe7b5eaa	-0.2454783
55	0x3bf08423	0.0073399707
56	0x3dbd1a7a	0.09233566
57	0xbdf0ec83	-0.11763861
58	0xbd687e67	-0.05676117
59	0xbc1141a9	-0.008865752
60	0xbd3cc979	-0.046090577
61	0x3d93ab79	0.0721044
62	0xbdfc8bbf	-0.12331342
63	0x3d8ae2a4	0.067815095
64	0x3d09a32c	0.03360288
65	0x3e29f1b4	0.16596109
66	0x3c8a167e	0.016856428
67	0xbd85a300	-0.065252304
68	0x3dbbb383	0.091650985
69	0x3b92296d	0.0044605047
70	0x3cc0d25a	0.023537803
71	0x3ddd9c85	0.10820869
72	0x3ceef533	0.029169654
73	0xbd9cd752	-0.076582566
74	0xbe7144c3	-0.23561387
75	0x3dd2ad42	0.102869526
76	0xbe18372f	-0.14864801
77	0xbd515ce5	-0.05111398
78	0xbe20d672	-0.15706804
79	0x3daa1e67	0.0830658
80	0xbd87cae7	-0.066304974
81	0xbdc1f2f2	-0.09470166
82	0x3e27f02c	0.16400212
83	0xbe0c2fc6	-0.13690099
84	0xbdd338dc	-0.103135794
85	0xbcbafdc3	-0.022826081
86	0x3e194fef	0.14971898
87	0xbbf2415c	-0.0073930454
88	0x3d5f6965	0.05454387
89	0xbc9748c7	-0.01846732
90	0xbd3944eb	-0.04523174
91	0x3d98f446	0.074684665
92	0x3da8bd2a	0.08239205
93	0xbde7240b	-0.112861715
94	0xbd4d43fb	-0.05011366
95	0xbd5e29b3	-0.054238986
96	0x3d445d56	0.047940575
97	0xbdb9cd4d	-0.09072361
98	0x3d1bb607	0.03801539
99	0xbd4c6851	-0.04990417
100	0xbe0b1cd7	-0.1358522
101	0x3c327406	0.01089192
102	0x3d1cea40	0.038309336
103	0xbc325a22	-0.010885747
104	0xbb848f9e	-0.004045441
105	0xbd0fb25d	-0.03508221
106	0xbd2a7de2	-0.041623957
107	0xbd7c1106	-0.061539672
108	0xbd51b9bc	-0.05120252
109	0x3e9435ce	0.289473
110	0xbccf6812	-0.02531818
111	0xbe55349e	-0.20820853
112	0x3e024d97	0.1272491
113	0xbe5c5866	-0.21518096
114	0xbe57d501	-0.21077348
115	0x3dfd85d0	0.12379038
116	0xbbecb5cd	-0.007223821
117	0xbd51e510	-0.05124384
118	0xbd98794e	-0.07445012
119	0x3d6996f2	0.05702872
120	0xbde07d7c	-0.10961434
121	0x3e0e3c9f	0.13890313
122	0xbc145660	-0.0090537965
123	0x3caea985	0.021321068
124	0xbcc7b539	-0.024378406
125	0x3d36909e	0.04457151
126	0xbced4718	-0.028964564
127	0xbe322847	-0.17398177
128	0x3dfa8a6f	0.12233435
129	0x3dd4737a	0.10373588
130	0x3d303337	0.043017592
131	0x3dcfb92a	0.10142739
132	0xbe93d5fe	-0.288742
133	0x3e12c548	0.1433307
134	0xbe589050	-0.21148801
135	0xbc87fc66	-0.016599845
136	0xbe4b203a	-0.19836512
137	0xbdba6ae2	-0.091024175
138	0xbe66d84a	-0.22543445
139	0x3e2033f1	0.15644814
140	0x3d9909a5	0.07472543
141	0xbc8c9d5a	-0.017164875
142	0xbe659d74	-0.22423345
143	0x39db6f57	0.0004185389
144	0xbd4fb6b1	-0.050711337
145	0x3c8a2baa	0.016866524
146	0x3e2f3558	0.17110193
147	0x3d829dfd	0.0637779
148	0xbcf6e03d	-0.030136222
149	0xbdde2bcc	-0.10848197
150	0xbe4a7d07	-0.19774257
151	0xbd2899cd	-0.0411623
152	0x3c85c9a7	0.016331507
153	0x3dace6c1	0.0844245
154	0xbc995c1e	-0.018720683
155	0x3ce2441d	0.02762037
156	0xbd9cf761	-0.07664371
157	0xbdcec333	-0.10095825
158	0x3dbf5e7c	0.09344193
159	0x3c9dd8f4	0.01926849
160	0x3d6fd647	0.05855396
161	0xbce93d62	-0.028471652
162	0x3d8e8575	0.06959049
163	0x3db73ea6	0.08947496
164	0x3e6cba3e	0.23117921
165	0x3d6361a4	0.05551304
166	0x3e16ec39	0.1473855
167	0xbb371cdf	-0.0027940792
168	0x3da84eb2	0.08218135
169	0x3e17b52e	0.14815208
170	0x3e3eeffb	0.18646233
171	0x3b975e16	0.00461937
172	0x3e08b17e	0.13348958
173	0xbdc1a237	-0.09454768
174	0x3d92728d	0.07150755
175	0xbd528f61	-0.051406268
176	0xbd3a6d20	-0.045514226
177	0x3d18788d	0.03722434
178	0x3dfadc71	0.12249077
179	0x3d2671c6	0.040635847
180	0x3d217d04	0.039425865
181	0x3d35b241	0.04435945
182	0x3caa3ab1	0.02077994
183	0x3c9473e6	0.018121671
184	0x3b627c5f	0.0034558994
185	0x3e4bdb68	0.19907916
186	0x3d52a753	0.051429104
187	0x3dabb9b3	0.08385029
188	0xbb42cb66	-0.0029723286
189	0x3d84b6d4	0.06480184
190	0x3d260c14	0.040538862
191	0xbd238807	-0.039924648
192	0xbd213b3a	-0.039363123
193	0x3e4f8587	0.2026578
194	0x3e39c3cd	0.18141098
195	0xbe0e2140	-0.13879871
196	0x3d1f33ef	0.038867887
197	0xbe65464e	-0.223901
198	0x3d441e9b	0.04788075
199	0x3c917b77	0.017759068
200	0xbd52e0e2	-0.051483996
201	0x3e363ddc	0.17797035
202	0x3783da10	1.571796e-05
203	0x3cb52c78	0.02211593
204	0xbd3d886e	-0.046272688
205	0x3dfcb960	0.12340045
206	0xbdcf32f2	-0.10117139
207	0x3d563ab5	0.05230208
208	0xbd2c4361	-0.042056445
209	0x3d0a811b	0.03381453
210	0xbdb36b4b	-0.08760699
211	0xbab50a11	-0.0013812204
212	0xbd31a85a	-0.043373443
213	0xbdd4471c	-0.103651255
214	0xbe107c67	-0.14109956
215	0x3d721a26	0.05910697
216	0x3d4d1f03	0.050078403
217	0xbd41a185	-0.047273178
218	0x3e315536	0.17317662
219	0xbd8d7b41	-0.069082744
220	0xbc87f79c	-0.016597562
221	0xbd13048a	-0.035893
222	0x3e4a3951	0.19748427
223	0x3dd30004	0.10302737
224	0xbdb9d594	-0.0907394
225	0x3d602c6d	0.054729868
226	0x3e30dbea	0.1727139
227	0x3cdc1897	0.026867194
228	0x3de2f35c	0.11081573
229	0xbd98018a	-0.074221686
230	0x3cc38e2c	0.023871504
231	0xbe0b1199	-0.13580932
232	0xbb5dd429	-0.003384838
233	0x3dff559c	0.124675006
234	0xbc99bcf2	-0.018766854
235	0xbce9ac96	-0.028524678
236	0x3cba67a6	0.022754502
237	0xbe24602b	-0.1605231
238	0xbdf79efc	-0.12090871
239	0x3bbdb292	0.0057891095
240	0xbd1ceed6	-0.03831371
241	0xbd5e367c	-0.05425118
242	0xbc6d1701	-0.014470817
243	0xbe0e90f3	-0.13922481
244	0x3d9ac58d	0.07557211
245	0xbe27d6e6	-0.16390571
246	0x3c01ddc5	0.007926409
247	0xbc4529b2	-0.012033867
248	0x3d90806f	0.07055747
249	0x3c3f08fd	0.011659858
250	0xbc243498	-0.010022305
251	0x3dcd1746	0.10014205
252	0x3dc17fc2	0.09448196
253	0xbd088122	-0.033326276
254	0xbdb9da8d	-0.090748884
255	0x3e22e2cc	0.15906829

model.0.bias f4 [64]
0	0x368b5c49	4.153266e-06
1	0x3618b811	2.2756906e-06
2	0x36c27887	5.795682e-06
3	0x374373a2	1.1649829e-05
4	0x36faae77	7.470891e-06
5	0x36e90d7b	6.9455104e-06
6	0x3642c2ed	2.9021714e-06
7	0xb414a120	-1.3842191e-07
8	0xb78ea72d	-1.7005566e-05
9	0x37018d83	7.721947e-06
10	0xb5babb28	-1.391255e-06
11	0xb5c3095c	-1.4531356e-06
12	0x367deec6	3.7838922e-06
13	0xb6c6812e	-5.9158983e-06
14	0xb6d49bc7	-6.336227e-06
15	0xb76137f6	-1.34240745e-05
16	0xb580bc03	-9.591462e-07
17	0x35f6c3dc	1.8385431e-06
18	0x3650f6e2	3.113812e-06
19	0xb6efd908	-7.148021e-06
20	0x37868969	1.6038031e-05
21	0x369ee6ca	4.7356343e-06
22	0xb72b91ca	-1.0226338e-05
23	0xb69bf3b5	-4.647731e-06
24	0x36af7f8a	5.230254e-06
25	0x38428690	4.6378525e-05
26	0x37ae7f3f	2.080167e-05
27	0xb5af9506	-1.3081888e-06
28	0xb6cb8966	-6.0658667e-06
29	0x361ea890	2.364195e-06
30	0x3525e7be	6.180452e-07
31	0xb5d77944	-1.6054041e-06
32	0xb7182743	-9.069047e-06
33	0x34a48960	3.0647334e-07
34	0xb67ae0a7	-3.7383668e-06
35	0xb75ff4fa	-1.3348874e-05
36	0xb752157a	-1.2521976e-05
37	0xb66b49b8	-3.5060639e-06
38	0xb6cb9fad	-6.06846e-06
39	0xb6b3af0e	-5.3549948e-06
40	0xb7615005	-1.3429676e-05
41	0xb7aaf779	-2.0380818e-05
42	0xb629bf64	-2.5294366e-06
43	0xb6e5de72	-6.850628e-06
44	0xb76d5e25	-1.41482205e-05
45	0x3666b2da	3.4376776e-06
46	0xb68d8657	-4.2177667e-06
47	0xb730a917	-1.0529787e-05
48	0x359a1c28	1.1482089e-06
49	0x3727f204	1.0010324e-05
50	0xb6609372	-3.3464426e-06
51	0xb7efb3d3	-2.8574757e-05
52	0x36c4cd13	5.865129e-06
53	0xb556da84	-8.0039194e-07
54	0x361506af	2.220662e-06
55	0xb798852f	-1.818183e-05
56	0xb6bce35e	-5.6293056e-06
57	0xb6f426f5	-7.276302e-06
58	0xb79bc778	-1.8570325e-05
59	0xb6acf035	-5.1539632e-06
60	0xb5cb1653	-1.5131176e-06
61	0xb61e5884	-2.3595358e-06
62	0xb6a1eea1	-4.825954e-06
63	0xb7235f7d	-9.73779e-06

model.1.weight f4 [64]
0	0x3f3c6103	0.7358553
1	0x3f34def3	0.70652694
2	0x3f45131f	0.769823
3	0x3f2cce0c	0.675019
4	0x3f5be606	0.8589786
5	0x3f36c06a	0.7138735
6	0x3f44cabe	0.7687186
7	0x3f4acea7	0.79221576
8	0x3f3d2f76	0.73900545
9	0x3f3141bc	0.6924093
10	0x3f444049	0.7666059
11	0x3f3c993f	0.73671335
12	0x3f207195	0.6267331
13	0x3f4c7374	0.7986367
14	0x3f696e11	0.91183573
15	0x3f3c7bc8	0.73626375
16	0x3f39018b	0.7226798
17	0x3f2b56ab	0.6692912
18	0x3f4c1d68	0.7973237
19	0x3f2c035f	0.67192644
20	0x3f513297	0.8171782
21	0x3f2d2b39	0.6764408
22	0x3f3a4cf8	0.72773695
23	0x3f1f6878	0.6226878
24	0x3f470840	0.77746964
25	0x3f2cb61b	0.6746537
26	0x3f4db52f	0.8035459
27	0x3f3b28f6	0.73109376
28	0x3f4db1a0	0.8034916
29	0x3f2f6c16	0.685243
30	0x3f2c3f0e	0.67283714
31	0x3f4413d2	0.76592743
32	0x3f5c6213	0.8608715
33	0x3f451bca	0.7699553
34	0x3f519d0a	0.8188025
35	0x3f53896a	0.8263155
36	0x3f3ee98c	0.74575114
37	0x3f46ad87	0.7760853
38	0x3f3776cd	0.7166565
39	0x3f45db80	0.77288055
40	0x3f39b580	0.7254257
41	0x3f302e3f	0.68820566
42	0x3f43fb70	0.7655554
43	0x3f43ac8d	0.76435167
44	0x3f386714	0.72032285
45	0x3f3bd9cf	0.73379225
46	0x3f33c0fc	0.70216346
47	0x3f5755e1	0.84115416
48	0x3f39ee60	0.72629356
49	0x3f1b2972	0.60610116
50	0x3f247cf8	0.6425319
51	0x3f3725c5	0.71542007
52	0x3f517f68	0.8183503
53	0x3f48b607	0.7840275
54	0x3f477046	0.7790569
55	0x3f450e35	0.76974803
56	0x3f4a76a9	0.7908731
57	0x3f454fbd	0.77074796
58	0x3f528eb0	0.82248974
59	0x3f49b507	0.7879185
60	0x3f1550b4	0.5832627
61	0x3f499064	0.7873595
62	0x3f4194e7	0.7561783
63	0x3f4ac021	0.79199415

model.1.bias f4 [64]
0	0xbe4cbfd9	-0.19995059
1	0xbd85a8e4	-0.06526354
2	0xbe17ecff	-0.148365
3	0xbf347aa5	-0.7049964
4	0xbe41a7db	-0.18911688
5	0xbedc2f3e	-0.43004793
6	0xbd42f41f	-0.047596093
7	0xbe809bed	-0.25118962
8	0xbf153368	-0.58281565
9	0xbe1b70f7	-0.15179811
10	0xbf07f6ab	-0.5311076
11	0xbf42975a	-0.76012194
12	0xbe215ec9	-0.15758814
13	0xbe7f7b64	-0.24949414
14	0xbec63561	-0.387126
15	0xbee554fb	-0.44791397
16	0xbd318d00	-0.04334736
17	0xbee5da86	-0.44893283
18	0xbe1ff016	-0.1561893
19	0xbc699a1a	-0.014257932
20	0xbf052d05	-0.5202182
21	0xbe888595	-0.26664415
22	0xbed57b6f	-0.41695735
23	0xbea5e684	-0.32402432
24	0xbdafda46	-0.08586554
25	0xbdfa4916	-0.12220971
26	0xbe845e33	-0.25853118
27	0xbecd46e5	-0.4009315
28	0xbe1534d5	-0.14570935
29	0xbe172083	-0.14758496
30	0xbef01ec7	-0.4689848
31	0xbe2436b5	-0.16036494
32	0xbe7502a5	-0.2392679
33	0xbd608556	-0.05481466
34	0xbdf85fd7	-0.12127655
35	0xbde4d3f5	-0.1117324
36	0xbe498591	-0.19679858
37	0xbf0566f9	-0.5211025
38	0xbe61bf58	-0.22045648
39	0xbe11623a	-0.14197627
40	0xbee53499	-0.4476669
41	0xbd73ae19	-0.059492204
42	0xbe66d2c5	-0.2254134
43	0xbf2f8268	-0.6855836
44	0xbf0a0cb5	-0.5392564
45	0xbf134517	-0.575273
46	0xbe3b693f	-0.18301867
47	0xbe6f3c32	-0.23362806
48	0xbf286fb1	-0.6579543
49	0xbec11fc5	-0.3771955
50	0xbe4c893e	-0.19974229
51	0xbf0846bb	-0.53232926
52	0xbe94b8dc	-0.29047287
53	0xbe3e6bfd	-0.18595882
54	0xbe39d1e2	-0.1814647
55	0xbe7450f2	-0.23859003
56	0xbe00aebb	-0.12566654
57	0xbf339954	-0.70155835
58	0xbd9ef048	-0.07760674
59	0xbe16cc2d	-0.14726324
60	0xbeb0493d	-0.34430876
61	0xbea60fbc	-0.3243388
62	0xbe055ee5	-0.1302448
63	0xbdd6af85	-0.104826964

model.1.running_mean f4 [64]
0	0x3dbafe98	0.09130591
1	0xbde2d1aa	-0.110751465
2	0xbd972501	-0.07380105
3	0xbd0d1576	-0.034444295
4	0x3d070cb2	0.03297109
5	0xbd9e3700	-0.07725334
6	0x3d4fc3a4	0.050723687
7	0x3db950eb	0.09048637
8	0xbd77ad98	-0.060468286
9	0x3c57695a	0.013147676
10	0xbd5297fc	-0.051414475
11	0xbe1cc03c	-0.15307707
12	0x3db78b16	0.089620754
13	0x3c86ce98	0.016455933
14	0x3ca4680e	0.020069148
15	0xbd0899b3	-0.033349704
16	0x3e131364	0.14362866
17	0x3c9f5429	0.01944931
18	0xbc6222cc	-0.0138022415
19	0xbd9f9a23	-0.07793071
20	0xbcaaff7c	-0.020873778
21	0xbd6788bc	-0.056526884
22	0xbc874add	-0.01651519
23	0xbe68317a	-0.22675124
24	0x3d09f039	0.03367636
25	0x3cdd316b	0.027001103
26	0x3e09203c	0.13391203
27	0xbe0b632a	-0.13612047
28	0x3e279c7f	0.16368292
29	0x3e67c99c	0.22635502
30	0x3e0e9fd2	0.13928154
31	0x3d996e60	0.074917555
32	0x3d2a5fc3	0.04159523
33	0x3e3af992	0.18259266
34	0x3ce1b134	0.027550317
35	0x3dd875d2	0.105693474
36	0xb9513bc0	-0.00019954052
37	0xbdfdbd02	-0.12389566
38	0xbd9bd03c	-0.07608077
39	0xbc3c3295	-0.011486669
40	0x3cf9b4e6	0.030481767
41	0xbca60c42	-0.020269517
42	0xbda73c8b	-0.081658445
43	0xbd52a53b	-0.051427107
44	0xbdc6f451	-0.097145684
45	0xbda37a90	-0.07982361
46	0xbd6688c8	-0.05628279
47	0xbd7bb951	-0.06145603
48	0xbdc5c55a	-0.096567824
49	0xbdf7488b	-0.12074383
50	0x3de29141	0.11062861
51	0xbadff030	-0.0017085131
52	0xbcacb4ec	-0.021082364
53	0x3ca4b7a6	0.020107102
54	0x3de9a2a8	0.11407977
55	0x3cd43a38	0.025906667
56	0x3e694922	0.22781804
57	0xbcabfb09	-0.020993726
58	0x3d0d8872	0.034553953
59	0x3bca98e0	0.006182775
60	0x3be7e17a	0.0070764394
61	0x3d3a7180	0.0455184
62	0x3d855209	0.065097876
63	0x3dbeb8dd	0.093126036

model.1.running_var f4 [64]
0	0x3e95f94f	0.2929177
1	0x3ef77105	0.48328415
2	0x3e6da2e4	0.23206669
3	0x3e571084	0.21002394
4	0x3eda73d7	0.42666504
5	0x3f371e39	0.7153049
6	0x3ed4dc27	0.41574213
7	0x3e8c0b00	0.27352142
8	0x3eca1c1c	0.3947457
9	0x3ea5df70	0.32397032
10	0x3eb680a6	0.35645026
11	0x3f48b19a	0.78396
12	0x3f04af46	0.51829946
13	0x3ec9de91	0.39427617
14	0x3e97da7a	0.29658872
15	0x3e515e1d	0.20446058
16	0x3eb26976	0.34846085
17	0x3e480cdd	0.19536157
18	0x3e2d49f6	0.16922745
19	0x3f0f7b2c	0.5604732
20	0x3eff7e8e	0.4990124
21	0x3f0d1499	0.55109555
22	0x3ed83b4c	0.4223274
23	0x3f4e8a31	0.80679613
24	0x3e3182e2	0.17335084
25	0x3e8cfddf	0.27537438
26	0x3e92d3b9	0.28677157
27	0x3f10e06c	0.5659244
28	0x3edec770	0.43511534
29	0x3efd0bdb	0.49423108
30	0x3f0e9a7d	0.5570448
31	0x3ebd36c1	0.36955836
32	0x3f02dafa	0.5111538
33	0x3ef13df4	0.4711758
34	0x3f199d62	0.6000577
35	0x3ec3505a	0.3814724
36	0x3ed77068	0.42077947
37	0x3f022486	0.5083698
38	0x3e95519d	0.29163828
39	0x3f0833d6	0.53204095
40	0x3f2133e9	0.62969834
41	0x3ea7d4db	0.32779583
42	0x3ef8ca85	0.4859201
43	0x3eb96542	0.36210066
44	0x3f047c14	0.5175183
45	0x3f4588a7	0.7716164
46	0x3ed31965	0.41230312
47	0x3e8d066b	0.2754396
48	0x3f04a450	0.5181322
49	0x3f04f685	0.5193866
50	0x3f0783b7	0.52935356
51	0x3f13a15f	0.5766811
52	0x3ec8519a	0.39124757
53	0x3eda9b5e	0.4269666
54	0x3e88d1b2	0.26722485
55	0x3e429f47	0.19006072
56	0x3ebe58b7	0.3717706
57	0x3ec50c44	0.3848592
58	0x3ecb526d	0.39711323
59	0x3e67951f	0.22615479
60	0x3f03bd70	0.51460934
61	0x3f0978ec	0.5370014
62	0x3ead2cfc	0.33823383
63	0x3f058c24	0.5216696

model.4.weight f4 [32, 64]
0	0x3d30c057	0.04315218
1	0xbc0460cf	-0.008079722
2	0x3c1f80aa	0.009735266
3	0x3d5fa973	0.05460496
4	0xbdbecd5c	-0.09316513
5	0x3d6124c0	0.05496669
6	0xbcad742e	-0.021173563
7	0x3cba0fd5	0.022712627
8	0x3e15b892	0.14621189
9	0x3cf8bfd9	0.030364918
10	0x3e3e8090	0.1860373
11	0x3d11e5b7	0.035619464
12	0xbcdf22d0	-0.02723828
13	0xbacf40a5	-0.0015812112
14	0xbc172f3a	-0.009227568
15	0x3d95be51	0.073116906
16	0xbda8cc06	-0.082420394
17	0x3d22979e	0.039695375
18	0x3a0b69f8	0.000531822
19	0xbd26e9ea	-0.04075042
20	0x3e1bb39d	0.15205236
21	0xbb85f0fb	-0.004087565
22	0x3d717dcd	0.058957864
23	0x3caf4193	0.021393573
24	0xbd3689bc	-0.044564947
25	0xbcba0d7f	-0.022711514
26	0xbcb17496	-0.021662038
27	0x3db4e03d	0.088318326
28	0xbc3af6c1	-0.01141137
29	0xbd497421	-0.049183015
30	0x3bd280bb	0.0064240373
31	0xbe0b2dfc	-0.1359176
32	0xbd200b01	-0.039072994
33	0xbd924fc8	-0.07144123
34	0xbdbef34e	-0.093237504
35	0xbdbb90d3	-0.091584824
36	0xbd9fe5a2	-0.07807471
37	0x3c5d09b1	0.01349108
38	0x3be02d5b	0.0068413443
39	0xbc986b35	-0.018605808
40	0xbd4d368e	-0.050100856
41	0x3d23c9b4	0.03998728
42	0xbcca3b58	-0.0246865
43	0x3db7d676	0.08976452
44	0xbb6378ee	-0.003470953
45	0x3d2e8599	0.042607877
46	0x3acf643a	0.0015822717
47	0xbdbe5aaa	-0.092946365
48	0x3d1f9956	0.038964592
49	0x3daf79a4	0.08568123
50	0x3c854c7e	0.016271826
51	0xbdd1147d	-0.10208986
52	0x3d0c1d5c	0.034207687
53	0xbc1b5e48	-0.009482928
54	0xbbb0c5c8	-0.005394671
55	0xbc90a9ea	-0.017659146
56	0xbce72d96	-0.02821998
57	0x3bb4812c	0.0055085625
58	0xbd3c1cb9	-0.04592583
59	0x3d34c8cb	0.044136804
60	0x3a12c795	0.0005599198
61	0x3d4624a5	0.04837479
62	0xbd10b624	-0.035329953
63	0xbd9cea8b	-0.07661923
64	0xbdf1efe0	-0.11813331
65	0xbda45e4e	-0.080258
66	0xbd9cbc46	-0.07653098
67	0x3de9826d	0.1140183
68	0xbd9e762f	-0.077373855
69	0x3d1058b3	0.03524084
70	0xbd0271b0	-0.031846702
71	0xbdba9307	-0.091100745
72	0x3cd46144	0.025925286
73	0xbda42a3c	-0.08015868
74	0xbc0f75b6	-0.008756092
75	0x3d9132ed	0.070897914
76	0x3cbecb2e	0.023290243
77	0xbdf03c32	-0.11730231
78	0xbe0aa214	-0.1353839
79	0x3d17509e	0.036942117
80	0xbcb7f721	-0.022456707
81	0x3d0220a6	0.031769417
82	0xbd86ad70	-0.06576049
83	0xbd673fd1	-0.056457344
84	0x3c3564a9	0.0110713625
85	0xbaca14b4	-0.0015417547
86	0x3c25fa76	0.010130515
87	0x3c8d1bfc	0.017225258
88	0xbd66000c	-0.05615239
89	0xbd89a3e2	-0.06720711
90	0xbe028dff	-0.1274948
91	0x3cb1fe08	0.021727577
92	0xbd85d1f4	-0.06534186
93	0xbd1fe8e7	-0.039040472
94	0x3d3b037a	0.045657612
95	0xbd40080f	-0.046882685
96	0xbd98bc37	-0.07457774
97	0xbd359c4e	-0.044338517
98	0xbd029222	-0.031877644
99	0xbd0cfbfd	-0.034420002
100	0xbd817411	-0.06320966
101	0x3cd8983a	0.026439775
102	0x3d0e073f	0.03467488
103	0xbd9bf021	-0.0761416
104	0x3d3306cd	0.043707658
105	0xbd8136c5	-0.063092746
106	0xbdd3c145	-0.103395976
107	0x3d257772	0.040397115
108	0x3d273c38	0.040828913
109	0x3d4fef00	0.050765038
110	0x3cab1d5d	0.020888025
111	0xbd97eb88	-0.07417971
112	0x3d6fc44a	0.058536805
113	0xbcc521b9	-0.024063932
114	0x3ccbfecf	0.024901776
115	0x3d7f54b1	0.062336627
116	0xbdf726d0	-0.1206795
117	0xbd135296	-0.035967432
118	0xbd9ab019	-0.07553119
119	0xbe34561b	-0.17610972
120	0xbd808a33	-0.062763594
121	0x3d85e9f8	0.065387666
122	0xbd354e60	-0.044264197
123	0xbd90689e	-0.07051204
124	0x3d021ad9	0.031763885
125	0xbda82176	-0.08209507
126	0x3cbef13f	0.023308394
127	0xbd600a74	-0.05469747
128	0xbd6878a1	-0.056755666
129	0xbd6b2a8f	-0.057413634
130	0xbdc00bb7	-0.093772344
131	0x3d9a6012	0.07537855
132	0xbdad9bf0	-0.08477008
133	0x3ce453a7	0.02787192
134	0xbd82a970	-0.06379974
135	0xbe2167e0	-0.15762281
136	0x3d0024d1	0.03128511
137	0xbdbde057	-0.09271305
138	0x3d14861c	0.03626071
139	0x3d35f8a6	0.044426583
140	0x3d0c62b8	0.034273833
141	0xbe195978	-0.14975536
142	0xbe1928c8	-0.14956963
143	0x3c25d7ab	0.01012222
144	0xbc9cbd3e	-0.019133206
145	0x3d11fb18	0.035639852
146	0xbda41e9b	-0.0801365
147	0xbd896fbb	-0.06710764
148	0x3d03a398	0.032138437
149	0xb98c52a6	-0.0002676446
150	0x3cd4a51f	0.025957642
151	0x3bf17c49	0.0073695523
152	0xbdb07e0b	-0.08617791
153	0xbdd22229	-0.10260422
154	0xbe1635e1	-0.1466899
155	0xbb0295ac	-0.0019925637
156	0xbdd32161	-0.10309101
157	0xbd68111f	-0.056656953
158	0x3d2f97fd	0.042869557
159	0xbda18a88	-0.07887751
160	0xbdf08aec	-0.11745247
161	0xbd674d13	-0.056469988
162	0xbdaccfcf	-0.08438074
163	0xbd9febeb	-0.0780867
164	0xbdcbdcc7	-0.09954219
165	0x3d019689	0.031637702
166	0x3d0040df	0.031311866
167	0xbda9d17f	-0.08291911
168	0x3caaba01	0.020840647
169	0xbcd13fdf	-0.025543151
170	0xbdbe729f	-0.09299206
171	0x3d0df1b7	0.034654345
172	0x3d07c7ae	0.033149414
173	0x3d24c104	0.040223137
174	0x3ca1c12f	0.019745437
175	0xbdba3165	-0.090914525
176	0x3d80bd9a	0.06286164
177	0x3c8c87be	0.01715457
178	0x3c9f7d16	0.019468825
179	0x3d1653b5	0.036700923
180	0x3c6dcce4	0.014514182
181	0xbdb17ea6	-0.086667344
182	0xbdc8e35f	-0.098089926
183	0xbde7538a	-0.11295231
184	0xbdd236af	-0.10264336
185	0x3dabd964	0.08391073
186	0xbdc4ecd0	-0.09615481
187	0xbd98c2cc	-0.074590296
188	0x3d2fe944	0.04294707
189	0xbdfd82d3	-0.12378468
190	0x3cb68e06	0.022284519
191	0xbda5a5a9	-0.08088238
192	0xbde6b08a	-0.11264141
193	0xbdb15fd2	-0.086608544
194	0xbdaa4baa	-0.08315213
195	0x3dbbd779	0.091719575
196	0xbd9b9e48	-0.07598549
197	0x3cc0ae4b	0.02352061
198	0xbd5f4eeb	-0.05451862
199	0xbdeef52f	-0.11667859
200	0x3cc5d970	0.024151534
201	0xbda1535d	-0.078772284
202	0x3ce9238d	0.028459335
203	0x3d7880cc	0.060669705
204	0x3cd30bc7	0.025762452
205	0xbdf44964	-0.11928061
206	0xbe1056e5	-0.14095648
207	0x3c9fab68	0.019490913
208	0xbc8dcaf3	-0.017308688
209	0x3d2c79a5	0.042108197
210	0xbda46913	-0.08027854
211	0xbd69f8ff	-0.057122227
212	0x3c6a7386	0.0143097695
213	0xbc2c93b8	-0.010533266
214	0x3cd88324	0.02642972
215	0x3cd1796a	0.02557059
216	0xbdab7902	-0.0837269
217	0xbdb2529f	-0.08707165
218	0xbdedeac8	-0.116170466
219	0x3c0123f7	0.00788211
220	0xbdb9ca37	-0.090717725
221	0xbd7266b1	-0.059179965
222	0x3d118570	0.035527647
223	0xbd90d965	-0.07072715
224	0xbdedb2ab	-0.11606344
225	0xbda1092e	-0.07863079
226	0xbd5d6878	-0.054054707
227	0xbd9e435e	-0.07727693
228	0xbdbca6f7	-0.092115335
229	0x3cafff0f	0.021483926
230	0x3ce433b9	0.027856695
231	0xbdb88983	-0.09010603
232	0x3d246e76	0.040144406
233	0xbd9a08c8	-0.07521206
234	0xbdbc5244	-0.091953784
235	0x3cfced75	0.030874947
236	0x3d4a941c	0.049457654
237	0x3d4c8385	0.049930114
238	0x3cb81058	0.02246873
239	0xbd8f0150	-0.06982672
240	0x3d081758	0.033225387
241	0x3c4a6128	0.012352265
242	0x3cfd5e85	0.03092886
243	0x3d616642	0.05502916
244	0xbd710c3f	-0.05884957
245	0xbd9f2a08	-0.07771689
246	0xbdac251a	-0.08405514
247	0xbddaf5bf	-0.106914036
248	0xbdb72108	-0.08941847
249	0x3d471413	0.04860313
250	0xbd6c4e98	-0.05769214
251	0xbd828686	-0.063733146
252	0x3ce1a551	0.02754465
253	0xbdb843ff	-0.08997344
254	0x3caa4914	0.0207868
255	0xbd9c9da3	-0.07647254

model.4.bias f4 [32]
0	0x36e761d3	6.8957247e-06
1	0x37fe7966	3.033569e-05
2	0xb753934a	-1.26108735e-05
3	0xb7ef390a	-2.8517581e-05
4	0x3756a2e6	1.2793322e-05
5	0x36a5fa2d	4.9465075e-06
6	0xb71c0384	-9.299143e-06
7	0xb6914cef	-4.330293e-06
8	0x373b60e0	1.1168624e-05
9	0xb7c5dfcd	-2.3588445e-05
10	0xb7028a44	-7.780796e-06
11	0xb777af58	-1.4763173e-05
12	0x3730a52b	1.0528874e-05
13	0x37837ddd	1.5675027e-05
14	0x371f98aa	9.512683e-06
15	0x371087e0	8.614705e-06
16	0xb61677ec	-2.2421546e-06
17	0x37bd5613	2.2570637e-05
18	0x375c199d	1.3118985e-05
19	0x3755e169	1.2748272e-05
20	0xb71ce72a	-9.352147e-06
21	0x36b9bc2e	5.5353366e-06
22	0xb659cf36	-3.2456132e-06
23	0xb6156bac	-2.2265403e-06
24	0xb6c43d08	-5.84836e-06
25	0x36c9ed66	6.0179036e-06
26	0xb7fb5d7c	-2.9965064e-05
27	0x378c3c8f	1.67175e-05
28	0xb70d2ecc	-8.415151e-06
29	0x36e30df1	6.76675e-06
30	0xb7264ab6	-9.911766e-06
31	0x3716df5b	8.992701e-06

model.5.weight f4 [32]
0	0x3f2b3689	0.6688009
1	0x3f316ebb	0.69309586
2	0x3f399305	0.7248996
3	0x3f41ce77	0.75705665
4	0x3f24a342	0.6431161
5	0x3f1e1f7c	0.6176679
6	0x3f485e11	0.78268534
7	0x3f1a32fa	0.60234034
8	0x3f2fd962	0.68691075
9	0x3f0ed9cd	0.5580109
10	0x3f41ec0e	0.75750816
11	0x3f32d597	0.6985716
12	0x3f369aad	0.71329767
13	0x3f5b5fe5	0.856932
14	0x3f26d6b1	0.65171343
15	0x3f30c963	0.6905729
16	0x3f27e4bf	0.65583414
17	0x3f2eb778	0.682487
18	0x3f26d3ca	0.65166914
19	0x3f35e9cb	0.71059865
20	0x3f319383	0.6936571
21	0x3f2e2a26	0.68033063
22	0x3f322a34	0.69595647
23	0x3f4319e9	0.7621141
24	0x3f2257d7	0.6341528
25	0x3f31dff4	0.6948235
26	0x3f4da5d3	0.8033115
27	0x3f4850ba	0.7824818
28	0x3f1f1762	0.62145054
29	0x3f151b8e	0.5824517
30	0x3f494b34	0.78630376
31	0x3f15623e	0.5835303

model.5.bias f4 [32]
0	0xbdf2d57d	-0.11857126
1	0xbf188342	-0.59575284
2	0xbf1abee1	-0.6044751
3	0xbf32586b	-0.69666165
4	0xbe9a1fa7	-0.30102274
5	0xbdb1892b	-0.08668741
6	0xbefb30e8	-0.4906075
7	0xbdbbc63e	-0.09168671
8	0xbee294fe	-0.44254297
9	0xbde7de57	-0.11321705
10	0xbf31150e	-0.6917275
11	0xbf1a5ccc	-0.60297847
12	0xbea12f51	-0.31481412
13	0xbe524a45	-0.20536144
14	0xbed09278	-0.40736747
15	0xbe429b76	-0.19004616
16	0xbe7077e8	-0.2348324
17	0xbe975414	-0.29556334
18	0xbec0dba4	-0.37667572
19	0xbf28ff25	-0.6601432
20	0xbdecabfb	-0.1155624
21	0xbe8e6d7d	-0.27817908
22	0xbe2ad94a	-0.16684452
23	0xbf3c0f90	-0.73461246
24	0xbe29670c	-0.16543216
25	0xbe3cb287	-0.18427478
26	0xbf4759f9	-0.7787166
27	0xbe8a7122	-0.27039438
28	0xbdcb97ef	-0.099410884
29	0xbe05625c	-0.13025802
30	0xbf329e59	-0.6977287
31	0xbe30cdb0	-0.17265964

model.5.running_mean f4 [32]
0	0xbe42f5fa	-0.19039145
1	0xbf189d24	-0.5961478
2	0xbf3e75b5	-0.74398357
3	0xbf33e90b	-0.7027747
4	0xbeb4e4db	-0.35330853
5	0xbee80dc8	-0.45323014
6	0xbeedc929	-0.46442536
7	0xbe5cea13	-0.21573667
8	0xbf1bcb2f	-0.6085691
9	0xbe3d8ea5	-0.18511446
10	0xbf3141c7	-0.69240993
11	0xbf1e39ee	-0.61807144
12	0xbed4b94f	-0.4154763
13	0xbe00e0f6	-0.12585816
14	0xbef17f9f	-0.4716768
15	0xbee1c3bd	-0.4409465
16	0xbee88db6	-0.45420617
17	0xbef31dbe	-0.4748363
18	0xbf22ee3b	-0.6364476
19	0xbf2c798e	-0.6737298
20	0xbeb16f93	-0.34655437
21	0xbf01e0c3	-0.50733584
22	0xbea6456a	-0.32474834
23	0xbf392634	-0.7232392
24	0xbeb8cd68	-0.36094213
25	0xbf09d90b	-0.53846806
26	0xbf2d425d	-0.6767939
27	0xbe445dc7	-0.19176398
28	0xbef6a4e0	-0.48172665
29	0xbee60e12	-0.4493261
30	0xbf1bfb74	-0.6093056
31	0xbf15e4fd	-0.58552533

model.5.running_var f4 [32]
0	0x3ec28a0d	0.3799595
1	0x3ecce5e2	0.40019137
2	0x3f1b51b0	0.6067152
3	0x3efe30ff	0.49646756
4	0x3e9a82bd	0.3017787
5	0x3eec44ef	0.46146342
6	0x3ece429b	0.4028519
7	0x3e915c4f	0.28390738
8	0x3f06a16e	0.5259007
9	0x3e313ca3	0.17308287
10	0x3ef5577e	0.47918314
11	0x3ed34a27	0.4126751
12	0x3ed72cbd	0.4202632
13	0x3ec75d50	0.3893838
14	0x3ecdbca3	0.4018298
15	0x3ee45b4d	0.44600907
16	0x3edc4f9d	0.4302949
17	0x3ee54ba0	0.4478426
18	0x3f0694e9	0.5257097
19	0x3ef2f7e1	0.47454742
20	0x3eb6d12a	0.35706455
21	0x3ef21fd1	0.472899
22	0x3ed6285e	0.41827673
23	0x3f057788	0.52135515
24	0x3f08832d	0.5332516
25	0x3f14032b	0.57817334
26	0x3ed73aab	0.42036948
27	0x3e9b0a2f	0.30281207
28	0x3f058e2b	0.52170056
29	0x3ebde482	0.370884
30	0x3ebde8aa	0.3709157
31	0x3f17d989	0.5931631

model.8.weight f4 [16, 32]
0	0xbd0e7611	-0.034780566
1	0xbe0a334f	-0.13496135
2	0xbe25fa61	-0.16208793
3	0xbe1f650c	-0.1556589
4	0xbd5baf1d	-0.053633798
5	0xbd19ff2d	-0.03759687
6	0xbc6181e7	-0.013763881
7	0xbcefb547	-0.029261244
8	0xbd6e066c	-0.058111593
9	0xbd9d9d62	-0.07696034
10	0xbe18f248	-0.14936173
11	0xbe2dfdbb	-0.16991322
12	0xbdaac7bd	-0.08338878
13	0x3d6a6c62	0.05723227
14	0xbe64b305	-0.22333916
15	0xbd3ccec3	-0.04609562
16	0xbd4818e0	-0.048851848
17	0xbd131bf0	-0.035915315
18	0xbd8cc90b	-0.068742834
19	0xbe24d36f	-0.1609628
20	0xbc8738f9	-0.016506659
21	0xbde8986f	-0.113571994
22	0xbe210a6a	-0.15726629
23	0xbe1e9eaf	-0.1549022
24	0xbd3433e1	-0.043994788
25	0xbbbd69f5	-0.0057804533
26	0xbe1d6bc5	-0.15373142
27	0xbd27a8db	-0.040932517
28	0xbc93aa22	-0.018025462
29	0xbd233996	-0.03984984
30	0xbe10aa5f	-0.14127491
31	0xbd14a31e	-0.036288373
32	0xbd0e7b5a	-0.034785606
33	0xbdfbf558	-0.12302655
34	0xbdda2c17	-0.10652941
35	0xbe303bfc	-0.17210382
36	0xbdf49595	-0.11942593
37	0xbd289da6	-0.04116597
38	0xbe4232bc	-0.18964666
39	0xbd71d6ce	-0.059042744
40	0xbd87e709	-0.06635863
41	0xbd4d6db5	-0.050153453
42	0xbe0774d2	-0.13228157
43	0xbd9f3134	-0.077730566
44	0xbe20ae1c	-0.15691417
45	0xbd1d35d4	-0.038381413
46	0xbe07a910	-0.13248086
47	0xbbb4c4a5	-0.005516606
48	0xbc923d05	-0.017851362
49	0xbc30a749	-0.010782071
50	0xbd98e32a	-0.07465203
51	0xbdf17eba	-0.11791749
52	0xbdc571c7	-0.09640842
53	0xbd0fbd78	-0.0350928
54	0xbcf2aba4	-0.02962286
55	0xbe054d79	-0.13017835
56	0xbd37639c	-0.04477273
57	0xbcb693d2	-0.022287283
58	0xbe0fee7b	-0.14055817
59	0xbe6020c6	-0.21887502
60	0xbc53d74e	-0.012929751
61	0xbced1c60	-0.028944194
62	0xbe4b1a47	-0.19834243
63	0xbd3a13f1	-0.045429174
64	0xbe813bc1	-0.252409
65	0xbdce94e3	-0.10086992
66	0xbdd216fb	-0.102582894
67	0xbe02e266	-0.12781677
68	0xbdd96a0c	-0.1061593
69	0xbcb5dccc	-0.02220001
70	0xbd0c0f29	-0.034194145
71	0xbd8656fd	-0.065595604
72	0xbda5dfff	-0.080993645
73	0xbd24ae9d	-0.040205587
74	0xbdf3d6cb	-0.11906203
75	0xbe0bf6b6	-0.13668332
76	0xbd7496cb	-0.05971412
77	0xbc6e9942	-0.014562907
78	0xbda403b7	-0.08008521
79	0xbd0516a7	-0.032492306
80	0xbd303f4f	-0.043029126
81	0xbd79819d	-0.060914624
82	0xbd8dd88e	-0.0692607
83	0xbdf92cfe	-0.12166785
84	0xbd39b450	-0.045337975
85	0xbd9ad498	-0.0756008
86	0xbd6cd619	-0.057821367
87	0xbe0676a0	-0.1313119
88	0xbe4b3617	-0.19844852
89	0xbe012f50	-0.12615705
90	0xbe04e260	-0.1297698
91	0xbc2c7fae	-0.010528488
92	0xbc8601df	-0.016358314
93	0xbd14f556	-0.036366783
94	0xbdfd0956	-0.12355296
95	0xbc8427c9	-0.016132252
96	0xbd01d7ed	-0.031700063
97	0xbe3cda0e	-0.18442556
98	0xbd8e233b	-0.069403134
99	0xbe42c57a	-0.19020644
100	0x3c8a6f06	0.016898643
101	0xbc1df8d2	-0.009641843
102	0xbe0fd7d2	-0.14047173
103	0xbc945153	-0.018105185
104	0xbdd9c042	-0.106323734
105	0xbcf25d86	-0.029585611
106	0xbe63e496	-0.22255167
107	0xbe4fd1d1	-0.20294882
108	0xbd05124f	-0.032488164
109	0x3ccba03c	0.02485668
110	0x3bbb3e69	0.005714227
111	0xbd7022c1	-0.058626894
112	0xbd4f6f1e	-0.05064308
113	0xbd7dbd2e	-0.061947994
114	0xbdfd0d81	-0.12356091
115	0xbe68446c	-0.22682351
116	0x3b43c174	0.0029869946
117	0xbc4110dc	-0.011783805
118	0xbc4c1158	-0.012455307
119	0xbe8f282d	-0.2796034
120	0x3cc7c9bd	0.024388188
121	0xbcfbb6c0	-0.03072679
122	0xbe86356f	-0.26212642
123	0x3d77dd3f	0.06051373
124	0xbd009e70	-0.031401098
125	0xbd456715	-0.04819401
126	0xbe47d26b	-0.19513862
127	0xbd20665a	-0.03916011
128	0xbb1ef87b	-0.0024256993
129	0xbe08aca1	-0.13347103
130	0xbe2a9197	-0.166571
131	0xbe3e5988	-0.18588841
132	0x3c047651	0.008084849
133	0xbca4023e	-0.0200206
134	0x3d05d9ab	0.032678287
135	0xbc2ab5b4	-0.010419298
136	0xbd995a45	-0.07487921
137	0xbcd99818	-0.026561782
138	0xbe6b3fee	-0.22973606
139	0xbe1f052b	-0.15529315
140	0xbd36b51e	-0.04460632
141	0x3cea2eef	0.028586833
142	0x3cf8f2c8	0.030389205
143	0xbd0b9bdf	-0.034084197
144	0xbd0af271	-0.033922616
145	0xbd5e1dc8	-0.05422762
146	0xbd79b0d6	-0.06095966
147	0xbe486e50	-0.19573331
148	0xbc16a881	-0.009195448
149	0xbc48314b	-0.012218784
150	0x3cce5cd9	0.025190758
151	0xbe4f7ef4	-0.20263273
152	0x3b9728db	0.0046130246
153	0xbb98d5e7	-0.004664171
154	0xbe723143	-0.23651604
155	0xbcacb2b9	-0.021081315
156	0xbcce2f91	-0.025169166
157	0xbd56b5b1	-0.05241937
158	0xbe73efad	-0.23821898
159	0xbca46f21	-0.020072522
160	0xbe02cd69	-0.1277367
161	0xbdb0501a	-0.08609028
162	0xbe27fec0	-0.16405773
163	0xbe1fe781	-0.15615655
164	0xbe12dd77	-0.14342295
165	0xbcac993e	-0.021069165
166	0xbe1926c1	-0.1495619
167	0xbced4734	-0.028964616
168	0xbd3adbd7	-0.045619812
169	0xbd06c00e	-0.032898
170	0xbe238c65	-0.15971525
171	0xbdd344c4	-0.103158504
172	0x3af77489	0.0018879335
173	0x3ca6c137	0.020355804
174	0xbe1c28f5	-0.15249999
175	0xbcdc8cbf	-0.026922582
176	0xbd0f8e21	-0.035047654
177	0xbc9d6bb1	-0.01921639
178	0xbd2ebb9c	-0.042659387
179	0xbe0dd02d	-0.13848944
180	0xbd943756	-0.07237117
181	0xbc99fd3f	-0.018797515
182	0xbdd09e11	-0.10186399
183	0xbdd40056	-0.103516266
184	0xbcbb9e84	-0.022902735
185	0xbce466f3	-0.027881121
186	0xbdff88c5	-0.124772586
187	0xbd9c0d1c	-0.07619688
188	0xbcc02044	-0.023452885
189	0xbd3e65e0	-0.046483874
190	0xbe186c11	-0.14884974
191	0xbdb0529c	-0.086095065
192	0xbd884f8f	-0.066557996
193	0xbdbe6447	-0.0929647
194	0xbe1e2864	-0.15445095
195	0xbe1e40e6	-0.15454444
196	0xbd9cd43a	-0.076576665
197	0xbd45ad3a	-0.048260905
198	0xbe1f14ae	-0.15535232
199	0xbd22f5cf	-0.039785203
200	0xbd1a8737	-0.037726607
201	0xbd2cd70d	-0.042197276
202	0xbe232d65	-0.15935285
203	0xbe2ec4a4	-0.170672
204	0xbe3ecbd7	-0.18632446
205	0xbd8bcaa9	-0.06825764
206	0xbe340d76	-0.1758326
207	0xbc6b156f	-0.014348372
208	0xbcc6e854	-0.024280705
209	0xbd0a432c	-0.033755466
210	0xbd5524a9	-0.052036915
211	0xbdbf6aa8	-0.09346515
212	0xbdca2a8c	-0.098713964
213	0xbd802ee4	-0.06258944
214	0xbd1b61dc	-0.037935123
215	0xbe117302	-0.14204028
216	0xbda2129a	-0.07913704
217	0xbd235d33	-0.039883804
218	0xbe195072	-0.14972094
219	0x3d85491f	0.06508087
220	0xbc27635d	-0.010216561
221	0xbd5c493c	-0.05378078
222	0xbdd74430	-0.105110526
223	0xbd3515c5	-0.044210214
224	0xbbd7b91e	-0.006583347
225	0xbe3fed70	-0.18742919
226	0xbdbc396f	-0.09190642
227	0xbe470ab5	-0.19437678
228	0x3cd018de	0.025402483
229	0xbcf5d9cb	-0.030011078
230	0x3c9046d2	0.017611895
231	0xbc3a5cd4	-0.011374671
232	0xbe0946fa	-0.13405982
233	0xbd909088	-0.07058817
234	0xbe2b1dfb	-0.16710655
235	0xbe2e76e2	-0.17037538
236	0x3c8b1420	0.01697737
237	0xbe54105f	-0.2070937
238	0xbdaf9f85	-0.08575348
239	0xbd0ce7c5	-0.03440072
240	0xbd8beafa	-0.068319276
241	0xbd9bfcc5	-0.07616571
242	0xbe139ef3	-0.14416103
243	0xbe56e1c8	-0.20984566
244	0x3c38a4c9	0.011269757
245	0xbd3517c6	-0.044212125
246	0xbc6ba221	-0.014381916
247	0xbe7baff5	-0.24578841
248	0x3cbe61a9	0.023239927
249	0xbc8622c9	-0.016374009
250	0xbe5617f3	-0.20907573
251	0xbb712ee5	-0.0036801633
252	0xbd772d3d	-0.060345877
253	0xbc992d2e	-0.018698301
254	0xbdecb88c	-0.11558637
255	0xbd5cf6c8	-0.053946286

model.8.bias f4 [16]
0	0x3729dabd	1.0124114e-05
1	0xb7ad0b94	-2.0628599e-05
2	0xb61d0ca3	-2.3402179e-06
3	0xb779f4d6	-1.4898562e-05
4	0x37830d88	1.5622718e-05
5	0x35af6cb8	1.3070157e-06
6	0x37fdb7f6	3.0245614e-05
7	0xb7ea8da2	-2.7960927e-05
8	0x370611a8	7.991133e-06
9	0xb71ec86a	-9.464196e-06
10	0x3844c8ff	4.6917234e-05
11	0xb78270b3	-1.5549687e-05
12	0x37d430d2	2.5295103e-05
13	0x373e0fec	1.132859e-05
14	0xb7c5a7ce	-2.356237e-05
15	0x377c7790	1.5048208e-05

model.9.weight f4 [16]
0	0x3f4c5ac9	0.7982603
1	0x3f5f3e29	0.87204224
2	0x3f531a02	0.8246156
3	0x3f35e3d1	0.71050745
4	0x3f3e4b86	0.7433399
5	0x3f67b2c0	0.90507126
6	0x3f48df34	0.7846558
7	0x3f4738bb	0.7782094
8	0x3f3a6fe7	0.72827
9	0x3f233cf8	0.63764906
10	0x3f368716	0.71299875
11	0x3f3e9ab5	0.74454814
12	0x3f3a3407	0.7273564
13	0x3f579672	0.84213936
14	0x3f5f32fb	0.87187165
15	0x3f486b03	0.78288287

model.9.bias f4 [16]
0	0x3f3b3a4a	0.7313582
1	0x3f238568	0.63875437
2	0x3f2b31ab	0.6687266
3	0x3f38761d	0.72055227
4	0x3f1ffd5a	0.6249596
5	0x3f3b6107	0.73194927
6	0x3f1fe444	0.6245768
7	0x3f42086b	0.75794095
8	0x3f371762	0.71520054
9	0x3f4164f1	0.7554465
10	0x3f3b681c	0.73205733
11	0x3f23f38e	0.6404351
12	0x3f1397f4	0.5765374
13	0x3f1230bb	0.57105607
14	0x3f22add8	0.63546515
15	0x3f3c8101	0.73634344

model.9.running_mean f4 [16]
0	0xbe3d755f	-0.18501805
1	0xbe6bfbae	-0.23045227
2	0xbe86b8b1	-0.26312783
3	0xbe2fd1f7	-0.17169939
4	0xbdc23ac2	-0.094838634
5	0xbe5d7be6	-0.21629295
6	0xbe702538	-0.23451698
7	0xbe32b546	-0.17451963
8	0xbe39d86b	-0.18148963
9	0xbe449f13	-0.19201307
10	0xbde188ed	-0.11012445
11	0xbdf7ac81	-0.120934494
12	0xbe448480	-0.1919117
13	0xbe3ef9e1	-0.18650009
14	0xbe4b484e	-0.19851801
15	0xbe75d3d2	-0.24006584

model.9.running_var f4 [16]
0	0x3e22588c	0.1585409
1	0x3e944403	0.2895814
2	0x3ec39d36	0.3820588
3	0x3e750beb	0.23930328
4	0x3d8085d7	0.06275528
5	0x3e8c2626	0.27372855
6	0x3ea02683	0.31279382
7	0x3ea22167	0.3166611
8	0x3e3c42e3	0.1838489
9	0x3e8a60f0	0.27027082
10	0x3d92505f	0.07144236
11	0x3dde222a	0.1084636
12	0x3e709119	0.2349285
13	0x3eb6ff79	0.35741785
14	0x3e5ad235	0.2136925
15	0x3eb19c70	0.34689665

model.12.weight f4 [1, 16]
0	0x3ec4463d	0.38334838
1	0x3ed04a62	0.4068175
2	0x3ece0321	0.40236762
3	0x3ecdb615	0.4017798
4	0x3ee496cc	0.446463
5	0x3eba36ce	0.36369938
6	0x3eda6a99	0.42659453
7	0x3ec0a914	0.37628996
8	0x3ecbc9ce	0.39802402
9	0x3ec88a5c	0.3916806
10	0x3ecf542a	0.404939
11	0x3ee259b0	0.4420905
12	0x3eef6c12	0.4676214
13	0x3ee45823	0.44598493
14	0x3ed250b1	0.41077188
15	0x3ec245c5	0.37943855
