neuralnet/Hyperparameter sweeps/HP sweep round 4/bike_volume_model_net_3layers_lr_0.00002000_batch_64_feat_0.pth (torch, 44749 bytes, 19 tensors)

model.0.weight f4 [64, 89]
00000000: e5d2 c73d 0009 673d eb25 213d 0783 a0bc
00000010: b460 ff3d c2a3 d63d a04e 84bd cc5f 82bd
00000020: 1d8e 163d 94e4 ae3d fbd2 cfbc e49b 663d
00000030: d0d8 163e 7ed4 a23d 8b67 e03d bc2a 8a3c
00000040: fa52 ffbc 037f 493c 44b6 b6bd c671 edbb
00000050: 9080 5cbc dd97 02be e830 a83d 6dd6 9a3d
00000060: f3ff 3c3d 7569 d53c f69f 75bd 9084 10bd
00000070: 9cbf 24bd 56fe 64bd b82e 063b b692 843d
00000080: c5fd 723d 39f4 47bd f549 d4bb cfa3 a9bd
00000090: 8e57 ba3c 948a 78bd 259f 66bc f44e 53bd
000000a0: 13ec 20bd b730 4dbd 2858 c4bd ee8a 4abd
000000b0: a7f6 d63c 7590 ce3d 98f9 833d c127 97bc
000000c0: 504b 153d 85b8 d1bc d797 1f3d ded2 84b9
000000d0: 57bc 98bb 37bd 363d 6853 dd3d 1ec6 643d
000000e0: 4c52 ec3c 39d5 dabc a0d8 8d3c e52b d83a
000000f0: 55ca 883d 30ce 9c3c c6a2 c9bc 9c15 97bd
00000100: b2dc 7b3d 4071 37bd a739 0ebd 4d75 1d3d
00000110: 7413 623d db25 133d 7026 363c 69cc c33c
00000120: c765 9a3d 7dd4 e4bb 26ae 503d 4041 553d
00000130: 8ecf 21bd eca8 a93d 6a25 8dbd acd5 e8bd
00000140: fb1d febb 0f2e 883c 3b35 04be b32b c4bb
00000150: a40f 103d f2fb 5bbd 0b7b c93d e2fb e93c
00000160: feb3 1dbd 579a 9abd 4aa2 bd3d a517 4abc
00000170: 2619 3f3d 377e fcbd 274c c83d ae4f 873d
00000180: 97ef 913d d9d9 ed3d 4ac0 5cbd f60a 6e3d
00000190: 167c 42bd 0add 043e b55f d33d f335 f2bb
000001a0: 3a3b d2bb e644 88bd 899b c3bd af75 093d
000001b0: 5432 883d de8d 8cbc c25c 88bc 4150 2c3d
000001c0: 2327 ae3c a31c b03d ceb8 9e3c 8241 ae3c
000001d0: d2d3 d8bd 72af 4a3d 971c 903c 7d03 f93c
000001e0: bb02 ddbc a082 7f3d 4e71 dbbc 06a7 ac3d
000001f0: 1d92 31bd 4bda 5cbd 33f7 ca3c 5e83 24bc
00000200: d70c b53b 6271 5a3d 86a4 e33c 3656 49ba
00000210: 26ba 60bb 7074 95bd 8656 fabb d0f0 e93d
00000220: 4969 a13d 8011 87bd 9f1c 423d 6c14 cfbc
00000230: 37ff 1cbd 713b 9c3d 4237 683b 7c65 d93d
00000240: e385 d3bd a00e 1f3d c31e a8bc 4f5d 91bd
00000250: 473b a43c 628a 6fbd f8c1 a2bd 0476 203c
00000260: 5db8 b8bd 2733 f3bc 9984 fa3c 5b70 4abc
00000270: 19b8 103d 97bd 843c afc2 fb3d 57e9 0c3d
00000280: f930 55bd c1e0 c03d f40b f3bd ae80 1e3d
00000290: 00a9 54bd faeb 29bd 72b7 043d 6dcb f2bc
000002a0: 46bf acbd 0ce4 6fbc 1a7a 28bd f66f 58bd
000002b0: 6f27 063d 1de6 c4bc e868 08bd af4f 9bbc
000002c0: a4c3 1cbd ae75 a93c 712d 0fbd 2f66 823d
000002d0: e3f1 d73c ad77 003e be5a aa3d 97ae 053e
000002e0: 4f87 9cbb b93e c6bc dbc1 efbc a981 4d3c
000002f0: 9e09 7abb 72a0 4a3d 1b20 c4bc bbb7 893d
00000300: 5f77 8b3d fa3e 0a3e 3df4 9d3c 5314 953d
00000310: e76b a0bc e259 b73d 3d60 6e3d 7e6a 77bd
00000320: e7b8 c13c 5296 283d 379f 61bd 2896 993d
00000330: bb0b 33bc ebda 8d3c c104 38bd 7acf d2bd
00000340: 3bd1 e9bd 43a1 acbc 18a5 173d 2909 643c
00000350: 239a 0dbd c9a8 a93d eede 97bc ee42 db3d
00000360: 9025 dbbc 39c4 e63d d256 9ebc 6620 8a3d
00000370: 3940 f83d db67 bdbc b070 043c ca1c 523d
00000380: 29af d43d 37cd 39bd b6bd 953c 96d9 a63c
00000390: 7210 353d 80a7 a4bc f82b 493d 1f4e 333d
000003a0: f712 983c 8d1b 9fbd 9cf9 88bb fce0 58bd
000003b0: dc18 3c3d a346 7cbd 8035 90bd cd09 2d3d
000003c0: 70cd 3f3d 5809 a83d 47f2 46bc fa41 44bc
000003d0: 900a f6bd b2df 243d 8875 973d 6251 f03d
000003e0: 4009 1f3c ef01 2c3d 1969 5fbd b14f 68bd
000003f0: 0004 e03d da48 933b 6ae8 c63b b6c7 3cbc
0.09757022 0.056405067 0.039342802 -0.019593729 0.124696165 0.10480453 -0.06460309 -0.06365928
0.036756624 0.085396916 -0.025369158 0.056301013 0.14731145 0.07950686 0.10957249 0.01686608
-0.031167496 0.012298348 -0.08921483 -0.007246229 -0.013458386 -0.12753244 0.08212453 0.0756043
0.04614253 0.026051262 -0.059967004 -0.03528267 -0.040221795 -0.055906616 0.0020474624 0.064732954
0.059324045 -0.048816893 -0.006478543 -0.08283197 0.022746827 -0.060679033 -0.014076029 -0.051588967
-0.039287638 -0.050095286 -0.09587127 -0.0494489 0.02624066 0.10086147 0.064440906 -0.018451573
0.036448777 -0.025600681 0.038963165 -0.0002533411 -0.0046611237 0.044614043 0.10806924 0.055853
0.028847836 -0.026713 0.017315209 0.0016492574 0.06679217 0.019141287 -0.02461375 -0.073771685
0.06148977 -0.044785738 -0.03472295 0.038441945 0.055194333 0.035924774 0.011117563 0.023901181
0.07538944 -0.0069833384 0.05094733 0.05206418 -0.03950458 0.082841724 -0.06891902 -0.1136888
-0.007755039 0.016623525 -0.12910931 -0.0059866547 0.035171166 -0.05370707 0.09837922 0.02856249
-0.038501732 -0.07548969 0.0925947 -0.012334739 0.046654843 -0.12328761 0.0978015 0.066069946
0.07125776 0.11613817 -0.05389432 0.058115922 -0.04748162 0.12974945 0.10320989 -0.007391685
-0.0064157518 -0.06653766 -0.0955115 0.033559497 0.06650224 -0.017157491 -0.016645793 0.042068724
0.021258896 0.08599212 0.019375231 0.021271471 -0.105872765 0.049483724 0.017591758 0.030397171
-0.026978841 0.062380433 -0.026787426 0.08430295 -0.043352235 -0.053919118 0.024776077 -0.010041086
0.0055252123 0.053330787 0.027788412 -0.0007680388 -0.003429064 -0.07297599 -0.007639709 0.114228845
0.0788141 -0.06595135 0.047390576 -0.025278293 -0.03832933 0.07628525 0.0035433327 0.1061506
-0.10328271 0.038832307 -0.02052248 -0.07097875 0.020047797 -0.05848158 -0.07947153 0.009793762
-0.090195395 -0.029687477 0.030580806 -0.012355889 0.03533182 0.016203685 0.12292992 0.034402218
-0.052048657 0.094178684 -0.11867514 0.038696937 -0.051918983 -0.04148481 0.03240151 -0.029638017
-0.0843492 -0.014641773 -0.04113207 -0.05284115 0.03275245 -0.024035508 -0.03330317 -0.018958895
-0.038272515 0.020685997 -0.034955446 0.06367146 0.026360458 0.12545653 0.08318089 0.13054882
-0.004776872 -0.02419983 -0.029267242 0.01254312 -0.0038152705 0.04946942 -0.02394109 0.06724497
0.068098776 0.13500586 0.019281501 0.07279267 -0.019582702 0.08952691 0.05819725 -0.060404293
0.023647739 0.04115898 -0.05508348 0.07499343 -0.01092809 0.017316302 -0.04492641 -0.10293479
-0.11416861 -0.02107299 0.03702268 0.0139182 -0.034570824 0.08284146 -0.018538918 0.10706125
-0.02675131 0.11267895 -0.019328509 0.06744461 0.121216245 -0.023120811 0.008083507 0.051296987
0.10384972 -0.045361724 0.018278938 0.020367425 0.044205137 -0.020099401 0.049114197 0.043775674
0.01856373 -0.07768927 -0.0041801464 -0.052948937 0.045922145 -0.061590802 -0.07041454 0.042245675
0.04682678 0.08204907 -0.012142724 -0.011978621 -0.120137334 0.040252395 0.07395464 0.117342725
0.009706795 0.04199403 -0.05454359 -0.056716625 0.10938263 0.0044947686 0.0060701864 -0.011522224

model.0.bias f4 [64]
00000000: 954a 4536 5684 6436 56d7 4837 acc9 2fb5
00000010: f61b 98b6 6df8 7037 0223 dcb6 bcd2 ccb5
00000020: 9f7b a536 40a3 1e34 618d a735 e45a 81b7
00000030: 6c0c 8037 5dde 1ab7 e8c8 c1b6 345d aeb6
00000040: bee9 a1b6 d6c9 3b37 c25d f236 f8f3 9636
00000050: 9330 0a36 9416 b735 0843 fa37 7454 45b5
00000060: e65f 7137 9521 7937 e07e 6eb7 28eb 5b37
00000070: 85b7 7736 8e0c 48b5 1235 05b7 f910 7d35
00000080: 50c5 20b7 5441 0936 de0d 9e36 801f f6b4
00000090: bf1d c536 4412 bbb4 e05f 4436 e571 1eb7
000000a0: daa0 5a35 6985 ea36 9f14 dbb6 4a4b 2eb6
000000b0: 94ca c335 e4c6 3fb5 2c77 5cb5 e156 bf36
000000c0: fce1 3737 4ac5 8236 4fb2 8036 3410 17b7
000000d0: befd fe34 5d6e 2337 0cbf cd35 922c 2bb7
000000e0: 1f72 a536 8e15 9f36 88f3 8837 91ba ce37
000000f0: e434 aeb6 363f 2336 a2d3 e3b6 76af 0f36
2.93987e-06 3.4051677e-06 1.1971066e-05 -6.548605e-07 -4.533208e-06 1.4362956e-05 -6.5605864e-06 -1.5260516e-06
4.9317746e-06 1.4774287e-07 1.2483616e-06 -1.5420323e-05 1.5264573e-05 -9.230888e-06 -5.775237e-06 -5.1964544e-06
-4.825385e-06 1.1193062e-05 7.223077e-06 4.49875e-06 2.0591876e-06 1.3641134e-06 2.9833536e-05 -7.3511114e-07
1.43870475e-05 1.48493755e-05 -1.4215446e-05 1.3108169e-05 3.691269e-06 -7.4524075e-07 -7.939774e-06 9.4274543e-07
-9.582684e-06 2.0452617e-06 4.7103813e-06 -4.584399e-07 5.8745204e-06 -3.4844754e-07 2.9262083e-06 -9.444052e-06
8.14454e-07 6.9892744e-06 -6.529109e-06 -2.5971844e-06 1.458759e-06 -7.144247e-07 -8.2129804e-07 5.7023576e-06
1.0960266e-05 3.8972694e-06 3.835455e-06 -9.004074e-06 4.7495809e-07 9.741253e-06 1.5329292e-06 -1.0202772e-05
4.9306686e-06 4.7410786e-06 1.6325866e-05 2.464399e-05 -5.1917614e-06 2.4325686e-06 -6.7897645e-06 2.1410792e-06

model.1.weight f4 [64]
00000000: b53e 6a3f d27c 833f e6b3 6e3f 3b1d 6b3f
00000010: e752 793f cfe9 763f 2174 8b3f f501 7b3f
00000020: 369e 813f 5766 6c3f dab3 723f 4f32 733f
00000030: fdd3 783f f3ab 703f e44f 843f 3f4e 623f
00000040: 77c6 6f3f ab11 683f 8bd5 823f 060a 733f
00000050: 8d1c 7b3f feff 803f 99e8 873f 6687 6d3f
00000060: 3160 6a3f b7a3 6c3f 400f 873f 8b5e 6a3f
00000070: d35d 673f ff3e 853f a9f8 803f 7e7d 813f
00000080: 3b7f 7c3f 1859 6b3f f380 763f 89ef 6e3f
00000090: 68d1 613f c886 6a3f d528 6c3f 06ad 6f3f
000000a0: 19a5 653f dffa 683f 965f 773f 11bf 6d3f
000000b0: c74a 703f 3ecb 673f 6a9d 813f b2bb 593f
000000c0: 6623 7f3f f11c 723f b756 6e3f 57a5 673f
000000d0: 94eb 873f 29b8 7e3f 4ee6 6a3f 2aab 753f
000000e0: 5755 713f c2d2 883f 507d 713f 44a2 783f
000000f0: e2bf 893f 6566 6f3f 7a25 5c3f 2122 6e3f
0.91501933 1.0272467 0.93243253 0.9184148 0.97392124 0.96450514 1.0894815 0.9804986
1.0126407 0.9234366 0.9480568 0.9499864 0.9719847 0.94012374 1.0336881 0.88400644
0.9366221 0.9065196 1.0221418 0.9493717 0.9809044 1.0078123 1.0617858 0.92784727
0.91553026 0.9243731 1.0551529 0.9155051 0.9037754 1.040985 1.0075885 1.0116422
0.9863164 0.9193282 0.9629051 0.9333425 0.88210154 0.9161191 0.92249805 0.9362339
0.89705044 0.910078 0.9663023 0.9286967 0.938641 0.905445 1.0126164 0.85052025
0.9966339 0.9457541 0.93101066 0.90486664 1.0618768 0.99499756 0.9175767 0.959643
0.94270843 1.0689318 0.94331837 0.971226 1.0761683 0.93515617 0.85994685 0.93020827

model.1.bias f4 [64]
00000000: 0a2d 43be 4c01 2fbe 3a67 b1be 629f b6bd
00000010: 0f6f 353b 21cd 9bbe 0704 bdbe 4af0 f7bb
00000020: d34b a2be 4f40 c3bd cf3d b0bc 39ac 9ebd
00000030: 7db2 66be 16ea fcbd 663d a1be f4ac 06bd
00000040: a6c1 4bbd 55fc 29be 3d2f 3dbd 7c23 a3bc
00000050: 8589 a0bd 8560 0bbd eba3 55be eba2 98bd
00000060: 2e6a b6bd 57e3 92bd 0080 9bbe 81f1 b6bd
00000070: 4213 f4bd 015f 8cbe 2095 09bd 54be 483c
00000080: 37c0 90be c834 abbc 5033 adbd a991 b5bd
00000090: 5582 f9bd 61f1 e5bc 3eac b1bd 70e0 f8bc
000000a0: 2670 d7bd e395 93bd d1bb 97bd bd17 ddbd
000000b0: 068f dcbc 3bd3 1abd a3e5 0dbe 8edb aebd
000000c0: 9353 a1be 3a6c f6bc c603 a9bd f857 b5bd
000000d0: c11b 80be b141 84be 86f2 27bd a018 f1bd
000000e0: 19da 50bd 343c 16be 5b65 e8bd 7fdf 75bd
000000f0: 88bd 94bd 30e7 c0bd 0bee 87bd 645c a0bd
-0.1906015 -0.17090338 -0.34649068 -0.089171186 0.0027684604 -0.30429938 -0.36917135 -0.0075664865
-0.31698474 -0.0953375 -0.021513848 -0.077476926 -0.22529025 -0.12349336 -0.31492156 -0.032879785
-0.049745224 -0.16600163 -0.046187628 -0.019914381 -0.0783873 -0.034027595 -0.20863311 -0.07452949
-0.08906971 -0.07172268 -0.30371094 -0.08932782 -0.11917736 -0.27416232 -0.033589482 0.012252409
-0.28271648 -0.020899191 -0.08457053 -0.08865673 -0.12183062 -0.0280692 -0.08675431 -0.030380458
-0.105194375 -0.07206323 -0.0740887 -0.10795543 -0.026923668 -0.0377991 -0.1385713 -0.085379705
-0.31509075 -0.030080903 -0.08252673 -0.08854669 -0.25021175 -0.2583137 -0.041002773 -0.11772275
-0.050989244 -0.14671403 -0.11347457 -0.060027596 -0.07262713 -0.094190955 -0.066372 -0.07830122

model.1.running_mean f4 [64]
00000000: be5b 07bf ed38 2fbe 17f1 0abf 92ed f6bd
00000010: f252 993f 7e56 11bf 3139 eebe c994 863f
00000020: cd19 d6be 1aff 2abd 2d34 703f 09fc fd3c
00000030: b93e b1be a0ac 3ebe 4caa b2be 5eb5 453e
00000040: 42b2 bbbc 9d6e 16be 0b71 cabe 4262 6ebc
00000050: 081d a7be a876 d43e 6322 a3be d540 9e3e
00000060: 6607 dabc 3b96 933d b9b1 aebe cc29 e53e
00000070: acc9 35be a560 b7be b6d1 93bc e998 fd3e
00000080: 911f f6be a464 4b3e 01ac 083d 6a5c 103d
00000090: 59ae 4f3e 8cc7 db3e 8dc0 89be fced c53e
000000a0: e63d 083e 1734 49bd 1942 1abe c30b 08be
000000b0: 6eab 443e 362b ac3f a3e0 e4be 5253 613e
000000c0: bee0 4abe 221c ecbc 92e0 f5be 596e ec3c
000000d0: b0dc f4be c142 00bf 03e9 0ebf 08c8 65be
000000e0: f6c2 7a3d aa08 b1be fa5f f7bd dab5 13be
000000f0: 7e7b 153d 03be 3f3c 6482 a9be 3323 c8bd
-0.5287436 -0.17111559 -0.54274124 -0.12057032 1.1978438 -0.567726 -0.4652801 1.0514156
-0.4181656 -0.04174719 0.93829614 0.031003969 -0.34618166 -0.18620539 -0.3489555 0.19307467
-0.022912148 -0.14690633 -0.3953937 -0.014549794 -0.32639337 0.41496778 -0.31862172 0.30908838
-0.026614856 0.072063886 -0.34119967 0.4475845 -0.17752713 -0.3581592 -0.018044334 0.49530724
-0.48070958 0.1986261 0.03336716 0.035244383 0.20281352 0.4292568 -0.26904717 0.3865813
0.13304862 -0.049121942 -0.15064277 -0.13285737 0.1920602 1.3450687 -0.44702634 0.2200444
-0.19812295 -0.028822009 -0.48022896 0.028861212 -0.4782462 -0.5010186 -0.558243 -0.22439587
0.061221085 -0.34576923 -0.12078853 -0.1442484 0.036494724 0.011703017 -0.33107293 -0.09772339

model.1.running_var f4 [64]
00000000: c5d8 9b3e 5572 4b3e 1206 883e 4a4f 013f
00000010: 27a9 5d3f d291 9b3e c53a 483e 2507 173f
00000020: a72d 2e3e 06c3 2e3f ee91 733f ff0d 4e3e
00000030: 9e0a af3e e744 373e 257c 043e a9cf 9f3e
00000040: f77f 1d3e 4086 033e 929b a23e e54b 4c3f
00000050: 5e80 a63e a422 523e 6f34 0d3e 5a61 373e
00000060: 827f 083e 8616 6c3e 6092 e33d 843a d93e
00000070: f480 3a3f ccd3 613e 2491 b03e 2329 ba3e
00000080: 6c93 573e 97e7 c73e 3174 243e c3e1 a13e
00000090: 7e3a 453e 83fe 503f 13f7 763e dd3c 363e
000000a0: d4cf ed3e e91d d33f 9046 373e 3386 813e
000000b0: b42e fb3e 9ce4 6d3f 12dd c53e b889 403f
000000c0: 1d49 283e b1e9 da3e a29e eb3e 2710 823e
000000d0: f068 a03e 69be 723e 54da 8c3f 1c10 8b3e
000000e0: 739b d43d 7424 443e 3978 a93e 79ee 853e
000000f0: 869a 163e 1065 bf3e 1cde 1f3f 849f 633e
0.3043882 0.19867833 0.2656713 0.5051161 0.8658623 0.3038469 0.19553669 0.58995277
0.17009602 0.6826633 0.95144546 0.20122527 0.34187788 0.17897378 0.12937982 0.3121312
0.15380846 0.12844181 0.31759316 0.79803306 0.3251981 0.20521027 0.13789533 0.1790823
0.1332989 0.23055467 0.11111903 0.42427456 0.72853017 0.2205345 0.34485734 0.3635951
0.2105233 0.39043877 0.16059949 0.31617555 0.19260594 0.81638354 0.24117689 0.17796655
0.46447623 1.6493503 0.17898011 0.25297698 0.4905907 0.92926955 0.38645226 0.7521014
0.1643414 0.42756417 0.46019465 0.25402948 0.3133006 0.23705448 1.1004128 0.27160728
0.10381212 0.19154531 0.33099535 0.26158503 0.14707384 0.37381792 0.62448287 0.22228819

model.4.weight f4 [32, 64]
00000000: 825e ebbc 5d38 72bd b0c7 003d 23f6 96bc
00000010: 9fdd 65bc 0e43 29be 3ee9 26be 4064 513d
00000020: f141 e1bd 91cb 9f3c 48d6 623d 6d01 943d
00000030: 2586 28be 4520 aebd 59dd e7bd 00d0 7ebb
00000040: f80c 9fbb 4711 89bd e7c8 5f3d 9aa5 49bd
00000050: 09b6 ec3c a9f1 32bd 9b55 39be 8f8c c63d
00000060: 5313 4a3c fe4c b9bd cbc2 44be c37b 693d
00000070: 88b8 2e3d 9afd 63bd 7852 e03c c868 bfbb
00000080: 4aad e0bd b0fc d5bd a631 c2bd 9d94 59bd
00000090: e4ae 2fbd d1f7 2dbd b8ee 9cbd 1e24 c43c
000000a0: 044e 8f3d 1220 25bd 655f ffbd 3acd 25bd
000000b0: 8339 e23b 4c9b 7ebd b478 ac3d 75a4 643d
000000c0: cb72 3abd 9091 efbd 89e0 b3bd e3c1 99bc
000000d0: 1746 2dbe 54f2 05bc 47a6 3dbc 2707 bcbd
000000e0: b3c9 893c da90 76bc e861 f6bd a20b 50bc
000000f0: 4150 8ebd 06e1 0cbc e57a a0bd 9c6a 1fbc
00000100: d640 17be a941 8ebd e8d8 313d bd05 a13c
00000110: 494e 333d 0a05 dcbc 5e82 edbc 86a1 18bd
00000120: 71b4 d23d 3ef2 123d fce2 073e 8928 32bc
00000130: 121c 25be 3916 fdbb a7fe 9ebc e87d 2cbd
00000140: 03ae 8a3c 724e 9cbd 66e0 fd3d 471a eebd
00000150: 5430 2dbd 7e9e dcbd ac38 acbd 1e04 9cbc
00000160: cbae f53d eb4c c2bd fbab 27bd 2a23 0fbd
00000170: cc19 42bd 050f 8abd d085 ffbd 9789 b53d
00000180: 7383 a93d ecab 1abd 5bbb 6c3c a3e3 dc3d
00000190: c240 2e3b 0127 95bd 11cd af3b ff13 df3d
000001a0: aa76 4bbd 70ec a13d 50c2 96bd eb6d f6bb
000001b0: 13d5 02be f9ca fc3b 70cc b2bc 36a8 3a3d
000001c0: 4377 79bd 8d15 3bbe 4dd4 f2bd 339b 113d
000001d0: d647 bdbc 7438 cbbb a582 eebd c8e1 ddbc
000001e0: 8515 f6bd 8356 9dbd 9ebc debd 71ce ebbc
000001f0: 46c3 e5bb 917a 84bd 0e71 d93d bae5 e13c
00000200: 3946 c6bd fcb6 bfbd ca52 293c 54e1 6e3d
00000210: b447 a7bd 1a42 213e 5956 a4bc 0a3a 19bd
00000220: 59e2 183d 97d2 78bd 6c67 0bbc 244d 34bd
00000230: 6c57 c9bb 9426 da3d 723a 453d b1ab bfbc
00000240: f8ed 173d 0bd7 bd3d 35c1 23bd 7e35 0c3e
00000250: 9523 923b 321b 9abd b148 dd3d ff8e 08be
00000260: 8d1a 493d e060 783c cbad 923d 1454 3f3d
00000270: ad73 203d a299 d7bd 48f6 cdbd 65c7 243b
00000280: 5714 09bd 22dc 7dba 8814 a03d cdd2 82bd
00000290: 98c8 acbd 255e 68bc f43a 5039 a172 04be
000002a0: 2bc4 45bd 187b 6fbd d8f8 9d3d ecbd 82bd
000002b0: 3017 783d 64d0 d0bd c244 d8bd dbe5 ca3b
000002c0: 48fb 203c 6068 8ebd 4f4e b63d d956 53bb
000002d0: ec86 c63d 95fc 933d 9b32 36bd a464 173d
000002e0: 56bf f9bc c085 0d3e 0559 5fbd 1ee3 993d
000002f0: 54e5 bd3d 1a1f aabc c77f 74bd c2bd d3bd
00000300: c715 893d 69c3 343d f207 6b3d 15a2 a1bd
00000310: cfee 2a3d 5bf5 d43d ec9c 0d3e 1447 c83c
00000320: fd27 0b3e 9e4f 79bd ad61 e0ba b4f3 2ebd
00000330: 0aea 683d bf6d 48bd d478 c83d cefd 97bd
00000340: 110c 68bd cb9b 373d 3d57 2c3c 9ede 05bd
00000350: 582b 973c 9486 9ebd 604c 043d ca6d 5a3d
00000360: 9bda c0bd 7775 73bd 05eb f93d b543 acbd
00000370: f741 6abd ae0d 8a3d d225 8f3c 635d 703d
00000380: d512 ae3d 0b91 15bc 8781 f2bd 1a4c bfbd
00000390: 8ac6 bdbd a16c f6bb a4d3 a1bd ccd4 8fbd
000003a0: 83d5 95bd 02e1 59bd 01bd b4bc 4d5f da3b
000003b0: e070 d4bc 0566 b73d 0134 043d e2e2 4d3d
000003c0: 4ad8 133e 3e22 d6bd ae73 6d3d 7ed2 c4bd
000003d0: 0131 dc3d 1c46 fd3d ce69 f33c ca59 4e3d
000003e0: b4f0 6bbd aa8f ec3d 10af f6bd f41e e1bd
000003f0: 423f 01be 2d0e ffbd 0d8c 48bd e6b4 a7bd
-0.028731588 -0.059135783 0.031440437 -0.018427914 -0.014029889 -0.16529486 -0.16299912 0.051120996
-0.109989055 0.019506248 0.055380136 0.072268344 -0.16457422 -0.08502249 -0.113215156 -0.0038881302
-0.004853841 -0.066927485 0.054634955 -0.049230196 0.028895395 -0.043687496 -0.18099062 0.09694778
0.012333709 -0.09047888 -0.19214933 0.057002794 0.04265645 -0.055661775 0.027383074 -0.0058413483
-0.10970552 -0.10448587 -0.09482126 -0.053120244 -0.042891398 -0.042472664 -0.076627195 0.023943003
0.06997302 -0.040313788 -0.12469367 -0.040478922 0.0069038286 -0.06215982 0.0842146 0.0558209
-0.04551963 -0.11697686 -0.08783061 -0.01876921 -0.16921268 -0.008175451 -0.011575288 -0.09181052
0.01681981 -0.015049184 -0.12030393 -0.012698086 -0.06948901 -0.008598572 -0.0783594 -0.0097300075
-0.14770827 -0.069461174 0.04341975 0.019656057 0.04377583 -0.026857872 -0.028992828 -0.037263416
0.10288323 0.03587555 0.13270181 -0.010873922 -0.16123989 -0.0077235964 -0.019408537 -0.04211226
0.016928678 -0.0763215 0.12396316 -0.11626106 -0.042282417 -0.107724175 -0.08409247 -0.019044932
0.1199623 -0.09487327 -0.040935498 -0.034945644 -0.047387883 -0.06741146 -0.124766946 0.08864134
0.08277025 -0.037761614 0.014448966 0.10785606 0.0026588892 -0.0728283 0.005365022 0.10892486
-0.049673714 0.07906425 -0.07361281 -0.0075204275 -0.12776594 0.007714626 -0.021825999 0.045570575
-0.060904752 -0.1826994 -0.118568994 0.0355484 -0.023105543 -0.006201798 -0.11646012 -0.0270852
-0.12015823 -0.076825164 -0.108758196 -0.028784962 -0.007011804 -0.0646869 0.106172666 0.027575362
-0.09681363 -0.093610734 0.01033468 0.05832036 -0.08167973 0.15747872 -0.020060705 -0.037408866
0.037325237 -0.06074771 -0.008508544 -0.04401888 -0.0061444547 0.106518894 0.04815144 -0.023397299
0.03709218 0.09269532 -0.03997918 0.1369228 0.004459808 -0.07524718 0.108048804 -0.13335799
0.049097586 0.015159816 0.07162055 0.046711043 0.039172817 -0.1052735 -0.1005674 0.0025143262
-0.033466663 -0.00096839864 0.07816416 -0.06387863 -0.08436698 -0.014182602 0.00019858388 -0.12934352
-0.048282783 -0.058467 0.07713479 -0.06383881 0.06056899 -0.10195997 -0.105599895 0.0061919517
0.009825535 -0.06953502 0.08901655 -0.003224781 0.09693703 0.072259106 -0.044481855 0.036961213
-0.030486744 0.13820553 -0.054528255 0.07514022 0.092722565 -0.020766784 -0.05969217 -0.10338928
0.06693607 0.04413167 0.057380624 -0.07892243 0.041731652 0.1039836 0.13829392 0.024447955
0.13589473 -0.060866944 -0.0017118953 -0.042712882 0.056863822 -0.048932787 0.09788671 -0.07421456
-0.056652132 0.04482631 0.010518846 -0.032683007 0.018453285 -0.077405125 0.0322994 0.05332736
-0.09416696 -0.059438195 0.122030295 -0.084113516 -0.057191815 0.067408904 0.017474089 0.05868281
0.08499686 -0.009128819 -0.11841112 -0.09340687 -0.09266384 -0.007520274 -0.07901695 -0.0702301
-0.07316115 -0.0531931 -0.02206278 0.006664193 -0.02593273 0.089550056 0.032276157 0.0502652
0.14437976 -0.1045575 0.05797165 -0.09610461 0.10751534 0.12366888 0.029713538 0.0503786
-0.0576026 0.11550839 -0.12045109 -0.10992232 -0.12621787 -0.12453876 -0.048961688 -0.081888005

model.4.bias f4 [32]
00000000: f419 eab5 1a63 99b7 8569 a4b6 d7cd 7436
00000010: 60ae 2d34 f3ac 84b6 6b37 4837 5bbb 8f36
00000020: 4e1f edb6 10df acb3 601b 01b7 6a34 e735
00000030: a77e e036 f398 ab36 a9b7 0fb7 4053 7d34
00000040: 3dfd 82b6 8495 56b5 8699 aeb7 32d0 6336
00000050: 829d 0eb7 3245 2fb7 82c6 3eb7 526b f335
00000060: ba8a be35 1fb8 93b6 6454 7536 a466 7b35
00000070: 4f4f 4736 2916 2836 03b7 64b7 2e0b b6b6
-1.7441912e-06 -1.8285169e-05 -4.899865e-06 3.6478648e-06 1.6175318e-07 -3.9540405e-06 1.1933832e-05 4.283543e-06
-7.0667948e-06 -8.049949e-08 -7.695373e-06 1.7226096e-06 6.6904645e-06 5.1140028e-06 -8.566226e-06 2.3592747e-07
-3.9037827e-06 -7.9938786e-07 -2.0813906e-05 3.3946822e-06 -8.500532e-06 -1.0446924e-05 -1.1371101e-05 1.8136145e-06
1.4196478e-06 -4.402376e-06 3.6556967e-06 9.365415e-07 2.9699474e-06 2.504685e-06 -1.363247e-05 -5.425324e-06

model.5.weight f4 [32]
00000000: cf7a 4f3f 2742 8c3f 61ec 653f 9f8f 8e3f
00000010: e0c2 523f 4c9a 643f 82b8 4d3f 9367 773f
00000020: 57cc 4b3f 0599 993f 845c 633f e53c 653f
00000030: cc93 7a3f 4271 743f eff4 993f fb0b 733f
00000040: 6fb1 5a3f a0ca 643f 0f0e 733f a1f1 703f
00000050: 18b9 5c3f f94d 763f bdcd 9f3f bec2 5c3f
00000060: 4f25 483f ca8e 513f 1569 603f 6fe0 5f3f
00000070: dc61 6c3f 8f4b 6f3f 97a6 913f d7af 7a3f
0.81046766 1.0957688 0.8981381 1.113758 0.82328606 0.8929794 0.8035966 0.96642417
0.7960867 1.1999823 0.8881304 0.8954604 0.9788177 0.9548532 1.2027873 0.94940156
0.8542699 0.8937168 0.94943327 0.94118696 0.8621993 0.96212727 1.2484661 0.86234653
0.7818193 0.81858504 0.8766034 0.87451833 0.9233682 0.9347467 1.1378964 0.9792456

model.5.bias f4 [32]
00000000: f8a4 b4bd b1b9 113e 8371 5bbd a499 9abe
00000010: d6f2 73bd 10dd c2bd e5b6 89bd 1e1d b7bd
00000020: fe6d e2bd 48f9 83be 0343 e9bc a095 94bd
00000030: 1d40 69bd 83a4 1cbe becf 25be 0fe3 f3bc
00000040: 3b6c 23bd 40fa 07bc 787d 2bbd 1c8d 20bd
00000050: 22fc bebc 500e ffbc 3075 89be c34f b4bc
00000060: 5158 c0bd 9db4 9abd 464b c2bd 218a 81bc
00000070: 2b56 29bd a2ce 2fbd e21e 89be 9a2e 50bd
-0.08820528 0.14230992 -0.05357505 -0.30195343 -0.05955776 -0.095148206 -0.067243375 -0.089411005
-0.110561356 -0.25776124 -0.028474336 -0.07255101 -0.05694591 -0.15297131 -0.16192529 -0.029771356
-0.03989814 -0.00829941 -0.041867703 -0.039197072 -0.023313586 -0.031134754 -0.2684722 -0.02201069
-0.09391845 -0.075539805 -0.094870135 -0.015812935 -0.04134194 -0.04292167 -0.26781374 -0.050825693

model.5.running_mean f4 [32]
00000000: 91f5 3bbf 0044 debe 4502 f3bd 1606 94bc
00000010: 045a 1bbf fe20 283d a558 a7be 7608 3e3c
00000020: 4ae8 e7be df5f e43b 1a70 1ebf dce9 40be
00000030: 2999 5cbd e1e8 143c 6051 fabc 67e2 e1be
00000040: 418f d3be 92aa 3f3e 56f3 61be d215 53be
00000050: fb62 fdbe def1 063e 9c23 89bc 2a41 17bf
00000060: 7c7b 453e 7427 b6be fd9e 683e 125e 08bf
00000070: a50e 10be faa4 67be 1fad 18bd a9d7 38be
-0.7342158 -0.43411255 -0.11865667 -0.018069308 -0.6068423 0.04104709 -0.32684818 0.011598697
-0.4529441 0.0069694365 -0.61889803 -0.1883921 -0.053857002 0.009088726 -0.03055638 -0.44118044
-0.41320232 0.18717411 -0.22065482 -0.20613793 -0.4948958 0.13178203 -0.016740613 -0.5908381
0.19285387 -0.35576975 0.22716899 -0.5326854 -0.14068086 -0.22621527 -0.037274476 -0.18051018

model.5.running_var f4 [32]
00000000: 2411 5b3f e4b9 c63e f282 fa3e 45d5 0a3f
00000010: 2f04 343f 0343 f43e cc95 363f f52b ad3e
00000020: e7cf 9e3e fdf1 0c3f 232a 693f 01c8 803e
00000030: ff99 1d3f ff2a 523e b28d cc3e bb57 bb3e
00000040: 7798 e23e b907 e63e 8f2c 293f 1639 3d3f
00000050: 32d2 423f bf89 753f d0e0 f43e 8363 6a3f
00000060: ff8b 333f f6b1 293f 9160 c73e b15c 123f
00000070: bd81 123f 41f5 f73e 6a48 0c3f 92cd 0c3f
0.8557303 0.38813698 0.48928028 0.54231673 0.70318884 0.47707376 0.7132232 0.338226
0.31017992 0.55056745 0.9107992 0.2515259 0.61563104 0.20524214 0.39951855 0.3659037
0.44256946 0.44927767 0.66083616 0.7391523 0.7610198 0.9591331 0.47827768 0.9155809
0.7013549 0.6628717 0.38940862 0.57172686 0.57229215 0.484293 0.54797995 0.55001175

model.8.weight f4 [16, 32]
00000000: ac4c cf3c b2ce 803d 1d9f 553d 4575 4b3b
00000010: 11cf 60bd 5582 1d3e 3f92 1ebe 45d7 5fbe
00000020: 880b 11be 170a 9cbd ff38 ecbd 6244 ba3d
00000030: d9be 6bbe 5a1d f5bc cab3 6bbd 2e03 1c3d
00000040: bc1b f23d 50e7 62be d7dd 323d a0cb 5e3d
00000050: a219 09be 64c9 2bbe bb8b 813c e519 803d
00000060: 61c4 763d 9284 313d 94d2 88be c191 bd3d
00000070: 8802 05bd 4025 9dbd 2ab2 053d 2110 463c
00000080: 67ac a6bc c979 403d c925 163c fa68 89be
00000090: d6d0 313d ad73 febd ce90 873d 9e34 8bbd
000000a0: 7572 583d 1e98 8fbe 233f acbb f48c 11bb
000000b0: 3af4 2ebe 2649 073d dfff 9dbe a571 f83c
000000c0: 5b7b 4c3d 1d20 473c 473a 5ebe 8070 0b3c
000000d0: e987 333d 911b 0b3d c0a0 39be 6e47 473d
000000e0: ebd3 00bd da2b 5b3d c004 603c ebef ffbc
000000f0: a34a af3d b27e 853d 4049 73be 3acc 17bd
00000100: 3f2d 8d3d 2393 333d 8c74 95bb 7309 17be
00000110: 88b8 b43a 3bef 963c 7f4f c43d c52b bd3c
00000120: c4b1 233d c4b8 abbe e224 ab3d 739f 033d
00000130: c212 a5bd 1293 4dbd e321 51be 3e45 003d
00000140: a88d 093d 6e38 de3c 23b9 6a3d 28e7 4d3d
00000150: 24b0 cd3c c99a 833d 5320 9ebe 75b6 11bd
00000160: 09ce 6e3d aebd 8d3d 6316 9b3c c2dd 9b3c
00000170: 4f7e 35bd a8bc e8bd 7c7e 91be 36a0 d7bd
00000180: 5208 003e 69f8 b0be b089 553d 0b37 34bd
00000190: 7339 f13d 177e 4abd b596 39be 1e6e 70be
000001a0: f9c5 de3d e31d 373d a7f6 6bbe cb75 debd
000001b0: d7df 583d ab59 88be 79e5 65bc 6f28 4f3e
000001c0: 41bf 8d3d 05f2 8cbc 5e03 253d dd9d be3d
000001d0: 75cd 88bd ee7b cf3d a3f3 9bbd 25ab 1e3d
000001e0: dcbe e93d ae66 823c 88fc 69be b8d4 1a3e
000001f0: 53bb c4bb c079 543c 2db0 683c b9de 723d
00000200: 4742 cd3d 0b0e bebe 0d81 093d dd7b 303b
00000210: 2e94 a0bd 9c7d 243e 617c 6cbd 140e 78bd
00000220: 9862 243d e665 693c 0a4f c73d c6bd 65be
00000230: 0c2e e13d c4ac 9cbc c950 cb38 400e d03c
00000240: d5cd bebd 5fb6 b83c bb54 87bc 85b1 6d3d
00000250: 2b1b 5fbe 375b 6bbd c6de cbbb 8696 95be
00000260: 6ccf cc3d 684b 40bd 9adf 78bd cc89 d73c
00000270: 5456 a73d ab4f cc3c cded 70bd 17ab d63d
00000280: 7342 c7bd 8650 4b3d a0f0 c6bd dc6c 91be
00000290: 3319 34bd c4d4 06bd 0e4a 543d a986 ce3c
000002a0: 75c8 21bd 084f 09be 4605 803d 2020 0b3d
000002b0: 6e8d eb3d ce7a 99bd 80fe c6bd 4590 5c3d
000002c0: f4b9 a1bb 4e96 2d3c b321 da3d d4b1 0fbe
000002d0: 32d5 8c3d 6146 14be 13db 6abe 3ce3 9cbd
000002e0: 8031 323d fc1f 173d edd2 173d ea30 c5bb
000002f0: 760b a9bc 679e a4bd 0c6b 46be fcad c9bd
00000300: a540 12bd faa9 8f3e e03b ae3d 045c 9dbb
00000310: 9246 0d3e 90bf 893d 0dde d03d 5755 a5be
00000320: 3f94 863c a5fc 05bd 1a48 88bd de09 49be
00000330: 20d4 773d 8d85 39be 0077 a93b 33c5 19be
00000340: 9ea2 1ebe e06f bdbd 90fe b53d 130f 16be
00000350: 0616 4f3c 015e 803d d918 053d a1a4 5c3d
00000360: ec45 acbd de5c 03be 9c0f b8bd 628d 03be
00000370: be24 353d 5e79 bb3d 1dd4 45bd 26a2 863d
00000380: 84f8 883d bc27 2b3c 8300 5c3d 0b47 2dbe
00000390: 4186 9e3b bd8a db3c aba0 7ebd 550c 9fbd
000003a0: 398b 85bb 99b4 a6be 3dcf 193c 8d9b 9bbc
000003b0: c1f2 80bd 4d0c 39bd a301 c1bd d6e4 b73c
000003c0: 03b2 853d 4e66 b4bd cd2d 89be 8637 4d3a
000003d0: b791 183d 920c 33be 3f6f 92bd 426e 973b
000003e0: 9243 e73c b2e6 ae3b 7075 933d cce2 193c
000003f0: db6f 47be f230 ea3c fe11 b7be c932 283c
0.025305115 0.06289424 0.052153695 0.003104524 -0.054884974 0.15381749 -0.15485476 -0.21859463
-0.14164555 -0.07619112 -0.11534309 0.09095074 -0.23022021 -0.029921222 -0.057544507 0.03808897
0.11821696 -0.22158551 0.043668594 0.05439341 -0.13388684 -0.16776043 0.015813699 0.06254939
0.060245875 0.04333932 -0.26723158 0.09256316 -0.032473117 -0.076731205 0.032640614 0.012088806
-0.02034588 0.046991143 0.009164282 -0.26837903 0.043412052 -0.12424407 0.06619416 -0.06797145
0.05284353 -0.28045744 -0.00525655 -0.0022209259 -0.17085353 0.033028744 -0.30859277 0.030327627
0.04992233 0.0121536525 -0.21701919 0.008510709 0.043830786 0.033961836 -0.18127728 0.048652105
-0.0314521 0.053508617 0.0136730075 -0.031242331 0.08559158 0.06518306 -0.23758411 -0.03706
0.06893396 0.043841492 -0.0045610126 -0.14749698 0.0013787905 0.01842462 0.09585475 0.02309216
0.039964452 -0.33539402 0.08356644 0.032134484 -0.080602184 -0.050189085 -0.20423083 0.031316034
0.03358236 0.027126517 0.057305466 0.050269276 0.025108404 0.06426007 -0.30884036 -0.035574395
0.05830196 0.06920944 0.018931573 0.01902664 -0.04430991 -0.11364108 -0.28416812 -0.10528605
0.12503174 -0.34564522 0.052133262 -0.043997806 0.11778536 -0.049436655 -0.18123896 -0.23479506
0.10877604 0.044706237 -0.23043309 -0.10862311 0.052947845 -0.2663091 -0.014031761 0.20230268
0.069212444 -0.017205248 0.040286414 0.09307454 -0.06679813 0.101310596 -0.076148294 0.038737435
0.11413357 0.015918102 -0.2285024 0.15120208 -0.006003776 0.012968481 0.01420216 0.059294436
0.10022407 -0.3712009 0.033570338 0.0026929297 -0.07840763 0.16063541 -0.057735804 -0.0605603
0.04013309 0.014245486 0.097318724 -0.22435674 0.10995111 -0.01912535 9.694842e-05 0.02539742
-0.09316603 0.022547899 -0.016519895 0.058030624 -0.21787708 -0.057460036 -0.006221625 -0.29216403
0.100005 -0.046946913 -0.060760118 0.026310824 0.08170763 0.024940332 -0.058820534 0.104818515
-0.09729471 0.04963734 -0.09713864 -0.28403366 -0.043969344 -0.032917753 0.051828437 0.025210695
-0.03949781 -0.13409054 0.06251006 0.033966184 0.11501585 -0.07494126 -0.09716511 0.053848524
-0.0049354974 0.010594917 0.10650959 -0.1403268 0.06876601 -0.14479972 -0.22935133 -0.07660529
0.043504238 0.036895737 0.03706639 -0.006017794 -0.020635348 -0.08038025 -0.19376773 -0.09847638
-0.03570618 0.2805937 0.08507514 -0.004802229 0.13796452 0.06725991 0.10198603 -0.32291672
0.016428111 -0.032711644 -0.06654377 -0.1963267 0.060505033 -0.18117352 0.0051716566 -0.15016632
-0.15491721 -0.09249854 0.088864446 -0.14654188 0.012639528 0.0626793 0.0324944 0.05386794
-0.08411774 -0.12828395 -0.08987352 -0.12846902 0.044224493 0.09154008 -0.04829799 0.06573896
0.066880256 0.010446485 0.053711426 -0.16921632 0.0048377817 0.026799554 -0.062164944 -0.07766024
-0.0040754345 -0.3255966 0.009387788 -0.01899507 -0.06296302 -0.045177747 -0.0942414 0.022447985
0.06528094 -0.088085756 -0.26792756 0.0007828403 0.03724834 -0.17485264 -0.07150125 0.004621298
0.028230462 0.0053375596 0.07200134 0.0093924515 -0.19476263 0.028587792 -0.35755914 0.010266014

model.8.bias f4 [16]
00000000: d489 aeb7 0e95 8b37 90f7 6a35 eca6 6bb7
00000010: dbe6 13b7 1db9 9637 d45d c6b6 44bf bdb6
00000020: cc12 35b7 8ea8 f5b5 4877 67b7 21e8 14b7
00000030: 202f 3d33 2a09 50b7 a816 34b5 907b 52b5
-2.0806598e-05 1.66395e-05 8.7532044e-07 -1.4045956e-05 -8.815633e-06 1.7967594e-05 -5.911783e-06 -5.654905e-06
-1.0792817e-05 -1.8302978e-06 -1.3796445e-05 -8.875534e-06 4.404785e-08 -1.23999e-05 -6.7088195e-07 -7.8410903e-07

model.9.weight f4 [16]
00000000: 4843 8e3f 8ad1 b03f ef6a a93f 1295 933f
00000010: b685 8e3f 2ae9 b03f 377a 913f 88a4 ac3f
00000020: 4d80 8d3f 7e22 aa3f 5981 a23f 4384 aa3f
00000030: 770b a83f 3e3f af3f 5329 9c3f 1f56 b03f
1.1114283 1.3813946 1.3235759 1.1529868 1.1134555 1.3821156 1.1365422 1.3487711
1.1054779 1.3291776 1.2695724 1.3321613 1.3128499 1.3691175 1.2200111 1.3776282

model.9.bias f4 [16]
00000000: 15f1 133f 4782 2a3f 240c 163f aff5 493f
00000010: 39f9 ec3e 86bb 313f 41cb 383f f953 2d3f
00000020: 9a86 103f e1f7 293f be6e 113f 8327 233f
00000030: e56d 2a3f 649a 1f3f 2995 203f 2591 343f
0.57789737 0.6660504 0.58612275 0.7889051 0.46283892 0.69426763 0.7218514 0.6770626
0.56455386 0.6639386 0.56809604 0.63732165 0.66573936 0.62344956 0.627276 0.7053397

model.9.running_mean f4 [16]
00000000: ed9b a4be caa4 cfbe c6d7 bbbe 8c27 0bbe
00000010: 617c 97be 79dd acbe 2577 f7bd 2999 23bf
00000020: 7ed2 cfbd 8983 f7be 801d 97be 198d eabe
00000030: aa97 93be 1709 0dbf ae9e d3be c677 cabe
-0.32150212 -0.40555412 -0.3668806 -0.13589305 -0.2958708 -0.3376272 -0.12083272 -0.6390558
-0.1014757 -0.4834254 -0.29514694 -0.45810774 -0.28826648 -0.55091995 -0.41332 -0.39544505

model.9.running_var f4 [16]
00000000: a4d2 943e 4d22 0540 aebf fa3f a108 8e3e
00000010: 0e91 ff3e ef91 4f3f 5182 a03e 6250 1a40
00000020: e2b6 c13e 8f96 ad3f 1588 b73f f6a3 cc3f
00000030: 522a 553f bc29 0840 f517 de3f efa1 8a3f
0.29066956 2.0802186 1.9589746 0.27740958 0.49915355 0.8108205 0.31349424 2.4111562
0.3783484 1.3561572 1.4338404 1.5987537 0.832677 2.1275473 1.7351061 1.0830668

model.12.weight f4 [1, 16]
00000000: f0b3 eb3e 418c 0a3f 0330 1b3f ba3c d53e
00000010: 8e5a cb3e ce28 063f a12a d93e 019d 0a3f
00000020: 77e3 d33e fe1b 053f 0599 213f a159 0f3f
00000030: e2f3 0e3f adf9 0f3f 82a9 1b3f 8f59 033f
0.4603572 0.5412026 0.60620135 0.41647893 0.39717525 0.52406013 0.42415336 0.5414582
0.4138448 0.5199584 0.63124114 0.5599614 0.55840886 0.5624035 0.60805523 0.5130853
