neuralnet/Hyperparameter sweeps/HP sweep round 4/bike_volume_model_net_2layers_lr_0.00002000_batch_64_feat_0.pth (torch, 21622 bytes, 13 tensors)

model.0.weight f4 [32, 89]
000000 74 b4 45 3d 3d 87 d2 3c 50 a7 1d 3e f5 e5 ba bc
       0.048267797 0.025699252 0.15395856 -0.02281473
000010 26 22 d0 3c f1 9d b1 3d a4 a0 66 3d 33 a6 f7 bb
       0.025406908 0.08672703 0.056305543 -0.0075576543
000020 25 d6 9b 3c 6d 47 b2 3d c9 c5 07 be 78 85 d2 bd
       0.01902301 0.0870503 -0.13259043 -0.102793634
000030 01 3f d8 3c 48 59 28 3c 6c 5c 83 bd fc 0c 8f 3d
       0.02639723 0.010275193 -0.064141124 0.069848984
000040 7f 5d 4a 3d c1 f9 87 bc ff 5e 75 bd fc c9 d2 ba
       0.04940557 -0.016598584 -0.05990505 -0.0016081925
000050 04 7c 07 3d 33 ce 3e bd 22 62 8f 3d e2 1e 66 3a
       0.033077255 -0.046583366 0.07001139 0.00087784056
000060 df e0 17 3d 89 47 58 bd b5 b3 f3 bc e9 f3 03 bd
       0.03707969 -0.052802596 -0.029748777 -0.032215033
000070 40 d0 9f bb 59 e1 35 bd 8c a8 8d bc c6 bc 18 3d
       -0.0048771203 -0.04440436 -0.017292283 0.037289403
000080 2c 01 ab bd ac df 4c 3d c8 5f ad bd 93 0f 83 bd
       -0.08349833 0.050017998 -0.084655344 -0.06399455
000090 23 36 55 bd 84 65 86 3d 92 26 d8 bd 53 bb 72 bb
       -0.052053582 0.06562331 -0.10554232 -0.0037037923
0000a0 ea ca 4b bd 7f 6f e0 ba 35 0c c8 3c 47 44 e0 bd
       -0.04975406 -0.0017123072 0.024419883 -0.10950523
0000b0 93 9f 27 3d 09 e6 e2 3d 94 e3 5d 3d d0 e6 2f bd
       0.040923666 0.11079032 0.054172114 -0.04294473
0000c0 8c b1 b7 bc 24 d5 de 3c 69 0f 76 3d 2e 63 94 3d
       -0.022423528 0.027201243 0.06007329 0.072454795
0000d0 b1 65 be 3d 03 b4 ba bc 5d ac c9 bc 38 f2 3c 3d
       0.0929674 -0.022790914 -0.024618322 0.046129435
0000e0 e1 40 44 3d ff 86 94 bd 75 2b c2 bd d8 ef 03 3e
       0.047913436 -0.07252311 -0.09480945 0.12884462
0000f0 37 e1 8d bd a6 8d 4e bd c9 de cd bd de f3 17 3d
       -0.06927722 -0.050428055 -0.100522585 0.037097804
000100 63 32 05 bd b1 d1 f4 3c b1 a1 9a bc 17 00 be bc
       -0.032518756 0.029885145 -0.018875929 -0.023193402
000110 bf c0 f8 bb 4a f6 12 bd 33 41 64 bd 4e 4a 7e 3c
       -0.0075913365 -0.03587941 -0.05572624 0.015520645
000120 42 45 0d 3d 02 1a 71 b9 2b cb 96 3d cb d5 10 3d
       0.034489878 -0.0002299324 0.0736297 0.03536014
000130 af c0 98 3b 5d 9b dd 3c b6 a0 02 3c c3 4f 22 3d
       0.0046616415 0.027051622 0.007972887 0.039626848
000140 33 62 bf 3c 54 27 2c bd 60 7e 6e 3d 86 bf 3f bd
       0.023362255 -0.042029694 0.05822599 -0.04681351
000150 2d e2 5d 3b 44 fd ec bd f1 3c 3f 3d 83 22 ad bc
       0.0033856735 -0.11571744 0.046688978 -0.02113462
000160 22 1d 8b 3c 08 21 cc bc 6d e1 c1 3a a9 1d 04 3d
       0.016981665 -0.024918094 0.0014791914 0.03225485
000170 75 6d 31 3d f3 8d b8 3b 8e 59 ba bd af b8 a4 bd
       0.043317277 0.005632156 -0.090991125 -0.08043038
000180 6e e1 9e 3c 8e 0b 77 3c 67 c0 05 be bb b1 fe bc
       0.019394603 0.015078438 -0.13061677 -0.031090608
000190 a0 21 44 3b e7 2b 89 bd d6 3d bc bc cf 1e 33 bd
       0.0029927269 -0.06697827 -0.022978704 -0.043730553
0001a0 17 29 a3 3c 5a a5 7f 3d c1 ae 66 3d 4b f0 8a bd
       0.019917054 0.06241355 0.056319002 -0.067841135
0001b0 69 52 a8 3d 03 29 73 3d cf 2e a1 bd c2 ff 7d 3d
       0.082188435 0.059365284 -0.07870256 0.062011488
0001c0 1a 9d 85 3d 91 88 18 bd c1 25 90 3d 0c 71 97 3d
       0.06524105 -0.037239615 0.07038451 0.07394609
0001d0 fb 8f 1e bd f1 24 9e 3d 61 35 e9 3d b7 48 a8 bd
       -0.03871153 0.0772189 0.11387134 -0.08216994
0001e0 ad c9 80 3d 77 65 05 3e 44 b0 31 3d f9 f9 c8 bc
       0.062884666 0.13026987 0.04338099 -0.024533259
0001f0 81 6e 8c bd 98 2a c4 b9 29 36 05 3b 2a 4e 92 3b
       -0.068570144 -0.00037415768 0.0020326471 0.0044648843
000200 05 40 8e 3c 3e 94 5e bc f4 cc a8 bb 9a 66 87 bd
       0.017364511 -0.013585148 -0.0051513854 -0.066113666
000210 47 26 fe bd b6 c6 7e bb d1 19 b9 bd 4a 56 3f bd
       -0.124096446 -0.0038875765 -0.09038127 -0.04671315
000220 fe ac c3 3d 55 a8 d4 3d 53 04 9f bd 7e c3 98 3d
       0.0955448 0.10383669 -0.07764497 0.07459162
000230 4d d5 bc 3c 46 65 98 bc 0d 95 fe bc 65 c2 30 3d
       0.023050928 -0.018602978 -0.031076932 0.04315414
000240 c3 93 41 bc ed 26 a5 3d 2a 48 f0 bd 82 87 97 3c
       -0.011815014 0.08064065 -0.11732514 0.018497232
000250 76 b8 25 bc 42 dc 20 bc 82 af 8d bd 97 26 c9 bc
       -0.01011478 -0.009818139 -0.06918241 -0.024554534
000260 5e 7e bf bd ce 77 a4 3d 8d ba fd bd aa dc 0d 3d
       -0.093502745 0.080306634 -0.12389097 0.03463427
000270 2b 57 b5 3d 01 49 0c be 9f 18 3e bd 52 75 1e 3d
       0.088545166 -0.13699724 -0.0464102 0.038686104
000280 a7 34 80 3c fb 27 fb 3d 66 5a d8 3b 42 2f 72 bd
       0.015650107 0.12263485 0.006602573 -0.0591271
000290 d4 5c 96 3d d3 b7 4b bd d1 aa 91 3d e6 d8 1a 3d
       0.07341924 -0.049735855 0.07112659 0.037804507
0002a0 57 69 38 3d 14 52 b7 3c 41 c3 d7 bc ae 13 09 3d
       0.045022335 0.022378005 -0.026338222 0.033466034
0002b0 dd 4a 6c bd 12 f2 d7 bd 47 4a bd 3d e4 87 37 be
       -0.057688583 -0.10544218 0.09242683 -0.17922932
0002c0 46 68 a2 3d d3 dc be bc 38 86 00 bd 91 19 08 bd
       0.07930045 -0.023298657 -0.031378 -0.033227507
0002d0 1f 6f 41 bc fc 11 44 3c 2b c2 d8 3c 46 99 15 3b
       -0.0118062785 0.011967178 0.026459774 0.0022826954
0002e0 ff 2d 9a bd 55 fd 4d bd 1a 98 b0 3c 2b 94 45 bd
       -0.07528304 -0.050290424 0.021556903 -0.048237007
0002f0 6b 5c 8b bc fd 7b 80 bd 42 85 48 3d b7 24 da bd
       -0.017011842 -0.06273649 0.04895521 -0.10651534
000300 65 9c 8c 3d 83 43 f6 3c 28 a5 b1 bd 72 18 ae 3d
       0.068657674 0.030061489 -0.08674079 0.08500756
000310 99 17 a5 bc b0 b6 93 3d af 78 17 bc 62 94 6d 3d
       -0.020152854 0.07212579 -0.009245082 0.058002837
000320 4d 5d 52 3d 72 dd c9 3c 2f 1d c5 bd 2e 58 d4 3c
       0.05135851 0.024641726 -0.09624707 0.025920954
000330 5d 9b 60 3d 28 b2 f7 3d 5b 82 13 bd 87 90 8c bd
       0.054835666 0.120945275 -0.03601299 -0.06863504
000340 84 1b df bd f4 cd 1d 3c 6a ed de 3b f6 29 85 3d
       -0.1089392 0.009631623 0.0068032043 0.06502144
000350 7e 9d 2c 3d cd 4c ea 3c 8b a0 41 3c 8f 50 c5 3c
       0.042142384 0.028601075 0.011818062 0.024086265
000360 c8 7d 40 3d 07 4b 00 be 08 35 38 3c 7b 75 a3 bc
       0.046994954 -0.1252862 0.011243112 -0.01995348
000370 20 05 00 bd f6 53 79 bd eb d9 b0 3d cd 6f 24 3c
       -0.031254888 -0.060871087 0.086353146 0.010036421
000380 2a b8 9c 3c 5c ee bf bc f2 3e 87 3d 12 56 fb bd
       0.019130785 -0.023429088 0.06603803 -0.12272276
000390 9e 21 92 3d 15 c5 97 3d be 48 de bb f4 11 b1 bd
       0.07135318 0.07410637 -0.006783574 -0.086460024
0003a0 9e c8 96 3d f2 98 94 ba 52 5e a0 3c d0 14 8e bc
       0.073624834 -0.0011337085 0.019576225 -0.017343909
0003b0 09 67 2b bb 04 69 ff bb ab 90 e4 bc b5 d7 a0 bd
       -0.0026153943 -0.0077945013 -0.027901014 -0.07853643
0003c0 f2 60 0e 3d 7d ad 07 bd 14 4a ad 3d 42 97 40 3d
       0.034760423 -0.033124436 0.08461395 0.04701925
0003d0 35 d9 22 3d 42 0b 67 3d 77 72 08 bc fb 03 75 bd
       0.039757926 0.05640722 -0.008328072 -0.05981825
0003e0 c3 9d 0a bd f3 17 39 3c ad ff 3c bd 24 35 03 3e
       -0.03384186 0.011297214 -0.04614227 0.1281324
0003f0 d9 b5 d4 bc b5 c7 9e 3d 86 c5 39 3d 54 c5 79 bc
       -0.025965618 0.07752935 0.04535439 -0.015244801

model.0.bias f4 [32]
000000 e5 5f c1 b6 18 9f 75 35 ba 39 0e b7 1a dd ee b7
       -5.763012e-06 9.1501124e-07 -8.4773e-06 -2.847477e-05
000010 b9 d4 0b 38 7c 5d b1 b7 7e 18 47 b7 34 a2 4a 37
       3.3338296e-05 -2.1143576e-05 -1.1867027e-05 1.2077904e-05
000020 19 66 b4 b6 04 8c 9c b7 2c 70 57 36 59 a8 2a 37
       -5.3763038e-06 -1.8661849e-05 3.210279e-06 1.0171986e-05
000030 e1 b5 14 38 56 61 9e 37 4e 48 6d 37 2a b0 89 b6
       3.5455338e-05 1.8880393e-05 1.4143136e-05 -4.1034264e-06
000040 37 54 99 36 c2 ae 97 37 f7 eb c5 b6 c4 64 41 b8
       4.569559e-06 1.808198e-05 -5.8985274e-06 -4.610863e-05
000050 fc 08 22 b6 19 c1 47 36 a6 41 0f b7 4b 5e f3 b6
       -2.414511e-06 2.9765708e-06 -8.538749e-06 -7.2529415e-06
000060 96 23 21 36 78 4f cc 35 bd c0 5e 38 3b 7f c5 b6
       2.4011583e-06 1.5222313e-06 5.3108426e-05 -5.885869e-06
000070 8a 12 18 37 a4 df c7 37 a9 ef 05 b7 bc 8e 41 b7
       9.0642225e-06 2.382679e-05 -7.983218e-06 -1.1536929e-05

model.1.weight f4 [32]
000000 56 40 69 3f 94 1a 76 3f 73 67 7e 3f 13 81 93 3f
       0.91113794 0.96134305 0.993766 1.1523765
000010 0c a2 4d 3f 20 04 70 3f 11 1e 51 3f c3 05 80 3f
       0.8032539 0.93756294 0.816865 1.0001758
000020 cb 02 73 3f 92 c6 67 3f 92 0d 68 3f a4 c9 82 3f
       0.94926137 0.9053737 0.90645707 1.0217786
000030 7b 3d 89 3f 50 4c 42 3f f3 3f 64 3f e2 0d 58 3f
       1.0721887 0.75897694 0.8916008 0.84396183
000040 38 7d 57 3f 0b 62 66 3f dc 1b 7b 3f d7 79 84 3f
       0.84175444 0.8999335 0.98089385 1.0349683
000050 3c 00 35 3f 11 64 50 3f 3f ca 56 3f 59 b1 7e 3f
       0.7070348 0.8140269 0.83902353 0.9948936
000060 e9 6c 37 3f de 98 4e 3f 2b 99 8a 3f 48 e7 5c 3f
       0.7165056 0.80702007 1.0827993 0.8629041
000070 f3 99 57 3f 52 fe 9d 3f b0 6c 4a 3f 26 68 60 3f
       0.8421928 1.2343237 0.79072094 0.8765892

model.1.bias f4 [32]
000000 5f 24 79 be f1 70 f1 bd 97 50 1a be b0 23 57 be
       -0.2433028 -0.1178912 -0.15069805 -0.21009707
000010 29 fc aa be 50 1e 0f be cb ac 13 bf 73 49 a9 be
       -0.33395508 -0.13976407 -0.57685536 -0.3306385
000020 43 a8 14 be 0f 4c b9 be 80 75 2a be de 71 3c 3d
       -0.14517312 -0.3619084 -0.16646385 0.04600703
000030 9e 4e cd be b8 22 ac be a5 1c 58 be 9c 00 32 be
       -0.40099043 -0.33620238 -0.21104677 -0.17383045
000040 4f 92 62 be 8c e9 98 be 35 55 98 be aa 0a 1e be
       -0.22126125 -0.29865682 -0.29752508 -0.15433756
000050 5b 63 4a be ad 7d ef be 0a 2a 94 be 67 e1 7e be
       -0.19764464 -0.4677557 -0.28938323 -0.24890672
000060 3d e0 39 be f0 47 06 be a7 27 f2 be 40 1e 8a be
       -0.18151946 -0.1311338 -0.47295877 -0.26976204
000070 54 d1 64 be 81 68 81 bd 6e c2 46 be 89 5d e7 be
       -0.22345477 -0.06318761 -0.19410107 -0.4518855

model.1.running_mean f4 [32]
000000 d6 3e f4 3d 18 e5 07 3d cc f0 8b be ea 1f 29 bf
       0.119260475 0.033177465 -0.2733215 -0.6606432
000010 92 68 fe bd 20 50 e9 b8 db 69 72 be d4 27 91 be
       -0.12422289 -0.0001112523 -0.23673193 -0.283507
000020 fc 49 95 bb 71 3f f4 be 39 66 11 bf 08 1f 9e 3e
       -0.0045559388 -0.47704652 -0.56796604 0.3088305
000030 ca 6d 7a be cd f8 20 be f2 79 e6 be a2 b3 dc be
       -0.24455944 -0.1571991 -0.45014912 -0.431058
000040 5c 08 74 be b9 22 ca be 20 d4 e6 be bf 72 e7 be
       -0.23831314 -0.39479616 -0.45083714 -0.45204732
000050 12 69 d7 3e 73 cf 9b be ce c5 bc be 6a 78 2a bf
       0.4207235 -0.3043171 -0.36869663 -0.6658999
000060 3f e2 f7 3e b2 95 79 3e 4b f8 31 be eb 54 a9 bd
       0.484148 0.2437351 -0.17379873 -0.0826815
000070 42 fe 2f 3d d5 4b 26 3e 60 d2 03 be 82 b1 02 bf
       0.04296709 0.16239865 -0.1287322 -0.51052105

model.1.running_var f4 [32]
000000 9c 28 10 3e 1e b7 78 3e 30 4f 64 3e 66 4a 92 3e
       0.14077991 0.24288604 0.22295833 0.28572387
000010 95 ca 95 3e cd f5 3f 3e 1c 3e bb 3d 92 a7 5c 3e
       0.2925612 0.1874611 0.09142706 0.21548298
000020 94 60 72 3e 0b 37 b9 3e cc 02 ba 3e ac fe 80 3e
       0.23669654 0.36174807 0.3633026 0.251943
000030 f2 45 43 3e 0e c8 12 3e 3a 3d 9e 3e 58 f2 93 3e
       0.19069651 0.14334127 0.30906087 0.2889583
000040 67 28 dd 3d cb 0a a6 3e 6a e7 29 3e 3d 9a 8e 3e
       0.10798722 0.3243011 0.16592184 0.2785205
000050 cd 9c 12 3f e0 d6 67 3e 59 90 48 3e 59 21 11 3f
       0.5727051 0.22640562 0.19586314 0.5669151
000060 7d 0d 52 3f 68 30 29 3f 49 55 54 3e 0c 8f 99 3e
       0.8205183 0.6608949 0.20735659 0.2999195
000070 98 f1 a6 3e a9 59 38 3e ad fb f1 3e e9 7f 91 3e
       0.32606196 0.18002953 0.47262326 0.284179

model.4.weight f4 [16, 32]
000000 40 88 92 bc f0 98 0b bc 3f 62 b9 3d 33 2b 80 3d
       -0.017887235 -0.00852035 0.09051942 0.062582396
000010 dd e1 de 3d d6 54 5f 3c b2 d5 80 be 14 ad a5 bd
       0.10882924 0.013631066 -0.25163037 -0.08089653
000020 4d 59 79 3d ea 3b 48 be 65 e5 e7 3c 58 fa 80 3c
       0.06087618 -0.19554105 0.028307626 0.015744373
000030 f9 cb 3d be 69 72 1b bd 27 63 54 be 9c 3c d8 3b
       -0.1853484 -0.037950907 -0.20740949 0.006599022
000040 37 a1 8e 3d 15 96 87 3d aa ea 30 be 77 a2 9a be
       0.06964343 0.06620423 -0.17277017 -0.30202076
000050 44 3d 34 3d a5 c9 89 be 11 d3 8d 3d 12 7f 37 3d
       0.04400374 -0.26911655 0.06925023 0.044798918
000060 1e 15 17 3d c3 9d 52 ba a1 f7 87 be ce 33 21 3d
       0.036885373 -0.00080343726 -0.26556113 0.039356045
000070 07 bd 54 bd 1c 8b 49 3d fb 21 a0 3d fe 47 57 be
       -0.051938083 0.04920493 0.07818981 -0.21023557
000080 be 2c eb 3d c4 51 06 3d 69 48 08 3b da 9e ef 3c
       0.11483143 0.03279282 0.0020795113 0.029250551
000090 48 28 1f be d7 c1 b1 bd ea 9e 17 be be 1e d2 3c
       -0.1554271 -0.0867955 -0.14806715 0.025649425
0000a0 50 99 1b be 82 09 cb 3c 66 bf 24 3d 30 d1 02 bb
       -0.15195203 0.024784807 0.040221594 -0.0019961111
0000b0 e4 f5 e0 3b 28 28 54 3d 2b 20 8f bb 52 d2 bf bc
       0.00686525 0.05179611 -0.0043678484 -0.023415718
0000c0 4d 55 51 bc 97 43 35 3c b0 e4 12 3b 81 bd 32 3c
       -0.012776685 0.011063478 0.002241414 0.010909439
0000d0 35 17 76 bd 69 9f 54 3c 66 65 16 bd 02 93 c2 3c
       -0.060080726 0.0129774595 -0.036717795 0.02375174
0000e0 26 c8 88 3d c8 82 16 3d ee 01 ae 3c ca 4b 85 be
       0.066788 0.036745816 0.021241155 -0.26034385
0000f0 f8 5b 13 3d 77 c9 02 bf d6 00 9b bd 75 54 d1 bc
       0.03597638 -0.5108866 -0.07568519 -0.025552968
000100 61 5d ee 3c 35 9a 33 3d 8d c2 7f 3d b2 0e ba 3c
       0.02909726 0.043848235 0.062441397 0.022712085
000110 77 27 f0 bd 70 0f 77 3d e1 f5 18 be ac f0 94 3d
       -0.11726277 0.060317457 -0.14937545 0.07272467
000120 17 8e 13 bd 10 04 d0 bd 4d 15 dc 3c e6 84 d6 3c
       -0.03602418 -0.10157025 0.026865626 0.026186418
000130 49 ac 17 3c d8 db bd 3d 15 8e ce 3b cf b8 96 3c
       0.009257385 0.092704475 0.0063035586 0.01839867
000140 f3 f5 6d 3d fc 00 3a bc 10 5a 05 bc 95 9b 97 3b
       0.058095884 -0.011352774 -0.008139148 0.004626701
000150 2f 65 5d 3d 0e c8 22 be 5c 42 25 be b5 da 0d 3d
       0.054051574 -0.15896627 -0.16138595 0.034632403
000160 e0 35 a3 3b 59 b2 20 3d 66 5a dd 3c a4 e3 85 be
       0.0049807876 0.039232586 0.027020644 -0.2615024
000170 21 98 18 bc ed e4 01 bf 1c 6f 1e bb e8 6f b8 3c
       -0.009313614 -0.5073994 -0.0024175113 0.022514299
000180 47 16 9e 3b 11 46 11 3b f5 43 70 be 4a a2 07 bc
       0.004824433 0.0022167007 -0.23463424 -0.008278439
000190 6b 05 c4 bd 5f 02 18 3d 40 2c 2f be 20 6e 5e be
       -0.09571346 0.037111636 -0.17106724 -0.21721697
0001a0 12 0c 84 3c 50 89 3b 3b 0f 3d bd 3d c2 ab 88 3c
       0.016119037 0.002861578 0.09240162 0.016683463
0001b0 37 82 90 be 53 b6 c0 3c fa 8d 63 3d a1 04 84 bc
       -0.28224346 0.023524439 0.05555532 -0.016115488
0001c0 5d 56 4f bc 34 70 48 3d 3e 8e ba bd 2d 1b 81 be
       -0.012654868 0.04893513 -0.09109162 -0.25216046
0001d0 21 80 f6 3b 1f d9 bc bd 70 ea 03 3d 8e dc 3c 3d
       0.0075225984 -0.092211 0.032206 0.046108775
0001e0 1d 86 07 3c 3f 06 23 bc 96 72 81 be a2 2e 2b 3d
       0.008271721 -0.00995022 -0.25282735 0.04179252
0001f0 5a 87 11 3d 2e 81 3b 3d 3b 17 87 3c ce 0a cb bd
       0.035529472 0.045777492 0.01649057 -0.0991417
000200 e0 a4 02 be c0 1b fb 3b 06 e1 ef 3d 3f 69 c4 3d
       -0.12758207 0.00766322 0.11712842 0.095903866
000210 05 0f 09 3e 3b 52 00 3d 54 fc 8a be 71 3f 4f be
       0.13384636 0.03132842 -0.27145636 -0.20239045
000220 fa 8e f9 bc b6 2f 66 be 42 7a dd bd e2 c5 fe 3c
       -0.030463684 -0.22479138 -0.108143345 0.031100217
000230 cd 8c d7 bd 4d 97 a1 3d d7 10 a1 3b bf 41 4e bc
       -0.105249025 0.078901865 0.0049153375 -0.012588917
000240 30 48 b9 bd ae 37 32 3d fe b7 ef bc 45 8b ae bd
       -0.09046972 0.04351013 -0.029262539 -0.08522657
000250 6a 7c 4a 3d 0f b0 9a be 83 e7 80 be 4e 89 de 3c
       0.049435057 -0.30212447 -0.2517663 0.027165081
000260 94 20 89 3d 85 ec 13 3a 4c 3b 83 be bb 3e 39 3d
       0.06695667 0.0005642849 -0.25631177 0.04522584
000270 73 e5 8b bd af c8 a0 3d 07 4b db 3d 1d 2c 45 be
       -0.06830873 0.07850777 0.1070767 -0.19255109
000280 24 fa 99 bc 50 f2 c9 3d bf 23 5a be ae 96 bd bd
       -0.018796034 0.098606706 -0.21302699 -0.092572555
000290 27 be f6 3d d0 ba 1b 3d 9b f4 8e bd 1a ef 40 be
       0.120479874 0.038019955 -0.069802485 -0.1884121
0002a0 81 f8 ea 3c 7a d8 6e 3d f4 48 02 be b1 70 28 3d
       0.028682949 0.058311917 -0.12723142 0.041123096
0002b0 2f ae 95 be cb 51 6a 3b 8b a1 e7 3d 2f 39 87 bc
       -0.29234454 0.0035754319 0.11310109 -0.01650676
0002c0 f8 e3 d5 bd 30 3e 82 be 39 51 10 be 46 ff ab 3d
       -0.10443872 -0.2543807 -0.14093484 0.08398299
0002d0 52 d5 39 3d 99 ed 3a bd 88 45 03 3c c1 24 8d be
       0.045369454 -0.045636747 0.008012183 -0.27567104
0002e0 d0 2d 41 3d 2b fe 90 3b 5a dc 49 be ff 4e b6 3c
       0.04716283 0.0044248304 -0.19712964 0.022254465
0002f0 a7 3e fa bd 70 14 45 3d 7b 8d 08 3c 01 31 70 be
       -0.12218981 0.048115194 0.008334513 -0.23456194
000300 74 4d a5 3b 1d e3 4a bd a7 5f b7 bd 63 09 21 3d
       0.0050446335 -0.049533 -0.08953791 0.039315592
000310 d4 b1 4c 3c 3c 01 64 3a e2 59 5a bd 2b 35 0e be
       0.012493569 0.00086976937 -0.053308375 -0.1388747
000320 54 57 12 3d f1 b0 07 bd 24 50 0d 3e 25 e3 37 3d
       0.035727814 -0.03312773 0.13800102 0.044894356
000330 f8 bc d0 bd f6 40 49 bd b9 ce 04 be 63 34 99 3d
       -0.10192293 -0.049134217 -0.12969483 0.07480695
000340 6b 36 84 ba 8b 40 3c be 95 c0 24 be 66 58 c7 3d
       -0.0010087019 -0.18383996 -0.16089089 0.097336575
000350 6d 1e dc ba 30 76 8b bb b3 cd 47 3d 7a b3 c3 be
       -0.0016793736 -0.0042560324 0.048780154 -0.38222867
000360 26 24 c9 3c d1 74 c6 bc c4 6c 26 be 5a 1e 0b 3d
       0.02455337 -0.024225624 -0.16252428 0.033964492
000370 5e 99 8c 3b 5a 79 84 3d dc e2 0a bd 41 28 a2 be
       0.0042907437 0.064684585 -0.033907756 -0.31671336
000380 1c ad 41 3d b1 71 fa be 32 48 a1 bc de 6f cc be
       0.04728423 -0.48914865 -0.019687746 -0.39929098
000390 a0 25 7d 3b ce ca e2 3c 70 54 13 be f2 f5 8e 3c
       0.0038627163 0.027684595 -0.14387679 0.01745126
0003a0 d8 84 43 3a b0 e3 f9 3c c4 67 41 3d 3d 78 99 bc
       0.0007458455 0.030504078 0.0472181 -0.018734092
0003b0 f6 bb e7 bc b8 65 2d 3d ed 24 6f be 3d 1b 2c bd
       -0.028287869 0.042333335 -0.2335393 -0.042018164
0003c0 23 f3 2f 3d b7 f3 8e bd e9 f1 f7 3c ca 4d 5a 3d
       0.042956483 -0.06980079 0.030266719 0.05329684
0003d0 0e 46 86 bd 5a 73 b9 3b ae 4b 50 bd e6 7a a4 bb
       -0.065563306 0.005659503 -0.050853424 -0.0050195334
0003e0 0d 8a ba 3c 28 24 67 bd 34 b6 c1 bd ba f9 26 bd
       0.022770906 -0.056430966 -0.094585806 -0.0407655
0003f0 4a 93 1b 3c 9f 4b 60 3d c4 4a 88 3b 16 a2 be bd
       0.009495566 0.054759618 0.0041593034 -0.09308259

model.4.bias f4 [16]
000000 25 a7 08 b7 ce ec 56 b8 ab 00 b4 b7 81 04 a0 b7
       -8.145148e-06 -5.1242117e-05 -2.1457983e-05 -1.9075584e-05
000010 7c 7d d9 36 8b 0f 73 b7 94 f5 2c 37 83 02 c0 b7
       6.4817123e-06 -1.4487548e-05 1.0309177e-05 -2.2889353e-05
000020 26 fe 7d b7 94 50 68 36 e9 8f a5 b7 c5 e4 17 37
       -1.5139149e-05 3.4617597e-06 -1.9736546e-05 9.053566e-06
000030 0c 47 33 b7 70 9c 87 37 c4 fd ee b6 87 cc e7 36
       -1.0685773e-05 1.6166101e-05 -7.122495e-06 6.9081466e-06

model.5.weight f4 [16]
000000 3b b7 9e 3f 21 e8 9f 3f a4 1f 9d 3f f2 05 a1 3f
       1.2399668 1.2492715 1.2275281 1.2579939
000010 11 64 a2 3f 80 5d a9 3f 9e 03 b2 3f a2 b6 a3 3f
       1.2686788 1.3231659 1.3907354 1.279011
000020 9b ac a8 3f 75 fa a0 3f e9 46 ab 3f a0 0b ae 3f
       1.3177675 1.2576433 1.3381015 1.3597298
000030 fb 31 9d 3f fe d0 a0 3f ea c3 a9 3f b7 73 9d 3f
       1.2280878 1.2563779 1.3262913 1.2300938

model.5.bias f4 [16]
000000 a3 f4 18 3f ba 7a f4 3e 1c 1d ed 3e 6c 6e 10 3f
       0.59748286 0.47749883 0.4631127 0.5641849
000010 9a 9f 27 3f a8 83 04 3f 39 f6 2b 3f cc 79 23 3f
       0.6547791 0.5176339 0.6717258 0.6385772
000020 60 ee 1b 3f 92 7b 1d 3f 9a a6 21 3f 7c 1f 1b 3f
       0.60910606 0.6151668 0.6314484 0.60594916
000030 8e 8c 1b 3f 67 48 06 3f c7 15 0c 3f bd 9d e9 3e
       0.60761344 0.5245423 0.5472073 0.45628157

model.5.running_mean f4 [16]
000000 cd f5 58 be ae fe b0 be b6 18 93 be 23 11 8e be
       -0.21187516 -0.34569305 -0.2872979 -0.2774745
000010 6c cb 6d be 10 af cc be 73 75 93 be f3 c6 96 be
       -0.2322213 -0.39977312 -0.28800544 -0.2944866
000020 aa f0 b0 be b1 5c 4e be aa 03 9d be 19 3d c1 be
       -0.34558612 -0.20152546 -0.30666858 -0.37741926
000030 da e2 73 be 22 3e b5 be 1b 7b cd be 21 49 9e be
       -0.23817006 -0.35398966 -0.40132985 -0.30915168

model.5.running_var f4 [16]
000000 d3 4a 1e 3f ed 98 0e 3f 6c d3 0c 3f 2b 5a d8 3e
       0.6183292 0.55702096 0.55010104 0.42256293
000010 4c 9f 43 3f 30 eb 3c 3f de 79 e8 3e 97 7e b5 3e
       0.7641494 0.7379637 0.45405477 0.35448143
000020 4b 35 f8 3e ef 52 b8 3e 1a 33 2f 3f 82 7f 27 3f
       0.4847816 0.36000773 0.6843735 0.65428936
000030 b7 b5 ca 3e 43 ed 40 3f e2 78 f3 3e 14 db d2 3e
       0.39591762 0.7536203 0.47553164 0.41182768

model.8.weight f4 [1, 16]
000000 fc f9 16 3f 67 3e 02 3f ee 3a 01 3f 52 5a 17 3f
       0.58975196 0.5087647 0.50480545 0.5912219
000010 62 a5 03 3f 88 70 0b 3f cc 20 f8 3e 52 02 f5 3e
       0.5142423 0.54468584 0.48462522 0.47853333
000020 48 8c 04 3f c6 ce f1 3e 28 3c 02 3f 99 7f fd 3e
       0.5177655 0.47228068 0.5087304 0.49511412
000030 3d 19 f4 3e 7e 34 01 3f 82 30 07 3f 8c 05 f4 3e
       0.47675505 0.5047072 0.5280839 0.47660482
