neuralnet/Hyperparameter sweeps/HP sweep round 4/bike_volume_model_net_2layers_lr_0.00002000_batch_96_feat_0.pth (torch, 21622 bytes, 13 tensors)

model.0.weight f4 [32, 89]
0.047889512 -0.004904056 0.14921704 0.03883227 -0.034978185 0.05478948 -0.012781599 -0.06273659
-0.013856344 0.08342109 -0.009433816 0.052100502 0.150646 -0.024930576 0.055028867 -0.019624712
0.019313302 -0.04965916 0.027575323 0.018004555 -0.08926195 0.057357103 -0.02274006 -0.103460744
0.037679043 0.017000759 0.024702208 -0.017715594 -0.02677916 -0.060756307 -0.028355397 0.037353467
0.021117289 0.019961739 -0.018744357 -0.014721671 0.09790738 0.023149258 0.015368028 0.037333954
0.0038842189 -0.008976999 -0.051315643 -0.030290889 0.024453845 -0.0007484859 0.13932253 0.09938905
-0.083607405 -0.010653375 0.09089809 -0.034433667 0.05051129 0.051839095 0.025593517 -0.026690217
-0.10486315 -0.09318873 0.038729127 -0.1143907 0.024971161 -0.0055776425 -0.014226489 0.016643714
0.028011763 -0.044612177 0.049500294 -0.050099988 0.13447438 0.011163759 0.014762541 0.13968971
0.047317374 -0.009194225 -0.016662942 0.031175463 0.10148047 -0.042364523 -0.05983176 -0.13173312
-0.066090696 -0.006566232 -0.01969049 -0.006235369 -0.027576165 0.030260963 0.105695575 -0.026744634
-0.06917594 -0.043716714 -0.00768621 0.040945575 -0.064178176 0.01833005 -0.06934502 0.0073118056
-0.112319015 0.07988573 0.0734245 0.08455132 0.067506015 0.07985195 0.017591212 -0.092664555
0.10224489 -0.0044216285 0.028155249 0.0447388 -0.03600352 0.01790805 0.08897744 0.1086511
-0.09385962 -0.022475705 -0.049936883 0.0647712 -0.047651645 -0.044523325 -0.09904363 -0.019483091
-0.0045963717 0.01261276 0.009353999 -0.10905839 -0.029747982 -0.015736708 -0.050385486 0.046011608
-0.05055527 0.024198908 0.019821333 -0.07014153 0.073754065 0.07666107 -0.030414443 0.07944258
-0.013300422 -0.042563546 -0.11620152 0.03595035 -0.06819482 -0.06496972 -0.03629538 0.009307189
-0.033363372 0.02755267 -0.038679797 0.022708742 0.026019339 0.0033882644 -0.055751048 0.035851322
0.084698625 -0.117887445 0.02351801 -0.074028626 0.019600311 -0.027563892 -0.014397688 -0.05685007
-0.05183717 0.10833236 0.009153221 -0.02587992 0.04085157 0.049828902 -0.066759266 -0.03806076
-0.036103807 -0.0012741382 -0.048905592 -0.05777467 0.08567172 0.05525893 0.09720567 0.11003491
0.04521331 -0.12345531 0.012954566 0.046336677 -0.11165578 -0.04947909 -0.02022361 0.098772034
-0.012854794 0.058586136 -0.012873195 -0.1491102 0.0202987 0.084225535 0.09354432 0.03174182
0.0654768 -0.047863483 0.07106584 -0.04987521 -0.04855679 -0.042804714 -0.07163764 -0.07006096
0.12074579 -0.07601777 0.09753249 -0.04878653 0.018884944 -0.03941174 0.07555842 -0.090353206
-0.03028564 0.05317376 0.028323023 -0.028436704 -0.025205052 -0.09870614 -0.06156774 -0.1317278
0.037848897 -0.030969422 -0.015613211 -0.06906657 -0.015971515 0.014622492 0.01742687 -0.07070142
0.021621726 0.060347363 -0.010732538 0.12139846 -0.009496267 0.08551066 0.08069656 0.0142007815
-0.08193161 0.02327462 -0.07349506 -0.057226956 -0.061781183 0.01811428 0.06975659 -0.02600057
0.06504295 -0.057543103 0.05861549 0.054443944 -0.0053163795 0.09221881 0.069005586 0.035967264
-0.09244507 -0.032522127 0.04551891 0.065978006 0.12023903 -0.05023385 -0.1569224 0.03713996
00000000: cb27 443d 34b2 a0bb 5acc 183e 960e 1f3d
00000010: 4945 0fbd ef6a 603d e969 51bc 0b7c 80bd
00000020: b805 63bc add8 aa3d 4b90 1abc 5667 553d
00000030: f242 1a3e 353b ccbc f365 613d 01c4 a0bc
00000040: ee36 9e3c 6767 4bbd a5e5 e13c 4a7e 933c
00000050: f8ce b6bd 48ef 6a3d 5d49 babc 3ae3 d3bd
00000060: 5755 1a3d 2d45 8b3c 495c ca3c 4b20 91bc
00000070: f85f dbbc 9bdb 78bd 9449 e8bc f3ff 183d
00000080: 2afe ac3c cd86 a33c c48d 99bc 2a33 71bc
00000090: aa83 c83d 83a3 bd3c 2eca 7b3c 7deb 183d
000000a0: 618e 7e3b 4314 13bc 5a30 52bd 9924 f8bc
000000b0: 6e53 c83c 0a36 44ba 91aa 0e3e 7c8c cb3d
000000c0: 5c3a abbd 7e8b 2ebc c728 ba3d 510a 0dbd
000000d0: ede4 4e3d 3b55 543d 7fa9 d13c 71a5 dabc
000000e0: 7ec2 d6bd bcd9 bebd 6fa2 1e3d ac45 eabd
000000f0: 5290 cc3c a8c4 b6bb 3816 69bc 6658 883c
00000100: ed78 e53c 42bb 36bd d2c0 4a3d a535 4dbd
00000110: a7b3 093e 33e8 363c 96de 713c d20a 0f3e
00000120: ddcf 413d 60a3 16bc b980 88bc af63 ff3c
00000130: fed4 cf3d 6c86 2dbd 2612 75bd 0ce5 06be
00000140: 8f5a 87bd 8c29 d7bb f34d a1bc 1152 ccbb
00000150: 69e7 e1bc d7e5 f73c ec76 d83d 9017 dbbc
00000160: 1dac 8dbd 4c10 33bd 9adc fbbb 8cb6 273d
00000170: d96f 83bd e728 963c c304 8ebd df97 ef3b
00000180: 8307 e6bd 219b a33d 965f 963d 3e29 ad3d
00000190: 9840 8a3d 6b89 a33d 721b 903c eac6 bdbd
000001a0: c565 d13d 4fe3 90bb d6a5 e63c 0840 373d
000001b0: 6d78 13bd e7b3 923c ce39 b63d 7884 de3d
000001c0: 7939 c0bd f81e b8bc 9e8a 4cbd c3a6 843d
000001d0: 5f2e 43bd 175e 36bd 63d7 cabd 019b 9fbc
000001e0: 299d 96bb c0a5 4e3c 8441 193c 015a dfbd
000001f0: 0ab2 f3bc 45ea 80bc 0361 4ebd ab76 3c3d
00000200: 0b13 4fbd ca3c c63c 5960 a23c 5da6 8fbd
00000210: 5f0c 973d 7b00 9d3d b627 f9bc cbb2 a23d
00000220: 03ea 59bc 1d57 2ebd 10fb edbd ad40 133d
00000230: baa9 8bbd d80e 85bd 77aa 14bd 2e7d 183c
00000240: 08a8 08bd 23b6 e13c b56e 1ebd af07 ba3c
00000250: 8226 d53c a50d 5e3b 365b 64bd d6d8 123d
00000260: 7976 ad3d f96e f1bd d7a8 c03c 529c 97bd
00000270: d590 a03c accd e1bc 48e4 6bbc 9edb 68bd
00000280: 3653 54bd 5bdd dd3d 64f7 153c 2002 d4bc
00000290: fa53 273d 6419 4c3d 15b9 88bd 99e5 1bbd
000002a0: 96e1 13bd fc00 a7ba 3b51 48bd 22a5 6cbd
000002b0: a874 af3d 3057 623d c413 c73d fc59 e13d
000002c0: 9731 393d 23d6 fcbd 633f 543c 87cb 3d3d
000002d0: c9ab e4bd 96aa 4abd fcab a5bc fe48 ca3d
000002e0: ea9c 52bc 04f8 6f3d 18ea 52bc 58b0 18be
000002f0: 7649 a63c 707e ac3d 2a94 bf3d b603 023d
00000300: b318 863d 800c 44bd f88a 913d f349 4cbd
00000310: 7ce3 46bd ff53 2fbd c1b6 92bd 1f7c 8fbd
00000320: 9249 f73d 34af 9bbd 1dbf c73d 62d4 47bd
00000330: 99b4 9a3c 346e 21bd 5fbe 9a3d 1a0b b9bd
00000340: 9719 f8bc bbcc 593d af05 e83c 17f4 e8bc
00000350: d37a cebc 7226 cabd 742e 7cbd a7e3 06be
00000360: 7207 1b3d 96b3 fdbc 8ece 7fbc c672 8dbd
00000370: b2d6 82bc 2d93 6f3c ccc2 8e3c e8cb 90bd
00000380: 0c20 b13c cc2e 773d 87d7 2fbc c19f f83d
00000390: 3b96 1bbc 3720 af3d 3d44 a53d 65aa 683c
000003a0: c3cb a7bd 6aaa be3c 9484 96bd d066 6abd
000003b0: 440e 7dbd 6664 943c 8bdc 8e3d 26ff d4bc
000003c0: 3d35 853d 51b2 6bbd cc16 703d 9d00 5f3d
000003d0: 0635 aebb 37dd bc3d cd52 8d3d 6952 133d
000003e0: d753 bdbd ec35 05bd 0972 3a3d 7a1f 873d
000003f0: e13f f63d 02c2 4dbd 44b0 20be 1220 183d

model.0.bias f4 [32]
2.1045289e-05 -5.621456e-06 -1.2169864e-05 9.557056e-06 -2.6824793e-05 -6.917996e-06 -1.0824648e-05 -1.4438854e-05
1.3028309e-06 -7.367564e-06 1.7953991e-07 3.423052e-05 9.464134e-08 1.1467254e-05 4.156848e-06 -6.88515e-06
-2.6654952e-05 -1.4403917e-05 -3.5812604e-06 5.8164824e-07 -3.3949154e-06 1.6570048e-05 7.745036e-06 7.3339797e-06
7.77573e-06 9.097384e-06 -1.6403319e-05 1.0149358e-05 -1.2022974e-05 9.678181e-06 -2.1866821e-05 1.4390625e-05
00000000: 6a8a b037 f09f bcb6 2b2d 4cb7 3e57 2037
00000010: ce05 e1b7 2221 e8b6 829b 35b7 683e 72b7
00000020: eedc ae35 e536 f7b6 8ec7 4034 be92 0f38
00000030: a03d cb33 7b63 4037 0d7b 8b36 fd06 e7b6
00000040: 1399 dfb7 5aa8 71b7 9655 70b6 9022 1c35
00000050: 34d4 63b6 e8ff 8a37 adf0 0137 6816 f636
00000060: 8274 0237 f7a0 1837 dc99 89b7 2947 2a37
00000070: 48b6 49b7 795f 2237 a46e b7b7 446f 7137

model.1.weight f4 [32]
0.9746717 0.998675 1.0243435 0.96419096 1.1229118 1.0952797 1.1189915 0.9455122
0.87204486 0.96328413 0.8505038 0.9833279 1.0102075 0.88386786 0.9530833 0.93419427
1.0097483 1.0495709 0.9413136 0.9859634 0.914594 0.901713 0.94523275 0.92557347
0.9128083 0.9682542 0.94461143 0.9604733 0.93890566 1.0797384 1.0344003 0.90057003
00000000: 1684 793f 2aa9 7f3f b01d 833f 38d5 763f
00000010: 93bb 8f3f 2032 8c3f 1d3b 8f3f 160d 723f
00000020: 553e 5f3f ca99 763f 9eba 593f 61bb 7b3f
00000030: 7b4e 813f 2a45 623f 44fd 733f 5b27 6f3f
00000040: 6f3f 813f 5758 863f eef9 703f 1968 7c3f
00000050: d522 6a3f aad6 663f c6fa 713f 62f2 6c3f
00000060: cead 693f 82df 773f 0ed2 713f 94e1 753f
00000070: 1f5c 703f de34 8a3f 3b67 843f c28b 663f

model.1.bias f4 [32]
-0.2643906 -0.15908638 -0.097801596 -0.33607444 -0.11038784 -0.18443908 -0.012799278 -0.34664232
-0.09197872 0.00972778 -0.13098805 -0.36780575 -0.2024822 -0.090817034 -0.10239935 -0.09503421
-0.25553608 -0.22582616 -0.14255956 -0.1710751 -0.055410646 -0.061158877 -0.094662726 -0.1099362
-0.050496455 -0.006722882 -0.07662058 -0.039753202 -0.22667462 -0.0018368707 -0.07217312 -0.06121782
00000000: 345e 87be 8ae7 22be 344c c8bd f311 acbe
00000010: 0513 e2bd 99dd 3cbe 10b4 51bc 1a7b b1be
00000020: 575f bcbd 4461 1f3c bb21 06be 0951 bcbe
00000030: 7e57 4fbe 48fe b9bd c0b6 d1bd 4ca1 c2bd
00000040: a0d5 82be f93e 67be 22fb 11be 502e 2fbe
00000050: 46f6 62bd bb81 7abd 88de c1bd 3b26 e1bd
00000060: 5fd5 4ebd 9f4b dcbb 40eb 9cbd 41d4 22bd
00000070: 641d 68be 27c3 f0ba 80cf 93bd 89bf 7abd

model.1.running_mean f4 [32]
-0.74720186 -0.7246541 -0.47943825 -0.3914189 -1.056767 -0.71683097 -0.29477826 -0.7132721
0.37227353 -0.33624482 -0.09295599 -0.45053834 -0.999797 0.11990057 -0.6390622 -0.29891068
-0.23252223 -0.482563 -0.24834439 -0.329837 -0.2393763 0.1262584 -0.061920214 -0.31646353
0.94421595 -0.32379177 -0.4266075 0.18651755 -1.2314048 -0.11261154 -0.49900007 0.10844146
00000000: 9f48 3fbf ee82 39bf ee78 f5be 0f68 c8be
00000010: 2444 87bf 3c82 37bf 2ded 96be 0099 36bf
00000020: a39a be3e 4828 acbe b65f bebd f6ac e6be
00000030: b2f2 7fbf 6e8e f53d 9599 23bf d20a 99be
00000040: 4f1a 6ebe 7f12 f7be fe4d 7ebe 65e0 a8be
00000050: 101f 75be e249 013e 0da0 7dbd 8207 a2be
00000060: 23b8 713f 09c8 a5be 4c6c dabe 75fe 3e3e
00000070: ac9e 9dbf e1a0 e6bd f07c ffbe 8e16 de3d

model.1.running_var f4 [32]
0.23302527 0.40598732 0.8553138 0.17216222 0.54978025 0.22436331 0.16190672 0.31113744
0.2006759 0.11390072 0.07039664 0.15990755 0.79832846 0.16257857 0.24069792 0.3130074
0.23960565 0.2852301 0.15879464 0.31419897 0.6087339 0.084420696 0.16786225 0.1997765
1.0605696 0.60394853 0.281039 0.44342425 0.43984157 0.11255843 0.5489053 0.109101065
00000000: 2d9e 6e3e 92dd cf3e d8f5 5a3f 4b4b 303e
00000010: 66be 0c3f 7fbf 653e e0ca 253e 684d 9f3e
00000020: fc7d 4d3e c844 e93d 1d2c 903d cebe 233e
00000030: 415f 4c3f ff7a 263e 8479 763e 8242 a03e
00000040: 2f5b 753e ae09 923e 109b 223e b0de a03e
00000050: fcd5 1b3f c2e4 ac3d 15e4 2b3e 3692 4c3e
00000060: bfc0 873f 5f9c 1a3f 58e4 8f3e 8108 e33e
00000070: ea32 e13e 0985 e63d 0f85 0c3f 6170 df3d

model.4.weight f4 [16, 32]
0.00079528766 -0.0062663346 -0.13029498 -0.01427668 0.0565896 -0.035898603 0.104040116 -0.06973867
-0.00088892225 0.09064445 -0.0499682 0.009769616 0.0058020093 0.07860568 0.06666444 0.09121649
0.06499863 0.04503686 -0.22041965 -0.08938671 -0.05169433 0.004526295 -0.0026155352 0.017449383
-0.40765378 -0.2426646 -0.12412078 0.13244765 -0.13173802 0.029790388 -0.017062029 -0.016017834
-0.058637597 0.025052875 -0.041901246 -0.015956597 -0.2595483 -0.12021439 -0.32437304 -0.14451203
0.030412046 0.037807908 0.059593152 -0.07596705 -0.0008374355 0.06251203 0.054682534 -0.10130175
-0.11172545 0.06547413 -0.0018227362 0.045460075 0.012409484 -0.0055195647 -0.011826009 0.013406008
0.048021592 0.022959718 0.003887842 -0.014030146 0.063050345 0.0871344 0.0378493 -0.010502003
0.089545466 0.086091295 -0.32751644 -0.119078726 0.08153643 0.023217533 -0.08505751 0.118489884
0.048128773 0.10055986 -0.20555755 0.04462763 -0.15026502 0.09998062 0.11503168 0.059094448
0.06772357 0.04429972 -0.02103013 -0.056073364 0.12294266 0.1251793 0.13180883 -0.26778165
0.12895404 0.010025461 -0.07805933 0.14013885 0.025201831 0.04861625 -0.070929274 0.020353898
-0.112419866 -0.08760116 0.05211345 -0.17157824 0.04636857 0.0023453839 0.074546315 -0.06429324
-0.09549737 0.11723372 0.047439124 -0.050127096 0.0019801802 -0.07523297 -0.18046492 -0.028315915
-0.19276704 -0.15683238 -0.05230678 -0.022665704 0.00495774 -0.1648477 -0.028580237 -0.094368264
-0.014375761 -0.065144494 -0.1498753 -0.12916525 -0.1964525 0.16805357 -0.19858132 -0.042160105
-0.17662688 -0.04449305 0.04800629 -0.115772076 0.05612937 -0.21866848 -0.04146126 -0.17694317
-0.11508075 -0.03193478 -0.1274697 -0.14513463 0.0041750637 0.048767988 -0.13696231 -0.17902844
-0.0005122676 -0.053380173 -0.022090754 0.03868798 0.09472338 -0.01252644 -0.14841732 0.04711111
-0.0065390784 -0.086662725 0.087033674 0.030779628 -0.1757885 -0.26951113 0.14456978 -0.10977309
-0.14220175 0.12967944 -0.090771765 -0.002919109 -0.23315297 -0.15430073 0.027720174 -0.15194544
-0.011036374 -0.015695702 0.07058308 -0.14481473 -0.32343563 0.0048130117 -0.044211283 -0.023486279
-0.15925828 -0.049855646 0.05867946 0.025571141 -0.005909583 0.042445622 0.09438421 0.08044378
0.08121675 0.051925033 0.023507016 -0.035580423 0.08452982 0.11878739 0.112051055 0.09124706
-0.04456718 -0.0063256267 0.0679077 -0.110066585 0.014568406 0.11045618 0.08810756 0.07249436
-0.15386544 -0.1866748 0.03720805 -0.09733638 -0.048122346 0.07163195 -0.17232136 0.025966775
0.019500839 -0.17999437 -0.24653262 -0.177062 0.06793127 0.09682333 0.046388693 0.025115345
-0.03886216 -0.11006122 0.050772853 -0.29670435 -0.10462874 0.11059533 -0.09713401 0.06540815
0.069546245 -0.070431605 0.06688225 -0.10517608 -0.08894598 0.075192675 -0.19407915 0.040617365
0.0916631 -0.008032749 -0.06973634 0.051714614 -0.056538388 0.06442575 0.13259633 0.0027510144
-0.1208611 -0.058356207 -0.04260581 -0.16980511 -0.026039027 -0.074079685 0.13827834 -0.019243205
0.045493122 0.13243005 -0.16315971 0.0721019 0.042494006 -0.083629526 0.12841412 -0.0679476
00000000: da7a 503a d355 cdbb 0c6c 05be bce8 69bc
00000010: 7fca 673d 6a0a 13bd fc12 d53d 26d3 8ebd
00000020: 9006 69ba cca3 b93d 75ab 4cbd bd10 203c
00000030: c81e be3b 04fc a03d 5e87 883d b6cf ba3d
00000040: 001e 853d 9278 383d b0b5 61be 6110 b7bd
00000050: 6fbd 53bd 5051 943b 6669 2bbb 02f2 8e3c
00000060: ffb7 d0be 127d 78be 0933 febd 5ba0 073e
00000070: 55e6 06be f90a f43c abc5 8bbc d537 83bc
00000080: fa2d 70bd b03b cd3c a4a0 2bbd 69b7 82bc
00000090: 84e3 84be f632 f6bd 3914 a6be f6fa 13be
000000a0: af22 f93c 77dc 1a3d f317 743d 9d94 9bbd
000000b0: 5887 5bba 4f06 803d cbfa 5f3d 4b77 cfbd
000000c0: 50d0 e4bd 4d17 863d e1e8 eeba 5834 3a3d
000000d0: 2651 4b3c 77dd b4bb e0c1 41bc dfa4 5b3c
000000e0: 4ab2 443d 0516 bc3c 2acb 7e3b b3de 65bc
000000f0: 8a20 813d 8573 b23d de07 1b3d 9810 2cbc
00000100: 9d63 b73d a250 b03d 3cb0 a7be 8cdf f3bd
00000110: 92fc a63d b232 be3c a232 aebd d3aa f23d
00000120: ad22 453d 54f2 cd3d ae7d 52be 76cb 363d
00000130: 13df 19be a4c2 cc3d bb95 eb3d 050d 723d
00000140: a8b2 8a3d a073 353d 6147 acbc 2fad 65bd
00000150: 5cc9 fb3d 012f 003e e5f8 063e ad1a 89be
00000160: 870c 043e d541 243c 92dd 9fbd 8f80 0f3e
00000170: 1274 ce3c d521 473d 5e43 91bd 38bd a63c
00000180: 633c e6bd 3d68 b3bd ea74 553d 35b2 2fbe
00000190: f8ec 3d3d 03b5 193b bdab 983d 2dac 83bd
000001a0: 2094 c3bd 3c18 f03d 874f 423d 1252 4dbd
000001b0: e9c5 013b be13 9abd cccb 38be c7f6 e7bc
000001c0: b964 45be ab98 20be a23f 56bd 6dad b9bc
000001d0: 8a74 a23b d6cd 28be 1a21 eabc 2644 c1bd
000001e0: 5088 6bbc 7a6a 85bd e978 19be e543 04be
000001f0: d82a 49be 3c16 2c3e e758 4bbe 13b0 2cbd
00000200: addd 34be 583e 36bd 3ea2 443d e919 edbd
00000210: e9e7 653d a1ea 5fbe 48d3 29bd 9730 35be
00000220: 75af ebbd 0bce 02bd 6b87 02be 2c9e 14be
00000230: f9ce 883b f1c0 473d d93f 0cbe 3b53 37be
00000240: b249 06ba 2ba5 5abd abf7 b4bc 4a77 1e3d
00000250: 55fe c13d b33b 4dbc b6fa 17be 94f7 403d
00000260: c445 d6bb 3a7c b1bd b63e b23d 8f25 fc3c
00000270: e701 34be 5dfd 89be 1a0a 143e b7d0 e0bd
00000280: 569d 11be b0ca 043e 8ce6 b9bd 864e 3fbb
00000290: a7bf 6ebe 0301 1ebe 6b15 e33c 9697 1bbe
000002a0: e8d1 34bc 4694 80bc dd8d 903d 504a 14be
000002b0: 5b99 a5be 78b6 9d3b e416 35bd 4c66 c0bc
000002c0: 9a14 23be 6f35 4cbd e059 703d 927a d13c
000002d0: 2da5 c1bb 76db 2d3d 824c c13d b5bf a43d
000002e0: f854 a63d 58af 543d c991 c03c c7bc 11bd
000002f0: f81d ad3d ce46 f33d 067b e53d bddf ba3d
00000300: 138c 36bd 3447 cfbb 3113 8b3d 976a e1bd
00000310: 53b0 6e3c da36 e23d bd71 b43d ec77 943d
00000320: e78e 1dbe ae27 3fbe 7867 183d 4c58 c7bd
00000330: f01b 45bd c6b3 923d 0375 30be 46b8 d43c
00000340: 39c0 9f3c 7250 38be 0c73 7cbe be4f 35be
00000350: 8d1f 8b3d 4f4b c63d 1202 3e3d b2be cd3c
00000360: ee2d 1fbd c767 e1bd 32f7 4f3d a2e9 97be
00000370: 9847 d6bd ce7f e23d 32ee c6bd b5f4 853d
00000380: 436e 8e3d 723e 90bd 90f9 883d 8e66 d7bd
00000390: 4f29 b6bd 9efe 993d afbc 46be 655e 263d
000003a0: ddb9 bb3d cb9b 03bc edd1 8ebd b4d2 533d
000003b0: cc94 67bd a6f1 833d 55c7 073e 5d4a 343b
000003c0: 0686 f7bd eb06 6fbd 6e83 2ebd 64e1 2dbe
000003d0: cc4f d5bc 17b7 97bd d698 0d3e eda3 9dbc
000003e0: ff56 3a3d be9b 073e 5713 27be 29aa 933d
000003f0: 320e 2e3d f545 abbd fe7e 033e 1c28 8bbd

model.4.bias f4 [16]
-4.92249e-07 -5.638217e-06 2.954658e-06 6.905798e-07 1.4233212e-05 -1.1636981e-05 1.3730543e-05 -2.725665e-05
-8.703129e-06 -3.7274478e-06 -1.9619887e-05 2.1916818e-05 2.5030335e-05 2.7908252e-06 -1.2150224e-06 1.602817e-05
00000000: 1823 04b5 ea2f bdb6 a348 4636 4860 3935
00000010: 2ecb 6e37 743c 43b7 3c5c 6637 36a5 e4b7
00000020: a803 12b7 1125 7ab6 6395 a4b7 02da b737
00000030: 3cf8 d137 034a 3b36 da13 a3b5 3c74 8637

model.5.weight f4 [16]
1.2962986 1.3229922 1.2247847 1.3909143 1.3778958 1.2691863 1.4036638 1.2161673
1.284816 1.3010685 1.3253524 1.3528662 1.2508155 1.3515853 1.2872698 1.2504116
00000000: 1ded a53f cf57 a93f bfc5 9c3f 7b09 b23f
00000010: e45e b03f b274 a23f 41ab b33f 5fab 9b3f
00000020: da74 a43f 6a89 a63f 26a5 a93f b82a ad3f
00000030: b91a a03f bf00 ad3f 42c5 a43f 7d0d a03f

model.5.bias f4 [16]
0.55774546 0.5527141 0.5301843 0.652906 0.672951 0.6140402 0.71258515 0.59141356
0.5995601 0.60074115 0.6417715 0.6641926 0.6012206 0.62554336 0.5351218 0.5917258
00000000: 68c8 0e3f ac7e 0d3f 29ba 073f d924 273f
00000010: 8446 2c3f bd31 1d3f fb6b 363f e166 173f
00000020: c57c 193f 2cca 193f 234b 243f 8708 2a3f
00000030: 98e9 193f 9c23 203f befd 083f 587b 173f

model.5.running_mean f4 [16]
-0.33072844 -0.3388685 0.16872449 -0.62382096 -0.41230652 -0.12314792 -0.30932716 -0.07660118
-0.50051343 -0.37905565 -0.17066272 -0.4117918 -0.28098744 -0.40042335 -0.22232096 -0.38111383
00000000: 3d55 a9be 2c80 adbe 1dc6 2c3e bbb2 1fbf
00000010: d719 d3be fa34 fcbd 2160 9ebe 14e1 9cbd
00000020: a621 00bf 9513 c2be 35c2 2ebe 60d6 d2be
00000030: 96dd 8fbe 4a04 cdbe 1ba8 63be 5a21 c3be

model.5.running_var f4 [16]
0.39240098 0.7273487 0.4910006 1.0715213 0.4730816 0.27874896 0.09568172 0.5087322
1.1051067 0.286644 0.24277878 0.52955025 1.0946771 0.80937034 0.59227943 0.69012374
00000000: c8e8 c83e 8633 3a3f 6e64 fb3e 9c27 893f
00000010: c037 f23e 2fb8 8e3e c7f4 c33d 463c 023f
00000020: 2374 8d3f 01c3 923e 009b 783e 9b90 073f
00000030: 611e 8c3f e532 4f3f a09f 173f f3ab 303f

model.8.weight f4 [1, 16]
0.46230364 0.5763945 0.43997434 0.51053447 0.48733962 0.5665481 0.4783328 0.42234683
0.580823 0.564423 0.5102797 0.52734256 0.5535562 0.5503398 0.47167492 0.6161921
00000000: 10b3 ec3e 978e 133f 5144 e13e 63b2 023f
00000010: 9484 f93e 4c09 113f 09e8 f43e d83d d83e
00000020: d1b0 143f 077e 103f b1a1 023f ecff 063f
00000030: dcb5 0d3f 12e3 0c3f 607f f13e c4be 1d3f
