neuralnet/Hyperparameter sweeps/HP sweep round 4/bike_volume_model_net_3layers_lr_0.00002000_batch_96_feat_35.pth (torch, 30952 bytes, 19 tensors)

model.0.weight f4 [64, 35]
0	0x3db02568	0.08600885
1	0x3b8fb61e	0.0043857237
2	0xbde293e9	-0.11063368
3	0x3d69b7b3	0.057059955
4	0xbdc4da92	-0.096120015
5	0x3dd26106	0.10272412
6	0xbd335889	-0.043785606
7	0xbc50c55e	-0.0127423685
8	0x3cbd39a1	0.023098769
9	0xbd7ff9ea	-0.062494196
10	0xbd14e487	-0.036350753
11	0x3c0a99bf	0.0084595075
12	0xbd3822aa	-0.044954933
13	0xbdc5c921	-0.09657503
14	0x3de98e1a	0.11404057
15	0xbc266bb9	-0.010157519
16	0x3d0cc867	0.034370806
17	0xbe209c7e	-0.15684697
18	0xbd8fb39e	-0.07016681
19	0x3d624e8a	0.055250682
20	0x3d7667bf	0.060157534
21	0xbd870316	-0.065923855
22	0xbc064bac	-0.0081967525
23	0x3cd0b2b5	0.02547584
24	0x3e27e1ed	0.16394778
25	0xbcb6b93e	-0.022305127
26	0x3e4416b5	0.19149287
27	0xbe0e6bb6	-0.13908276
28	0xbd10d122	-0.035355695
29	0x3d6a43e3	0.057193648
30	0xbcae5c71	-0.021284314
31	0xbc3e433b	-0.011612709
32	0xbc19b499	-0.009381437
33	0x3df41063	0.11917188
34	0xbc1d74b5	-0.009610345
35	0xbd7c21f3	-0.061555814
36	0xbbde9d02	-0.006793619
37	0xbe43942a	-0.19099489
38	0x3c64f3fb	0.013974185
39	0x3c8d0aa7	0.017216993
40	0x3dac3b90	0.08409798
41	0xbe25dcfb	-0.16197579
42	0xbe1484ba	-0.14503756
43	0x3caa8391	0.020814689
44	0x3dd4b110	0.103853345
45	0xbb2c5f14	-0.0026301788
46	0x3e28afa5	0.16473253
47	0xbd9e3d0d	-0.07726488
48	0xbd086d9e	-0.033307664
49	0xbb2ad8b9	-0.0026069118
50	0xba878665	-0.0010339735
51	0xbe44c772	-0.19216707
52	0xbdf47873	-0.11937036
53	0x3aa87759	0.0012852951
54	0xbe2e3984	-0.17014128
55	0x3d95e5e6	0.0731924
56	0x3e057f94	0.13036948
57	0xbd029ceb	-0.03188793
58	0xbce71cf4	-0.028212048
59	0x3dfa1725	0.12211446
60	0x3dcce7be	0.10005139
61	0xbd9160e0	-0.070985556
62	0x3ddffb78	0.10936636
63	0x3e459d41	0.19298269
64	0xbd079f36	-0.03311082
65	0xbdf10aae	-0.11769615
66	0xbc7a01cc	-0.0152592175
67	0xbd8eba95	-0.069691814
68	0x3e009114	0.12555343
69	0x3ddfcbed	0.10927568
70	0xbc5f5374	-0.013630737
71	0x3c47e2fd	0.012200114
72	0x3d21b7fa	0.039482094
73	0x3d3a74fb	0.045521718
74	0x3e4fa5ad	0.20278044
75	0x3c47182e	0.012151761
76	0x3e153702	0.14571765
77	0x3d3bddb0	0.045865715
78	0xbcda3dfd	-0.026640886
79	0x3c5ef376	0.01360785
80	0x3d4806a8	0.048834473
81	0x3d446306	0.047946
82	0x3e375ba7	0.17906056
83	0xbd687c40	-0.05675912
84	0xbde623b0	-0.112372756
85	0x3e06e553	0.13173418
86	0xbcb8308d	-0.022484088
87	0xbd3eb660	-0.046560645
88	0xbc774382	-0.015091779
89	0x3dac7b77	0.084219866
90	0x3d87bbd6	0.06627624
91	0x3e0bac84	0.13640028
92	0x3d24bef3	0.040221166
93	0xbd4b91e1	-0.049699668
94	0x3e13700e	0.14398214
95	0xbd84a87f	-0.064774506
96	0x3b5ef292	0.0034019095
97	0x3dde7305	0.10861782
98	0x3dd02e19	0.101650424
99	0x3deb1efe	0.11480521
100	0x3d936915	0.07197777
101	0x3e13d3a6	0.14436206
102	0x3d52aa46	0.051431917
103	0x3dc85b70	0.09783065
104	0xbe0c0d84	-0.13677031
105	0xbe310898	-0.17288435
106	0xbc476e6c	-0.012172323
107	0x3d5a5255	0.053301174
108	0xbe66b87b	-0.22531311
109	0x3dbe9ee9	0.093076535
110	0xbc023348	-0.007946797
111	0xbd8a53ed	-0.06754289
112	0xbd9e71ae	-0.077365264
113	0x3d6c068e	0.05762344
114	0xbd22465a	-0.039617874
115	0xbd2646c4	-0.04059483
116	0xbe3bc38a	-0.18336311
117	0x3d8e1683	0.069378875
118	0xbd74976a	-0.059714712
119	0xbe14915f	-0.1450858
120	0xbdb96b18	-0.0905363
121	0x3df6984c	0.12040767
122	0xbad60fc5	-0.0016331604
123	0xbd85290c	-0.0650197
124	0xbd60f2fc	-0.054919228
125	0xbccecaca	-0.025243182
126	0xbdc9ce35	-0.09853784
127	0xbce0a7e7	-0.027423812
128	0xbd6ca348	-0.057772905
129	0xbdd24a96	-0.102681324
130	0xbde04b08	-0.10951811
131	0xbe287ccc	-0.16453856
132	0x3d974ce0	0.073877096
133	0xbdd8d8ea	-0.10588248
134	0xbe01433c	-0.12623304
135	0x3b807eb1	0.003921353
136	0xbd1d51ee	-0.038408212
137	0x3e51168d	0.20418759
138	0xbda1aa04	-0.07893756
139	0xbd73dd75	-0.05953737
140	0x3de80505	0.113290824
141	0x3e027ec4	0.1274367
142	0xbe4a1b97	-0.19737087
143	0xbe44d68e	-0.19222471
144	0x3e1913f6	0.1494902
145	0xbdcc11c6	-0.099643275
146	0xbd8495af	-0.064738624
147	0x3db7179b	0.08940049
148	0xbdc924a0	-0.09821439
149	0xbca4d376	-0.020120364
150	0xbdf8f229	-0.121555634
151	0x3db919fc	0.09038159
152	0xbe01aacb	-0.12662809
153	0x3e3f41fa	0.18677512
154	0x3d32a890	0.043617785
155	0xbc621b90	-0.013800517
156	0x3c5ef7f5	0.013608922
157	0xbdffe227	-0.12494307
158	0xbd4b109f	-0.049576398
159	0xbe22ddf8	-0.15904987
160	0xbe295e83	-0.1653996
161	0x3dec1716	0.11527841
162	0xbddee934	-0.10884324
163	0x3d6ba927	0.057534363
164	0x3d7d2cf7	0.06181046
165	0x3d58463e	0.052801363
166	0xbe0b40db	-0.13598959
167	0xbe080a6e	-0.13285229
168	0xbe0c05b9	-0.13674058
169	0x3dbe70e0	0.09298873
170	0xbd1cc1e5	-0.03827085
171	0xbca36ead	-0.019950235
172	0xbd834c0c	-0.06410989
173	0xbdf36519	-0.11884517
174	0x3d029c0e	0.031887107
175	0xbdfcb8db	-0.12339946
176	0xbe04c1bc	-0.12964529
177	0xbddedc59	-0.10881872
178	0x3cd273be	0.025689956
179	0x3daa7e5c	0.083248824
180	0x3dc1fd81	0.0947218
181	0x3d89e09d	0.06732295
182	0x3df534a6	0.119729325
183	0xbda87046	-0.082245395
184	0x3d84f961	0.06492878
185	0xbdc073bc	-0.093970746
186	0xbddff1e9	-0.109348126
187	0x3e51c07a	0.2048358
188	0x3d8bcf9b	0.06826707
189	0xbdce5486	-0.10074715
190	0x3e101859	0.14071788
191	0x3e13f038	0.14447105
192	0xbd7c593e	-0.061608545
193	0x3dd15d9f	0.10222935
194	0x3dfdbe1f	0.12389778
195	0xbd007405	-0.031360645
196	0xbd6e4615	-0.058172304
197	0x3cee23f2	0.029069874
198	0xbd371f05	-0.044707317
199	0x3e395b69	0.18101276
200	0xbd19b832	-0.037529178
201	0xbd3aead5	-0.04563411
202	0xbd5c368a	-0.05376295
203	0x3e151640	0.14559269
204	0x3c3266f5	0.010888805
205	0x3d78f708	0.060782462
206	0xbe0ad1cf	-0.13556598
207	0x3dac5196	0.08413999
208	0x3e347f9d	0.17626806
209	0x3e281ba8	0.164168
210	0xbe46c755	-0.19411977
211	0xbc631dd7	-0.013862095
212	0x3d279c4a	0.040920533
213	0x3da0a4d9	0.07843942
214	0x3e0c6e00	0.13713837
215	0x3db1f7c8	0.08689839
216	0xbe0697b8	-0.13143814
217	0xbe21652e	-0.15761253
218	0xbdcf161a	-0.101116374
219	0xbdeb7939	-0.11497731
220	0x3d1d22b2	0.038363166
221	0x3e0c1c88	0.13682759
222	0x3dc2c7d5	0.09510771
223	0xbdb40e76	-0.08791821
224	0x3dbad4b4	0.09122601
225	0xbd3412fc	-0.043963417
226	0x3da5a52c	0.08088145
227	0xbe4fd226	-0.20295009
228	0x3cb7f4bd	0.022455567
229	0x3dbdff4f	0.09277212
230	0x3dcef3c7	0.101050906
231	0xbdf3e82b	-0.11909517
232	0xbe1480a5	-0.14502199
233	0x3dfa227c	0.122136086
234	0xbe141a03	-0.14463048
235	0xbe18c028	-0.14917052
236	0x3dda3153	0.10653939
237	0xbe183033	-0.14862137
238	0x3e25dc83	0.161974
239	0x3de05249	0.10953195
240	0xbe0c1232	-0.13678816
241	0x39280c53	0.0001602632
242	0x3bdbc23b	0.0067065037
243	0x3d95c0c5	0.073121585
244	0x3e0f9499	0.1402153
245	0xbe05bdd1	-0.1306069
246	0x3e02733e	0.12739274
247	0xbcf13757	-0.029445333
248	0x3e1da6b1	0.15395619
249	0x3e11b26f	0.14228223
250	0x3d8122ca	0.063054636
251	0xbcbae0ac	-0.02281221
252	0xbe06f6b3	-0.13180046
253	0xbd834494	-0.064095646
254	0x3ddc7ec7	0.10766368
255	0x3db3ca08	0.08778769

model.0.bias f4 [64]
0	0x37527642	1.2544509e-05
1	0x3412d1a0	1.3673571e-07
2	0x37f4116d	2.9095181e-05
3	0x360605a1	1.9970832e-06
4	0x36bea671	5.6818176e-06
5	0xb6fcc013	-7.5325456e-06
6	0xb45c3230	-2.0507355e-07
7	0xb746da64	-1.1852568e-05
8	0xb70d8ee4	-8.437524e-06
9	0x35e0caf0	1.6748363e-06
10	0xb5b9ef58	-1.3853232e-06
11	0xb790abfc	-1.7246224e-05
12	0x376aa2f4	1.3985427e-05
13	0xb6872591	-4.027687e-06
14	0xb78312c4	-1.5625155e-05
15	0x36455e80	2.9410294e-06
16	0xb71870a4	-9.086132e-06
17	0x3722d75c	9.706095e-06
18	0x378bfe19	1.6688415e-05
19	0x36385d4c	2.7472443e-06
20	0x37915ab4	1.7327584e-05
21	0xb7f33780	-2.8993702e-05
22	0x369c6ebe	4.6620544e-06
23	0xb6b71386	-5.456098e-06
24	0x37ea1a70	2.7907285e-05
25	0xb77ec8b0	-1.5186306e-05
26	0x3793c36c	1.7614766e-05
27	0x374022e2	1.1452214e-05
28	0xb4bc4e08	-3.5074504e-07
29	0xb7eb8eb8	-2.8080642e-05
30	0x3692e8d7	4.378245e-06
31	0x37bc5b43	2.2453843e-05
32	0xb66fa7b8	-3.57114e-06
33	0x38225499	3.8702598e-05
34	0x3712476e	8.718909e-06
35	0xb55397f8	-7.882477e-07
36	0x35fdc91a	1.8908497e-06
37	0x378ac37c	1.6541911e-05
38	0xb5bc5d9a	-1.4034333e-06
39	0xb783b04b	-1.569851e-05
40	0x3825caeb	3.9528048e-05
41	0x382d40d8	4.1306805e-05
42	0x34e33ed8	4.232777e-07
43	0xb6aa1c0d	-5.0696603e-06
44	0xb6c6d3a6	-5.925499e-06
45	0x3704f907	7.925794e-06
46	0xb563fc85	-8.4931554e-07
47	0xb6aaa080	-5.0850795e-06
48	0xb6e62b25	-6.859557e-06
49	0x36d4cb23	6.3417406e-06
50	0x36de9083	6.632939e-06
51	0x36c1c4cf	5.7747598e-06
52	0x37fed382	3.037765e-05
53	0x36455c08	2.9408857e-06
54	0x35982f5e	1.1338668e-06
55	0xb6c246e7	-5.7899047e-06
56	0x36a61253	4.9493187e-06
57	0xb63d1751	-2.8176767e-06
58	0xb3633900	-5.2904397e-08
59	0x373a0867	1.108842e-05
60	0xb78ae2cd	-1.6556494e-05
61	0x36365360	2.7168644e-06
62	0xb5f6e39f	-1.8394675e-06
63	0xb5b568a0	-1.3516001e-06

model.1.weight f4 [64]
0	0x3f6ff918	0.9373946
1	0x3f875b29	1.0574695
2	0x3f7a0fa5	0.9768012
3	0x3f87ed91	1.0619375
4	0x3f80b184	1.0054173
5	0x3f85e6ce	1.0461061
6	0x3f683622	0.907076
7	0x3f771018	0.9650893
8	0x3f84c976	1.0373981
9	0x3f79d043	0.9758341
10	0x3f74b496	0.9558805
11	0x3f8328da	1.0246842
12	0x3f766c61	0.96259123
13	0x3f7df203	0.99197406
14	0x3f85ffb1	1.0468656
15	0x3f856a56	1.0423076
16	0x3f77079e	0.96496
17	0x3f80a43b	1.0050119
18	0x3f813164	1.0093198
19	0x3f6f6c3a	0.93524516
20	0x3f864ffd	1.049316
21	0x3f7a44ca	0.97761214
22	0x3f85bce1	1.0448266
23	0x3f7398be	0.9515494
24	0x3f7648fd	0.9620512
25	0x3f83ed65	1.0306822
26	0x3f74e28b	0.9565818
27	0x3f784937	0.96986717
28	0x3f7f9bc5	0.9984706
29	0x3f71b60d	0.9441841
30	0x3f7a476f	0.9776525
31	0x3f6cefdb	0.9255349
32	0x3f6d4e7c	0.9269788
33	0x3f864f8b	1.0493025
34	0x3f7af692	0.98032486
35	0x3f82ee8c	1.0229049
36	0x3f79f448	0.9763837
37	0x3f7794e2	0.9671155
38	0x3f80ced7	1.0063123
39	0x3f76cb45	0.96403915
40	0x3f7a04a6	0.9766334
41	0x3f6f1b92	0.93401444
42	0x3f75bc36	0.9599031
43	0x3f7d823f	0.99026865
44	0x3f870ddf	1.0551108
45	0x3f7e024a	0.9922224
46	0x3f7144e1	0.94245726
47	0x3f6b960e	0.9202584
48	0x3f795849	0.9740034
49	0x3f79a87c	0.9752271
50	0x3f71806e	0.94336593
51	0x3f673d30	0.9032774
52	0x3f7c0bdb	0.9845559
53	0x3f6e400d	0.93066484
54	0x3f833952	1.0251868
55	0x3f731d33	0.9496643
56	0x3f759219	0.9592605
57	0x3f69349b	0.91095895
58	0x3f7aafdb	0.97924584
59	0x3f774693	0.9659206
60	0x3f67fe04	0.9062197
61	0x3f6d4f7c	0.9269941
62	0x3f7ba469	0.98297745
63	0x3f7f103d	0.9963415

model.1.bias f4 [64]
0	0xbd677ff3	-0.056518506
1	0xbcefdb95	-0.02927951
2	0xbd5ab54c	-0.053395554
3	0xbd9c9149	-0.076448984
4	0xbd2aa56a	-0.041661657
5	0xbd04f500	-0.032460213
6	0xbcc48b31	-0.023992153
7	0xbcb1c94e	-0.021702435
8	0xbe2cf068	-0.16888583
9	0xbc4686cb	-0.012117098
10	0xbb731b46	-0.0037095114
11	0xbd32820d	-0.043581057
12	0xbb921d80	-0.004459083
13	0xbe75eab3	-0.24015312
14	0xbd201635	-0.03908368
15	0xbd8998a1	-0.06718565
16	0xbd6f7929	-0.058465157
17	0xbda706dd	-0.08155606
18	0xbe106df0	-0.14104438
19	0xbca1badc	-0.019742422
20	0xbe359303	-0.17731862
21	0xbce997ea	-0.028514821
22	0xbe2dcaf4	-0.16971952
23	0xbcf9d6f1	-0.030498
24	0x3c79ca30	0.015245959
25	0xbd281fd3	-0.041045975
26	0x3c4f7638	0.012662463
27	0xbcd10dc3	-0.025519257
28	0xbde255f3	-0.1105155
29	0xbd39dc06	-0.045375846
30	0xbda8bf83	-0.08239653
31	0xbd8a54d7	-0.06754463
32	0xbd1146b7	-0.03546783
33	0xbe13b4bc	-0.14424413
34	0x3c759e44	0.014991347
35	0xbe245f9c	-0.16052097
36	0xbdc3ca42	-0.09560062
37	0xbcc65470	-0.024210185
38	0xbb96d5f2	-0.004603141
39	0xbdf34821	-0.11878992
40	0xbdaec7cb	-0.08534201
41	0xbe0a6994	-0.13516837
42	0xbd9103e8	-0.07080823
43	0xbcd23010	-0.025657684
44	0xbdeabaef	-0.11461436
45	0x3d1bb9d5	0.03801902
46	0xbd89ea0c	-0.06734094
47	0xbd69b832	-0.057060428
48	0x3c0ee552	0.008721666
49	0xbde53902	-0.11192514
50	0xbdb577d8	-0.08860749
51	0xbd7f4aaf	-0.062327083
52	0xbe2fcaa5	-0.17167147
53	0xbc3cebbe	-0.011530815
54	0xbd474ee4	-0.04865922
55	0xbd2381c4	-0.039918676
56	0xbd5e00e3	-0.054200064
57	0xbd4762e1	-0.048678283
58	0xbd94a558	-0.07258099
59	0xbcc0cf80	-0.023536444
60	0xbd949cd4	-0.07256475
61	0xbdedc3eb	-0.11609634
62	0x3cfc3ccb	0.030790707
63	0xbe13975b	-0.14413206

model.1.running_mean f4 [64]
0	0xbd2144c8	-0.039372236
1	0x3d775af4	0.060389474
2	0x3ed5d6c5	0.4176542
3	0xbf000286	-0.5000385
4	0xbf3de270	-0.7417364
5	0x3e415b07	0.1888238
6	0x3eeb7615	0.45988527
7	0x3e3ee769	0.18642963
8	0xbf04a5af	-0.51815313
9	0xbe0ebcaf	-0.13939165
10	0x3dace51c	0.08442137
11	0x3c0cf87d	0.008604166
12	0x3f38d70c	0.72203135
13	0xbf4d0914	-0.8009198
14	0xbed5fe09	-0.41795376
15	0xbdc9e4fa	-0.09858127
16	0xbf814676	-1.0099628
17	0xbf57c87a	-0.8429028
18	0xbea59d12	-0.32346398
19	0x3ee75a90	0.4518628
20	0xbf126ca7	-0.5719704
21	0x3f0489ea	0.5177294
22	0xbf36d919	-0.71425015
23	0x3ef245a7	0.47318766
24	0x3dd77c74	0.105217844
25	0xbce08138	-0.027405366
26	0x3d9c5501	0.07633401
27	0xbdcde6c5	-0.100537814
28	0xbf884db5	-1.0648714
29	0x3f1f800d	0.62304765
30	0xbf54f0f6	-0.8318018
31	0xbf4da0c7	-0.8032345
32	0x3f4cac23	0.7995016
33	0xbf617d73	-0.88082045
34	0x3edabb1d	0.4272088
35	0xbef8b8c4	-0.48578465
36	0x3ea3cb44	0.31991017
37	0x3effe6c1	0.4998074
38	0xbdeb67c2	-0.114943996
39	0x3e8e0c89	0.2774394
40	0xbf47b92a	-0.7801691
41	0xbf761184	-0.96120477
42	0x3e877da9	0.2646306
43	0xbcbec798	-0.023288533
44	0xbde5448c	-0.11194715
45	0x3eb874d7	0.36026642
46	0x3ccbd0f7	0.024879916
47	0xbe83bec7	-0.2573149
48	0x3f9b2a4b	1.2122282
49	0xbf507fc5	-0.8144496
50	0xbdf3307c	-0.11874482
51	0x3f9a51d6	1.2056224
52	0xbf4be775	-0.7965005
53	0x3f5f4f90	0.8723078
54	0xbdcfdb8c	-0.10149297
55	0x3dfbca8b	0.122944914
56	0x3bfcab22	0.0077108303
57	0x3f23082b	0.6368434
58	0xbf646e94	-0.8923123
59	0xbdf936bd	-0.121686436
60	0xbef64538	-0.48099685
61	0xbf0160be	-0.5053824
62	0x3f541af6	0.8285364
63	0xbfb63d6e	-1.4237497

model.1.running_var f4 [64]
0	0x3e9ac55c	0.30228698
1	0x3e0df8b7	0.13864408
2	0x3f03328b	0.51249
3	0x3e52e527	0.20595227
4	0x3f974eee	1.1820962
5	0x3e9065b2	0.28202587
6	0x3edd86f9	0.43267038
7	0x3f34997d	0.70546705
8	0x3ed117bb	0.40838417
9	0x3eeaf7de	0.45892233
10	0x3e5f991b	0.21835749
11	0x3da0f273	0.078587435
12	0x3fa3bd54	1.2792153
13	0x3f4452e9	0.7668901
14	0x3e641fc5	0.22277744
15	0x3ec2552a	0.379556
16	0x3f23aab4	0.6393235
17	0x3fa39fdf	1.2783164
18	0x3e2497e7	0.16073571
19	0x3f73c6d8	0.95225286
20	0x3f0c48f9	0.5479885
21	0x3ecdb795	0.40179124
22	0x3f375e42	0.716282
23	0x3f3028ff	0.68812555
24	0x3e3d9424	0.18513542
25	0x3e532686	0.20620164
26	0x3d83fe3d	0.064449765
27	0x3eb6b439	0.35684374
28	0x3fdf51f4	1.7446885
29	0x3f185bec	0.5951526
30	0x3f278bb0	0.6544752
31	0x3f35f3b0	0.7107496
32	0x3fb1e27f	1.3897246
33	0x3f8be559	1.0929366
34	0x3e8ca5d1	0.27470258
35	0x3ecef057	0.4041774
36	0x3e66a274	0.22522908
37	0x3f2c09bf	0.6720237
38	0x3e80a44e	0.25125355
39	0x3eff510e	0.49866527
40	0x3f1fdef4	0.62449574
41	0x3f19895a	0.59975207
42	0x3e2e9476	0.17048821
43	0x3e836e30	0.25670004
44	0x3d84ddf7	0.06487649
45	0x3ec21715	0.37908235
46	0x3e9309b2	0.28718334
47	0x3e07e321	0.13270237
48	0x40256b85	2.5846875
49	0x3fa6ecc0	1.3041
50	0x3e9b699f	0.3035402
51	0x400b9387	2.1808794
52	0x3f29ce5f	0.6633052
53	0x3f8badfb	1.091247
54	0x3e8c93dc	0.27456558
55	0x3ecf2c48	0.4046347
56	0x3e10f524	0.14156014
57	0x3fd1a89f	1.6379584
58	0x3f2ef327	0.6833977
59	0x3ea40ac4	0.32039464
60	0x3f38c915	0.72181827
61	0x3e70dc41	0.2352152
62	0x3f817d1c	1.0116305
63	0x400a9d25	2.1658413

model.4.weight f4 [32, 64]
0	0xbd399e4d	-0.045316983
1	0xbd16e01a	-0.036834814
2	0x3d924f15	0.0714399
3	0xbd7b0ada	-0.061289646
4	0xbda9e2e0	-0.08295226
5	0x3d7b7978	0.06139514
6	0xbd9e260e	-0.07722102
7	0x3d937eed	0.072019435
8	0x3d5c316e	0.053758077
9	0xbdcf752a	-0.10129769
10	0xbc11c441	-0.008896888
11	0xbcec16f0	-0.028819531
12	0x3dd00996	0.10158078
13	0xbd64d481	-0.055866722
14	0xbdb34672	-0.08753671
15	0xbdcecc21	-0.10097528
16	0x3c9587a1	0.01825315
17	0xbd7838e3	-0.060601126
18	0xbde3ac1c	-0.11116812
19	0x3ce7b723	0.028285569
20	0xbd1ebe12	-0.038755484
21	0x3df3a59d	0.118968226
22	0xbddfcc31	-0.10927618
23	0x3addb9d3	0.0016916342
24	0x3b44af81	0.0030011835
25	0x3cc9cf52	0.02463499
26	0xbd9a482a	-0.075332955
27	0x3cf6961d	0.030100876
28	0xbc8bd103	-0.017067438
29	0x3cd8a3f1	0.02644536
30	0xbdb3f5e9	-0.08787138
31	0x3db06e86	0.08614831
32	0xbc963330	-0.018334955
33	0x3d1f25c6	0.038854383
34	0x3cfab1de	0.030602392
35	0x3d048a9e	0.03235876
36	0xbdc5076f	-0.096205585
37	0x3d8ee2ca	0.0697685
38	0x3d2fd642	0.04292894
39	0x3c966c21	0.018362107
40	0xbd58795e	-0.05285012
41	0xbdda5bc7	-0.106620364
42	0xbd087f21	-0.033324365
43	0xbd84e119	-0.064882465
44	0xbd309b53	-0.04311688
45	0x3e007622	0.12545064
46	0xbe15afa1	-0.14617778
47	0x3d1e282a	0.038612522
48	0x3e015edd	0.12633844
49	0x3c42a2ce	0.011879636
50	0x3d37a21c	0.044832334
51	0x3d04b989	0.032403503
52	0x3c04b6b5	0.008100201
53	0x3d65c73c	0.056098208
54	0xbdd76bc1	-0.10518599
55	0xbde104c4	-0.10987237
56	0x3bc4bdf1	0.006004088
57	0x3dca87d5	0.09889189
58	0x3d5cd6b2	0.053915687
59	0x3cccb034	0.024986364
60	0xbdaed658	-0.085369766
61	0xbd3443bc	-0.04400991
62	0x3e17295a	0.14761868
63	0xbd80620a	-0.062686995
64	0x3daaf6c9	0.08347852
65	0xbca9a176	-0.020706873
66	0xbbecf9e3	-0.0072319373
67	0x3d7a0f09	0.061049495
68	0xbdc4026c	-0.095707744
69	0x3cd0631a	0.02543788
70	0xbcd88828	-0.026432112
71	0x361d60e5	2.3451223e-06
72	0xbddd12c2	-0.107945934
73	0xbd549950	-0.051904023
74	0xbc5c1eeb	-0.013435106
75	0xbd595bc7	-0.05306604
76	0x3d68f280	0.05687189
77	0x3d2c6245	0.042085905
78	0xbd12ecc7	-0.03587034
79	0xbdd033f8	-0.10166162
80	0x3cb581ad	0.02215656
81	0xbdcfa546	-0.10138945
82	0xbd1d7af6	-0.038447343
83	0xbd64dee9	-0.055876646
84	0xbdccd0ae	-0.1000074
85	0x3e055958	0.13022363
86	0xbdf686e8	-0.1203745
87	0x3c7a5e7f	0.015281319
88	0x3d472866	0.04862251
89	0x3d1079de	0.03527247
90	0x39cb6cf8	0.00038800365
91	0xbd70ee98	-0.05882129
92	0x3db295bd	0.087199666
93	0xbcbcb4ca	-0.023035426
94	0xbd7723af	-0.060336765
95	0x3d8d3def	0.068965785
96	0x3dc40303	0.09570887
97	0xbdd8ba56	-0.10582416
98	0x3d768f8a	0.060195483
99	0x3d10e127	0.035370972
100	0x3cba48ef	0.022739856
101	0xbcf42649	-0.029803412
102	0xbbb5127a	-0.005525884
103	0xbd67be50	-0.05657798
104	0xbdac2fb9	-0.0840754
105	0xbbf0cc29	-0.0073485565
106	0x3c674ef0	0.014117941
107	0x3d9dfb47	0.07713943
108	0x388b0ea8	6.6307664e-05
109	0x3da996e9	0.08280737
110	0x3c8b8b9a	0.01703434
111	0x3c0fcda1	0.008777053
112	0x3d7cc4ff	0.061711308
113	0xbd97e23f	-0.074162
114	0x3d9481c9	0.07251317
115	0x3da3fe10	0.08007443
116	0xbde57b48	-0.11205155
117	0xbc82273b	-0.015887847
118	0xbccd369d	-0.025050456
119	0x3ddf1ed3	0.10894551
120	0xbdf8248b	-0.12116345
121	0x3d3e588a	0.046471156
122	0xbd1ba8e0	-0.03800285
123	0x3caa8aaa	0.020818073
124	0xbd65007b	-0.05590866
125	0x3b81350f	0.0039430927
126	0x3d31c4e0	0.043400645
127	0x3da15af5	0.07878677
128	0xbd0a404e	-0.033752732
129	0x3c33d729	0.010976591
130	0xbe09fd98	-0.13475645
131	0x3e1c3141	0.15253164
132	0x3e023c04	0.12718207
133	0xbcebf7ec	-0.028804742
134	0xbcc6590f	-0.024212388
135	0xbd886382	-0.066596046
136	0x3db87c43	0.09008076
137	0xbd7973da	-0.0609015
138	0xbdb4902e	-0.088165626
139	0xbe21371d	-0.1574368
140	0xbc51a7fd	-0.012796399
141	0x3d836ad3	0.064168595
142	0x3e01bf23	0.12670569
143	0x3d6022d4	0.054720715
144	0x3cc823d4	0.024431147
145	0x3e05d282	0.13068584
146	0xbc4e9e54	-0.012610991
147	0xbda9ae5d	-0.0828521
148	0x3e048d72	0.12944582
149	0x3bc989be	0.0061504534
150	0x3d74c677	0.059759583
151	0xbbfe4c3e	-0.0077605536
152	0xbd8da0eb	-0.06915458
153	0x3d294dc1	0.041333918
154	0xbd161a3c	-0.036646113
155	0x3cce12e2	0.025155488
156	0x3d95dd9e	0.07317661
157	0xbd78e8aa	-0.06076876
158	0xbd058225	-0.03259482
159	0x3dc00300	0.09375572
160	0xbd073b95	-0.033015806
161	0x3e03f86a	0.12887731
162	0xbc94cc92	-0.018163953
163	0x3d5fc83b	0.054634314
164	0x3dc5a829	0.09651215
165	0x3ddc4f78	0.10757345
166	0xbca2ba37	-0.019864185
167	0xbe0df50f	-0.13863014
168	0x3dcb11d2	0.09915508
169	0x3c8f1a13	0.017468488
170	0x3cce8101	0.025207998
171	0xbd98b4cd	-0.0745636
172	0x3c6252b5	0.013813664
173	0xbdabb63f	-0.0838437
174	0xbc73c0ab	-0.014877479
175	0x3c821b90	0.015882283
176	0xbd77a60a	-0.06046108
177	0x3d096065	0.033539195
178	0xbd988203	-0.07446673
179	0xbd3690c0	-0.044571638
180	0x3d70b457	0.058765735
181	0xbda174e8	-0.07883626
182	0xbe027abd	-0.12742133
183	0xbdb5868e	-0.08863555
184	0xbb1f7aa3	-0.0024334572
185	0x3dbe8101	0.09301949
186	0x3d5639a0	0.05230105
187	0xbdb9868f	-0.09058868
188	0x3df5db49	0.12004716
189	0x3d3fb07d	0.04679917
190	0x3d044e9b	0.032301527
191	0x3ca44dc3	0.02005661
192	0xbdcb4d11	-0.099268086
193	0xbe06d787	-0.13168155
194	0xbde28375	-0.1106023
195	0x3d56e894	0.052467898
196	0x3d9d49f9	0.07680125
197	0xbdac4afd	-0.084127404
198	0x3d11075f	0.03540742
199	0xbca8c87c	-0.02060341
200	0x3c92f431	0.017938705
201	0xbcf6cf7c	-0.030128233
202	0xbd2f3d8e	-0.042783312
203	0xbda26ded	-0.07931123
204	0x3d37d4d4	0.044880703
205	0x3e0baa0e	0.1363909
206	0x3dcb7ebd	0.09936283
207	0xbde88ba9	-0.11354763
208	0xbbda93d5	-0.006670455
209	0x3df155d1	0.11783946
210	0x3d8e3605	0.06943897
211	0xbd29d906	-0.041466735
212	0x3d23c356	0.03998121
213	0x3d9f4cd8	0.07778329
214	0x3d86d91a	0.065843776
215	0x3d870ec3	0.065946124
216	0xbd6b3b8d	-0.05742984
217	0x3d9ea7f1	0.07746876
218	0xbdca4657	-0.098766975
219	0x3c876435	0.016527275
220	0x3db03f1c	0.08605787
221	0xbd6b9a25	-0.05752005
222	0x3cd60427	0.026125027
223	0x3dbb15ec	0.09135041
224	0x3d919fbc	0.07110545
225	0x3da4ff46	0.08056502
226	0xbbc7b2bf	-0.0060943062
227	0x3d9f710a	0.07785232
228	0x3db44ee3	0.08804109
229	0x3d1398e0	0.036034465
230	0xbd918fca	-0.07107504
231	0xbda81d4e	-0.082087144
232	0x3e00dad8	0.12583482
233	0x3e15ff0b	0.14648072
234	0xbd06f44c	-0.032947823
235	0xbd6da33d	-0.058017004
236	0x3e1261fa	0.14295188
237	0xbc62858f	-0.013825788
238	0xbd3ba9b7	-0.04581615
239	0xbb27af91	-0.0025586823
240	0x3bb56a14	0.005536327
241	0xbb59d436	-0.003323806
242	0xbb01034e	-0.0019685808
243	0x3c7c2610	0.015389934
244	0x3d3364bb	0.043797236
245	0x3d8257b1	0.06364382
246	0xbd7af357	-0.061267223
247	0xbd04aab7	-0.03238937
248	0xbc22a075	-0.009925951
249	0xbd11b67e	-0.03557443
250	0x3c19c34f	0.009384944
251	0xbda28b12	-0.07936682
252	0xbd4ab051	-0.049484555
253	0x3cf92c37	0.030416591
254	0x3bb2f2d7	0.0054610777
255	0x3c651a14	0.013983268

model.4.bias f4 [32]
0	0x37ad2915	2.0642337e-05
1	0xb8052679	-3.17455e-05
2	0x3707ee42	8.102101e-06
3	0x378caa2e	1.6768547e-05
4	0xb540268c	-7.1581667e-07
5	0xb7435625	-1.1642963e-05
6	0xb48757c0	-2.5209556e-07
7	0x368a6562	4.124523e-06
8	0x370f92f5	8.55768e-06
9	0xb6bb0101	-5.573151e-06
10	0x37a88717	2.0090067e-05
11	0x36f52803	7.306227e-06
12	0xb7bc810d	-2.247144e-05
13	0x3790e8aa	1.727448e-05
14	0xb7a18d6a	-1.9258547e-05
15	0x36f32246	7.2459543e-06
16	0x3744ebea	1.1737438e-05
17	0xb794bfc2	-1.7732269e-05
18	0x3702a253	7.786398e-06
19	0x37322246	1.0617607e-05
20	0x384fdee5	4.9560233e-05
21	0xb65b6325	-3.2691253e-06
22	0xb6765c3e	-3.6710549e-06
23	0xb64cba72	-3.0506894e-06
24	0xb75cebe2	-1.3167943e-05
25	0xb4e08c8c	-4.1825513e-07
26	0xb7bc4739	-2.2444512e-05
27	0xb799ca6c	-1.8333281e-05
28	0x36c11fc1	5.755545e-06
29	0xb6f9e710	-7.4476775e-06
30	0x36be9702	5.680021e-06
31	0x35271f58	6.225796e-07

model.5.weight f4 [32]
0	0x3f87f48a	1.0621502
1	0x3f7a5168	0.97780466
2	0x3f8c886f	1.0979136
3	0x3f8c1213	1.0943016
4	0x3f748cb0	0.9552717
5	0x3f7297f4	0.9476311
6	0x3f6adc05	0.91741973
7	0x3f787681	0.9705582
8	0x3f722d6e	0.9460057
9	0x3f74ecd5	0.95673877
10	0x3f7ecad5	0.9952825
11	0x3f6c77ed	0.9237049
12	0x3f693478	0.91095686
13	0x3f73ca0b	0.9523017
14	0x3f83e4d3	1.0304207
15	0x3f83d0ed	1.0298134
16	0x3f85b572	1.0445998
17	0x3f628d44	0.88496804
18	0x3f6ea73a	0.9322392
19	0x3f84a739	1.0363532
20	0x3f78d1dd	0.97195226
21	0x3f762e96	0.96164834
22	0x3f770eec	0.96507144
23	0x3f719fe0	0.94384575
24	0x3f7fda44	0.9994242
25	0x3f6de8a9	0.92933136
26	0x3f821b8c	1.0164657
27	0x3f89a786	1.0754249
28	0x3f7a6221	0.9780598
29	0x3f79c5b9	0.97567326
30	0x3f88f004	1.0698247
31	0x3f737fda	0.9511696

model.5.bias f4 [32]
0	0x3d8bbf6d	0.06823621
1	0xbce2917d	-0.027657265
2	0xbc7fb7b2	-0.015607761
3	0xbe14ec50	-0.14543271
4	0x3d0c36b4	0.034231856
5	0xbc5d38bf	-0.013502299
6	0xbcdbd17b	-0.026833287
7	0x3d0ae541	0.03391004
8	0x3c8a842a	0.016908724
9	0xbd5b89f7	-0.05359837
10	0xbc6c30f0	-0.0144159645
11	0xbd16bfcc	-0.036804006
12	0xbd2db9ef	-0.04241365
13	0xbcc4d798	-0.024028584
14	0x3d713af3	0.05889411
15	0xbd84eac6	-0.06490092
16	0xbe31b916	-0.17355761
17	0xbd17a634	-0.037023738
18	0xbe4bffd3	-0.19921808
19	0xbe3e1386	-0.18562135
20	0xbe432e29	-0.19060577
21	0xbc9ed734	-0.019389726
22	0x3d7da46b	0.06192438
23	0xbcc008d9	-0.023441719
24	0x3d657028	0.056015164
25	0xbcb457ce	-0.022014525
26	0xbe524d8b	-0.20537393
27	0xbe3dffe2	-0.18554643
28	0x3d31dfa4	0.04342617
29	0xbc5ed575	-0.013600697
30	0xbe2fef88	-0.17181218
31	0x3a3ae512	0.0007129471

model.5.running_mean f4 [32]
0	0xbe3ff439	-0.18745507
1	0xbe309522	-0.1724439
2	0x3dd9cec4	0.106351405
3	0x3db9f29b	0.090794764
4	0xbeb87d1a	-0.36032945
5	0xbf141a18	-0.57852316
6	0xbe25dbec	-0.16197175
7	0xbf39e0fe	-0.72608936
8	0xbf1d70e2	-0.6150037
9	0x3eb2f6aa	0.34953815
10	0xbe271800	-0.16317749
11	0xbdfeebb3	-0.124473
12	0xbf1a90bb	-0.6037709
13	0xbe3fc152	-0.1872609
14	0x3d322aa6	0.043497704
15	0xbda87289	-0.08224971
16	0x3dbe1d51	0.092829354
17	0xbe9c0c40	-0.30478096
18	0xbd39954f	-0.045308407
19	0x3d8b4c6e	0.06801687
20	0x3e4fd8dd	0.2029757
21	0x3ce91b1e	0.028455313
22	0xbee6ae38	-0.45054793
23	0xbeaed609	-0.3414767
24	0xbf1e7d64	-0.6191008
25	0xbea6732d	-0.32509747
26	0x3de934aa	0.11386998
27	0x3def5c47	0.116875224
28	0xbeede144	-0.46460927
29	0xbeb7f94d	-0.3593239
30	0x3e530ea7	0.20611058
31	0xbe64e0e7	-0.22351418

model.5.running_var f4 [32]
0	0x3f3b6431	0.73199755
1	0x3f3049ee	0.6886281
2	0x3f99aa6a	1.2005131
3	0x3f29ed67	0.6637787
4	0x3f20b92d	0.62782556
5	0x3f6d7fb1	0.92772967
6	0x3e8fbfd7	0.2807605
7	0x3f25b39f	0.64727205
8	0x3faa4e27	1.33051
9	0x3e8cfd61	0.27537063
10	0x3f2870dd	0.65797216
11	0x3e8c74d6	0.2743289
12	0x3f02832b	0.50981396
13	0x3ebbb9ab	0.3666509
14	0x3ee81fcd	0.45336762
15	0x3f0ca0f0	0.5493307
16	0x3f3732f6	0.71562135
17	0x3e7b3d15	0.2453502
18	0x3f0285b9	0.50985295
19	0x3f60c01a	0.87793124
20	0x3eed50c6	0.46350688
21	0x3e71d206	0.23615274
22	0x3f3279d4	0.69717145
23	0x3ec0a672	0.37626988
24	0x3f49beb8	0.7880664
25	0x3f128f37	0.5724978
26	0x3f83d9d2	1.0300848
27	0x3f4a5653	0.7903797
28	0x3f25d461	0.6477719
29	0x3f01ad8d	0.5065544
30	0x3f72183a	0.94568217
31	0x3f2872a0	0.65799904

model.8.weight f4 [16, 32]
0	0xbe21fd49	-0.15819277
1	0xbcdbcb23	-0.026830262
2	0x3c94b99f	0.018154917
3	0xbce8bbe8	-0.028409913
4	0x3c8a2cc6	0.016867053
5	0xbda426e3	-0.080152296
6	0x3e3f705a	0.18695202
7	0xbea35fc4	-0.31909
8	0xbe60ab22	-0.21940282
9	0xbc8ea201	-0.017411234
10	0xbd04bd52	-0.032407112
11	0x3d67cb15	0.05659016
12	0xbd627279	-0.05528495
13	0xbe46d1fb	-0.19416039
14	0xbc4607d0	-0.012086824
15	0xbcbb1a80	-0.022839785
16	0x3c9a0665	0.018801877
17	0x3e206cb7	0.15666471
18	0x3c2b2000	0.010444641
19	0xbdaf7938	-0.085680425
20	0xbc489f25	-0.012244974
21	0x3d661b73	0.05617852
22	0x3dbe11d1	0.09280742
23	0x3bc90121	0.006134168
24	0xbe959e37	-0.2922227
25	0xbda644b1	-0.081185706
26	0xbd57e9b1	-0.0527131
27	0xbd05d286	-0.032671474
28	0xbe3dceed	-0.18535967
29	0x3dc28f89	0.095000334
30	0x3cde3cbf	0.027128575
31	0xbe896d52	-0.26841217
32	0x3d97afe7	0.074065976
33	0x3dec5903	0.11540415
34	0xbe935c4d	-0.28781357
35	0xbc017d65	-0.007903432
36	0x3d98906b	0.074494205
37	0x3dc19fdc	0.09454319
38	0xbe323e47	-0.1740657
39	0x3caab830	0.02083978
40	0x3dd31545	0.10306791
41	0xbe2027b2	-0.15640143
42	0x3d2c4415	0.042057116
43	0xbe3bdefa	-0.18346778
44	0x3dbc49b1	0.09193743
45	0xbd0302cf	-0.0319851
46	0xbd335a99	-0.043787573
47	0xbe2fcb6a	-0.1716744
48	0x3cc10225	0.023560593
49	0x3d987dfa	0.07445903
50	0xbda2e097	-0.07952993
51	0xbdfce73a	-0.123487905
52	0xbcdaa1e2	-0.02668852
53	0xbbf965a1	-0.007610992
54	0x3dfb7166	0.122774884
55	0xbe21a69b	-0.15786211
56	0x3dd7ce0c	0.10537347
57	0x3e05d4aa	0.13069406
58	0xbe107886	-0.14108476
59	0xbe58071f	-0.21096466
60	0x3d777321	0.06041253
61	0xbd097db2	-0.033567138
62	0xbdd7f32a	-0.10544427
63	0x3e0a5ab8	0.13511169
64	0x3d49b106	0.04924109
65	0xbe3e02ef	-0.18555807
66	0x3d5c1a1c	0.053735837
67	0xbd1c3b40	-0.038142443
68	0xbd2c951a	-0.04213438
69	0xbe451a33	-0.19248275
70	0x3e1c167e	0.15242955
71	0xbe470cc8	-0.1943847
72	0x3e671999	0.22568358
73	0xbdeebc22	-0.11656977
74	0x3dcf3d26	0.10119085
75	0xbc0cf167	-0.008602477
76	0x3d4cc68d	0.04999404
77	0xbd00a3ac	-0.03140609
78	0x3e417be3	0.18894915
79	0x3d238821	0.039924745
80	0x3aee4810	0.0018179435
81	0xbdd61789	-0.10453708
82	0xbd55ec9b	-0.052227598
83	0xbdcb70fd	-0.0993366
84	0xbdd19f2f	-0.1023544
85	0xbd99f59b	-0.07517549
86	0xbe2cf391	-0.16889788
87	0x3d3cb2e2	0.046069033
88	0xbe88e617	-0.26738045
89	0xbdab1af6	-0.08354752
90	0x3d67ddd8	0.05660805
91	0xbd31df06	-0.043425582
92	0xbe447d05	-0.19188316
93	0x3d8f9cf1	0.07012356
94	0xbc609433	-0.013707208
95	0xbdda8d67	-0.106715016
96	0x3d7956dc	0.06087385
97	0x3da961d9	0.08270616
98	0xbe4de0ad	-0.20105238
99	0xbe2b48e4	-0.16727024
100	0x3c88f7bd	0.016719693
101	0x3ddf45ca	0.10901983
102	0x3cca0f03	0.024665361
103	0x3cc03c4a	0.023466248
104	0xbc54c16d	-0.012985569
105	0x3d1f0820	0.038826108
106	0xbe24624c	-0.16053122
107	0x3e02be14	0.12767822
108	0xbc4c2a1b	-0.012461211
109	0x3ccde6bf	0.025134442
110	0x3c80b9ae	0.015713539
111	0xbe0ae53f	-0.13564013
112	0xbd7b7aa2	-0.06139625
113	0xbd391c1c	-0.045192823
114	0x3da51dd5	0.08062331
115	0xbdb09666	-0.08622436
116	0xbe5520f1	-0.20813347
117	0xbced0acd	-0.028935814
118	0x3d92db7c	0.071707696
119	0x3d1ee315	0.03879078
120	0x3d59755f	0.05309045
121	0xbcf92935	-0.030415157
122	0xbe893d52	-0.26804596
123	0xbde9d6df	-0.114179365
124	0x3cea704f	0.028618006
125	0xbdb465ef	-0.08808505
126	0xbda41328	-0.08011466
127	0x3d7294d1	0.059223954
128	0xbead5c77	-0.33859608
129	0xbe206aa0	-0.15665674
130	0x3d82800f	0.063720815
131	0x3b87bd41	0.004142434
132	0xbe657e6c	-0.22411507
133	0xbd856245	-0.06512884
134	0xbe20b78a	-0.15695015
135	0x3c3ef464	0.011654947
136	0xbe44b48c	-0.19209498
137	0x3dc4a87e	0.0960245
138	0x3d41ea5a	0.047342636
139	0x3db328ed	0.0874804
140	0x3e0173fa	0.12641898
141	0x3e53cd98	0.20683897
142	0xbe00a095	-0.12561257
143	0xbde5cdc2	-0.11220886
144	0xbd31fedd	-0.043455947
145	0xbe24fd5b	-0.16112272
146	0xbdeeffaa	-0.11669858
147	0xbdb46f99	-0.08810348
148	0x3d40f5c5	0.047109384
149	0xbdf450bc	-0.11929461
150	0xbd8e559d	-0.06949923
151	0x3dedfa10	0.11619961
152	0xbe0341ce	-0.12818071
153	0xbdeafcce	-0.11474
154	0xbde0c7e5	-0.10975627
155	0xbdb56129	-0.088564225
156	0xbe66f6f9	-0.2255515
157	0x3d80fa67	0.062977605
158	0xbdad6a81	-0.0846758
159	0xbd0cdfdb	-0.034393173
160	0x3ddbfe58	0.107418716
161	0x3c947ef7	0.018126948
162	0xbc2d36ba	-0.01057213
163	0xbe7321ee	-0.23743412
164	0xbce5d2ec	-0.028054677
165	0xbda98767	-0.08277779
166	0xbda03401	-0.07822419
167	0x3c0478de	0.008085458
168	0xbcdac76e	-0.026706424
169	0xbe087b6e	-0.13328335
170	0x3da54440	0.08069658
171	0xbd9ec5e1	-0.07752586
172	0x3d7c9903	0.06166936
173	0x3e147708	0.14498532
174	0x3d201468	0.03908196
175	0xbd1e2639	-0.03861067
176	0xbda7010f	-0.08154499
177	0xbd08dbc2	-0.033412702
178	0xbe5ce419	-0.21571387
179	0xbe32997d	-0.17441364
180	0xbe610db8	-0.2197789
181	0xbe1ff6bd	-0.15621467
182	0x3d4ec173	0.050477456
183	0xbd4a5b59	-0.049403522
184	0x3c195df9	0.009360784
185	0x3db2d069	0.08731157
186	0xbc80d736	-0.01572762
187	0xbea2fe00	-0.31834412
188	0xbc934b30	-0.017980188
189	0x3d3beba0	0.045879006
190	0xbdfbdae1	-0.12297607
191	0xbb68c031	-0.0035514946
192	0xbdc6fa59	-0.09715719
193	0xbd4c462c	-0.04987161
194	0xbced20d5	-0.02894632
195	0x3d43af3f	0.04777455
196	0x3e218857	0.15774666
197	0xbe10ea00	-0.14151764
198	0x3c9c2eff	0.019065378
199	0xbbadbcec	-0.0053020623
200	0x3e121fb8	0.14269912
201	0xbe261569	-0.16219105
202	0xbe48f869	-0.19626011
203	0x3dfba2a1	0.122868784
204	0xbc7270aa	-0.014797369
205	0xbcf20bb3	-0.029546594
206	0x3dafd4b8	0.08585495
207	0xbd341bcf	-0.043971833
208	0xbcbee83c	-0.023304097
209	0x3e0f2268	0.13977969
210	0x3d305a05	0.0430546
211	0xbce3b1ac	-0.027794681
212	0xbcee4315	-0.029084722
213	0xbe8b6473	-0.27225074
214	0xbd154120	-0.03643906
215	0xbd2d8d28	-0.042370945
216	0x3e024924	0.12723213
217	0x3db7438e	0.08948432
218	0xbe633f34	-0.22192079
219	0xbca24be1	-0.019811573
220	0x3d5c645a	0.05380664
221	0xbe86ee9a	-0.26353914
222	0xbe4eba54	-0.20188266
223	0xbd98de68	-0.074642956
224	0x3d19f6f0	0.037589014
225	0x3d3def8a	0.04637102
226	0x3af15149	0.0018411066
227	0xbe4144e2	-0.18873933
228	0x3d3a3e3b	0.045469504
229	0x3e3bcc3c	0.18339628
230	0xbdccca71	-0.0999955
231	0xbde4baad	-0.11168418
232	0xbdd48b24	-0.103781015
233	0x3de710ee	0.11282526
234	0xbd1e0f22	-0.03858865
235	0xbdaf6948	-0.08565003
236	0x3d2be56a	0.041966833
237	0xbdf2f544	-0.11863187
238	0xbd677332	-0.056506343
239	0xbcdb7110	-0.02678731
240	0xbe868447	-0.26272795
241	0xbe15dc94	-0.14634925
242	0xbe2a6d14	-0.16643173
243	0xbd90850f	-0.07056629
244	0xbe06fec2	-0.1318312
245	0x3dc33879	0.09532256
246	0x3d4ba277	0.049715485
247	0xbe266691	-0.16250063
248	0xbba9f4db	-0.0051866597
249	0x3dbdbe6c	0.09264836
250	0xbe8120dc	-0.25220382
251	0xbd6061f7	-0.054780927
252	0x3e0436bc	0.12911505
253	0x3d33fcd9	0.043942306
254	0xbd0ae2d0	-0.03390771
255	0xbd2c6643	-0.042089712

model.8.bias f4 [16]
0	0x3715306e	8.892368e-06
1	0xb6daca51	-6.520459e-06
2	0xb786e83d	-1.608219e-05
3	0xb6c77113	-5.9438257e-06
4	0xb70ddc87	-8.4556e-06
5	0xb687b01e	-4.0438163e-06
6	0xb76905ab	-1.3889202e-05
7	0x376dde70	1.4178091e-05
8	0x371bd97e	9.289359e-06
9	0xb7b778af	-2.1871498e-05
10	0xb7e40c87	-2.7185552e-05
11	0xb7969f8e	-1.7955692e-05
12	0x373db57f	1.1307536e-05
13	0x384ec50b	4.9297738e-05
14	0x346d97a0	2.2127506e-07
15	0x3677bfe3	3.691756e-06

model.9.weight f4 [16]
0	0x3f9b0a73	1.2112564
1	0x3fba4ac3	1.4554065
2	0x3f98d8d6	1.1941173
3	0x3fb8e83d	1.4445873
4	0x3f9e3d06	1.2362373
5	0x3fb75e82	1.4325716
6	0x3f9ba6ed	1.2160317
7	0x3faadb64	1.3348203
8	0x3fc3a363	1.5284237
9	0x3f953cf3	1.1659225
10	0x3f9bbdc1	1.2167283
11	0x3f9976e2	1.1989405
12	0x3fb518d5	1.4148203
13	0x3fb44250	1.4082737
14	0x3f9531f6	1.1655872
15	0x3fb681cf	1.4258364

model.9.bias f4 [16]
0	0x3ed6c846	0.41949672
1	0x3f1f16f9	0.6214443
2	0x3f0e8b84	0.55681634
3	0x3f20cb81	0.6281052
4	0x3f28129b	0.6565339
5	0x3f2aa256	0.66653955
6	0x3f18a18e	0.5962151
7	0x3f3b2ec6	0.73118246
8	0x3f342f57	0.70384735
9	0x3f13dac1	0.57755667
10	0x3f02072d	0.507922
11	0x3ed40fef	0.41418406
12	0x3f16072e	0.58604705
13	0x3f238ed6	0.63889825
14	0x3eea2178	0.4572866
15	0x3f3eeec0	0.74583054

model.9.running_mean f4 [16]
0	0xbf2a28a2	-0.6646825
1	0xbe984b8e	-0.29745144
2	0xbefdeda3	-0.49595365
3	0xbefef67e	-0.49797434
4	0xbf3d314b	-0.7390334
5	0xbf033a07	-0.5126042
6	0xbeb8c75e	-0.36089605
7	0xbefd2e63	-0.49449453
8	0xbe519b16	-0.20469317
9	0x3d9d3bac	0.07677397
10	0xbefaaaee	-0.48958534
11	0xbf483c22	-0.78216755
12	0xbf1aa463	-0.60407084
13	0xbf4c541f	-0.7981586
14	0xbf1466e0	-0.57969475
15	0xbf2c4f90	-0.673089

model.9.running_var f4 [16]
0	0x3f365ab4	0.7123215
1	0x4029ddcd	2.6541626
2	0x3e9e9f63	0.30980977
3	0x3fe1b1c8	1.763238
4	0x3f0c8b0d	0.54899675
5	0x3fc5cef4	1.5453782
6	0x3f7c37dc	0.98522735
7	0x3f5c170c	0.85972667
8	0x40011e65	2.0174801
9	0x3df0e566	0.11762504
10	0x3eecc263	0.46242055
11	0x3f8f3efb	1.1191095
12	0x40219627	2.5247896
13	0x401302dd	2.2970498
14	0x3ec56e6e	0.38560814
15	0x400dbddd	2.2147133

model.12.weight f4 [1, 16]
0	0x3edec413	0.43508968
1	0x3f0f340e	0.55938804
2	0x3edd69ac	0.43244684
3	0x3f22c991	0.63588816
4	0x3ee46125	0.44605365
5	0x3f248c8f	0.64276975
6	0x3ef6d52c	0.48209512
7	0x3f0897f9	0.5335689
8	0x3f0e8579	0.55672413
9	0x3edfbdad	0.436994
10	0x3ee8c166	0.4546005
11	0x3eda7a86	0.42671603
12	0x3f2d2410	0.6763315
13	0x3f257956	0.6463827
14	0x3ed6c2ea	0.41945583
15	0x3f10c7a5	0.56554633
